runs/TripletNet_0916a/checkpoint.pth.tar (torch_old, 119128 bytes, 8 tensors)

embedding_net.conv1.weight f4 [100, 12, 3]
0	0x3dae6519	0.085153766
1	0xbd9843b1	-0.07434786
2	0xbd07c9de	-0.0331515
3	0x3d9e2d42	0.07723476
4	0xbe21b86b	-0.15793006
5	0x3dca4e97	0.09878271
6	0xbd107f01	-0.03527737
7	0x3dab83f8	0.083747804
8	0x3cb40a8e	0.02197769
9	0xbcb53537	-0.022120101
10	0x3d363673	0.04448552
11	0x3bceef2e	0.0063151335
12	0x3d75eea8	0.060042053
13	0xbd86bd63	-0.065790914
14	0xbc559d8a	-0.0130380485
15	0xbc8b2542	-0.01698554
16	0x3cb4da6f	0.022076814
17	0xbb35b6a4	-0.002772727
18	0x3e13e7a1	0.14443828
19	0x3d4f3cba	0.050595023
20	0xbd81be5a	-0.06335135
21	0xbdd1057a	-0.10206123
22	0xbcf13276	-0.029443007
23	0xbd96c75d	-0.07362244
24	0xbd5fcc6c	-0.05463831
25	0x3bd91fba	0.0066260966
26	0x3dc8432d	0.09778438
27	0x3db6cb21	0.089254625
28	0xbe28411b	-0.16431086
29	0x3dd08e12	0.10183348
30	0x3d24af3e	0.040206186
31	0x3e1b583a	0.15170375
32	0x3dd48c6d	0.103783466
33	0xbe1cf4ca	-0.15327755
34	0xbe23ba4d	-0.15989037
35	0xbda78123	-0.08178928
36	0x3e123d6d	0.14281245
37	0xbd0050ae	-0.031326942
38	0x3d8b3181	0.067965515
39	0xbda1584f	-0.07878172
40	0x3e260b67	0.16215287
41	0xbd930ec5	-0.071805514
42	0x3dfdc5e4	0.1239126
43	0x3a86ae1b	0.0010275276
44	0xbdb57359	-0.088598914
45	0x3dac19b7	0.08403342
46	0xbdb7dbdb	-0.08977481
47	0x3d4430bd	0.047898043
48	0xbd46800a	-0.04846195
49	0xbc97f003	-0.018547064
50	0xbe245044	-0.16046244
51	0xbda49b5f	-0.08037447
52	0x3db71752	0.08939995
53	0xbd29e554	-0.04147847
54	0x3e2910f1	0.16510369
55	0x3e07cf84	0.13262755
56	0xbc0d5a25	-0.008627449
57	0xbde637f2	-0.112411395
58	0x3dcd02f7	0.10010331
59	0x3d4e0b98	0.050304025
60	0xbdded727	-0.10880881
61	0x3ddb51f2	0.10708989
62	0x3dccfc1d	0.10009024
63	0x3e16b527	0.14717542
64	0xbdc065e2	-0.093944326
65	0xbce3e071	-0.027816983
66	0xbb85601b	-0.0040702946
67	0x3cc1feb2	0.023681019
68	0xbe021179	-0.12701978
69	0xbdf3bf5e	-0.11901735
70	0x3db857c3	0.09001114
71	0xbd225811	-0.039634768
72	0x3da586ca	0.080823496
73	0x3c0ec2f4	0.008713473
74	0x3d5c48dc	0.05378042
75	0x3d0f7292	0.035021372
76	0x3d70b02f	0.05876177
77	0x3da53c94	0.08068195
78	0xbe1e7ba7	-0.15476857
79	0x3daadfde	0.083434805
80	0xbdf0f518	-0.11765498
81	0xbe00f5a4	-0.12593704
82	0x3c22af6e	0.009929521
83	0xbcea96d9	-0.028636383
84	0x3dc83198	0.09775084
85	0xbdc5ecd2	-0.096643105
86	0xbe17d654	-0.14827853
87	0x3df6278b	0.12019261
88	0xbcd31825	-0.025768349
89	0x3dbdff4d	0.092772104
90	0x3d5a0118	0.0532237
91	0xbe004c20	-0.1252904
92	0x3d07fdc1	0.033200983
93	0x3d2327bc	0.039832816
94	0xbde4dee1	-0.11175323
95	0xbda2435e	-0.079230055
96	0x3d66d0f0	0.056351602
97	0x3cf0b53f	0.0293833
98	0xbd9231fc	-0.0713844
99	0xbd506b3d	-0.05088352
100	0x3e1be4d9	0.15224017
101	0xbcffbb5f	-0.031217275
102	0x3dc02a53	0.09383073
103	0x3d93b6cc	0.072126
104	0xbddc9f71	-0.107725985
105	0xbe1162a2	-0.14197782
106	0x3e239243	0.15973763
107	0x3c0a2c03	0.008433345
108	0x3de9f659	0.1142394
109	0x3d0ddfda	0.03463731
110	0x3d5c16ea	0.05373279
111	0x3dff2346	0.124579
112	0x3e21da13	0.15805845
113	0xbde2b120	-0.1106894
114	0x3ca7463d	0.020419234
115	0x3dfde1d4	0.12396589
116	0x3df64632	0.120251074
117	0x3dd41447	0.1035543
118	0xbdf70d25	-0.12063054
119	0xbdf5ffc3	-0.12011673
120	0xbdd0987f	-0.10185336
121	0x3ca30732	0.019900892
122	0x3e28fda6	0.16503009
123	0xbdd5ed88	-0.10445696
124	0x3db79c37	0.089653425
125	0xbdbb2654	-0.0913817
126	0xbe20407e	-0.15649602
127	0xbd10366d	-0.035208154
128	0x3dc54aca	0.096334055
129	0x3e1e6e6b	0.15471809
130	0xbdd3a80e	-0.10334788
131	0x3d157fb7	0.03649875
132	0x3e12e24a	0.14344135
133	0x3de1b39b	0.11020585
134	0x3dd45e06	0.10369496
135	0x3df1bfe7	0.118041806
136	0x3dd76b32	0.10518493
137	0x3d2faf1b	0.042891603
138	0xbde82425	-0.11335019
139	0xbe0eaa2e	-0.13932106
140	0xbd9b149e	-0.07572292
141	0xbc9d3873	-0.019191956
142	0xbdd0b00c	-0.10189828
143	0x3d7acaa5	0.061228413
144	0x3d55daa3	0.05221046
145	0xbd17d7f1	-0.037071172
146	0x3d8452cf	0.06461107
147	0x3d630003	0.055419933
148	0x3dd3aa8a	0.10335262
149	0x3de90557	0.113779716
150	0xbd607da5	-0.054807324
151	0x3e2883c8	0.1645652
152	0xbc8f8033	-0.017517185
153	0xbba4b0a4	-0.00502594
154	0xbe204fb3	-0.15655403
155	0xbdd9f987	-0.10643297
156	0xbdc6a55d	-0.09699509
157	0xbd9149a9	-0.07094128
158	0x3df37334	0.118872076
159	0xbd5bbfbd	-0.053649653
160	0xbdfd9430	-0.1238178
161	0x3d84c3bc	0.06482646
162	0x3d5c66ff	0.053809162
163	0x3dde061a	0.108410075
164	0xbdafa1d2	-0.08575787
165	0x3d156452	0.036472626
166	0xbd76d1d7	-0.060258713
167	0xbd174358	-0.03692946
168	0xbe07302f	-0.13201974
169	0xbd9a08a4	-0.07521179
170	0xbd4e5585	-0.050374527
171	0x3d91bcba	0.07116075
172	0x3cf95126	0.030434202
173	0x3d292666	0.041296385
174	0x3e28e4bf	0.1649351
175	0x3e24fb89	0.16111578
176	0x3de686bd	0.11256168
177	0x3bada3fd	0.00529909
178	0xbdec0af5	-0.115255274
179	0x3e057597	0.13033138
180	0xbd2cc9ae	-0.042184524
181	0xbc64465f	-0.013932793
182	0xbe138544	-0.14406306
183	0xbd07f5ca	-0.033193387
184	0xbddc9be2	-0.1077192
185	0x3e1c9db4	0.15294534
186	0xbe13ebb2	-0.1444538
187	0xbe055cf3	-0.13023739
188	0xbbc2d970	-0.0059463307
189	0xbdb94ea9	-0.09048206
190	0x3d72dd2b	0.059292953
191	0xbd841443	-0.06449177
192	0xbda15e34	-0.07879296
193	0x3c11d8e5	0.008901809
194	0x3df5f3c8	0.12009388
195	0xbdf0df59	-0.1176135
196	0x3d9fad91	0.07796777
197	0x3ddae7bb	0.1068873
198	0x3e26435a	0.1623663
199	0xbdf0139f	-0.117224924
200	0x3d2350d3	0.039872
201	0xbdfd242f	-0.12360417
202	0x3e116099	0.14197005
203	0xbd851699	-0.06498451
204	0x3dcd0e76	0.10012524
205	0x3b9a6984	0.0047122855
206	0xbc596cd8	-0.013270579
207	0xbbbbcaed	-0.0057309777
208	0x3ce4c3c2	0.027925376
209	0x3da00140	0.078127384
210	0x3cd669bb	0.026173463
211	0x3d4e4d6e	0.05036681
212	0xbe1a04b1	-0.15040852
213	0x3df446a3	0.119275354
214	0x3e1294fc	0.14314646
215	0x3e0ada90	0.13559937
216	0x3dfbf4f6	0.12302582
217	0xbdf6aa2a	-0.12044175
218	0xbd7dcae0	-0.061961055
219	0x3e161d56	0.14659628
220	0xbe026860	-0.12735128
221	0x3e1a50c4	0.15069872
222	0xbe065923	-0.1311994
223	0xbdf0bfbb	-0.1175532
224	0x3da65306	0.08121304
225	0xbdf6561b	-0.12028142
226	0xbd1ec734	-0.038764194
227	0x3df6f916	0.12059228
228	0x3e065175	0.13117011
229	0x3e207364	0.15669018
230	0xbd0e1b30	-0.034693897
231	0xbe055c99	-0.13023604
232	0x3e271c8c	0.16319484
233	0xbd1570c8	-0.03648451
234	0xbd8cc0c8	-0.068727076
235	0x3d259ab5	0.040430743
236	0xbdef1937	-0.11674731
237	0x3de005bf	0.10938596
238	0x3dd5ba94	0.104359776
239	0xbe077b13	-0.13230543
240	0xbe0c5660	-0.13704824
241	0xbc71213f	-0.014717399
242	0x3d8f28ee	0.069902286
243	0xbb9fdbe6	-0.004878509
244	0xbdad28c4	-0.08455041
245	0x3b779736	0.0037779338
246	0xbe20b5be	-0.15694329
247	0xbdf1ce03	-0.11806872
248	0xbde3d5b8	-0.11124748
249	0x3e0b32de	0.13593623
250	0x3e152737	0.1456574
251	0xbd6cf240	-0.057848215
252	0x3be78d31	0.007066392
253	0x3d971e9e	0.07378887
254	0x3c9ed76b	0.019389829
255	0xbdad3791	-0.08457864

embedding_net.conv1.bias f4 [100]
0	0xbd7bfb7b	-0.061519127
1	0xbe201e44	-0.15636545
2	0xbdd2e824	-0.102981836
3	0xbe29f102	-0.16595843
4	0xbcf23676	-0.029566985
5	0xbe09eed3	-0.1347001
6	0xbd9d608a	-0.07684429
7	0x3dfdae97	0.12386816
8	0xbe200b96	-0.1562942
9	0x3dc42830	0.09577978
10	0xbc111353	-0.008854705
11	0xbdb728a1	-0.08943296
12	0x3e37433f	0.17896746
13	0x3e0a3124	0.13495308
14	0xbdbf2ee2	-0.09335114
15	0x3b90c666	0.004418182
16	0xbd78ca04	-0.060739532
17	0xbe1b3f40	-0.15160847
18	0x3da91845	0.08256582
19	0x3db8a031	0.09014929
20	0x3e0e198e	0.13876936
21	0xbdce519a	-0.10074158
22	0xbd446d4c	-0.047955796
23	0x3daee728	0.08540183
24	0xbdc37eea	-0.09545691
25	0x3e1568cd	0.1459076
26	0x3bed782a	0.0072469907
27	0x3d01fc59	0.031734798
28	0x3d7afc7e	0.06127595
29	0x3dca3dff	0.09875106
30	0x3d328051	0.043579403
31	0xbdc6ff16	-0.097166225
32	0x3e217843	0.15768532
33	0xbda101ff	-0.07861709
34	0x3c9d2b06	0.019185554
35	0xbe1d422f	-0.15357278
36	0xbd95c3c8	-0.07312733
37	0x3dde9292	0.108678
38	0x3c4903da	0.012268985
39	0x3c4e39b9	0.012587004
40	0xbd911e24	-0.07085827
41	0xbe0b8c7c	-0.1362781
42	0x3dfecaef	0.1244105
43	0xbdf0d05e	-0.11758493
44	0x3e0095b8	0.12557113
45	0xbde16bba	-0.11006875
46	0x3e0b953b	0.13631146
47	0x3c6730ab	0.014110724
48	0xbddc79b2	-0.10765399
49	0x3e2978b1	0.16549946
50	0x3e0a30d3	0.13495187
51	0xbdb98f29	-0.09060509
52	0xbdbfc48f	-0.093636625
53	0xbd450b09	-0.048106227
54	0xbbb9602c	-0.0056572165
55	0x3de49811	0.11161817
56	0xbdd15176	-0.102206156
57	0x3da3c961	0.07997394
58	0x3e0f553d	0.1399736
59	0x3d685cf2	0.056729265
60	0xbd805fa1	-0.0626824
61	0x3e253059	0.16131724
62	0xbd816c86	-0.06319527
63	0x3cc5d12e	0.024147596
64	0xbde877cd	-0.11350975
65	0x3d73478b	0.0593944
66	0xbe27632f	-0.1634643
67	0x3d60db8c	0.054896876
68	0xbdfacd45	-0.12246183
69	0xbe21a068	-0.15783846
70	0xbd82db44	-0.06389478
71	0x3dee4646	0.11634497
72	0x3dc7088e	0.097184286
73	0xbe0c25f7	-0.13686357
74	0x3dc821cc	0.09772071
75	0xbd3535f4	-0.044240907
76	0xbdaa32f6	-0.08310501
77	0xbe22d696	-0.1590217
78	0xbda88930	-0.082292914
79	0x3e19f935	0.15036471
80	0xbdd38e69	-0.10329897
81	0x3def9c4f	0.116997354
82	0xbd6e472c	-0.058173344
83	0xbe1e3589	-0.1545011
84	0xbdcf642d	-0.10126529
85	0x3d857b3f	0.06517648
86	0x3d8da9ef	0.06917178
87	0x3d1b4d75	0.037915666
88	0x3d2c8e9f	0.0421282
89	0xbd6502f5	-0.055911023
90	0xbc0420dd	-0.008064476
91	0x3ce01795	0.027354995
92	0xbcb39eed	-0.021926368
93	0x3e133b83	0.1437817
94	0x3e09da70	0.13462234
95	0x3e230b88	0.15922368
96	0x3e17dd78	0.14830577
97	0xbe278f42	-0.16363242
98	0xbd54ebf5	-0.05198284
99	0x3dd72810	0.10505688

embedding_net.conv2.weight f4 [50, 100, 3]
0	0x3d0eff50	0.034911454
1	0x3b38ce7a	0.0028199241
2	0x3c818f61	0.015815439
3	0x3bfa1d19	0.0076328632
4	0x3c0e0751	0.008668737
5	0xbca5f976	-0.020260554
6	0xbbb86f0f	-0.0056284736
7	0x3cee6b49	0.029103892
8	0x3d5d6d7b	0.054059487
9	0xbc5a9ba4	-0.013342772
10	0x3d1c791d	0.03820144
11	0x3d62137c	0.055194363
12	0x3c019181	0.007908226
13	0x3d2a433e	0.041568033
14	0x3cd0c1a6	0.025482964
15	0xbd4ea9f1	-0.050455038
16	0xbd103441	-0.035206083
17	0x3cb8f77c	0.022578947
18	0xbcb99c06	-0.022657406
19	0xbc909302	-0.017648224
20	0xbc84d1a6	-0.01621325
21	0xbd60ac0f	-0.054851588
22	0xbc397200	-0.011318684
23	0x3afbf0aa	0.0019221504
24	0xbc19d13c	-0.009388264
25	0xbd191a1f	-0.037378427
26	0xbd22842e	-0.039676838
27	0x3d2a1bd0	0.04153043
28	0x3d3161a0	0.043305993
29	0xbd04d7ba	-0.032432295
30	0xbd2a3942	-0.04155851
31	0xbc6b2bd7	-0.014353714
32	0xbd0ec0b1	-0.034851734
33	0xbd66953b	-0.05629466
34	0xbd2ceaa6	-0.042215966
35	0x3d49efe0	0.04930103
36	0xbcc258c0	-0.02372396
37	0x3d0aadc9	0.03385714
38	0x3c54c185	0.012985592
39	0xbb9fa4e0	-0.0048719496
40	0xbcb47206	-0.022027027
41	0x3d1c137e	0.038104527
42	0xbc6abe4f	-0.0143276
43	0xbd1cd53c	-0.038289294
44	0x3cb66908	0.02226688
45	0xbcd9f093	-0.026603973
46	0x3ce06847	0.027393473
47	0x3c7c6b02	0.015406372
48	0xbd5f10fe	-0.054459564
49	0xbd061f58	-0.032744735
50	0x3b96c4cf	0.004601098
51	0xbb623f19	-0.0034522472
52	0x3bb12247	0.0054056975
53	0xbc04094c	-0.008058857
54	0xbc81d2b6	-0.015847545
55	0xbc3a44b0	-0.011368915
56	0x3cd08a12	0.025456462
57	0xbcbf3015	-0.023338357
58	0xbc9f8b26	-0.01947553
59	0x3d56287d	0.052284706
60	0x3d24cbd6	0.040233456
61	0x3ce5834f	0.028016714
62	0x3d142365	0.036166567
63	0xbd1b5f76	-0.037932836
64	0xbc8071d3	-0.015679276
65	0xbd2d6ec5	-0.042341966
66	0xbcfbd2d7	-0.030740185
67	0x3cc0175c	0.023448639
68	0x3d3ef765	0.046622653
69	0xbd60e866	-0.054909132
70	0x3d23794b	0.039910596
71	0xbcbcb37a	-0.0230348
72	0x3d3ce21e	0.04611408
73	0x3c47d678	0.012197129
74	0xbd169304	-0.0367613
75	0x3d0f3346	0.034961008
76	0xbd1f4759	-0.0388864
77	0xbcdebe53	-0.027190363
78	0xbd0a15ef	-0.033712324
79	0x3cae3797	0.021266742
80	0x3c8fe7eb	0.017566642
81	0xbcfe250e	-0.031023528
82	0xbd0f6aad	-0.035013843
83	0x3c0fbe3a	0.008773381
84	0x3cd81438	0.026376829
85	0x3ce37ac0	0.027768493
86	0xbd420031	-0.047363464
87	0x3c9bc4bb	0.019014707
88	0xbd57a895	-0.052651007
89	0xbc51f0af	-0.012813731
90	0xbbdd027a	-0.00674468
91	0xbd613d76	-0.054990254
92	0x3cf4e75f	0.029895483
93	0xbd2d3230	-0.04228419
94	0x3c30698d	0.010767353
95	0xbcef7bf0	-0.029233903
96	0x3cb1612b	0.021652779
97	0x3c24a5cc	0.010049295
98	0x3cabb94e	0.020962384
99	0xbbce7090	-0.0063000396
100	0xbcd919f7	-0.026501639
101	0xbcbfe120	-0.023422778
102	0x3d198450	0.0374797
103	0x3c11cd8f	0.008899107
104	0xbcf9e7a3	-0.03050596
105	0xbd04e6a8	-0.032446533
106	0xbc848c7f	-0.016180275
107	0xbccc1395	-0.024911681
108	0xbcb04c5e	-0.02152079
109	0x3d5dd647	0.05415943
110	0xbcf67fa6	-0.030090164
111	0x3d50d0ac	0.050980255
112	0x3d2c6f0a	0.042098083
113	0xbd1fe248	-0.039034158
114	0x3cca9941	0.02473128
115	0xbd5afd8b	-0.053464454
116	0x3b919c18	0.0044436567
117	0xbd2cbdde	-0.04217326
118	0xbd2b5ae1	-0.041834716
119	0x3c5d52de	0.013508527
120	0x3cc4b40b	0.024011632
121	0xbc7a5e7c	-0.015281316
122	0xbbfe20f6	-0.007755394
123	0x3ca67bde	0.020322736
124	0xbd631572	-0.055440374
125	0x3b0e62cc	0.0021726368
126	0xbd64cba0	-0.055858254
127	0xbc9fd5bd	-0.019511098
128	0x3d49db61	0.04928148
129	0xbccbc7bd	-0.024875516
130	0xbcf244a7	-0.029573752
131	0xbd6affa4	-0.057372704
132	0x3d4045dc	0.046941623
133	0x3c3395cc	0.010961007
134	0xbd5e1e65	-0.054228205
135	0xbc834e73	-0.016028618
136	0x3d35b572	0.044362493
137	0xbd6ab30b	-0.057299655
138	0x3b95ae56	0.0045679016
139	0xbd302389	-0.04300264
140	0xbd34cb03	-0.04413892
141	0xbc5f86ea	-0.013643006
142	0x3caefcf0	0.021360844
143	0xbd6fdec3	-0.05856205
144	0xbd03103b	-0.0319979
145	0xbd3d5a5c	-0.04622875
146	0xbc446626	-0.011987245
147	0xbd0a6986	-0.03379204
148	0x3cc70fa8	0.024299458
149	0xbbd06b34	-0.006360436
150	0xbc2a2138	-0.0103838965
151	0xbd5bb326	-0.053637646
152	0xbb07bb9b	-0.0020711187
153	0xbd65574e	-0.055991463
154	0xbd5400d8	-0.051758617
155	0x3cc169b3	0.023609972
156	0xbd6f4b61	-0.058421496
157	0x3ad24382	0.0016041847
158	0x3c50bb65	0.012739991
159	0xbb609b75	-0.0034272347
160	0x3d1f123f	0.03883576
161	0xbc4dc079	-0.012558096
162	0x3d1e8a5d	0.038706172
163	0xbd0b7126	-0.034043454
164	0xbd404ac6	-0.04694631
165	0xbd33a615	-0.04385956
166	0x3ccd541c	0.02506452
167	0xbacb5d51	-0.0015515481
168	0xbbe63e57	-0.0070264745
169	0xbbced663	-0.006312178
170	0xbcbfd6b9	-0.023417817
171	0x3bd35ee1	0.0064505194
172	0xbc1d86d9	-0.00961467
173	0xbc407526	-0.01174668
174	0xbcd772a9	-0.026299791
175	0xbd212297	-0.039339628
176	0x3bccacfc	0.0062462073
177	0xbbf0a68f	-0.007344074
178	0xbd7d8b0e	-0.06190019
179	0x3d25cc02	0.04047776
180	0x3cd62b0c	0.026143573
181	0x3d11697f	0.035501
182	0x3c8b905a	0.017036606
183	0xbca7a36a	-0.020463664
184	0x3c743ca3	0.014907035
185	0x3cb71565	0.022349069
186	0x3cb8e479	0.022569882
187	0xbc99bc2a	-0.018766481
188	0xbcf7d257	-0.030251665
189	0xbb0fd668	-0.0021947864
190	0x3d3a5674	0.045492604
191	0xbd01c23f	-0.031679388
192	0xbcc6c9f5	-0.024266222
193	0xbcf1db04	-0.02952338
194	0xbd489a7e	-0.04897546
195	0x3ca89b8c	0.020581983
196	0xbc1b2cef	-0.009471162
197	0x3b9cdde5	0.004787194
198	0x3d66c213	0.056337427
199	0x3c167048	0.009182043
200	0x3d3863ae	0.045016937
201	0x3c01674a	0.007898161
202	0xbbf81945	-0.0075713717
203	0x3d0a1f89	0.03372148
204	0x3c908c09	0.017644899
205	0xbbdcb07f	-0.006734907
206	0x3afe12cb	0.0019384263
207	0xbce61a06	-0.02808858
208	0xbb97524c	-0.004617965
209	0x3d1cd209	0.038286243
210	0x3d485f62	0.04891909
211	0x3d59a1a0	0.053132653
212	0xbd2c91de	-0.042131297
213	0xbb9f7fbd	-0.0048675225
214	0x3ca59c88	0.020216241
215	0x3d176193	0.03695829
216	0xbd11aa9b	-0.035563093
217	0xbd4cc6f9	-0.049994443
218	0x3c7c3948	0.015394516
219	0xbd1ab183	-0.037766945
220	0x3d59c0d5	0.053162415
221	0xbd226f7c	-0.0396571
222	0x3ca92670	0.020648211
223	0xbccd9524	-0.02509553
224	0xbd5cb6f4	-0.053885415
225	0xbd78c28e	-0.060732417
226	0x3ca14d16	0.019690078
227	0xbcbb971c	-0.022899203
228	0xbd1b9c8c	-0.03799109
229	0x3d65ee4f	0.056135472
230	0x3d07a1d3	0.033113312
231	0x3d1bae26	0.038007878
232	0xbcd49108	-0.025948063
233	0xbb3d0cd4	-0.0028846757
234	0x3c50f289	0.012753137
235	0xbbdafa0f	-0.0066826413
236	0x3ce2a3a1	0.027665915
237	0xbc700b98	-0.014651202
238	0xbc59d444	-0.013295237
239	0xbbd08682	-0.006363691
240	0xbcbb3178	-0.022850737
241	0xbd22c285	-0.03973629
242	0xbbdac9a6	-0.0066768704
243	0xbcb32538	-0.021868333
244	0xbca129d6	-0.01967327
245	0xbcde44ff	-0.02713251
246	0x3cdb02f4	0.026734807
247	0xbc19ba30	-0.009382769
248	0x3d362900	0.044472694
249	0x3c8a9de0	0.016920984
250	0xbc9d654f	-0.019213347
251	0x3d6b4088	0.05743459
252	0xbcbb1883	-0.022838837
253	0xbd5a22fb	-0.053256016
254	0x3d111468	0.03541985
255	0xbd07ad2e	-0.03312414

embedding_net.conv2.bias f4 [50]
0	0xba456a57	-0.00075307995
1	0xbd175dc3	-0.036954653
2	0xbcec456c	-0.028841697
3	0xbd503eb9	-0.050841067
4	0x3c9119d4	0.017712511
5	0x3c97bfc0	0.01852405
6	0xbc21fa6b	-0.009886364
7	0xbc930cc3	-0.017950421
8	0xbcef66b9	-0.029223787
9	0x3be8d89c	0.0071059
10	0x3ccdd829	0.025127487
11	0xbc6c38fe	-0.014417885
12	0xbc05d1d2	-0.008167701
13	0x3c34da61	0.011038394
14	0x3cfdf6cc	0.031001471
15	0xbd40eec1	-0.047102693
16	0xbc4fd409	-0.01268483
17	0xbceaefe4	-0.028678842
18	0x3cdf6c41	0.0272733
19	0xbd222515	-0.039586145
20	0xbc65ed65	-0.01403365
21	0xbd0763f9	-0.033054326
22	0xbd464d56	-0.048413597
23	0xbd0794a3	-0.033100735
24	0x3cebe120	0.028793871
25	0x3c7d5abb	0.015463526
26	0xbbdb79e6	-0.006697881
27	0xbd8826c2	-0.066480175
28	0x3c012797	0.007882974
29	0xbd203fdb	-0.039123397
30	0xbd7e60f2	-0.062104173
31	0x3c542dc1	0.012950362
32	0x3cbab5b5	0.022791723
33	0x3c5727b3	0.013132024
34	0xbcad06bd	-0.021121377
35	0xbd2ea901	-0.042641643
36	0xbc7d8f4a	-0.015476057
37	0xbc6aa8f0	-0.014322504
38	0xbcc17bce	-0.023618605
39	0xbd062bc6	-0.03275659
40	0x3a9fdd33	0.001219666
41	0xbd1d2fdb	-0.038375717
42	0xbd87c8e9	-0.066301174
43	0x3d0f2a67	0.034952547
44	0x3cbe9c72	0.023267958
45	0xbd06dce0	-0.032925487
46	0x3c6d59cf	0.014486744
47	0x3ca31d1a	0.019911338
48	0x3d283307	0.04106429
49	0xbcd63154	-0.026146568

embedding_net.fc1.weight f4 [70, 100]
0	0xbd8e7add	-0.06957028
1	0x3bbbd02c	0.005731603
2	0xbd336b13	-0.043803286
3	0x3caa4540	0.020784974
4	0xbd5d3818	-0.054008573
5	0xbd9c3b04	-0.07628444
6	0x3cabe5ba	0.020983566
7	0xbd8bdb8e	-0.06828986
8	0x3db049fe	0.08607863
9	0xbdbc3bcc	-0.09191093
10	0x3db521ad	0.08844314
11	0xbd748bd8	-0.059703678
12	0xbc71a15e	-0.014747946
13	0x3da0dad9	0.07854242
14	0x3d588efb	0.05287073
15	0xbd81a0ef	-0.06329524
16	0x3da51a28	0.080616295
17	0x3dc46719	0.09589977
18	0x3d94475b	0.072401725
19	0xbbd62d58	-0.006536167
20	0xbda1cd1a	-0.07900448
21	0x3b342d84	0.002749295
22	0xbcfb7fdc	-0.030700617
23	0x3c5890e2	0.0132181365
24	0xbd05af5a	-0.03263793
25	0xba73461a	-0.00092801603
26	0x3d7c8700	0.061652184
27	0x3ccaa708	0.02473785
28	0x3cf0f3d5	0.029413143
29	0xbca72462	-0.02040309
30	0xbda2e26c	-0.07953343
31	0xbda46455	-0.08026949
32	0x3d8356eb	0.06413063
33	0xbd7b5542	-0.061360605
34	0x3daeb5a5	0.0853074
35	0x3dc55264	0.096348554
36	0x3d088a0b	0.033334773
37	0x3cbb22ba	0.022843707
38	0xbd5a4dad	-0.053296734
39	0xbd8a0924	-0.06740025
40	0x3bfadeb1	0.0076559414
41	0xbc1190ff	-0.008884667
42	0x3dbfcd19	0.09365291
43	0xbda8a90d	-0.08235369
44	0xbd0c5454	-0.03426011
45	0x3c5aac0f	0.013346686
46	0x3cf1e707	0.029529108
47	0xbca0c82d	-0.019626701
48	0xbd3c92f2	-0.046038575
49	0xbd12e3d4	-0.035861805
50	0xbc7f4109	-0.01557947
51	0xbd861859	-0.06547613
52	0x3db38efa	0.08767505
53	0x3dac1adc	0.084035605
54	0x38d4c5b9	0.000101457765
55	0x3c7f690a	0.015589008
56	0xbc9e2105	-0.019302854
57	0xbd474db2	-0.04865808
58	0x3d763af3	0.060114812
59	0x3d6d186d	0.057884622
60	0x3d9c3d7c	0.07628915
61	0xbcf29e59	-0.029616522
62	0x3d3aa2d4	0.04556544
63	0x3d120da0	0.035657525
64	0xbd233af7	-0.039851155
65	0xbd361fc2	-0.04446388
66	0x3d5ac030	0.05340594
67	0x3c2dc06c	0.010604959
68	0xbd96eef1	-0.07369793
69	0xbd96359b	-0.07334443
70	0x3d90f5bc	0.0707812
71	0xbd42e142	-0.047578104
72	0x3db699fc	0.08916089
73	0x3ccc5269	0.02494164
74	0x3d76d236	0.060259067
75	0xbd073610	-0.033010542
76	0xbdb19939	-0.08671803
77	0xbdb9b27d	-0.09067247
78	0xbdbbb6cd	-0.09165726
79	0x3d546c1e	0.05186092
80	0x3cd864d8	0.026415274
81	0xbcb47ed2	-0.022033129
82	0x3daf7708	0.08567625
83	0xbda93c8f	-0.08263504
84	0xbdad17bb	-0.08451792
85	0xbdbf87ab	-0.093520485
86	0xbb53b5df	-0.0032304449
87	0xbcc5c7d7	-0.024143143
88	0x3d09f954	0.033685043
89	0xbbf95727	-0.0076092663
90	0xbd8e7728	-0.06956321
91	0xbcda9fbe	-0.0266875
92	0xbd8aba33	-0.06773796
93	0xbda8f819	-0.08250446
94	0x3d95830d	0.073003866
95	0xbbed5b51	-0.007243552
96	0xbdad6ab9	-0.08467621
97	0x3da383f1	0.0798415
98	0x3d97aff1	0.07406605
99	0x3d9d7009	0.07687385
100	0x3c1e0fbe	0.009647308
101	0x3d540b8d	0.05176883
102	0x3d952605	0.07282642
103	0xbdb0f688	-0.08640772
104	0x3d136524	0.035985127
105	0xbdaaf04c	-0.08346614
106	0xbb38bcf0	-0.0028188787
107	0x3d3e9db7	0.046537127
108	0x3da9e130	0.08294904
109	0xbd89e5f7	-0.067333154
110	0xbad8cf5b	-0.0016541289
111	0xbd39ddf5	-0.04537769
112	0xbc13c917	-0.0090201115
113	0xbb4e968a	-0.0031522834
114	0xbd8a27b2	-0.067458525
115	0xbd75d449	-0.060016904
116	0xbc08896a	-0.008333543
117	0x3dca9676	0.098919794
118	0xbda75478	-0.08170408
119	0xbd8ca579	-0.06867499
120	0x3d9bd55b	0.07609054
121	0xbd9e482f	-0.07728612
122	0xbd572570	-0.052525938
123	0x3c04dffd	0.008110044
124	0x3d49cf83	0.049270164
125	0xbd070945	-0.032967824
126	0xbc6a6481	-0.014306189
127	0xbcdc61cc	-0.026902102
128	0xbd62aace	-0.055338673
129	0x3d5242db	0.05133329
130	0xbc4b275e	-0.012399523
131	0x3dc85fef	0.09783923
132	0xbdc092d7	-0.094030075
133	0xbd74d816	-0.059776388
134	0x3d7ed0ff	0.062211033
135	0xbdbb4f0e	-0.09145938
136	0x3d988ef6	0.07449143
137	0xbc05794b	-0.008146594
138	0x3c93bd05	0.018034467
139	0x3dbeaffc	0.0931091
140	0x3d41b9dc	0.04729639
141	0xbd220f82	-0.03956557
142	0xbd92e697	-0.07172888
143	0xbc8d5b26	-0.017255377
144	0xbd687c42	-0.056759126
145	0x3d53102b	0.05152909
146	0xbc070eb0	-0.008243248
147	0xbbc9e686	-0.0061615137
148	0xbd938118	-0.07202357
149	0x3c095130	0.008381173
150	0xbdaa443a	-0.083137944
151	0xbd821610	-0.06351864
152	0x3ce09773	0.027415967
153	0xbbb813eb	-0.005617609
154	0xbc10d532	-0.008839892
155	0x3da9ceb0	0.08291376
156	0xbdc82e3e	-0.09774445
157	0x3d2bafa1	0.04191554
158	0x3d99e881	0.0751505
159	0xbd05d1a4	-0.032670632
160	0x3d11f7bc	0.03563665
161	0xbd4133a2	-0.04716838
162	0x3d19903a	0.03749106
163	0xbd838da0	-0.06423497
164	0xbdb7f969	-0.08983118
165	0x3d5a6730	0.053321064
166	0xbcabcd54	-0.020971932
167	0xbd0d0ac4	-0.034434095
168	0xbca59898	-0.020214364
169	0x3d567f32	0.052367397
170	0xbd930375	-0.07178394
171	0xbc78dc93	-0.015189308
172	0xbd86e5c6	-0.065867946
173	0xbcaaaf0c	-0.020835422
174	0x3d56e6eb	0.052466314
175	0xbd4f162b	-0.05055825
176	0xbc8cde4f	-0.017195849
177	0x3d1ff8ce	0.039055638
178	0xbc10cc87	-0.008837826
179	0xbd44f82c	-0.048088238
180	0x3b960853	0.004578629
181	0x3d44fcd9	0.048092697
182	0x3c9e5662	0.0193283
183	0x3d8d9116	0.069124386
184	0x3d2bd27b	0.041948777
185	0xbdab818a	-0.08374317
186	0xbd73524e	-0.059404664
187	0x3cc8bd31	0.024504276
188	0xbd604f42	-0.054763086
189	0xbc86a760	-0.016437232
190	0xbd5706dd	-0.05249678
191	0xbd863a0e	-0.06554042
192	0xbd9f5c51	-0.0778128
193	0xbd9da5a3	-0.07697608
194	0xbc78a64b	-0.015176366
195	0xbdc5e6a1	-0.096631296
196	0x3d53013a	0.05151484
197	0xbc001419	-0.007817292
198	0xbcadbfa9	-0.021209555
199	0x3d843068	0.06454545
200	0x3d6176f5	0.055045087
201	0xbdb32564	-0.08747366
202	0xbd843d41	-0.06456996
203	0x3c23a235	0.009987404
204	0xbc85cf8a	-0.016334314
205	0x3c847d72	0.016173098
206	0xbca87511	-0.020563634
207	0xbd343bde	-0.044002406
208	0x3da5c9ab	0.08095106
209	0xbd839c94	-0.06426349
210	0x3c319c6a	0.010840515
211	0xbda86496	-0.0822231
212	0xbd90f383	-0.07077696
213	0xbd08aa7f	-0.033365723
214	0x3d25f93e	0.0405209
215	0x3d032d5b	0.032025676
216	0x3dc48a25	0.095966615
217	0xbdc9a225	-0.0984538
218	0x3d35166b	0.044210833
219	0x3c44c068	0.012008764
220	0x3ccc040f	0.024904279
221	0x3d09f1b9	0.03367779
222	0xbc645564	-0.013936374
223	0x3cea0383	0.028566128
224	0xbc378cf6	-0.011203041
225	0xbcec21d5	-0.028824726
226	0x3d229668	0.03969422
227	0x3dcacefd	0.09902761
228	0xbc9cffdb	-0.01916497
229	0x3d0e7eb0	0.034788787
230	0x3c3e1a3e	0.011602936
231	0xbc8da1aa	-0.017289001
232	0x3dcaafed	0.098968364
233	0xbccf71d8	-0.02532284
234	0x3d41da7d	0.047327507
235	0x3d1648e4	0.036690608
236	0x39085137	0.00013000226
237	0xbcc93402	-0.024560932
238	0xbdc32a90	-0.095296025
239	0x3d8d0c21	0.06887079
240	0x3d0aa301	0.03384686
241	0xbd4065f0	-0.046972215
242	0xbda5d25b	-0.08096763
243	0xbd931bd7	-0.071830444
244	0xbdc661e5	-0.09686641
245	0x3d2ede6f	0.042692598
246	0x3be1152f	0.0068689804
247	0xbd9a85d8	-0.0754506
248	0xbd97dfa6	-0.074157044
249	0xbdb7a330	-0.089666724
250	0xbd15dfc5	-0.036590356
251	0xbd5ca9ba	-0.0538728
252	0x3d551381	0.052020553
253	0xbd447ad1	-0.04796869
254	0x3c36c6d6	0.011155805
255	0x3b801686	0.003908935

embedding_net.fc1.bias f4 [70]
0	0xbd99f89d	-0.07518122
1	0xbd428b7d	-0.047496308
2	0xbc29cd4a	-0.010363886
3	0xbd4b9420	-0.04970181
4	0xbd5809d1	-0.052743737
5	0xbc999c55	-0.018751303
6	0xbc47a469	-0.0121851945
7	0xbc24c573	-0.010056841
8	0xbdb39f98	-0.087706745
9	0xbd901ee7	-0.07037144
10	0xbdc187ce	-0.09449731
11	0xbc1ee2ff	-0.009697675
12	0xbc2f0f48	-0.010684796
13	0xbc185b81	-0.00929916
14	0xbd73071e	-0.05933296
15	0xbdad1aba	-0.08452363
16	0xbc28fbf9	-0.010313981
17	0xbdb4001e	-0.08789085
18	0xbc3525d4	-0.011056382
19	0xbc2b3a11	-0.010450856
20	0xbd365e22	-0.044523366
21	0xbd0d9d6a	-0.03457395
22	0xbdca88fb	-0.09889408
23	0xbd2d687d	-0.042335976
24	0xbc227a07	-0.009916789
25	0xbc718a4b	-0.014742444
26	0xbc388dd3	-0.011264282
27	0xbc36e23d	-0.011162338
28	0xbc53b071	-0.012920485
29	0xbc2d2371	-0.010567532
30	0xbdcc68b8	-0.09980911
31	0xbc180e60	-0.009280771
32	0xbc478e00	-0.0121798515
33	0xbd6ab8ab	-0.05730502
34	0xbc2f55e4	-0.01070163
35	0xbd81f6bf	-0.06345891
36	0xbc37e180	-0.011223197
37	0xbc98f963	-0.018673604
38	0xbc325ccb	-0.010886381
39	0xbd2b37e9	-0.041801367
40	0xbc1fe1a1	-0.009758384
41	0xbcf06890	-0.029346734
42	0xbc20d7d4	-0.009817082
43	0xbdcb88db	-0.099382125
44	0xbc3215f2	-0.01086949
45	0xbd937d0d	-0.07201586
46	0xbcab4142	-0.02090514
47	0xbd9915ea	-0.07474883
48	0xbd25a439	-0.040439818
49	0xbd4019a8	-0.046899468
50	0xbc307810	-0.010770813
51	0xbc3c0d6d	-0.01147781
52	0xbdbd673b	-0.09248205
53	0xbc92cef9	-0.017920958
54	0xbd572eec	-0.052534983
55	0xbd0a3487	-0.0337415
56	0xbc141beb	-0.009039859
57	0xbdb79405	-0.08963779
58	0xbd0cb99f	-0.03435671
59	0xbd9b8085	-0.075928725
60	0xbd01a4be	-0.03165125
61	0xbc2c5a85	-0.010519628
62	0xbdb67fa6	-0.08911066
63	0xbdbbb513	-0.091653965
64	0xbd3810ac	-0.044937775
65	0xbd3f5faf	-0.04672211
66	0xbc239bb6	-0.009985855
67	0xbcd872cc	-0.026421927
68	0xbc2b2e0f	-0.010447993
69	0xbcb24fa8	-0.021766499

embedding_net.fc2.weight f4 [50, 70]
0	0x3d98706a	0.07443316
1	0x3da57162	0.08078267
2	0xbd4086bc	-0.047003493
3	0xbd2bd013	-0.041946482
4	0x3d6a51e4	0.057207003
5	0xbde8a6c5	-0.11359934
6	0x3b6bd890	0.0035987236
7	0xbdaba97e	-0.083819374
8	0x3cc937ab	0.024562677
9	0xbd56fc19	-0.052486513
10	0xbdc697cd	-0.096969225
11	0x3df20769	0.118178196
12	0x3d33bc7b	0.04388092
13	0xbde0f830	-0.10984838
14	0x3c3a6803	0.011377337
15	0xbca173c2	-0.019708518
16	0xbdbc9fe5	-0.09210185
17	0xbd2613d6	-0.04054626
18	0x3d94aa83	0.07259085
19	0xbd0417d4	-0.032249287
20	0xbcfad5e3	-0.030619567
21	0x3d9737a7	0.07383662
22	0x3c9e7ace	0.019345667
23	0x3ddd61d2	0.10809673
24	0xbca22837	-0.019794567
25	0x3d093308	0.033495933
26	0xbd74df61	-0.059783343
27	0x3de37b47	0.11107498
28	0x3d814fd7	0.06314056
29	0x3ca12a08	0.019673362
30	0x3dae6420	0.08515191
31	0xbdc12899	-0.094315715
32	0xbde24ba2	-0.11049582
33	0xbd8af3d3	-0.06784787
34	0xbd724695	-0.059149344
35	0x3ce5ef17	0.028068108
36	0x3d68e473	0.05685849
37	0xbd50ac53	-0.05094559
38	0x3d89b164	0.06723288
39	0x3ce2232d	0.027604664
40	0x3cbc2f13	0.022971665
41	0x3db055e5	0.08610133
42	0x3c9c2167	0.019058896
43	0x3dd38d03	0.1032963
44	0x3ce94725	0.028476307
45	0x3cfec79a	0.031101037
46	0x3dc6b832	0.09703101
47	0xbd1ad807	-0.037803676
48	0xbdd6eb7a	-0.10494132
49	0x3de919e1	0.11381889
50	0x3d7ddd6c	0.061978742
51	0x3de85a4a	0.11345346
52	0x3de5f250	0.11227858
53	0x3d943115	0.07235924
54	0xbd105111	-0.03523356
55	0xbc807e3a	-0.01568519
56	0xbdd92ba9	-0.10604031
57	0x3da3f054	0.08004823
58	0x3dccc5b2	0.09998645
59	0x3da6573d	0.08122108
60	0xbdb8db1f	-0.09026169
61	0x3dec0fcb	0.1152645
62	0xbcc36bc8	-0.023855105
63	0x3d2e4ef5	0.042555768
64	0x3dccd83c	0.10002181
65	0x3dec40e0	0.115358114
66	0xbd17a736	-0.0370247
67	0xbbf9f0a5	-0.007627564
68	0xbd9a1336	-0.075231954
69	0x3c9c8ec2	0.019111041
70	0xbbe1d28f	-0.0068915556
71	0xbd3e8935	-0.04651757
72	0x3ddc8aba	0.107686475
73	0x3de5d611	0.112224706
74	0x3d7c9009	0.0616608
75	0xbd643808	-0.055717498
76	0xbdcbc8c1	-0.099504
77	0xbcce090a	-0.025150795
78	0xbbcd781e	-0.0062704226
79	0x3da53a28	0.08067733
80	0xbcf0c7cb	-0.029392144
81	0xbd6bb505	-0.05754568
82	0x3d3db5f8	0.046316117
83	0x3cf45a4c	0.029828213
84	0x3d8f005b	0.0698249
85	0x3dae6fd7	0.085174255
86	0x3da2c248	0.079472125
87	0x3c8e0e11	0.017340692
88	0xbd154636	-0.03644391
89	0x3d56a87c	0.052406773
90	0xbc000f23	-0.007816109
91	0x3dc7ab16	0.09749429
92	0xbd9e0665	-0.077160634
93	0x3d31e84c	0.043434426
94	0xbdef67bd	-0.116897084
95	0xbd2d0930	-0.04224509
96	0x3cf09704	0.029368885
97	0xbdd00c0b	-0.10158547
98	0xbd8d2234	-0.06891289
99	0xbcc5e3fc	-0.024156563
100	0x3dd9b323	0.10629871
101	0xbd178530	-0.036992252
102	0xbba21cd4	-0.0049472842
103	0x3dabd387	0.08389955
104	0x3dc9ea8d	0.0985919
105	0x3d8de767	0.06928902
106	0xbd991c5d	-0.07476113
107	0x3dd85638	0.1056332
108	0xbc77a4b5	-0.015114953
109	0x3ba8f4b0	0.005156122
110	0x3c9e1acb	0.019299885
111	0xbd879b20	-0.066213846
112	0x3ddd7a16	0.10814302
113	0x3d802b18	0.062582195
114	0xbd0916ad	-0.03346889
115	0x3c258e48	0.010104723
116	0x3db3f38e	0.08786689
117	0x3da741b3	0.08166828
118	0x3de8e5b7	0.1137194
119	0xbd5bcaea	-0.05366031
120	0x3b44cdff	0.003003001
121	0x3d74cfa6	0.05976834
122	0x3de716b8	0.1128363
123	0xbdc67ce9	-0.096917935
124	0xbd85b70e	-0.065290555
125	0x3da410d3	0.080110215
126	0x3ca62ac0	0.020284057
127	0xbdf27031	-0.11837805
128	0xbd4e099e	-0.05030214
129	0xbb378308	-0.0028001685
130	0x3db9b5f9	0.09067912
131	0x3ba35de0	0.004985556
132	0x3d077798	0.033073038
133	0xbd947740	-0.07249308
134	0x3c1b880a	0.009492883
135	0xbd8c878e	-0.068617925
136	0x3c8fc3e8	0.01754947
137	0x3dda5619	0.10660953
138	0x3d37149e	0.044697396
139	0x3a9c0854	0.0011904337
140	0x3c6b7f25	0.014373575
141	0xbc69d2d7	-0.01427146
142	0xbdb28e18	-0.087185085
143	0x3da4aaa7	0.08040362
144	0xbafd5097	-0.0019326386
145	0x3da488d5	0.08033911
146	0xbd999da9	-0.075007744
147	0x3c687ff4	0.014190663
148	0xbdc4d8e1	-0.09611679
149	0xbc8bfafe	-0.017087456
150	0xbd90b500	-0.07065773
151	0xbde65030	-0.11245763
152	0x3bf7c8b8	0.0075617693
153	0x3d4cce66	0.050001524
154	0xbd017b33	-0.031611633
155	0x3c95863c	0.018252485
156	0x3c87bbba	0.016569007
157	0x3d57dcc2	0.052700765
158	0xbc2eba4a	-0.010664532
159	0x3d96e0bd	0.07367084
160	0x3cd87e1a	0.026427317
161	0x3c2b569f	0.010457664
162	0xbdbe476b	-0.09290966
163	0xbd5c8e1e	-0.05384647
164	0xbd157f8f	-0.036498602
165	0xbdeeff23	-0.11669757
166	0x3d6724b0	0.056431472
167	0xbd3afb6d	-0.045649935
168	0xbde722cf	-0.11285936
169	0x3d96c98c	0.07362661
170	0xbd192e3a	-0.0373976
171	0x3d41ca8f	0.047312316
172	0x3d42276a	0.04740087
173	0xbbc76d75	-0.0060860463
174	0xbd759228	-0.05995384
175	0x3b6360d6	0.003469517
176	0xbbab3686	-0.0052250056
177	0xbdb68ecc	-0.08913955
178	0xbd98ac5a	-0.074547485
179	0xbd42689a	-0.047463037
180	0x3dc32d9b	0.09530183
181	0xbd66d1f9	-0.05635259
182	0xbd807550	-0.062723756
183	0x3d322ffe	0.0435028
184	0x3da47354	0.080298096
185	0xbdca0d7c	-0.09865853
186	0xbdb98843	-0.09059193
187	0xbd337c2e	-0.0438196
188	0xbd8dc4e2	-0.06922318
189	0xbba58d51	-0.0050522466
190	0xbd9b5f19	-0.07586498
191	0x3d5b277a	0.053504445
192	0xbc56ca83	-0.013109806
193	0x3ca31eec	0.019912206
194	0xbc981fc3	-0.018569833
195	0x3aeb0660	0.0017930977
196	0x3c9f7128	0.019463137
197	0xbcbcf713	-0.023067033
198	0xbda06ccd	-0.07833252
199	0x3dabe7b1	0.08393801
200	0x3de4be84	0.111691505
201	0xbde08291	-0.109624036
202	0xbcf6ae38	-0.03011237
203	0xbd89648a	-0.067086294
204	0xbddfbc9e	-0.10924648
205	0xbda1feb9	-0.079099126
206	0x3db3835f	0.087652914
207	0x3de76c3b	0.1129994
208	0x3bb5de20	0.005550161
209	0x3d501a54	0.05080636
210	0x3d64a18c	0.055818126
211	0x3d74c93e	0.059762232
212	0x3db88707	0.090101294
213	0x3b588840	0.0033040196
214	0xbde13264	-0.109959394
215	0x3de42090	0.11139023
216	0x3a7d6b89	0.0009667208
217	0x3c80cf4d	0.015723849
218	0x3d84ae6b	0.0647858
219	0xbd2c60b1	-0.0420844
220	0xbd884905	-0.06654552
221	0xbda8bbab	-0.0823892
222	0xbc978bb5	-0.018499235
223	0x3d4bbf4b	0.049742978
224	0xbc226d9f	-0.009913831
225	0x3d73c039	0.05950949
226	0x3c0930c1	0.00837344
227	0x3caac0d6	0.020843904
228	0xbd9a3273	-0.07529154
229	0x3bbfeef0	0.005857341
230	0xbd427a1f	-0.047479745
231	0x3d2423db	0.040073257
232	0x3df161fb	0.117862664
233	0xbdbda546	-0.09260039
234	0xbde8baf0	-0.113637805
235	0xbdc26d31	-0.09493483
236	0xbd1a4599	-0.03766403
237	0xbda02476	-0.07819454
238	0x3c88415b	0.016632726
239	0x3bfde3a9	0.0077480865
240	0xbc62bfec	-0.013839703
241	0xbd697ff1	-0.05700678
242	0x3dd460c6	0.103700206
243	0x3ce0ea01	0.027455332
244	0x3cea9ddf	0.028639732
245	0x3d632e5a	0.055464126
246	0x3dd9820b	0.10620507
247	0xbd637fae	-0.055541687
248	0x3dcfd580	0.10148144
249	0x3d9b50d4	0.07583776
250	0xbce1d1d7	-0.02756588
251	0x3a006a98	0.0004898696
252	0xbdb1d20a	-0.0868264
253	0x3d905b93	0.070487164
254	0x3deea979	0.11653418
255	0x3d22a2c1	0.039705995

embedding_net.fc2.bias f4 [50]
0	0xbd4d2d78	-0.05009219
1	0x3de5a921	0.112138994
2	0x3da396fb	0.079877816
3	0x3d62c426	0.055362843
4	0x3ce2c3dc	0.027681284
5	0xbd6f0ce7	-0.058361914
6	0xbc3f18a8	-0.011663593
7	0x3df4aee7	0.119474225
8	0xbdb60382	-0.08887388
9	0xbc9b39dc	-0.018948488
10	0x3dbc4767	0.091933064
11	0x3da9d045	0.082916774
12	0x3ddd06cb	0.10792311
13	0xbd81b99d	-0.06334231
14	0x3de8ee8b	0.113736235
15	0x3d297ea2	0.041380532
16	0xbdb70877	-0.089371614
17	0x3da1ec8f	0.07906448
18	0x3ddd4a97	0.108052425
19	0xbbcb3b64	-0.0062021483
20	0xbdcb4221	-0.099247225
21	0xbd711730	-0.058860004
22	0x3de420e1	0.11139084
23	0x3c05ea18	0.008173488
24	0xbd447a2e	-0.047968082
25	0xbd9954ca	-0.07486875
26	0xbd728686	-0.059210323
27	0xbd9a67d8	-0.07539338
28	0xbdd17a47	-0.10228401
29	0x3dbffbab	0.09374174
30	0xbda163cc	-0.07880363
31	0xbd3494c0	-0.04408717
32	0xbde2e288	-0.11078364
33	0xbdde991a	-0.108690456
34	0x3df2ea0f	0.118610494
35	0x3d959cad	0.07305274
36	0xbd869f50	-0.06573355
37	0x3d27b472	0.04094357
38	0x3c056428	0.008141555
39	0xbd23f5b2	-0.040029235
40	0x3d1f0ac2	0.03882862
41	0xbd9d1000	-0.076690674
42	0xbb478279	-0.0030442758
43	0x3dda2ceb	0.10653099
44	0x3d5eedfa	0.05442617
45	0x3d370f6a	0.044692434
46	0x3d9eb4bb	0.07749315
47	0x3de25d89	0.11052997
48	0xbdc265b4	-0.094920546
49	0x3c82137c	0.015878431
