runs/TripletNet_0916a/model_best.pth.tar (torch_old, 119128 bytes, 8 tensors)

embedding_net.conv1.weight f4 [100, 12, 3]
00000000: dd6c ae3d d21b 98bd 095b 07bd 6c73 9e3d
00000010: 2e8a 21be 97cf ca3d dc3d 0fbd 0832 ac3d
00000020: 9f3b b73c f90d b3bc 4360 373d 5925 db3b
00000030: cdb4 763d 2257 86bd 5723 52bc c810 87bc
00000040: e02f b93c 5580 15bb a266 143e 5730 513d
00000050: 45d3 80bd eb6f d0bd c38a eebc 12f8 95bd
00000060: 485d 5fbd ca6d de3b 6dbd c83d 43da b63d
00000070: 1b2d 28be 80d2 d03d 7ead 293d 8c9b 1c3e
00000080: 68fd d63d a1af 1cbe 5774 23be 48f9 a6bd
00000090: 1fa7 133e 5777 f5bc 51b1 8d3d 1230 a0bd
000000a0: 78ac 263e 3ae3 91bd a9de fe3d fcb3 c33a
000000b0: b1a8 b4bd 1255 ad3d a0f2 b6bd bb9f 453d
000000c0: 60bf 45bd 88b5 96bc b131 24be d6b6 a3bd
000000d0: a220 b83d d70f 28bd d79e 293e b367 083e
000000e0: 37a3 05bc 360b e5bd e170 ce3d b3f7 503d
000000f0: 62d5 ddbd 4c7e dc3d f117 ce3d e936 173e
00000100: d097 bfbd 2774 e1bc 93a9 70bb b761 c43c
00000110: 73da 01be 780a f3bd cdee b83d 5b71 21bd
00000120: a533 a63d 341c 163c 677d 5e3d e271 133d
00000130: 5e18 753d 0f89 a73d b83f 1ebe 4165 ab3d
00000140: 926c f0bd d9ea 00be 7c81 233c 280c eabc
00000150: 501f c83d d7fb c5bd 48dc 17be 8e59 f63d
00000160: ca89 d2bc 6b09 be3d 0689 5a3d 3731 00be
00000170: d654 083d 4ea9 233d 5faa e4bd 9315 a2bd
00000180: c7de 673d 459a f23c 00be 91bd df94 4fbd
00000190: 1319 1c3e cb34 febc 9f4a c03d a8c3 933d
000001a0: 9c99 dcbd f63e 11be cbbb 233e cb21 0d3c
000001b0: 198b e93d b9d8 0c3d a5ec 5a3d 4ae1 fe3d
000001c0: e7be 213e 5dd7 e2bd b8fa a73c a1ff fd3d
000001d0: d969 f63d 9a9c d33d da87 f7bd f676 f6bd
000001e0: 6ade cfbd d90a a63c 9467 293e 10e8 d6bd
000001f0: 64b4 b63d 610e bcbd be6f 20be acea 10bd
00000200: 80cf c43d 7324 1e3e f270 d4bd cc82 133d
00000210: 03c5 123e 7e4c e13d 48e9 d33d 40c4 f13d
00000220: 5e30 d73d 2f17 2f3d ecf2 e8bd 4b17 0fbe
00000230: 0cf1 9bbd 88e8 9ebc d62a d1bd 97e5 793d
00000240: 9322 543d 43bb 19bd 5a75 833d 2dc3 5f3d
00000250: f4f7 d13d 8854 e73d af87 66bd 69f4 263e
00000260: 1252 9cbc c338 b8bb 2fef 20be 3f5b dbbd
00000270: ccf9 c7bd 7494 92bd 0822 f23d 611c 5ebd
00000280: d3ac febd 33a7 833d 8ddb 5a3d 1f3d dd3d
00000290: f272 b0bd e5de 133d ea85 78bd 5a31 19bd
000002a0: eea0 07be 5cdd 9abd eed0 4fbd aa0a 913d
000002b0: 782e f63c bd58 273d 9216 293e 1f24 253e
000002c0: c085 e63d 7fdc 9f3b 31ed ecbd 25fa 043e
000002d0: 8051 2bbd da09 5fbc 6b32 13be e112 07bd
000002e0: 213b dcbd b3cc 1c3e 8ba2 13be 9c19 05be
000002f0: 3318 bbbb a9c0 b8bd 40f2 733d 8c8a 83bd
00000300: 7799 a0bd 48c9 183c 14e4 f63d 8b4e f0bd
00000310: a12f a03d c743 db3d fab5 263e a546 efbd
00000320: 42c7 243d 09a6 fcbd fa9c 113e 7a95 84bd
00000330: 7b6e cd3d 156f a03b 0ce4 55bc 40b0 b0bb
00000340: 6aa6 e73c c5c3 a03d e858 da3c 131e 503d
00000350: a995 19be 5779 f73d 4330 143e d66a 0c3e
00000360: 1981 fc3d bd28 f6bd 30b5 7cbd 5147 163e
00000370: a636 02be 2597 1a3e e407 06be c713 f0bd
00000380: a831 a73d 0217 f5bd 1447 1cbd c243 f83d
00000390: 1a4f 083e f87b 223e 0b58 06bd 35b5 04be
000003a0: 85e7 273e 471d 12bd 5d5d 8cbd 357e 263d
000003b0: 55a0 eebd 79aa e03d 0c4b d63d fe37 07be
000003c0: 300e 0cbe 84e5 6cbc fdb2 8f3d 4197 9abb
000003d0: 4bd0 acbd 8131 823b aa5d 20be ba1e f1bd
000003e0: a81c e3bd aad9 0c3e 95c5 163e b69a 66bd
000003f0: 35e3 e53b 7417 973d f3f4 9e3c c587 acbd
0.08516858 -0.07427181 -0.033045802 0.07736859 -0.15775368 0.09902876 -0.034971103 0.0840798
0.022367297 -0.021857249 0.044769537 0.006687802 0.06023102 -0.06559588 -0.0128258085 -0.016487494
0.022605836 -0.0022812088 0.14492276 0.05107149 -0.062902965 -0.10177597 -0.029118901 -0.07322706
-0.05453232 0.00678799 0.09801755 0.08928349 -0.16423456 0.101964 0.04142522 0.15293711
0.10497552 -0.15301372 -0.15962349 -0.081530154 0.1441922 -0.029964132 0.06918586 -0.07821669
0.16276729 -0.07123418 0.12444813 0.0014930959 -0.08821238 0.084634915 -0.08932996 0.048248034
-0.048278213 -0.018397108 -0.16034581 -0.079938576 0.08990599 -0.04103073 0.16564499 0.13320808
-0.008156589 -0.11183779 0.10080124 0.051017474 -0.10831715 0.10766277 0.1006316 0.1476704
-0.09355128 -0.027521206 -0.0036722168 0.023972375 -0.12680988 -0.11867231 0.09029923 -0.039414745
0.08115319 0.009161998 0.05431881 0.03599728 0.05983769 0.08180439 -0.15453994 0.08368922
-0.11739458 -0.12589587 0.009979602 -0.02857025 0.097715974 -0.09667175 -0.14830124 0.120288
-0.025700469 0.0927914 0.053353332 -0.12518774 0.03328403 0.039956383 -0.11165308 -0.07914271
0.05660894 0.029614577 -0.07116318 -0.050679084 0.1524394 -0.031031033 0.09389233 0.07215053
-0.10771486 -0.14184174 0.15989606 0.008614014 0.11403484 0.03438637 0.053448338 0.12445314
0.1579548 -0.110762335 0.020505294 0.12402273 0.120319076 0.10332604 -0.120864585 -0.12034409
-0.10149844 0.020268844 0.16543418 -0.10493481 0.089211255 -0.0918243 -0.15667626 -0.03538005
0.0960989 0.15443592 -0.10373105 0.03601341 0.14332967 0.11000918 0.10347229 0.1180501
0.10507272 0.04274672 -0.11374459 -0.1397373 -0.076143354 -0.019397989 -0.102132484 0.06100997
0.051790785 -0.037532102 0.064188674 0.054629494 0.102523714 0.1129542 -0.05628174 0.16304173
-0.019082103 -0.005622001 -0.15716241 -0.10710763 -0.09764442 -0.071572214 0.11822897 -0.054226283
-0.12435307 0.06428375 0.053432036 0.108026735 -0.08615674 0.03610124 -0.060674585 -0.03740058
-0.13244984 -0.07561752 -0.05073636 0.07082112 0.030051455 0.04085611 0.16512516 0.1612706
0.112559795 0.00487858 -0.11568678 0.12986048 -0.04182577 -0.013613189 -0.14374702 -0.03297699
-0.107534654 0.15312462 -0.14417474 -0.1299805 -0.005709672 -0.09021122 0.0595572 -0.0642291
-0.07841771 0.009325333 0.12055221 -0.11733731 0.078215845 0.10706287 0.16280356 -0.11683396
0.04022909 -0.12336356 0.14220038 -0.06473823 0.10030838 0.0048960545 -0.013054859 -0.0053921044
0.028277595 0.0784984 0.026653722 0.05080993 -0.14998497 0.120836906 0.14471535 0.1371263
0.12329311 -0.12019489 -0.06169623 0.14675643 -0.12716159 0.1509672 -0.13088948 -0.11722522
0.08163768 -0.11967279 -0.038153723 0.12122299 0.13311425 0.15867603 -0.032798808 -0.1295975
0.16396911 -0.035672452 -0.06853745 0.040647704 -0.11651675 0.10970015 0.10463533 -0.13204953
-0.13677287 -0.014459018 0.07016561 -0.004717738 -0.08438166 0.0039731865 -0.1566073 -0.11773439
-0.1108945 0.13754907 0.14723809 -0.056299888 0.0070156106 0.0737752 0.01940391 -0.084243335

embedding_net.conv1.bias f4 [100]
00000000: 4d16 76bd c005 1ebe 4bb9 d0bd a9b2 2abe
00000010: 0966 02bd 3956 08be e339 98bd 8295 003e
00000020: ae0a 20be 14df cc3d b708 eabb 42ed b6bd
00000030: b1f0 2b3e edc6 093e 5849 bfbd 41bf a63b
00000040: dc31 85bd 53be 1cbe ad80 ab3d dfc9 b73d
00000050: 026c 0b3e bb2c cebd ced7 44bd d112 b13d
00000060: 23aa c0bd 9e8a 153e e241 9f3b 176f fd3c
00000070: efa2 753d 59d6 c73d 6876 2f3d d957 c9bd
00000080: 76f0 1d3e a4d7 9abd 455d a33c 6116 21be
00000090: ee18 94bd 6991 e53d f284 7b3c be9b 5e3c
000000a0: d8ec 8cbd 62e8 0abe 60ca fc3d 2eb0 eebd
000000b0: 24ae f83d 3d27 d7bd fabf 0c3e d2b4 2e3c
000000c0: 577f dbbd 1c05 273e 76af 093e 6aa1 b7bd
000000d0: f2fb c0bd c838 41bd 23ec 82bb bdde e03d
000000e0: e18c d0bd ec0d a33d 6631 133e 21d2 623d
000000f0: 6961 80bd 2504 203e cbc7 7fbd 1687 cc3c
00000100: 8d38 e8bd 4317 7f3d 8e5d 27be d2b8 683d
00000110: 9cc9 f9bd c855 21be 5a16 82bd 2413 f13d
00000120: 984f b53d 6e59 0cbe 0323 bd3d bddf 36bd
00000130: 9c6d a7bd 2663 22be c703 a9bd dad0 1c3e
00000140: cfba d3bd 6c9b ef3d 2c47 6ebd 58e1 1dbe
00000150: 998c cebd 515d 7a3d 923a 913d c3dc 0e3d
00000160: dc7b 2b3d 8004 65bd 53f2 ddbb 1ded 013d
00000170: 314b b3bc 910e 0e3e 8c1e 0d3e 22de 1b3e
00000180: 5133 193e 71e1 25be 8ebb 53bd 2b82 da3d
-0.06007986 -0.15431881 -0.10191592 -0.16669716 -0.03183559 -0.13314141 -0.07432916 0.12557033
-0.15629074 0.10003486 -0.007142152 -0.08931972 0.16791035 0.1345479 -0.09340161 0.005088717
-0.065036505 -0.15306978 0.08374152 0.08974051 0.1361542 -0.100671254 -0.04805737 0.08646167
-0.09407451 0.1460366 0.0048601488 0.03093676 0.05996984 0.097576804 0.04283753 -0.09831209
0.1542376 -0.075606614 0.019941935 -0.15731193 -0.072313175 0.112093754 0.015351521 0.0135869365
-0.06881112 -0.1356521 0.123432875 -0.11654697 0.1214259 -0.10505531 0.13745108 0.010663228
-0.107176475 0.16310543 0.1344584 -0.08966334 -0.09423055 -0.04717329 -0.003995435 0.10979984
-0.101831205 0.0796164 0.14374313 0.055376176 -0.062685795 0.15626581 -0.062446397 0.024966758
-0.11338911 0.062278043 -0.16344282 0.056816883 -0.12196657 -0.15755379 -0.063519195 0.11771229
0.08853072 -0.1370599 0.092351936 -0.044646967 -0.08175203 -0.15858135 -0.082526736 0.15314046
-0.10338365 0.11699566 -0.058173344 -0.15417993 -0.100854106 0.06112415 0.070912495 0.034878504
0.04186617 -0.055912495 -0.006773272 0.03172027 -0.02188644 0.13872744 0.13781184 0.15221456
0.14960982 -0.1619928 -0.051692538 0.10669359

embedding_net.conv2.weight f4 [50, 100, 3]
00000000: b95a 113d b0bb 5d3b 41ca 833c d1a5 fa3b
00000010: 8a5e 0e3c 959d a5bc b9ac b7bb 022a ef3c
00000020: 7e02 5e3d 517f 5abc eca9 1c3d b8ea 623d
00000030: 01ad 153c b3f2 2e3d 6569 d63c 0ea8 4ebd
00000040: c133 10bd 8e0b b93c fb9b b9bc 1295 90bc
00000050: ddcb 84bc 3184 5bbd a2cf 20bc 16ce 623b
00000060: 5dce 19bc ab18 19bd ba82 22bd 0076 2f3d
00000070: 5325 363d cbbc 02bd d0a3 28bd 142d 64bc
00000080: 4018 0ebd f569 66bd 63eb 2cbd 5881 4a3d
00000090: d4c9 b5bc a1d4 113d 2fb6 713c 6713 9ebb
000000a0: 7cdd b3bc 3314 1d3d 52be 6abc 3cd5 1cbd
000000b0: 0869 b63c 6df0 d9bc 876b e03c 9175 7c3c
000000c0: fa73 5cbd c621 02bd fea0 b43b 97e0 1fbb
000000d0: 06ba d43b e331 ebbb 0ff7 7bbc 3abb 32bc
000000e0: c948 d33c 3e09 bfbc 994f 9fbc 1638 563d
000000f0: 5364 2e3d 56f6 fa3c c344 1e3d 6d5e 1bbd
00000100: d371 80bc c56e 2dbd f9e9 f4bc afe5 c93c
00000110: 1204 453d 34d5 60bd 397c 233d 82b3 bcbc
00000120: 50ea 3c3d 5e0d 483c 0f5c 16bd 0ce3 103d
00000130: c045 1dbd 16ce d9bc 6967 06bd 8137 b53c
00000140: b748 953c c3ca fdbc 8d30 0fbd 9141 123c
00000150: 157f d83c b0f7 e33c 336d 41bd ba0b 9d3c
00000160: f864 57bd f32b 4bbc 9f2c d1bb 3419 5fbd
00000170: 8be4 fc3c 5713 2dbd 17cc 303c ff66 efbc
00000180: 908e ba3c d5a3 373c 331d b43c 096c cbbb
00000190: 9cd3 d7bc 2005 bdbc 8ec3 1c3d 8ed7 203c
000001a0: 3852 f4bc 4f22 02bd 7395 7dbc 478b c7bc
000001b0: cd6d b0bc 06cb 5d3d f68e f6bc ce55 553d
000001c0: 1f37 303d 9aa5 1dbd 8683 cb3c 8252 5abd
000001d0: 64f3 993b 3dba 29bd a863 28bd 989c 643c
000001e0: 6fab c53c 1ef1 78bc 1d12 fcbb 43ba a63c
000001f0: 560b 63bd dd71 0e3b 718e 64bd 6a3a 9fbc
00000200: 5a48 4b3d c78b c4bc 9a78 ebbc 33b8 68bd
00000210: 9368 463d 8997 4e3c 3266 57bd 6d69 80bc
00000220: 86c5 363d f508 6abd 120e 983b 5506 30bd
00000230: 6c88 34bd 87e8 5bbc 796e b13c cd7a 6ebd
00000240: c106 03bd 1556 3dbd fc64 44bc 4a4a 05bd
00000250: 0da0 d13c 7cc0 abbb cd48 22bc 2c60 59bd
00000260: 8d79 abba 4957 65bd f100 54bd de6b c13c
00000270: 4d86 6ebd f969 f13a d475 543c d90b 61bb
00000280: 3c0f 1f3d 73a8 4dbc 1a33 1f3d 0ae2 0abd
00000290: 27c6 3fbd 1791 30bd 092c d53c b84f f1b9
000002a0: 823e e6bb edcf cebb 2dd5 bfbc 3626 ed3b
000002b0: 0f92 0cbc 869b 30bc 1431 d5bc 9b36 20bd
000002c0: b6f4 d03b ef81 b6bb c5de 75bd 28d7 2b3d
000002d0: 0c2b d63c 7f69 113d 4590 8b3c 8b89 a0bc
000002e0: 37c6 803c cdbe bc3c 1d03 b93c ebba 99bc
000002f0: 9dca f7bc dffc 0ebb 725f 3a3d 6ca8 01bd
00000300: 06f9 c4bc ccf0 efbc 5819 48bd 0bc1 aa3c
00000310: 90b9 19bc 7103 9f3b fec0 663d 0c5e 163c
00000320: 9c66 383d c662 063c d6d3 edbb b358 0b3d
00000330: 098c 903c 7fb0 dcbb cb12 fe3a 101c e6bc
00000340: 5b35 97bb bad3 1c3d dc5e 483d 41a1 593d
00000350: 6c8f 2cbd 14f6 8dbb 19f9 a83c 98fc 173d
00000360: a4e9 0ebd cfa3 49bd 27fe 843c e8c4 16bd
00000370: 07ae 5d3d 83db 1fbd 7f87 b53c 047c c2bc
00000380: bc8e 58bd 383b 76bd b6ca a83c de44 b4bc
00000390: 7a0f 1bbd d785 663d b417 083d d3b0 1b3d
000003a0: a290 d4bc e716 3dbb 86ed 503c 2ded dabb
000003b0: 2cb7 e23c 7151 6ebc 900f 59bc 8418 d0bb
000003c0: 3510 bbbc 6eb2 22bd bfeb d9bb eebd b2bc
000003d0: d07a a0bc 425c dcbc f402 db3c 30ba 19bc
000003e0: 0029 363d e09d 8a3c 3e65 9dbc 9247 6b3d
000003f0: eaec b3bc 03df 56bd e37f 123d 3e67 07bd
0.03548691 0.0033833794 0.016087653 0.0076491614 0.008689532 -0.020216743 -0.005605307 0.029194836
0.054201595 -0.013336019 0.038247988 0.055399626 0.009135486 0.042711925 0.026173303 -0.05045324
-0.035205606 0.022588518 -0.022657385 -0.017649207 -0.01621049 -0.053592864 -0.0098151285 0.00346077
-0.00938758 -0.03737704 -0.03967545 0.042837143 0.04446919 -0.03191833 -0.04117185 -0.013926763
-0.034691095 -0.056253392 -0.04221667 0.049439758 -0.022190966 0.03560317 0.014752909 -0.0048240903
-0.021956198 0.03834934 -0.014327602 -0.038289294 0.02226688 -0.026603902 0.027395023 0.015408889
-0.05382154 -0.03177049 0.005512356 -0.002439534 0.0064919023 -0.007177578 -0.015378728 -0.010908896
0.025791543 -0.023319837 -0.019447135 0.05229958 0.042576145 0.03063504 0.038639795 -0.03793185
-0.015679276 -0.042341966 -0.029896723 0.024645654 0.048099585 -0.054890826 0.03991339 -0.023034815
0.046121895 0.012210218 -0.036708888 0.03537278 -0.038396597 -0.026587527 -0.032813463 0.022121193
0.01822315 -0.030980473 -0.03495841 0.008926765 0.026427785 0.027828068 -0.04722328 0.01917063
-0.052586526 -0.012400615 -0.006383493 -0.054467395 0.030870697 -0.042254772 0.010790846 -0.029223917
0.022773057 0.011208494 0.02198658 -0.006207947 -0.02634602 -0.023073733 0.038272433 0.009817017
-0.029824361 -0.031771 -0.015477526 -0.024358405 -0.021536732 0.054148696 -0.030097466 0.052083783
0.043021318 -0.038488008 0.024842989 -0.05330134 0.004698204 -0.041437376 -0.041110665 0.0139533505
0.024129597 -0.015194206 -0.007692589 0.020352488 -0.055430733 0.0021735348 -0.055799905 -0.019437034
0.049629547 -0.023992432 -0.02874403 -0.05681629 0.048439573 0.012609371 -0.052587695 -0.01567527
0.044621967 -0.05713745 0.004640349 -0.04297479 -0.044075415 -0.013422138 0.021659123 -0.05822258
-0.031988863 -0.046224672 -0.011986967 -0.03254155 0.025589013 -0.005241452 -0.009905052 -0.053070232
-0.001308249 -0.055991445 -0.05175871 0.023611005 -0.058233548 0.0018418423 0.012967546 -0.0034339337
0.038832888 -0.012552368 0.038867094 -0.033906974 -0.046819832 -0.04310712 0.026021974 -0.00046026497
-0.0070264945 -0.006311408 -0.02341708 0.007237221 -0.008579745 -0.010779267 -0.026024379 -0.039114576
0.006376828 -0.0055696885 -0.060026903 0.041953236 0.026143573 0.035501 0.017036567 -0.019596836
0.015719516 0.0230402 0.022584492 -0.018765887 -0.03024798 -0.0021818203 0.04550118 -0.03165476
-0.024044525 -0.029289626 -0.048852295 0.020844003 -0.00938262 0.004852705 0.056336395 0.009177696
0.04501973 0.00820226 -0.007257919 0.034020137 0.017644899 -0.006734907 0.0019384263 -0.028089553
-0.0046145148 0.038287856 0.04891859 0.0531323 -0.042128965 -0.0043323133 0.020626592 0.037106127
-0.034890786 -0.049228486 0.01623447 -0.03680888 0.054121044 -0.039027702 0.022159336 -0.023740776
-0.052870497 -0.06011507 0.020604473 -0.022005495 -0.037856556 0.056279983 0.03322573 0.03801043
-0.025947873 -0.0028852762 0.0127519425 -0.0066811056 0.027675234 -0.014545784 -0.013248339 -0.0063505787
-0.022834877 -0.039720945 -0.0066504176 -0.021819081 -0.019589812 -0.02689946 0.026734807 -0.009382769
0.044472694 0.016920984 -0.019213315 0.0574413 -0.021963555 -0.052458774 0.035766494 -0.033057444

embedding_net.conv2.bias f4 [50]
00000000: da40 433b 3ec5 ecbc 6c45 ecbc 6cd6 2bbd
00000010: 4b92 043d b64f c03c 5241 2ab8 6d86 3ebc
00000020: a16d c2bc bc09 543c c385 fe3c 91b7 9fbb
00000030: 740b 82bb 3666 8f3c ccf6 fd3c d33b 28bd
00000040: 6772 8ebb e4ef eabc e970 0a3d c7ab f4bc
00000050: 06c3 28bc 5731 00bd dab7 45bd f152 c4bc
00000060: 40d2 1a3d 36fd d53c 46a5 a53a e5dd 6fbd
00000070: 0438 8a3c e3ab cdbc 2129 67bd f60e c53c
00000080: 4999 093d 9057 943c 59e1 7cbc 1416 15bd
00000090: 7250 10bc 8f5b 1cbc 6b5a 6bbc 5137 cfbc
000000a0: 1f30 b73b 0cbe 00bd 918f 64bd 7ca2 2f3d
000000b0: 143d 093d ba70 d4bc 7373 c03c 95d9 e83c
000000c0: f666 3c3d 2aa6 7ebc
0.0029793293 -0.028902646 -0.028841697 -0.041952536 0.03236608 0.02347551 -4.0591993e-05 -0.011628729
-0.023733916 0.012941774 0.031069642 -0.0048741777 -0.0039686505 0.017504793 0.031001471 -0.041072678
-0.004347134 -0.028678842 0.033799086 -0.029867066 -0.010300403 -0.031297054 -0.048271038 -0.02396533
0.037798166 0.026121717 0.0012637756 -0.058561224 0.016872413 -0.025106376 -0.056435708 0.024054985
0.03359345 0.01810816 -0.015434586 -0.03639801 -0.008808242 -0.009543314 -0.014364819 -0.025294932
0.0055904533 -0.031431243 -0.055800978 0.042879567 0.033505514 -0.025932658 0.02349255 0.028424064
0.04599663 -0.015542546

embedding_net.fc1.weight f4 [70, 100]
00000000: dd7a 8ebd 2cd0 bb3b 136b 33bd 4045 aa3c
00000010: 1838 5dbd 043b 9cbd bae5 ab3c 8edb 8bbd
00000020: fe49 b03d cc3b bcbd ad21 b53d d88b 74bd
00000030: 5ea1 71bc d9da a03d fb8e 583d efa0 81bd
00000040: 281a a53d 1967 c43d 5b47 943d 582d d6bb
00000050: 1acd a1bd 842d 343b dc7f fbbc e290 583c
00000060: 5aaf 05bd 1a46 73ba 0087 7c3d 08a7 ca3c
00000070: d5f3 f03c 6224 a7bc 6ce2 a2bd 5564 a4bd
00000080: eb56 833d 4255 7bbd a5b5 ae3d 6452 c53d
00000090: 0b8a 083d ba22 bb3c ad4d 5abd 2409 8abd
000000a0: b1de fa3b ff90 11bc 19cd bf3d 0da9 a8bd
000000b0: 5454 0cbd 0fac 5a3c 07e7 f13c 2dc8 a0bc
000000c0: f292 3cbd d4e3 12bd 0941 7fbc 5918 86bd
000000d0: fa8e b33d dc1a ac3d b9c5 d438 0a69 7f3c
000000e0: 0521 9ebc b24d 47bd f33a 763d 6d18 6d3d
000000f0: 7c3d 9c3d 599e f2bc d4a2 3a3d a00d 123d
00000100: f73a 23bd c21f 36bd 30c0 5a3d 6cc0 2d3c
00000110: f1ee 96bd 9b35 96bd bcf5 903d 42e1 42bd
00000120: fc99 b63d 6952 cc3c 36d2 763d 1036 07bd
00000130: 3999 b1bd 7db2 b9bd cdb6 bbbd 1e6c 543d
00000140: d864 d83c d27e b4bc 0877 af3d 8f3c a9bd
00000150: bb17 adbd ab87 bfbd dfb5 53bb d7c7 c5bc
00000160: 54f9 093d 2757 f9bb 2877 8ebd be9f dabc
00000170: 33ba 8abd 19f8 a8bd 0d83 953d 515b edbb
00000180: b96a adbd f183 a33d f1af 973d 0970 9d3d
00000190: 9811 1e3c ef0b 543d 2d26 953d 6bf6 b0bd
000001a0: 6065 133d 4cf0 aabd f0bc 38bb b69e 3e3d
000001b0: bfe1 a93d f7e5 89bd 5bcf d8ba f5dd 39bd
000001c0: 17c9 13bc a692 4ebb b227 8abd 49d4 75bd
000001d0: 6a89 08bc 7696 ca3d 7854 a7bd 79a5 8cbd
000001e0: 5bd5 9b3d 2f48 9ebd 7025 57bd fddf 043c
000001f0: 83cf 493d 4509 07bd 8164 6abc cc61 dcbc
00000200: ceaa 62bd db42 523d 5e27 4bbc ef5f c83d
00000210: d792 c0bd 16d8 74bd 22d1 7e3d 0e4f bbbd
00000220: 108f 983d 4b79 05bc 05bd 933c fcaf be3d
00000230: 00ba 413d 820f 22bd 8ee6 92bd 265b 8dbc
00000240: 427c 68bd 2b10 533d b00e 07bc 86e6 c9bb
00000250: 1881 93bd 3051 093c 3a44 aabd 1016 82bd
00000260: 7397 e03c eb13 b8bb 32d5 10bc b0ce a93d
00000270: 3e2e c8bd cdaf 2b3d aee8 993d 81d1 05bd
00000280: bdf7 113d a233 41bd 3a90 193d a08d 83bd
00000290: 69f9 b7bd 3067 5a3d 54cd abbc c40a 0dbd
000002a0: 9898 a5bc 327f 563d 7503 93bd 93dc 78bc
000002b0: c6e5 86bd 0caf aabc ebe6 563d 2b16 4fbd
000002c0: 4fde 8cbc cef8 1f3d 87cc 10bc 2cf8 44bd
000002d0: 5308 963b d9fc 443d 6256 9e3c 1691 8d3d
000002e0: 7bd2 2b3d 8a81 abbd 4e52 73bd 31bd c83c
000002f0: 424f 60bd 60a7 86bc dd06 57bd 0e3a 86bd
00000300: 515c 9fbd a3a5 9dbd 4ba6 78bc a1e6 c5bd
00000310: 3a01 533d 1914 00bc a9bf adbc 6830 843d
00000320: 02bb 613d 8a2a b3bd 5a2c 84bd 3e58 243c
00000330: c1c3 85bc d759 853c 4bf3 a7bc dc0b 34bd
00000340: 721c a63d 228c 83bd 4c1f 323c e75c a8bd
00000350: 5eeb 90bd 5475 08bd 2242 263d 7dd6 033d
00000360: f729 c53d 0d82 c9bd 56ac 353d 6ac6 453c
00000370: 54b9 cc3c 7246 0a3d 087f 63bc 6324 eb3c
00000380: fc47 36bc 4202 ecbc 39d3 223d da95 cb3d
00000390: c8fb 9bbc 1a18 0f3d f68d 413c 7cee 8bbc
000003a0: 8caa cb3d 7731 cebc d46e 423d e67e 163d
000003b0: 2292 f338 493d c9bc d42e c3bd 8f53 8d3d
000003c0: 34eb 0a3d d366 40bd 03b8 a5bd fa04 93bd
000003d0: f559 c6bd 9614 2f3d 51ba e33b 897b 9abd
000003e0: edd4 97bd 7d9a b7bd 9d9f 15bd 3298 5cbd
000003f0: d084 553d 3350 44bd c858 383c 6b89 883b
-0.06957028 0.005731603 -0.043803286 0.020784974 -0.054008573 -0.07628444 0.020983566 -0.06828986
0.08607863 -0.09191093 0.08844314 -0.059703678 -0.014747946 0.07854242 0.05287073 -0.06329524
0.080616295 0.09589977 0.072401725 -0.006536167 -0.07900448 0.002749295 -0.030700617 0.0132181365
-0.03263793 -0.00092801603 0.061652184 0.02473785 0.029413143 -0.02040309 -0.07953343 -0.08026949
0.06413063 -0.061360605 0.0853074 0.096348554 0.033334773 0.022843707 -0.053296734 -0.06740025
0.0076559414 -0.008884667 0.09365291 -0.08235369 -0.03426011 0.013346686 0.029529108 -0.019626701
-0.046038575 -0.035861805 -0.01557947 -0.06547613 0.08767505 0.084035605 0.000101457765 0.015589008
-0.019302854 -0.04865808 0.060114812 0.057884622 0.07628915 -0.029616522 0.04556544 0.035657525
-0.039851155 -0.04446388 0.05340594 0.010604959 -0.07369793 -0.07334443 0.0707812 -0.047578104
0.08916089 0.02494164 0.060259067 -0.033010542 -0.08671803 -0.09067247 -0.09165726 0.05186092
0.026415274 -0.022033129 0.08567625 -0.08263504 -0.08451792 -0.093520485 -0.0032304449 -0.024143143
0.033685043 -0.0076092663 -0.06956321 -0.0266875 -0.06773796 -0.08250446 0.073003866 -0.007243552
-0.08467621 0.0798415 0.07406605 0.07687385 0.009647749 0.051769193 0.07282672 -0.086407505
0.03598535 -0.08346614 -0.0028188787 0.046538077 0.08295011 -0.067333154 -0.0016541289 -0.04537769
-0.0090201115 -0.0031520515 -0.067458525 -0.060016904 -0.008333543 0.098919794 -0.08170408 -0.06867499
0.07609054 -0.07728612 -0.052525938 0.008110044 0.049270164 -0.032967824 -0.014306189 -0.026902102
-0.055338673 0.05133329 -0.012399523 0.09783923 -0.094030075 -0.059776388 0.062211163 -0.09145938
0.07449162 -0.008146594 0.018034467 0.0931091 0.047296524 -0.03956557 -0.07172881 -0.017255377
-0.056759126 0.05152909 -0.008243248 -0.0061615137 -0.07202357 0.008381173 -0.083137944 -0.06351864
0.027415967 -0.005617609 -0.008839892 0.08291376 -0.09774445 0.041915704 0.07515083 -0.0326705
0.035636652 -0.04716838 0.03749106 -0.06423497 -0.08983118 0.053321064 -0.020971932 -0.034434095
-0.020214364 0.052367397 -0.07178394 -0.015189308 -0.065867946 -0.020835422 0.052466314 -0.05055825
-0.017195849 0.039055638 -0.008837826 -0.048088238 0.004578629 0.048092697 0.0193283 0.069124386
0.041948777 -0.08374317 -0.059404664 0.024504276 -0.054763086 -0.016437232 -0.05249678 -0.06554042
-0.0778128 -0.07697608 -0.015176366 -0.096631296 0.05151484 -0.007817292 -0.021209555 0.06454545
0.055109985 -0.08748348 -0.06453772 0.010030804 -0.016328694 0.01627819 -0.020501753 -0.043956622
0.08110894 -0.064232126 0.01087172 -0.08220845 -0.07076143 -0.033315018 0.040590413 0.032186974
0.09627145 -0.09839258 0.044353805 0.012071231 0.024990715 0.033758588 -0.013885267 0.028703874
-0.011125561 -0.02880967 0.03975222 0.09940691 -0.019040957 0.034935094 0.011813631 -0.017081492
0.099446386 -0.025170071 0.047468975 0.036742114 0.00011614362 -0.024565356 -0.09530416 0.06900703
0.033915713 -0.04697306 -0.08091738 -0.071786836 -0.09685127 0.04274424 0.006949701 -0.07543094
-0.07413659 -0.08965013 -0.036529172 -0.053856082 0.052128613 -0.047928046 0.011251636 0.004166772

embedding_net.fc1.bias f4 [70]
00000000: 9df8 99bd 1587 42bd 5c2f 843b 318a 4bbd
00000010: d109 58bd 8aa9 92bc 06a8 13bb 00f5 5e3c
00000020: 1295 b3bd d20b 90bd ce87 c1bd 4620 f93a
00000030: 4dc0 013d 1e13 cf3c 430d 73bd 231a adbd
00000040: 882d c23c 1e00 b4bd f166 c23c 9cf6 c53c
00000050: f959 36bd f64d 0dbd fb88 cabd b03f 2dbd
00000060: 6a6e f73c 75d2 42bc c04c 373c c6a3 9f3c
00000070: 8e60 20bc beef 9d3c b868 ccbd 1435 013b
00000080: f4f8 493c abb8 6abd 3026 323c bff6 81bd
00000090: c071 b63c ebfc 83bc e006 553c 8302 29bd
000000a0: 4077 81bb c862 ecbc dc8a c33c db88 cbbd
000000b0: 87bc 1a3c 0474 93bd 3cc6 a4bc 8c13 99bd
000000c0: 7994 25bd b085 3fbd b161 613c d2cb 3bba
000000d0: 525d bdbd 338b 79bc 52e6 56bd 88f4 09bd
000000e0: 1c23 fa3c d798 b7bd 8064 0cbd 777f 9bbd
000000f0: ad0b 01bd 05ee 933c a27f b6bd 13b5 bbbd
00000100: 351f 38bd 3058 3fbd 1586 123d 843c d2bc
00000110: 6c9a 953c 7211 acbc
-0.07518122 -0.047492106 0.004033966 -0.049692336 -0.052743737 -0.017903108 -0.002253057 0.013608217
-0.08768667 -0.070335045 -0.09449731 0.0019006811 0.031677533 0.02527767 -0.05933882 -0.08452251
0.023703352 -0.08789085 0.023730727 0.024165444 -0.0445194 -0.034498177 -0.09889408 -0.042297065
0.030204017 -0.011890997 0.011187732 0.019487273 -0.009788645 0.019279357 -0.09980911 0.0019715475
0.012327421 -0.05730502 0.010873362 -0.06345891 0.022271037 -0.016111812 0.013002127 -0.04126216
-0.0039509833 -0.028855696 0.023869924 -0.099382125 0.0094443625 -0.071998626 -0.020114057 -0.074744314
-0.040424798 -0.046758354 0.013756202 -0.00071638555 -0.09246315 -0.015230942 -0.052465744 -0.03368047
0.03053432 -0.08964699 -0.03427553 -0.07592671 -0.031505276 0.018057832 -0.08911063 -0.091653965
-0.044951636 -0.04671496 0.0357724 -0.025663622 0.01826211 -0.021004412

embedding_net.fc2.weight f4 [50, 70]
00000000: 6a70 983d 7171 a53d 81f5 40bd fecf 2bbd
00000010: e451 6a3d 3ca5 e8bd 87a2 703b f425 acbd
00000020: bc37 c93c cefb 56bd cd97 c6bd 244c f23d
00000030: 0600 353d 36fd e1bd 3367 3a3c 2074 a1bc
00000040: 2031 bdbd d613 26bd 5a95 953d 44e5 05bd
00000050: ced5 fabc 4137 973d ce7a 9e3c 7662 dd3d
00000060: 775f a2bc 063d 093d 5a60 75bd c262 e43d
00000070: 4050 813d 8f2f a13c 2064 ae3d ae45 c1bd
00000080: 2d91 e2bd d3f3 8abd 12a2 72bd 17ef e53c
00000090: a270 693d 32b7 50bd 8c33 8a3d 8735 e23c
000000a0: 3858 bc3c d158 b03d 4471 9c3c 038d d33d
000000b0: b0c4 e93c e5c6 fe3c 47bb c63d 09d8 1abd
000000c0: 49eb d6bd c71a e93d 7c4d 7f3d 2aa0 e83d
000000d0: 97f2 e53d 393b 943d 0c50 10bd f47d 80bc
000000e0: 610e dabd 82f0 a33d b1c5 cc3d 3257 a63d
000000f0: 76d9 b8bd 510b ed3d c86b c3bc f54e 2e3d
00000100: cbd7 cc3d 2b41 ec3d 6d6f 18bd 01c7 f9bb
00000110: ac70 9abd c19a 9c3c 8fd2 e1bb 2089 3ebd
00000120: 29f6 dc3d 13d6 e53d 0990 7c3d 3b3b 64bd
00000130: 86e8 cbbd 4c9b cebc b477 cdbb a13a a53d
00000140: cbc7 f0bc b209 6cbd 29f0 3d3d 95eb f63c
00000150: 4f00 8f3d e56f ae3d 7e2a a33d 110e 8e3c
00000160: 5635 16bd 292c 583d 590f 00bc faab c73d
00000170: 6506 9ebd dbe7 313d ae1f f0bd 9d1a 2dbd
00000180: 68b6 f13c f383 d0bd fc24 8dbd 7873 c6bc
00000190: 23b3 d93d 7fb3 17bd 4fb4 9ebb 87d3 ab3d
000001a0: fd49 ca3d 67e7 8d3d 8f68 99bd d15d d83d
000001b0: 9180 79bc 24e7 a83b 632c 9e3c f49a 87bd
000001c0: 8389 de3d 182b 803d b4fa 08bd e98f 253c
000001d0: ebf4 b33d 9041 a73d 5ae5 e83d 6dcc 5bbd
000001e0: fabf 383b f427 753d 0e17 e73d 0c7d c6bd
000001f0: 8bb7 85bd da11 a43d 9503 a63c 0070 f2bd
00000200: 2c08 4ebd 187f 37bb 18b6 b93d 4eeb a43b
00000210: 9877 073d 4077 94bd 8d8d 1b3c b787 8cbd
00000220: 6eaa 913c 3359 da3d c88f 373d f3e2 9b3a
00000230: 257f 6b3c fed2 69bc 3d8c b2bd a5aa a43d
00000240: 9750 fdba 3386 a43d 86dc 99bd 9ad9 693c
00000250: efd8 c4bd 53fa 8bbc 00b5 90bd cb97 e6bd
00000260: e42c f63b 48cc 4d3d f27a 01bd 8486 953c
00000270: 7793 873c c2dc 573d 8697 2fbc 50b8 973d
00000280: 2d7e d83c 7759 2b3c 6b47 bebd 4f8e 5cbd
00000290: 0e2d 16bd fc0d efbd 0a92 673d 3855 3cbd
000002a0: ae27 e7bd 0832 973d 3a2e 19bd dfdd 413d
000002b0: 1287 423d 756d c7bb 5222 76bd d660 633b
000002c0: 7ce8 aebb 2d92 b6bd 8b1a 99bd 476d 42bd
000002d0: e83b c33d 36d3 66bd f81a 81bd fe2f 323d
000002e0: 1a9b a43d 7a0d cabd d28a b9bd 337c 33bd
000002f0: f1c4 8dbd cc89 a5bb a9ae 9bbd ec5a 5b3d
00000300: 08c9 56bc 4825 a33c e41f 98bc de16 eb3a
00000310: e68e a03c 60f7 bcbc 2e6d a0bd c8e7 ab3d
00000320: 22be e43d df3a e1bd 38ae f6bc 8a64 89bd
00000330: 61bc dfbd a0fe a1bd b5d3 b43d 1a6c e73d
00000340: 38db b83b d419 503d 8ca1 643d 38c9 743d
00000350: a4c1 b83d 5c87 583b 6432 e1bd 4a24 e43d
00000360: a4be 6f3a 0c47 803c 78ae 843d f661 2cbd
00000370: 0549 88bd fcd2 a8bd b613 98bc 224e 4c3d
00000380: 296d 22bc 2dc0 733d 4145 0c3c d6c0 aa3c
00000390: cf77 9abd 903d cb3b 477a 42bd 5d25 243d
000003a0: fb61 f13d dca5 bdbd 7551 e9bd cf74 c2bd
000003b0: a1f2 1abd 2f92 a0bd 4d37 883c 1c0e ff3b
000003c0: ecbf 62bc 2e17 6abd a702 d53d 01ea e03c
000003d0: 9e93 eb3c 5a2e 633d a503 da3d 6e90 63bd
000003e0: de5f d03d 9c51 9b3d 8fc8 e1bc 0f14 003a
000003f0: 8a49 b2bd 935b 903d 6e07 ef3d 63a2 223d
0.07443316 0.08078278 -0.04710913 -0.041946404 0.057207003 -0.11359641 0.0036717968 -0.084056765
0.024562709 -0.052486233 -0.096969225 0.11830929 0.044189475 -0.11034624 0.011377144 -0.019708693
-0.092378855 -0.04054626 0.07303877 -0.032689348 -0.030619528 0.07383586 0.019345667 0.108097956
-0.019820912 0.033505462 -0.05990634 0.11151649 0.063141346 0.019675998 0.08515191 -0.094371185
-0.11062846 -0.06784787 -0.059236594 0.028068108 0.05699218 -0.05095596 0.06748113 0.027613414
0.022991285 0.086106904 0.019096978 0.1032963 0.02853617 0.0311007 0.09703689 -0.037803683
-0.10494096 0.113820605 0.062329754 0.11358674 0.11227911 0.07237858 -0.03523259 -0.01568506
-0.10647274 0.080048576 0.09998644 0.081221 -0.090258524 0.11574424 -0.023855105 0.042555768
0.10002097 0.11535867 -0.03721564 -0.0076226 -0.07541022 0.019116761 -0.0068915556 -0.04651749
0.10789139 0.11222472 0.0616608 -0.05572055 -0.0995646 -0.025220536 -0.0062703732 0.08067823
-0.029392144 -0.057626434 0.046371613 0.030141631 0.06982481 0.08517436 0.07967089 0.017340692
-0.03667196 0.05277649 -0.007816159 0.09749599 -0.077160634 0.043434005 -0.117247924 -0.04226171
0.029505923 -0.10181417 -0.0689182 -0.024224982 0.10629871 -0.037036415 -0.004843272 0.08389955
0.098773934 0.06928902 -0.07490646 0.10564769 -0.0152284065 0.0051545072 0.019308275 -0.06621352
0.10866072 0.062582195 -0.033442214 0.010105112 0.08786949 0.08166802 0.1137187 -0.053661752
0.0028190599 0.059852555 0.11283694 -0.096918195 -0.06529149 0.080112174 0.02026538 -0.118377686
-0.050300762 -0.0027999338 0.09067935 0.0050329333 0.033073038 -0.07249308 0.009494198 -0.06861823
0.017781463 0.10661545 0.044814855 0.0011893198 0.014373575 -0.014271496 -0.087181546 0.0804036
-0.0019326386 0.08033409 -0.07512765 0.014273072 -0.09611689 -0.017087137 -0.07065773 -0.11259421
0.0075126756 0.050243646 -0.03161139 0.018252619 0.016549809 0.052700765 -0.010717278 0.07408202
0.026427353 0.010458342 -0.09290966 -0.053846654 -0.03666406 -0.11672589 0.056535758 -0.04597971
-0.11286865 0.073825896 -0.0373976 0.047330733 0.047492094 -0.0060860463 -0.060091324 0.003469517
-0.005337773 -0.089145996 -0.07475766 -0.047467496 0.095329106 -0.05635377 -0.06303972 0.0435028
0.08037396 -0.09865852 -0.09059681 -0.043819617 -0.06922329 -0.005051827 -0.07601673 0.053553507
-0.013109453 0.019915238 -0.018569894 0.0017935892 0.01959939 -0.023067176 -0.078333244 0.08393818
0.111690775 -0.10997557 -0.03011237 -0.067086294 -0.10924602 -0.07909894 0.088294424 0.112999156
0.0056413673 0.05080588 0.055818126 0.05976221 0.09021309 0.0033039665 -0.109959394 0.11139734
0.0009145534 0.015658878 0.0647859 -0.04208561 -0.06654552 -0.08243367 -0.018564086 0.0498792
-0.009913721 0.059509445 0.008561433 0.020843904 -0.07542383 0.006202407 -0.047479894 0.040074695
0.117862664 -0.09260151 -0.1139249 -0.09494936 -0.037829045 -0.07840382 0.016627932 0.0077836644
-0.013839703 -0.057151012 0.104008965 0.027455332 0.028756913 0.055464126 0.106452264 -0.05555766
0.10174535 0.07583925 -0.027561454 0.00048858015 -0.08705433 0.070487164 0.11671339 0.039705645

embedding_net.fc2.bias f4 [50]
00000000: 782d 4dbd 21a9 e53d fb96 a33d 26c4 623d
00000010: dcc3 e23c e70c 6fbd a818 3fbc e7ae f43d
00000020: 8203 b6bd dc39 9bbc 6747 bc3d 45d0 a93d
00000030: cb06 dd3d 9db9 81bd 8bee e83d a27e 293d
00000040: 7708 b7bd 8fec a13d 974a dd3d 603b cbbb
00000050: 2142 cbbd 3017 71bd e120 e43d 18ea 053c
00000060: 2e7a 44bd ca54 99bd 8686 72bd d867 9abd
00000070: 477a d1bd abfb bf3d cc63 a1bd c094 34bd
00000080: 88e2 e2bd 1a99 debd 0fea f23d ad9c 953d
00000090: 509f 86bd 72b4 273d 2864 053c b2f5 23bd
000000a0: c20a 1f3d 0010 9dbd 8082 47bb eb2c da3d
000000b0: faed 5e3d 6a0f 373d bbb4 9e3d 895d e23d
000000c0: b465 c2bd 7c13 823c
-0.05009219 0.112138994 0.079877816 0.055362843 0.027681284 -0.058361914 -0.011663593 0.119474225
-0.08887388 -0.018948488 0.091933064 0.082916774 0.10792311 -0.06334231 0.113736235 0.041380532
-0.089371614 0.07906448 0.108052425 -0.0062021464 -0.099247225 -0.058860004 0.11139084 0.008173488
-0.047968082 -0.07486875 -0.059210323 -0.07539338 -0.10228401 0.09374174 -0.07880363 -0.04408717
-0.11078364 -0.108690456 0.118610494 0.07305274 -0.06573355 0.04094357 0.008141555 -0.040029235
0.03882862 -0.076690674 -0.0030442774 0.10653099 0.05442617 0.044692434 0.07749315 0.11052997
-0.094920546 0.015878431
