runs/TripletNet_0917a/checkpoint.pth.tar (torch_old, 258329 bytes, 8 tensors)

embedding_net.conv1.weight f4 [100, 128, 3]
0	0x3cd3b9a6	0.02584536
1	0xbcbc4419	-0.02298169
2	0xbc29dd72	-0.010367738
3	0x3cc1645f	0.023607431
4	0xbd463e02	-0.04839898
5	0x3cf75872	0.030193541
6	0xbc3bf674	-0.011472333
7	0x3ccc27c8	0.024921313
8	0x3bc510f4	0.006013984
9	0xbbff841a	-0.00779773
10	0x3c4df15d	0.0125697525
11	0x3a69ecda	0.0008923538
12	0x3c8aa9a0	0.016926587
13	0xbcb0f2cd	-0.021600151
14	0xbbb31ef4	-0.0054663364
15	0xbbce2014	-0.006290445
16	0x3bb9c5e8	0.005669344
17	0xbafd9f58	-0.0019349856
18	0x3d2d4ae5	0.042307753
19	0x3c5e2313	0.013558167
20	0xbcaedc68	-0.021345332
21	0xbd08be1c	-0.033384427
22	0xbc359b8d	-0.0110844495
23	0xbcc95343	-0.024575835
24	0xbc9a0a42	-0.01880372
25	0x3806565b	3.2028514e-05
26	0x3ce57abe	0.02801263
27	0x3cca8b16	0.024724524
28	0xbd589a36	-0.052881442
29	0x3cea6d14	0.028616466
30	0x3c40eb76	0.011774888
31	0x3d3bec60	0.04587972
32	0x3cfebb6b	0.031095227
33	0xbd4406e3	-0.04785813
34	0xbd4c903d	-0.049942244
35	0xbcd5877c	-0.02606558
36	0x3d2f9e8b	0.042875808
37	0xbc2b2d97	-0.010447881
38	0x3ca2b839	0.019863235
39	0xbcdaa112	-0.026688132
40	0x3d40d516	0.047078215
41	0xbcc95ce6	-0.02458043
42	0x3d0fd488	0.035114795
43	0xbb27557a	-0.0025533126
44	0xbcf5e248	-0.030015126
45	0x3cbcdd6a	0.023054797
46	0xbcf7b5f7	-0.030238135
47	0x3c429bfb	0.011878009
48	0xbc8d6a29	-0.017262535
49	0xbc0520cc	-0.008125495
50	0xbd535640	-0.051595926
51	0xbcdf1f8a	-0.027236719
52	0x3cca348f	0.024683265
53	0xbc7d5fcc	-0.015464734
54	0x3d4659af	0.048425373
55	0x3d1d5973	0.038415384
56	0xbba0af53	-0.004903713
57	0xbd16febe	-0.036864035
58	0x3ce74a55	0.028233686
59	0x3c54b816	0.012983343
60	0xbd14ce09	-0.036329303
61	0x3cf3ae4e	0.0297462
62	0x3ce1e4cb	0.027574917
63	0x3d2ec2cc	0.04266624
64	0xbcff9567	-0.03119917
65	0xbc349266	-0.011021232
66	0xbb3fd683	-0.0029272146
67	0x3bb3ebff	0.0054907794
68	0xbd26b8f4	-0.04070373
69	0xbd1e9f5e	-0.038726203
70	0x3cce7f34	0.02520714
71	0xbc6ef609	-0.014585027
72	0x3cc3edc5	0.023917088
73	0x3af612a6	0.0018773868
74	0x3c80a777	0.015704853
75	0x3c2d47ea	0.010576228
76	0x3c925a7f	0.017865418
77	0x3cc9837e	0.024598833
78	0xbd4b1146	-0.04957702
79	0x3cbee678	0.023303255
80	0xbd1cc239	-0.038271163
81	0xbd253c83	-0.04034091
82	0x3aa1d520	0.0012346841
83	0xbc2cb497	-0.010541103
84	0x3ceb659c	0.028734975
85	0xbcfc35c2	-0.030787352
86	0xbd3eca1c	-0.046579465
87	0x3d104eb2	0.0352313
88	0xbc1b2ffc	-0.00947189
89	0x3cdbb265	0.026818464
90	0x3c6ee290	0.014580384
91	0xbd2446a8	-0.040106446
92	0x3c098f30	0.008395955
93	0x3c2104ad	0.009827775
94	0xbd15c0d9	-0.036560867
95	0xbcda1db0	-0.026625484
96	0x3c803913	0.015652215
97	0x3bf333df	0.007421955
98	0xbcbff5d4	-0.02343265
99	0xbc8171e1	-0.015801372
100	0x3d3dd510	0.04634577
101	0xbc214a9f	-0.009844451
102	0x3ce4ed20	0.027945101
103	0x3cadbcda	0.021208216
104	0xbd0acfdc	-0.033889636
105	0xbd3aad5f	-0.045575496
106	0x3d3f50c8	0.0467079
107	0x39b9dcd9	0.00035450494
108	0x3d07ab75	0.0331225
109	0x3c0c911f	0.008579521
110	0x3c6b279c	0.014352705
111	0x3d18255c	0.037145004
112	0x3d41c5ce	0.047307782
113	0xbd0f344a	-0.034961976
114	0x3bbbb3a0	0.0057282
115	0x3d18f4c5	0.037342805
116	0x3d1455d3	0.03621466
117	0x3cf62402	0.030046467
118	0xbd1e2f3a	-0.038619258
119	0xbd1db833	-0.038505744
120	0xbd0518b6	-0.03249427
121	0x3b9ad3b6	0.004724945
122	0x3d491a84	0.049097553
123	0xbd09a141	-0.03360105
124	0x3cd2e072	0.02574179
125	0xbcf3a08e	-0.029739644
126	0xbd4ad7c4	-0.049522176
127	0xbc4bbd76	-0.012435308
128	0x3ce3c535	0.027803997
129	0x3d3c3194	0.04594572
130	0xbd0799b1	-0.033105556
131	0x3c1fb477	0.009747616
132	0x3d2eb16f	0.042649683
133	0x3d04d495	0.032429297
134	0x3cf9b3b0	0.03048119
135	0x3d0fb7c5	0.035087366
136	0x3cfe8f30	0.031074136
137	0x3c441ffe	0.011970518
138	0xbd159786	-0.036521457
139	0xbd36579e	-0.044517152
140	0xbccd77de	-0.025081571
141	0xbbe61b1c	-0.0070222747
142	0xbd04bfea	-0.032409586
143	0x3c8f6389	0.017503517
144	0x3c8028cc	0.015644453
145	0xbc402ed1	-0.011729912
146	0x3c9f40c2	0.019440059
147	0x3c84114d	0.01612153
148	0x3cfbb1e2	0.03072447
149	0x3d0afc22	0.03393186
150	0xbca0ad58	-0.019613907
151	0x3d42167c	0.047384724
152	0xbc0a5828	-0.00844387
153	0xbb730ddc	-0.0037087118
154	0xbd4dc297	-0.050234403
155	0xbd0f5054	-0.034988716
156	0xbcf89e03	-0.030348783
157	0xbcb7570d	-0.022380376
158	0x3d124c8a	0.035717525
159	0xbc8b0795	-0.016971389
160	0xbd1d7a86	-0.038446926
161	0x3c9e54b8	0.019327506
162	0x3c7f5caf	0.015586062
163	0x3d043940	0.03228116
164	0xbcdeb8f4	-0.027187802
165	0x3c24301f	0.010021239
166	0xbca10490	-0.019655496
167	0xbc4dd51d	-0.012563017
168	0xbd2adbf6	-0.041713677
169	0xbcc77e7e	-0.024352308
170	0xbc895f3e	-0.016769048
171	0x3ca69033	0.020332431
172	0x3bfec8ed	0.007775417
173	0x3c34c5bd	0.011033473
174	0x3d4c5efe	0.04989528
175	0x3d474921	0.048653726
176	0x3d0a17d6	0.033714138
177	0x3a96ba13	0.0011499546
178	0xbd1297f5	-0.03578945
179	0x3d2141a6	0.039369248
180	0xbc57115f	-0.0131267
181	0xbb943761	-0.0045232032
182	0xbd35d49a	-0.044392206
183	0xbc36569f	-0.0111290505
184	0xbd0b8f43	-0.034072172
185	0x3d3ad787	0.0456157
186	0xbd38c8f5	-0.045113523
187	0xbd2777b1	-0.04088563
188	0xbb40f2cc	-0.0029441593
189	0xbce855c1	-0.028361203
190	0x3c8ed326	0.017434668
191	0xbca7c466	-0.020479392
192	0xbcc72dec	-0.02431389
193	0x3b23bf46	0.0024985834
194	0x3d15a0f7	0.03653046
195	0xbd14a032	-0.036285587
196	0x3cc0a2d2	0.023515139
197	0x3d044423	0.032291543
198	0x3d49bd39	0.049252722
199	0xbd15461d	-0.03644382
200	0x3c3dc689	0.011582979
201	0xbd1cc773	-0.038276147
202	0x3d2ffa8d	0.042963553
203	0xbca7432d	-0.020417774
204	0x3cf6eec5	0.030143151
205	0x3a66c9ef	0.0008803894
206	0xbb977bae	-0.004622898
207	0xbb105289	-0.002202185
208	0x3c040af8	0.008059256
209	0x3cbff1b2	0.023430679
210	0x3bf59380	0.00749439
211	0x3c728a7e	0.014803527
212	0xbd3f4e14	-0.04670532
213	0x3d16cdd3	0.036817383
214	0x3d348af0	0.044077814
215	0x3d2b01e0	0.041749835
216	0x3d192025	0.03738417
217	0xbd18464d	-0.03717642
218	0xbc9df6da	-0.019282747
219	0x3d3710d4	0.044693783
220	0xbd2076e1	-0.03917587
221	0x3d3c46fb	0.04596613
222	0xbd250919	-0.04029188
223	0xbd13f13c	-0.03611873
224	0x3ccacf59	0.024757074
225	0xbd168563	-0.0367483
226	0xbc414d3d	-0.0117982
227	0x3d17889e	0.036995523
228	0x3d237a34	0.039911464
229	0x3d4380fe	0.04773044
230	0xbc324b1d	-0.010882166
231	0xbd2511fe	-0.04030036
232	0x3d4af1a2	0.049546845
233	0xbc3dd896	-0.011587283
234	0xbcae2e71	-0.02126238
235	0x3c46ee08	0.012141712
236	0xbd137262	-0.035997756
237	0x3d083c50	0.033260643
238	0x3d01cdf4	0.031690553
239	0xbd2703bd	-0.04077505
240	0xbd2c53ba	-0.042072035
241	0xbb979c65	-0.004626798
242	0x3cae541f	0.021280346
243	0xbad63675	-0.0016343134
244	0xbcd57a15	-0.02605919
245	0x3a7ba598	0.00095995655
246	0xbd44eabc	-0.048075423
247	0xbd145394	-0.03621252
248	0xbd0bcdb9	-0.03413174
249	0x3d2b0f6f	0.041762765
250	0x3d370731	0.044684593
251	0xbc907a68	-0.017636493
252	0x3b07abc0	0.0020701736
253	0x3cb897ce	0.022533324
254	0x3bc19f67	0.005908895
255	0xbcd1f975	-0.025631646

embedding_net.conv1.bias f4 [100]
0	0x3ad651d7	0.0016351294
1	0x3d2d5eaf	0.042326625
2	0x3b1dbc9b	0.0024068716
3	0xbc75523a	-0.014973218
4	0xbc736b1f	-0.014857083
5	0x3c3481da	0.011017287
6	0xbd2af0d8	-0.041733593
7	0x3cad3ddf	0.021147666
8	0xbc639c31	-0.013892219
9	0xbd42bbe9	-0.047542486
10	0x3d2db66d	0.042410303
11	0x3c2a55b9	0.010396414
12	0x3baed7bb	0.0053357757
13	0x3b2dec56	0.0026538572
14	0x3d6798e2	0.056542285
15	0xbd0fc375	-0.03509851
16	0x3c823356	0.01589362
17	0xbb12799b	-0.0022350315
18	0xbbd60470	-0.0065312907
19	0x3c879ef2	0.016555283
20	0x3cdd9f0d	0.02705338
21	0xbd1d248b	-0.03836493
22	0xbc0b8b8d	-0.008517158
23	0x3c0b721d	0.008511093
24	0x3cb0a4af	0.021562902
25	0x3d20c3a6	0.039249085
26	0x3cc2935b	0.023751905
27	0x3ca6b833	0.020351505
28	0x3d383594	0.04497297
29	0xbd0600fd	-0.032715786
30	0x3d0e54e2	0.03474892
31	0xbd491dcf	-0.049100693
32	0x3d16da11	0.036829058
33	0xbd40ceb9	-0.047072146
34	0xbcbccecd	-0.023047829
35	0x3ad156ee	0.0015971342
36	0x3ba26bb1	0.0049566855
37	0xbbdf1ec0	-0.0068090856
38	0xbcc01646	-0.02344812
39	0xbd293087	-0.041306045
40	0x3c580410	0.013184562
41	0xbd0f39df	-0.0349673
42	0xbc8b5e91	-0.017012866
43	0xbb4e859d	-0.0031512745
44	0xbd2d5cc8	-0.04232481
45	0xbcd7d22c	-0.026345335
46	0x3c9176a3	0.017756766
47	0xbd3de11b	-0.046357255
48	0x34bea982	3.551359e-07
49	0xbd4feae6	-0.050761126
50	0xbc8ad650	-0.016947895
51	0xbca200af	-0.019775717
52	0xbccf38aa	-0.025295574
53	0xbd384732	-0.044989772
54	0x3d1d502d	0.03840654
55	0xbce7f58e	-0.028315332
56	0x3d3e7ef0	0.046507776
57	0x3c028929	0.007967272
58	0xbb91e19b	-0.004451943
59	0x3d32831d	0.04358207
60	0xbb211986	-0.0024581864
61	0x3d48849f	0.048954602
62	0xbd132371	-0.03592247
63	0xbcabdbdb	-0.020978859
64	0xbd21428c	-0.039370105
65	0xbbf1179a	-0.00735755
66	0xbb47eb27	-0.0030505152
67	0xbcce98df	-0.025219379
68	0x3d16d602	0.036825188
69	0xbd478202	-0.04870797
70	0xbc57ada4	-0.013163958
71	0xbc1e48ca	-0.009660909
72	0xbc5bf455	-0.0134249525
73	0xbb41f2d5	-0.0029594202
74	0x3cd4f64f	0.025996355
75	0x3ccff7e6	0.025386762
76	0xbc17e0fc	-0.009269949
77	0xbcffd84c	-0.031231068
78	0xbcd1ddb6	-0.025618415
79	0xbc0dc00a	-0.008651743
80	0xb91251ae	-0.00013954073
81	0xbd1ac034	-0.037780955
82	0x3c390fb3	0.011295247
83	0xbc9e059e	-0.019289788
84	0x3d0abea0	0.0338732
85	0xbcfd2620	-0.030901968
86	0xbc161c39	-0.009162002
87	0x3d131c85	0.03591587
88	0x3cb0f50e	0.021601226
89	0xbcf52b99	-0.029928016
90	0xbc954ed4	-0.018226065
91	0xbcb9e2eb	-0.02269121
92	0x3ce6624d	0.028123045
93	0x3c4b4804	0.012407307
94	0x3ccf273e	0.025287267
95	0x3bb9ec28	0.005673904
96	0xbcd19a46	-0.025586259
97	0xbc98e35c	-0.0186631
98	0xbcf6f8a3	-0.030147856
99	0x3ba96962	0.0051700333

embedding_net.conv2.weight f4 [50, 100, 3]
0	0xbd031190	-0.03199917
1	0xbd589aa0	-0.052881837
2	0x3d23972d	0.039939094
3	0xbd6c67b8	-0.0577161
4	0x3d3001f9	0.04297063
5	0x3c883a16	0.01662926
6	0x3d40568c	0.046957538
7	0x3d0ddfaf	0.03463715
8	0xbccae99d	-0.024769599
9	0x3d0ce08d	0.034393836
10	0x3d3d5bf9	0.04623029
11	0xbd2d3a32	-0.042291827
12	0x3d130548	0.03589371
13	0x3a69b9e9	0.00089159474
14	0xbd3594f2	-0.0443315
15	0x3d513f3a	0.05108569
16	0xbc7a1cc1	-0.0152656445
17	0x3cbe2b9b	0.023214152
18	0x3c75c41e	0.015000371
19	0x3c3889c6	0.0112633165
20	0x3c37a9b4	0.011209894
21	0x3d54f18c	0.05198817
22	0xbcad0fb2	-0.021125648
23	0x3d1013fd	0.035175312
24	0xbbd5c984	-0.0065242667
25	0xbd671564	-0.056416884
26	0xbcfe7d75	-0.031065682
27	0x3d37bbb6	0.04485675
28	0xbc99350b	-0.01870205
29	0x3d0294cf	0.031880196
30	0x3ce59c25	0.028028557
31	0xb9f3af59	-0.00046479216
32	0xbd202e09	-0.039106403
33	0x3ca9d022	0.020729128
34	0xbc503d00	-0.012709856
35	0xbb3eb8e5	-0.0029101905
36	0x3d422e77	0.047407594
37	0xbb9152ee	-0.004434935
38	0x3ca26a8b	0.019826194
39	0xbc281878	-0.01025974
40	0xbcb54c4c	-0.022131108
41	0x3d536ed0	0.05161935
42	0xbc4b03d4	-0.012391049
43	0xbd29822c	-0.041383907
44	0xbd68f20f	-0.05687147
45	0xba9170f1	-0.0011096281
46	0xba53add9	-0.00080749165
47	0x3c97c74f	0.018527655
48	0x3b70cb86	0.0036742403
49	0x3d0604c0	0.032719374
50	0x3cc874d9	0.02446978
51	0xbd0e8002	-0.034790047
52	0xbd0125a7	-0.03153005
53	0x3c294e55	0.010333617
54	0x3d24a4a0	0.04019606
55	0xbcdf60bb	-0.027267804
56	0xbcf491b4	-0.029854633
57	0xbd648191	-0.055787627
58	0x3c47fbf3	0.0122060655
59	0xbc690cd5	-0.014224251
60	0xbcee9cf2	-0.029127572
61	0x3c1eb0a6	0.009685671
62	0x3c3327b4	0.010934759
63	0x3c89c9b0	0.016819805
64	0x3ccc5774	0.024944045
65	0x3c847de0	0.016173303
66	0x3d4df8e6	0.050286196
67	0xbcb13a51	-0.021634253
68	0xbc0efd5e	-0.0087274
69	0xbd1b5842	-0.037925966
70	0x3cdefbd8	0.027219698
71	0x3cc75f4f	0.024337439
72	0xbc3be6ca	-0.011468599
73	0xbbd21208	-0.006410841
74	0x3c53d3aa	0.012928883
75	0x3d07fb12	0.033198424
76	0xbcd117d0	-0.02552405
77	0xbd51d3a1	-0.051227216
78	0x3cd96a48	0.026539937
79	0x3caa101b	0.020759633
80	0xbc7c058e	-0.015382184
81	0x3d2dcde7	0.042432692
82	0x3d5a3ec7	0.053282525
83	0x3d53ca13	0.051706385
84	0xb98bbd8a	-0.00026653364
85	0xbd1ad188	-0.03779748
86	0xbd1fa7a8	-0.03897825
87	0xbd1605c9	-0.03662661
88	0x3d07273d	0.032996405
89	0x3cf00cf2	0.029303048
90	0xbc90547d	-0.017618412
91	0xbc413800	-0.011793137
92	0x3d6a6898	0.057228655
93	0xbcb28c37	-0.021795375
94	0xbbe4092b	-0.0069591007
95	0xbb68943f	-0.0035488752
96	0xbd65ed42	-0.05613447
97	0xbd447a56	-0.04796823
98	0x3a4654b5	0.0007565723
99	0xbd1be584	-0.03806068
100	0xbc6faaf4	-0.014628161
101	0xbbb98134	-0.005661154
102	0x3cd866dd	0.026416237
103	0x3d4df51b	0.05028258
104	0xbbdc874a	-0.006729995
105	0x3ce6a505	0.02815486
106	0xbd14f3c8	-0.0363653
107	0x3b15c3fb	0.002285241
108	0x3cf03d78	0.029326186
109	0xbce4c98e	-0.02792814
110	0xbd461675	-0.04836126
111	0xbcb05313	-0.021523988
112	0xbc558989	-0.013033279
113	0x3d1c1060	0.038101554
114	0x3d250080	0.04028368
115	0x3cdd3808	0.027004257
116	0x3ca8e231	0.020615669
117	0x3c22efde	0.009944884
118	0xbd051928	-0.032494694
119	0x3d15eda3	0.03660358
120	0xbd54fab1	-0.05199689
121	0xbcc58fb4	-0.024116375
122	0xbb66c50f	-0.003521267
123	0x3d062eac	0.032759354
124	0xbcb93531	-0.022608371
125	0xbd4f023f	-0.05053925
126	0x3ce759e4	0.028241105
127	0x3ca0545b	0.019571474
128	0x3cc58098	0.02410917
129	0x3d0f1570	0.034932554
130	0x3b745a4e	0.003728527
131	0xbd6259a1	-0.055261258
132	0x3cc52973	0.024067616
133	0xbb49cb15	-0.0030791212
134	0xbccc5596	-0.024943154
135	0x3d2da8c7	0.042397287
136	0xbc810761	-0.015750589
137	0x3d1bc2b9	0.0380275
138	0x3bbd3c1c	0.005774988
139	0x3d427fa8	0.047485024
140	0xbd472274	-0.04861684
141	0x3cdbc05c	0.026825123
142	0xbc6810f2	-0.014164196
143	0x3d2e62b2	0.042574592
144	0x3cc5b256	0.024132889
145	0x3cdf0097	0.027221961
146	0xbced508c	-0.028969072
147	0x3c8afd18	0.016966388
148	0xbd64727a	-0.055773236
149	0x3d14d898	0.036339372
150	0x3d11565f	0.03548276
151	0x3d2c08e9	0.042000685
152	0x3d0d5d51	0.03451282
153	0x3a8327c1	0.0010006354
154	0x3d6735f3	0.056447934
155	0x3d2a031e	0.04150688
156	0x3922fc40	0.00015543494
157	0x3d2cbd6b	0.04217283
158	0x3d3903d4	0.045169666
159	0x3d6b7bea	0.05749122
160	0xbcbd40d8	-0.023102209
161	0x3d1f64c5	0.03891446
162	0xbc81bdc2	-0.015837554
163	0xbcc6f0b3	-0.024284696
164	0x3d471393	0.04860265
165	0xbd13fd08	-0.03612998
166	0xbce2f785	-0.027705917
167	0x3d09e5dc	0.033666477
168	0x3d6af7cc	0.057365224
169	0xbd48c397	-0.049014654
170	0xbd1691cb	-0.036760133
171	0x3cb64419	0.022249268
172	0x3d0931d9	0.033494804
173	0x3d0f6f7d	0.035018433
174	0x3c5024ca	0.012704084
175	0x3aafe604	0.001341999
176	0x3d602e4e	0.05473166
177	0x3aa58d27	0.0012630568
178	0xbb008edf	-0.0019616408
179	0xbc4a3f8c	-0.012344252
180	0x3d5f5335	0.05452271
181	0xbcda6d55	-0.026663462
182	0xbc8c9bd6	-0.017164152
183	0x3d17e3de	0.037082545
184	0x3d6a05d6	0.05713447
185	0x3d28d372	0.041217275
186	0x3b30dee2	0.0026988317
187	0xbd637f69	-0.05554143
188	0xbd5ad85b	-0.05342899
189	0x3cbe153f	0.02320349
190	0x3d572b6d	0.05253165
191	0xbd0b38c3	-0.03398968
192	0xbd049d1b	-0.03237639
193	0x3d3f2b4c	0.04667215
194	0xbd1db0a6	-0.038498543
195	0x3d067159	0.03282294
196	0x3b07ba25	0.0020710316
197	0xbd613666	-0.05498352
198	0xbca4381c	-0.020046286
199	0x3cb00548	0.021486893
200	0x3d58caa6	0.052927636
201	0xbcdb94a9	-0.026804285
202	0xba468f77	-0.00075744785
203	0xbd3dfd0a	-0.046383895
204	0x3d28077a	0.041022755
205	0x3d4f144f	0.050556477
206	0xbca4f083	-0.020134216
207	0x3c905e87	0.0176232
208	0x3cede7cf	0.029041199
209	0xbd53931b	-0.051653963
210	0x3d4d2f33	0.05009384
211	0xbcda8e16	-0.02667908
212	0xbb067931	-0.0020519013
213	0x3d53483c	0.05158256
214	0x3d16ed19	0.036847208
215	0xbc7c53ae	-0.01540081
216	0xbca9cb3b	-0.02072679
217	0xbcdce8dc	-0.026966505
218	0x3d6c57d0	0.057700932
219	0x3d164e1a	0.036695577
220	0x3d56005c	0.052246436
221	0xbd51656f	-0.051122125
222	0x3cd6c8d6	0.026218813
223	0x3be67504	0.0070329923
224	0x3d432c08	0.047649413
225	0x3c85c2b5	0.016328195
226	0x3d44bf65	0.04803409
227	0x3d1612bb	0.036638957
228	0x3d5388a2	0.051643975
229	0xbcd76773	-0.026294446
230	0xbcc4ca00	-0.024022102
231	0xbc576bbd	-0.013148245
232	0xbcba1cf4	-0.022718884
233	0x3d0bea49	0.03415898
234	0x3cd05bb9	0.025434362
235	0x3d374fc3	0.0447538
236	0xbd47e6bf	-0.04880404
237	0xbc546c05	-0.012965207
238	0xbd092ae0	-0.033488154
239	0x3c9e73ed	0.019342387
240	0x3d4fb172	0.050706334
241	0x3d57e982	0.052712925
242	0x3d2f4ac4	0.04279591
243	0xbca56cd2	-0.020193491
244	0xbbd90ac7	-0.006623599
245	0x3c75a34f	0.014992549
246	0x3d14bcfb	0.03631304
247	0xbc76ca8d	-0.01506294
248	0x3cd61e87	0.026137603
249	0xbd50d38e	-0.050983004
250	0xbc111c8e	-0.008856906
251	0x3d10b710	0.035330832
252	0x3c396f32	0.011318015
253	0xbc7e957f	-0.015538572
254	0xbc462475	-0.012093653
255	0xbd54eaf4	-0.05198188

embedding_net.conv2.bias f4 [50]
0	0xbd2ce9fe	-0.04221534
1	0x3d00617b	0.031342965
2	0xbae44701	-0.001741618
3	0xbbd9e8a5	-0.006650048
4	0xbca63aa6	-0.020291638
5	0x3c5b7c61	0.013396353
6	0xbd10a812	-0.035316534
7	0x3ce18bf7	0.02753256
8	0xbbf0e15c	-0.0073510837
9	0xbc0f584c	-0.008749079
10	0xbd2d0d0a	-0.042248763
11	0x3d0c744a	0.03429059
12	0xbd3efa80	-0.046625614
13	0xb940338d	-0.00018329751
14	0xbd31dd6b	-0.04342405
15	0xbd101c2a	-0.03518311
16	0x3c826c3f	0.015920756
17	0xbcd7656e	-0.026293483
18	0xbd107b64	-0.035273924
19	0xbaebde37	-0.0017995302
20	0xbd1397c1	-0.036033396
21	0xbd02be3d	-0.031919707
22	0xbd694551	-0.05695087
23	0xbd714dc4	-0.058912054
24	0xbd3b32f1	-0.04570288
25	0xbd054232	-0.032533832
26	0xbce558e2	-0.027996484
27	0x3c7000df	0.014648645
28	0xbd255cb1	-0.0403716
29	0x3c3d6ddb	0.011561836
30	0x3d01bdb7	0.031675067
31	0x3c995183	0.018715626
32	0xbd8df633	-0.069317244
33	0xba95b5d7	-0.001142199
34	0x3bc2c03d	0.0059433267
35	0xbd1419ba	-0.036157347
36	0xbd0c0561	-0.034184817
37	0x3cc6afae	0.024253692
38	0xbd01057d	-0.031499375
39	0xbc316cf2	-0.010829197
40	0xbd6e82df	-0.058230277
41	0xbcd9499b	-0.026524356
42	0x3ce45e6e	0.027877059
43	0x3c27f83d	0.010252056
44	0xbc09c8b1	-0.008409665
45	0xbb10eadd	-0.0022112646
46	0x3c92ea86	0.017934095
47	0xbd795562	-0.060872443
48	0xbd3c1b89	-0.045924697
49	0x3cf241c1	0.02957237

embedding_net.fc1.weight f4 [70, 100]
0	0xbd25fbb3	-0.040523242
1	0x3d90f55e	0.0707805
2	0xbd435b84	-0.047694698
3	0xbd8b20a1	-0.06793333
4	0xbd2bdc06	-0.041957878
5	0xbbfd1a93	-0.007724115
6	0xbd711152	-0.05885441
7	0x3cd9f180	0.026604414
8	0x3dc8bad5	0.098012604
9	0x3c9a7605	0.018855104
10	0x3cd5ca42	0.02609742
11	0xbcd0c3ca	-0.025483985
12	0x3d2f3422	0.042774327
13	0xbdafa717	-0.08576792
14	0xbcff6e36	-0.031180482
15	0x3dc3aed8	0.09554833
16	0xbd23b91e	-0.039971463
17	0xbcb2667f	-0.02177739
18	0x39ea6fa0	0.00044715125
19	0x3a7fef56	0.0009763142
20	0x3d9361a4	0.07196358
21	0xbc292d6b	-0.01032577
22	0xbdc45eb5	-0.095883764
23	0xbd32c5c8	-0.04364565
24	0xbdb38081	-0.087647445
25	0xbcb98de9	-0.022650676
26	0x3d8d11e2	0.068881765
27	0x3ccf7f1f	0.02532917
28	0x3c733078	0.014843099
29	0xbd32396a	-0.043511786
30	0xbd440a9f	-0.04786169
31	0x3c1602b6	0.00915592
32	0x3d6a0d20	0.057141423
33	0xbc100787	-0.008790857
34	0xbced58ec	-0.028973065
35	0xbda31714	-0.07963386
36	0xbd408ebf	-0.047011133
37	0xbdacc9d1	-0.08436931
38	0x3c8a6f16	0.016898673
39	0x3d51e5a5	0.051244397
40	0xbc712454	-0.014718134
41	0xbdc7def3	-0.09759321
42	0xbc44a5e7	-0.012002445
43	0x3da40450	0.08008635
44	0xbdc138ce	-0.09434663
45	0xbdcb18cd	-0.0991684
46	0xbdae935d	-0.08524201
47	0x3db268eb	0.08711418
48	0x3dac468c	0.08411893
49	0x3d90340b	0.070411764
50	0x3d7c52a2	0.061602242
51	0xbc8184ca	-0.01581039
52	0xbd3d06b9	-0.04614899
53	0x3d914de8	0.070949376
54	0x3d371ac0	0.044703245
55	0xbd4206e1	-0.04736984
56	0x3d5e5e58	0.054289192
57	0xbdcb38ef	-0.099229686
58	0xbd019d94	-0.03164442
59	0xbd8fa183	-0.07013228
60	0xbdad2560	-0.08454394
61	0xbd04d5b3	-0.032430362
62	0xbd65d9ff	-0.0561161
63	0xbcafd05a	-0.021461654
64	0xbd107f61	-0.035277728
65	0xbdc18df1	-0.09450901
66	0x3d529254	0.05140908
67	0xbdbd0507	-0.092294745
68	0xbb85ebf5	-0.004086966
69	0x3b86168a	0.0040920423
70	0xbda5c25b	-0.08093711
71	0xbdaff772	-0.08592118
72	0xbcc017b3	-0.0234488
73	0xbd7c148c	-0.061543033
74	0xbd492f34	-0.049117282
75	0xbba795b9	-0.005114284
76	0x3d264455	0.04059251
77	0x3d8277af	0.06370484
78	0x3d67e6d1	0.056616608
79	0x3d3d3be8	0.04619971
80	0x3d812b14	0.063070446
81	0x3d2fcfdf	0.04292285
82	0x3dbd6d2a	0.09249337
83	0xbd7fc644	-0.06244494
84	0x3d95f954	0.07322946
85	0xbdc269cf	-0.09492838
86	0xbab2f3da	-0.0013652996
87	0x3cd4d183	0.02597881
88	0x3cdbb281	0.026818516
89	0x3ccd1956	0.025036495
90	0x3cb1e655	0.021716276
91	0x3cda0790	0.026614934
92	0x3d2e78a3	0.042595517
93	0xbdb68c91	-0.0891353
94	0x3dba237f	0.090888016
95	0x3dbac38a	0.09119327
96	0x3d1933ac	0.037402794
97	0x3d5fa919	0.054604623
98	0xbd9309ad	-0.0717958
99	0x3d1bc155	0.038026173
100	0xbd867189	-0.06564624
101	0xbceb6673	-0.028735375
102	0x3da2fedf	0.07958769
103	0x3d94dce0	0.07268691
104	0x3aa0dea0	0.0012273379
105	0x3d82319d	0.06357119
106	0x3d825c49	0.06365258
107	0xbd82753a	-0.063700154
108	0xbd95e201	-0.073184974
109	0xbd6da427	-0.058017876
110	0xbd8d73fe	-0.069068894
111	0x3ce0a611	0.027422937
112	0xbdc77bd5	-0.09740416
113	0xbd9b86d6	-0.07594077
114	0xbd149a2a	-0.036279835
115	0xbd00076d	-0.03125708
116	0x3d90d479	0.07071776
117	0xbcda71ee	-0.026665654
118	0xbd46e54c	-0.04855852
119	0x3d3e168f	0.046408232
120	0x3d935fa8	0.07195979
121	0xbcada679	-0.021197544
122	0x3cc489b4	0.023991443
123	0x3db09445	0.0862203
124	0xbd4b34ed	-0.04961102
125	0xbd638bd9	-0.05555329
126	0x3ba4eb0c	0.0050329026
127	0xbc90e9bc	-0.017689578
128	0x3cd8384e	0.026394036
129	0x3c70fcd1	0.014708714
130	0xbd8afe98	-0.06786841
131	0x3b8f9b84	0.0043825526
132	0x3d5ed490	0.054401934
133	0x3b8a971d	0.00422944
134	0x3d2e84e9	0.04260722
135	0xbc122bd4	-0.008921582
136	0x3b053a6f	0.0020329019
137	0xbdb9722c	-0.0905498
138	0x3d81bd4c	0.06334934
139	0xbd05fec0	-0.03271365
140	0x3c004bbd	0.007830557
141	0xbdb7fcfb	-0.08983799
142	0xbd55c070	-0.052185476
143	0xbd13d02d	-0.036087204
144	0x3d589b89	0.052882705
145	0xbd9c3738	-0.0762772
146	0xbcd27c89	-0.025694149
147	0x3d390d84	0.045178905
148	0xbd2982f4	-0.041384652
149	0x3cb8dd50	0.022566468
150	0xbc992e9d	-0.018698985
151	0xbc77f2fe	-0.015133617
152	0xbda91639	-0.08256192
153	0xbd81003a	-0.06298871
154	0x3d8ec07d	0.06970308
155	0xbc3a6ea4	-0.011378918
156	0xbd5639f8	-0.052301377
157	0xbc88db5b	-0.01670616
158	0x3cd8b966	0.026455592
159	0xbdae730e	-0.08518039
160	0x3cb99a7d	0.022656674
161	0x3b796cdc	0.003805927
162	0xbd8d9bb2	-0.06914462
163	0xbca0dea0	-0.019637406
164	0x3d92adb5	0.07162038
165	0x3dc2f15f	0.09518694
166	0xbd300521	-0.04297364
167	0xbd13bfd6	-0.03607162
168	0xbd59a336	-0.053134166
169	0xbd9e56da	-0.07731409
170	0x3b996bcd	0.0046820403
171	0x3d2dd07f	0.042435165
172	0xbdbb5f4c	-0.09149036
173	0x3cf02b29	0.029317455
174	0x3d95a318	0.07306498
175	0x3d9fa360	0.07794833
176	0x3d1ba5b7	0.037999835
177	0x3d92b604	0.07163623
178	0x3d9fb341	0.07797862
179	0x3d76021a	0.060060598
180	0xbdb8564e	-0.09000836
181	0xbd962a50	-0.07332289
182	0x3da939ab	0.082629524
183	0xbdaf9cfc	-0.08574864
184	0xbd78e3b9	-0.06076405
185	0x3db774b9	0.0895781
186	0x3da5accc	0.08089599
187	0xbda1a8e1	-0.07893539
188	0x3ceefd71	0.029173585
189	0x3db7649d	0.08954737
190	0xbdaa888f	-0.08326828
191	0xbcd07087	-0.025444282
192	0xbd8aa789	-0.06770236
193	0xbd89466c	-0.06702885
194	0x3d32d082	0.04365588
195	0x3d8d9b46	0.06914382
196	0xbd8d3406	-0.06894688
197	0x3c913591	0.017725738
198	0x3da5ea6d	0.08101354
199	0xbd64de87	-0.05587628
200	0x3d981244	0.07425359
201	0xbcab5ab5	-0.020917276
202	0x3d53ab72	0.051677175
203	0x3d0fbb76	0.035090886
204	0xbd8916ba	-0.06693788
205	0x3cb1ae80	0.021689653
206	0xbda7c1d0	-0.08191264
207	0xbb1583c1	-0.0022814127
208	0x3db286e8	0.087171376
209	0xbc9f8ddf	-0.01947683
210	0xbda3057f	-0.07960033
211	0xbd304819	-0.043037508
212	0xbc30370b	-0.010755311
213	0xbda79333	-0.08182373
214	0x3d6ff462	0.05858267
215	0x3d75ecf5	0.060040433
216	0x3dbe78a4	0.09300354
217	0x3dabd08e	0.08389388
218	0x3ca09f14	0.019607104
219	0x3d937740	0.072004795
220	0x3dbe8fcc	0.09304771
221	0xbdb0b499	-0.08628196
222	0x3ce2a4d4	0.027666487
223	0xbb13305d	-0.0022459247
224	0xbd885e14	-0.06658569
225	0xbcda41b9	-0.026642667
226	0x3b222fdf	0.0024747772
227	0xbc4b6a20	-0.012415439
228	0xbd212853	-0.039345097
229	0xbceeaee2	-0.029136125
230	0xbc8b266a	-0.01698609
231	0x3d19f2eb	0.03758518
232	0xbd5a2b37	-0.05326387
233	0x3d8e0df6	0.069362566
234	0xbdac95af	-0.084269874
235	0x3d746a00	0.059671402
236	0xbda78585	-0.08179764
237	0xbc161f9f	-0.0091628125
238	0xbce60eab	-0.028083166
239	0xbcccb149	-0.02498688
240	0x3a43d0a0	0.0007469747
241	0xbd9db310	-0.07700169
242	0x3db9f128	0.090792
243	0xbcc43822	-0.023952547
244	0x3c9f4597	0.019442363
245	0x3d9d50f9	0.0768146
246	0xbbe1e266	-0.006893444
247	0x3c4b7e75	0.012420286
248	0xbc0a757d	-0.008450863
249	0xbbcec70a	-0.0063103484
250	0xbc9013f8	-0.017587647
251	0xbdb9580b	-0.09049996
252	0x3cf89a44	0.030346997
253	0x3b7ac1af	0.0038262417
254	0x3c026c6c	0.00796042
255	0x3bf12a5a	0.007359785

embedding_net.fc1.bias f4 [70]
0	0xbb8fc3c9	-0.004387353
1	0xbb86c68e	-0.004113025
2	0xbb8cc34f	-0.0042957435
3	0xbb9f31ad	-0.0048582167
4	0xbdb45694	-0.08805576
5	0xbbc13338	-0.0058959983
6	0xbb9dbc77	-0.0048137265
7	0xbc79cab7	-0.015246085
8	0xbd966750	-0.07343924
9	0xbb98b2ee	-0.004660002
10	0xbb85bbb2	-0.004081213
11	0xbb7206ae	-0.003693025
12	0xbba0ec6e	-0.004910997
13	0xbb88199a	-0.0041534426
14	0xbb8c9800	-0.0042905807
15	0xbcc2ca07	-0.023777975
16	0xbc90fec2	-0.017699603
17	0xbda55501	-0.08072854
18	0xbb8342e6	-0.0040057776
19	0xbba056d3	-0.0048931628
20	0xbdbfdbf2	-0.09368123
21	0xbb950404	-0.004547598
22	0xbba64aa3	-0.0050748154
23	0xbd8d6972	-0.06904878
24	0xbb84241b	-0.0040326244
25	0xbba1a99a	-0.004933548
26	0xbd694930	-0.056954563
27	0xbc9c90d0	-0.01911202
28	0xbbaf8bf2	-0.005357259
29	0xbbad208a	-0.00528342
30	0xbd1ce2bd	-0.038302172
31	0xbb97db8f	-0.0046343277
32	0xbb98f7a1	-0.0046681915
33	0xbbade5ab	-0.0053069196
34	0xbbac1537	-0.0052515524
35	0xbd21a11c	-0.039460286
36	0xbb884df7	-0.0041596848
37	0xbbb7352a	-0.0055910544
38	0xbc4b8687	-0.012422211
39	0xbba032e5	-0.0048888796
40	0xbb849716	-0.004046331
41	0xbb830217	-0.003998052
42	0xbb9bd1f4	-0.004755253
43	0xbb98a19b	-0.0046579367
44	0xbb9f6b7c	-0.004865108
45	0xbd26943d	-0.040668715
46	0xbb8a93ca	-0.0042290436
47	0xbb80ea8c	-0.00393421
48	0xbb787337	-0.003791047
49	0xbd03f23f	-0.032213446
50	0xbd174b56	-0.03693708
51	0xbdc3bb0b	-0.0955716
52	0xbb8b156b	-0.0042444966
53	0xbd9e7a04	-0.077381164
54	0xbd6c2b1f	-0.05765831
55	0xbb8bd53f	-0.0042673643
56	0xbb8c069f	-0.0042732502
57	0xbdacf126	-0.08444433
58	0xbb82d80c	-0.00399304
59	0xbb879c70	-0.004138522
60	0xbb801568	-0.003908802
61	0xbdc28f98	-0.095000446
62	0xbce0a083	-0.027420288
63	0xbbe651a8	-0.007028777
64	0xbbd9ccbc	-0.0066467207
65	0xbd9cb26f	-0.07651221
66	0xbccccff0	-0.025001496
67	0xbd911b22	-0.07085253
68	0xbb9e3854	-0.004828492
69	0xbb9c34ef	-0.0047670524

embedding_net.fc2.weight f4 [50, 70]
0	0x3d7dfa54	0.06200631
1	0xbdd0013f	-0.10156488
2	0xbd5d2bb4	-0.053996757
3	0x3d66c438	0.056339473
4	0xbdaff680	-0.08591938
5	0x3cc914a1	0.02454597
6	0x3dddbea7	0.1082738
7	0x3cf1d1da	0.02951901
8	0x3c580399	0.0131844515
9	0xbd1423a3	-0.0361668
10	0xbc0e994c	-0.008703541
11	0x3dc91a79	0.098195024
12	0x3cb88a6d	0.022526944
13	0x3dc22371	0.09479416
14	0x3d535048	0.051590234
15	0x3d199279	0.037493203
16	0x3d829c02	0.063774124
17	0xbd9f5a02	-0.077808395
18	0xbc39ff5e	-0.011352388
19	0x3d4e702e	0.05039995
20	0xbd9d4530	-0.07679212
21	0x3dcb3bad	0.099234916
22	0x3d75510b	0.05989174
23	0x3d42c342	0.047549494
24	0x3dc4f656	0.09617297
25	0xbd9681b9	-0.073489614
26	0x3de5c086	0.112183616
27	0xbce74bce	-0.028234389
28	0xbd128b16	-0.035777174
29	0x3d06d0ba	0.0329139
30	0x3d9560d6	0.072938606
31	0xbd920303	-0.07129481
32	0x3d774112	0.06036479
33	0xbdd6dff6	-0.10491936
34	0x3de17906	0.110094115
35	0xbd213890	-0.039360583
36	0xbc8a0a09	-0.016850488
37	0xbdbb7877	-0.09153836
38	0x3cf2602d	0.029586876
39	0xbdd71d5b	-0.10503646
40	0x3cf21e0c	0.029555343
41	0xbd63ffe0	-0.055663943
42	0xbc80212f	-0.015640823
43	0x3ca080d3	0.019592678
44	0xbcfe7ed5	-0.031066338
45	0xbdd6ad25	-0.104822434
46	0x3d632805	0.055458087
47	0xbd1ebd17	-0.03875455
48	0xbcc68009	-0.024230974
49	0x3d509c33	0.050930213
50	0xbcfcc506	-0.030855667
51	0xbded1e8c	-0.11578092
52	0xbb558d19	-0.0032585321
53	0xbd144204	-0.03619577
54	0x3df36691	0.11884797
55	0xbd9ad58d	-0.07560263
56	0x3dca1b26	0.098684594
57	0xbccaa71c	-0.024737887
58	0xbde81067	-0.113312535
59	0xbd9c9516	-0.076456234
60	0x3db26e4c	0.08712444
61	0xbd8cea54	-0.06880632
62	0x3c2c6b71	0.010523663
63	0x3c8017cc	0.015636347
64	0x3c7c4e09	0.015399464
65	0x3de271b8	0.110568464
66	0xbcc2b942	-0.023769978
67	0x3d93f524	0.07224491
68	0x3df19117	0.11795252
69	0xbd67e601	-0.056615833
70	0xbd06f930	-0.032952487
71	0xbccb0c36	-0.024786096
72	0xbdc7c4df	-0.09754347
73	0x3da0ca63	0.07851102
74	0x3ca61fa6	0.020278763
75	0x3d814af3	0.063131236
76	0x3d19eb60	0.037577987
77	0xbd823725	-0.06358174
78	0x3dae04cb	0.08497008
79	0xbb38a08b	-0.0028171863
80	0xbda4b67c	-0.08042619
81	0xbcd9bdbe	-0.026579734
82	0xbbf20997	-0.007386397
83	0xbdb196f8	-0.08671373
84	0xbdac3a81	-0.08409596
85	0xbce1dcaf	-0.02757105
86	0xbd2ed91a	-0.042687513
87	0xbd90928d	-0.07059202
88	0xbdb5c8d8	-0.088761985
89	0xbd003b5b	-0.031306606
90	0x3dc07749	0.09397752
91	0x3d975cb8	0.073907316
92	0x3de1e431	0.11029852
93	0x3df2cf1d	0.1185591
94	0xbdc082fa	-0.09399982
95	0xbd9b5fc0	-0.07586622
96	0xbdf29204	-0.118442565
97	0x3d3a4453	0.045475315
98	0x3def6e04	0.11690906
99	0xbdd93d4a	-0.10607393
100	0x3c617085	0.013759737
101	0x3d769905	0.060204525
102	0x3d58a7cb	0.052894395
103	0xbd12c64d	-0.035833646
104	0xbd90b2cc	-0.07065353
105	0xbb7a7e23	-0.0038222156
106	0xbbc4c655	-0.0060050883
107	0x3dc08716	0.094007656
108	0x3c0f511a	0.008747363
109	0xbdc309bb	-0.0952334
110	0xbdd8071f	-0.10548233
111	0xbd8eb838	-0.06968731
112	0xbc97807d	-0.018493885
113	0xbd9cc697	-0.076550655
114	0x3de06e0f	0.10958492
115	0x3d7e164b	0.06203298
116	0x3d7cff58	0.061766952
117	0x3baee12d	0.0053369016
118	0x3dd866d2	0.105664864
119	0xbce01c18	-0.027357146
120	0xbcdca0d0	-0.02693215
121	0xbdb25884	-0.08708289
122	0xbd778c0a	-0.060436286
123	0xbde24286	-0.110478446
124	0x3de494df	0.111612074
125	0xbdda5450	-0.106606126
126	0xbcabd1f8	-0.020974144
127	0xbd704bf7	-0.058666196
128	0xbd399f2a	-0.045317806
129	0xbdcaa2ac	-0.098943084
130	0xbde54fed	-0.11196885
131	0xbc157db5	-0.009124209
132	0xbbe4f536	-0.0069872392
133	0x3d912de5	0.07088832
134	0xbd08fdcc	-0.033445165
135	0x3db9ae96	0.09066503
136	0x3dccecb4	0.10006085
137	0x3d11dae1	0.03560913
138	0x3dcfe2f9	0.101507135
139	0xbd537cc6	-0.051632665
140	0x3d991f20	0.0747664
141	0x3c9c0530	0.019045442
142	0x3ddf9328	0.1091674
143	0xbdee5640	-0.11637545
144	0xbdd175e6	-0.102275655
145	0xbde44f19	-0.11147899
146	0x3bb74623	0.0055930777
147	0xbb76236b	-0.0037557732
148	0xbddce3bb	-0.10785624
149	0xbd470fca	-0.048599042
150	0xbdee6292	-0.116398945
151	0x3cd6a6ff	0.026202677
152	0xbc7a9e57	-0.01529654
153	0xbde37c30	-0.11107671
154	0x3d8322dc	0.06403133
155	0x3dabaffb	0.08383175
156	0x3d119bdb	0.035549026
157	0x3cf4acd1	0.029867562
158	0x3de0e973	0.10982027
159	0x3d8aa651	0.067700036
160	0xbd7bbb10	-0.061457694
161	0x3d68cf32	0.05683822
162	0xbdd1a9fa	-0.102374986
163	0x3dc91399	0.09818191
164	0x3d815802	0.06315614
165	0xbd7ff6d9	-0.06249127
166	0xbccc0fab	-0.024909815
167	0xbd8a4a87	-0.06752496
168	0xbd7ddc3f	-0.06197762
169	0xbd95c927	-0.073137574
170	0xbdf36c46	-0.11885886
171	0xbd16ec12	-0.036846228
172	0x3d524267	0.051332857
173	0x3d8a1357	0.0674197
174	0xbcd68271	-0.026185246
175	0xbdb2788c	-0.08714399
176	0x3d8be251	0.06830276
177	0x3a96abf8	0.0011495342
178	0xbb2f33ac	-0.002673368
179	0x3d7cf4ba	0.061756827
180	0xbcf6e931	-0.030140491
181	0x3d4baa86	0.04972317
182	0x3d4faa94	0.050699785
183	0xbcc37029	-0.023857193
184	0xbcd8f524	-0.02648408
185	0xbcaba987	-0.02095486
186	0xbd56e49e	-0.05246412
187	0xbc6b8240	-0.014374316
188	0xbdc178b8	-0.094468534
189	0xbdb90e89	-0.090359755
190	0xbbceceee	-0.006311289
191	0xbde4440a	-0.1114579
192	0xbcaa3e2f	-0.020781605
193	0xbdc7e5f5	-0.09760658
194	0x3ce88cb8	0.028387412
195	0xba8d947e	-0.00108017
196	0xbda3127c	-0.0796251
197	0xbce0b0cb	-0.027428051
198	0x3d15761f	0.036489602
199	0xbdc75711	-0.097334035
200	0xbdbfe030	-0.09368932
201	0x3c272714	0.010202188
202	0x3d0fa568	0.035069853
203	0x3d77a346	0.060458444
204	0x3c1993f3	0.009373653
205	0xbdeecedd	-0.1166055
206	0xbdb395e6	-0.08768825
207	0xbba656e4	-0.005076276
208	0xbd869947	-0.06572204
209	0xbd295c36	-0.041347705
210	0x3d138778	0.036017865
211	0xbd8a4c44	-0.06752828
212	0x3ce20858	0.02759187
213	0x3dddc401	0.108284004
214	0x3dd473a2	0.10373618
215	0xbd1870b3	-0.037216853
216	0x3d99e11a	0.07513638
217	0xbdb838db	-0.08995219
218	0x3d14c534	0.03632088
219	0x3bdd47af	0.00675293
220	0x3dded54a	0.108805254
221	0x3da31498	0.07962912
222	0xbddb3048	-0.10702568
223	0x3daeb037	0.08529704
224	0x3db0e599	0.08637542
225	0x3daccaff	0.08437156
226	0x3d7eee80	0.06223917
227	0xbd81d3fc	-0.06339261
228	0xbc27e86b	-0.010248284
229	0xbbdd268c	-0.00674898
230	0x3d13eb4c	0.03611307
231	0x3d32cfee	0.04365533
232	0xbd427c24	-0.04748167
233	0xbd21955d	-0.039449085
234	0xbd759150	-0.059953034
235	0xbcd7f066	-0.026359748
236	0xbdd36383	-0.10321715
237	0xbdc1d39b	-0.09464189
238	0x3d474bc4	0.04865624
239	0xbd350cdd	-0.04420172
240	0x3d04a6f5	0.032385785
241	0xbd5a7659	-0.05333552
242	0x3b036be9	0.0020053333
243	0x3d5b3638	0.053518504
244	0xbdb77f4e	-0.08959828
245	0x3dbfe5c8	0.09369999
246	0xbda00eb9	-0.07815308
247	0xbd105b7e	-0.035243504
248	0x3d4bc2a8	0.049746186
249	0xbde83a20	-0.113392115
250	0x3d69541c	0.05696498
251	0x3dc2215a	0.094790176
252	0xbdcc9b6d	-0.099905826
253	0xbbf3d7d4	-0.0074415
254	0xbd94dea9	-0.072690316
255	0x3d871e90	0.06597626

embedding_net.fc2.bias f4 [50]
0	0x3dbeaf19	0.09310741
1	0x3da21775	0.0791463
2	0x3bcba130	0.0062142834
3	0x3d814e11	0.06313718
4	0xbdd05e5c	-0.101742476
5	0x3d2489fe	0.040170662
6	0x3d8f1c0d	0.06987772
7	0xbcbb1b10	-0.022840053
8	0x3de5705d	0.11203072
9	0x3c1899f8	0.009314053
10	0xbd0d1acc	-0.034449384
11	0xbdac104a	-0.084015444
12	0xbc7ae560	-0.015313476
13	0x3da3fe63	0.08007505
14	0x3c42be68	0.011886217
15	0xbd9f7445	-0.077858485
16	0xbccb9ff4	-0.024856545
17	0x3df1551b	0.11783811
18	0xbdad9854	-0.0847632
19	0xbddd0932	-0.107927695
20	0xbd83db0a	-0.06438263
21	0xbd428bbe	-0.04749655
22	0xbd3a0cd0	-0.045422375
23	0x3c64c1e8	0.0139622465
24	0x3dd2b105	0.1028767
25	0xbbbaae5c	-0.005697055
26	0x3cc2be44	0.023772366
27	0xbc779e18	-0.015113376
28	0x3d572712	0.052527495
29	0xbcbde3b0	-0.023179859
30	0xbd0bc5e4	-0.03412427
31	0x3cd7e7ac	0.026355587
32	0x3d82829f	0.0637257
33	0x3d94e237	0.072697096
34	0x3dcb846d	0.099373676
35	0x3caaf0e4	0.020866819
36	0xbd9a3bbc	-0.07530925
37	0x3d21b672	0.039480634
38	0xbdba0276	-0.09082501
39	0x3c268168	0.010162689
40	0xbd2ab88c	-0.041679904
41	0xbd5403de	-0.0517615
42	0xbde44f88	-0.11147982
43	0xbce05af4	-0.02738712
44	0xbdd938bc	-0.10606524
45	0xbd8c7160	-0.06857562
46	0xbd95fd53	-0.073237084
47	0x3d8f0317	0.06983011
48	0xbd1c6fc4	-0.038192526
49	0xbd25d344	-0.04048468
