runs/TripletNet_0917a/model_best.pth.tar (torch_old, 258329 bytes, 8 tensors)

embedding_net.conv1.weight f4 [100, 128, 3]
000000 1c ae d5 3c b3 32 ba bc 18 62 25 bc 6a e6 c2 3c
       0.026083998 -0.022729253 -0.010094188 0.02379151
000010 bc 6a 45 bd 44 68 f9 3c f7 e8 32 bc cd 0f d1 3c
       -0.048197493 0.030445226 -0.010919801 0.02552023
000020 5a d9 d9 3b e3 13 e4 bb da 41 5c 3c b9 3f ec 3a
       0.006648225 -0.0069603785 0.013443435 0.0018024362
000030 ba da 91 3c 6f bf a9 bc 4f d3 94 bb 53 d9 b0 bb
       0.017804492 -0.020721165 -0.0045417915 -0.005397001
000040 2f b0 d7 3b 38 5d 83 ba 91 37 32 3d 71 31 72 3c
       0.006582282 -0.0010022288 0.043510024 0.014782296
000050 76 b8 a4 bc ff 74 03 bd d3 d8 20 bc 00 ad be bc
       -0.02010749 -0.032093998 -0.00981732 -0.023275852
000060 7d 50 8f bc 77 01 ab 3a 05 f5 ef 3c ce d3 d8 3c
       -0.017494434 0.0013046701 0.02929164 0.026468184
000070 a7 75 51 bd dd dc f8 3c 52 ce 56 3c 11 97 41 3d
       -0.051137593 0.030378753 0.013110714 0.04726321
000080 4f 40 05 3d 12 3b 42 bd 69 84 4a bd da 23 d1 bc
       0.032532033 -0.047419615 -0.049442682 -0.02552979
000090 4e 14 33 3d fe 3e 1d bc d6 da a9 3c bc 59 cd bc
       0.043720536 -0.009597538 0.020734232 -0.025067203
0000a0 16 7b 47 3d e0 0a bc bc a5 e1 16 3d ca ee 5d ba
       0.04870137 -0.022954404 0.036836285 -0.00084660633
0000b0 97 05 e8 bc 1c da ca 3c 8a e9 e9 bc 48 f4 5d 3c
       -0.028322978 0.024762206 -0.028553743 0.013547011
0000c0 fe d6 82 bc 9d 03 e0 bb f9 04 4e bd 91 af d2 bc
       -0.015971657 -0.0068363682 -0.05029771 -0.025718482
0000d0 78 21 d7 3c 0a a6 62 bc 29 97 4b 3d 1f cf 22 3d
       0.026261076 -0.013833532 0.049704704 0.039748307
0000e0 a7 fc 68 bb 4f 73 10 bd e1 a7 f4 3c 38 99 6f 3c
       -0.0035550983 -0.035266217 0.029865207 0.014623933
0000f0 e8 db 0c bd 28 ff 01 3d 0c 3a f2 3c 36 9f 34 3d
       -0.034389406 0.031737477 0.029568695 0.044097148
000100 28 db f3 bc 27 97 1c bc 3f 33 ff ba bc e2 d4 3b
       -0.029767588 -0.009557522 -0.0019470229 0.0064967554
000110 a2 8a 22 bd 6a 5d 19 bd f9 3f d9 3c 1f 76 58 bc
       -0.03968299 -0.037442602 0.026519762 -0.013211756
000120 d5 46 c6 3c a5 44 0f 3b b6 68 83 3c 72 e4 2d 3c
       0.024203697 0.0021860984 0.016041141 0.010613548
000130 71 ea 92 3c bd 25 ca 3c bf 6a 46 bd b1 8a c8 3c
       0.017934056 0.024676198 -0.048441645 0.024480196
000140 4d f2 17 bd 9c b4 21 bd a2 d4 0a 3b ea 5d 1e bc
       -0.03709631 -0.039478883 0.0021183868 -0.009665946
000150 aa 49 f0 3c f7 41 f7 bc fd 52 3c bd a6 38 14 3d
       0.029332 -0.030182822 -0.04597758 0.036186837
000160 c8 78 0b bc 20 68 e3 3c 97 e5 7c 3c 2c ba 20 bd
       -0.008512683 0.027759612 0.015435598 -0.039240047
000170 ef e6 17 3c 07 15 36 3c a2 a6 10 bd 22 d2 cf bc
       0.009271367 0.011113412 -0.035315163 -0.025368754
000180 98 b4 87 3c a1 27 08 3c 31 90 b8 bc 09 cb 80 bc
       0.016565606 0.0083102295 -0.022529693 -0.015721815
000190 34 4e 3e 3d eb 07 1f bc 7d 8c e7 3c 64 e2 b0 3c
       0.0464613 -0.009706478 0.028265232 0.021592326
0001a0 dc 26 09 bd 5c 19 36 bd 73 39 44 3d 0b de d1 3a
       -0.033484325 -0.04445778 0.04790635 0.0016011609
0001b0 91 95 0b 3d b9 f8 1d 3c 8a 73 7d 3c 0d 0f 1a 3d
       0.034078185 0.00964182 0.015469441 0.03761201
0001c0 b2 fe 43 3d c9 de 0c bd ff 62 c4 3b b9 4a 1a 3d
       0.04785032 -0.034392152 0.0059932466 0.037668917
0001d0 ec cb 15 3d 55 bc fc 3c 9e c6 1a bd da 11 1a bd
       0.03657143 0.030851522 -0.037787072 -0.03761468
0001e0 ef ab 01 bd ac c4 b7 3b df fc 4c 3d ca 73 06 bd
       -0.03165811 0.005608162 0.050045844 -0.03282527
0001f0 c8 d6 d9 3c 3f 54 ec bc ff 05 47 bd 8a c9 3b bc
       0.026591673 -0.028848765 -0.048589703 -0.011461625
000200 2c fc eb 3c e5 d0 3f 3d 3d ff 03 bd d8 3a 2d 3c
       0.028806768 0.046830077 -0.032225836 0.0105731115
000210 e0 0a 32 3d 3d 30 08 3d 57 0f 00 3d eb 4f 12 3d
       0.043467402 0.03324913 0.03126463 0.035720747
000220 38 f4 01 3d 58 fc 4e 3c 57 47 12 bd 72 e4 32 bd
       0.031727046 0.012633406 -0.035712566 -0.043674894
000230 43 46 c6 bc 76 c0 d4 bb 21 65 02 bd 13 65 94 3c
       -0.024203425 -0.0064926697 -0.031834725 0.018114602
000240 7c 7c 7f 3c 43 ae 40 bc 78 2f 9f 3c 40 5a 85 3c
       0.015593644 -0.011760297 0.019431815 0.016278386
000250 21 6f fd 3c 31 eb 0b 3d 89 a0 95 bc 02 11 48 3d
       0.03093678 0.034159843 -0.018265026 0.048844345
000260 b7 61 e3 bb 46 e0 2b bb 65 f6 48 bd 75 4d 0a bd
       -0.0069391388 -0.0026226207 -0.049063105 -0.033765275
000270 e2 b8 f6 bc b2 4f b5 bc 8b 67 13 3d a7 0a 8a bc
       -0.030117456 -0.022132728 0.03598742 -0.016850783
000280 94 ec 1c bd 34 80 9f 3c e7 80 82 3c fc b9 05 3d
       -0.038311556 0.019470312 0.015930606 0.03264807
000290 86 9e db bc 89 74 2c 3c cc 89 9c bc d1 a8 44 bc
       -0.026808988 0.010525831 -0.019108675 -0.01200314
0002a0 f7 5a 28 bd ee 35 c2 bc 4f da 83 bc 51 ce ad 3c
       -0.041102376 -0.023707356 -0.016095309 0.021216543
0002b0 d2 73 0e 3c 88 38 44 3c c7 09 4f 3d 6f 19 4a 3d
       0.008694606 0.011976369 0.050546434 0.04934066
0002c0 00 f4 0c 3d 3c 16 b9 3a ca 7d 11 bd 36 77 22 3d
       0.034412384 0.0014121006 -0.035520352 0.03966447
0002d0 39 10 54 bc 17 60 8d bb bf d6 34 bd b5 38 2e bc
       -0.012943321 -0.0043144333 -0.04415011 -0.010633637
0002e0 ff 31 09 bd fe 96 3d 3d d3 b7 36 bd 16 15 25 bd
       -0.033494946 0.046286575 -0.044608902 -0.040303312
0002f0 82 67 15 bb f1 83 e4 bc 27 05 93 3c a9 6d a3 bc
       -0.0022797291 -0.027894946 0.017946793 -0.019949751
000300 b9 7b c5 bc de 12 34 3b 95 bb 16 3d 78 e9 13 bd
       -0.024106847 0.0027477066 0.036799986 -0.036111325
000310 5c 6b c2 3c 77 48 05 3d ed 0f 4b 3d 72 ce 13 bd
       0.023732834 0.03253981 0.049575735 -0.036085553
000320 96 2d 44 3c 4f 87 1b bd b1 6f 31 3d cd 2e a4 bc
       0.011973759 -0.037970837 0.043319408 -0.020041848
000330 f0 db f9 3c 47 cf a7 3a a5 cd 89 bb d3 f0 f0 ba
       0.030500382 0.0012802862 -0.004205423 -0.0018382318
000340 0d 94 0a 3c be 56 c3 3c b5 ee 00 3c a4 95 79 3c
       0.00845815 0.023845073 0.007869412 0.015233431
000350 ba 73 3d bd 4a 98 17 3d e8 7e 35 3d 46 ff 2b 3d
       -0.046252944 0.03701047 0.04431048 0.041991495
000360 3e a2 19 3d 84 b5 17 bd 6b af 9c bc 44 8f 37 3d
       0.03750824 -0.03703834 -0.019126615 0.044814363
000370 24 ed 1f bd a9 e9 3c 3d a9 aa 24 bd ce 84 13 bd
       -0.039044514 0.046121273 -0.040201817 -0.036015324
000380 23 c3 cb 3c 98 4b 16 bd 07 1c 40 bc 3c e6 17 3d
       0.024873322 -0.036693186 -0.011725432 0.037084803
000390 6b cc 24 3d 57 e2 44 3d af b6 2c bc 79 99 23 bd
       0.04023401 0.048067417 -0.010541602 -0.039941285
0003a0 86 94 4c 3d 7c f9 36 bc 31 3d ad bc e1 30 49 3c
       0.04994633 -0.01116788 -0.021147342 0.01227972
0003b0 e7 d3 12 bd 58 da 08 3d f5 77 02 3d c3 60 26 bd
       -0.035846617 0.033411354 0.03185268 -0.040619623
0003c0 2d ec 2b bd 67 47 94 bb 57 2e af 3c da 52 cc ba
       -0.04197328 -0.0045251134 0.021384401 -0.0015588657
0003d0 b8 ba d4 bc 01 c4 8b 3a 2f b7 44 bd 55 0a 14 bd
       -0.02596794 0.0010663272 -0.04802626 -0.036142666
0003e0 82 7c 0b bd 05 a7 2b 3d 95 b9 37 3d 39 0b 8f bc
       -0.034054287 0.04190733 0.04485472 -0.017461406
0003f0 09 24 10 3b 2b b4 b9 3c 6a b2 c5 3b c0 ad d1 bc
       0.0021994135 0.022668919 0.0060332315 -0.025595546

embedding_net.conv1.bias f4 [100]
000000 f4 c4 95 3b a7 c9 1c 3d 82 e9 5d 3b c4 62 33 bc
       0.004570598 0.03827825 0.0033861105 -0.0109488405
000010 87 b3 3b bc dd 58 4a 3c 27 33 28 bd 2b 16 ab 3c
       -0.011456377 0.012350288 -0.041064408 0.020884594
000020 5f 06 67 bc 69 dc 42 bd cf 9a 2d 3d 13 4f 28 3c
       -0.01410064 -0.04757348 0.042383965 0.010272759
000030 57 12 b4 3b 2d af 84 ba 72 79 43 3d c8 e1 f5 bc
       0.0054953503 -0.0010123007 0.04772324 -0.030014887
000040 50 5b 8f 3c 62 4b 9b 39 c4 80 eb bb c1 9f 76 3c
       0.017499596 0.00029620068 -0.007186981 0.015052737
000050 fa c9 da 3c 05 ec 1c bd b0 c5 00 bc 1e 56 06 3c
       0.026707638 -0.038311023 -0.007859632 0.008199243
000060 f4 c2 92 3c 23 b7 1d 3d 84 04 ba 3c ad 74 bc 3c
       0.017915227 0.03850473 0.022707231 0.023004854
000070 af b5 40 3d 2a 11 07 bd 50 22 1d 3d ff 10 3f bd
       0.047048267 -0.032975353 0.0383628 -0.046647068
000080 07 5d c2 3c 02 82 3e bd 67 da a4 bc 94 a8 c3 3a
       0.023726 -0.046510704 -0.020123674 0.001492756
000090 d6 98 a2 3b c8 85 cc bb 28 e4 c1 bc 74 79 1e bd
       0.004962067 -0.006241534 -0.023668364 -0.038690045
0000a0 f2 de e5 3b fe 15 04 bd e1 d3 89 bc 57 53 1d 3b
       0.0070151025 -0.032247536 -0.016824665 0.0024005973
0000b0 ca d4 2a bd 22 28 f7 bc f7 11 a7 3c 68 ec 3d bd
       -0.041706838 -0.030170504 0.020394308 -0.046368033
0000c0 1a 68 52 ba dd 61 4f bd eb eb a3 bc 11 d5 9b bc
       -0.00080263766 -0.05063044 -0.020009955 -0.019022496
0000d0 7c 3f cf bc 1d 81 37 bd 50 46 1b 3d 23 fc e7 bc
       -0.025298826 -0.044800866 0.037908852 -0.02831847
0000e0 a6 f5 41 3d e5 df 9c 3b ad ae 6b bb bf c8 33 3d
       0.04735341 0.0047874325 -0.003596227 0.04389262
0000f0 42 e4 07 bb 7a ad 44 3d c9 ee 0b bd c3 3d 89 bc
       -0.0020735417 0.048017003 -0.03416327 -0.016753083
000100 46 07 20 bd 7f 99 f0 bb 38 ac 04 bb cf 7b d0 bc
       -0.039069436 -0.007342517 -0.0020244252 -0.025449662
000110 44 d6 15 3d 1d c0 3c bd 63 b0 96 bc 5f 3b d0 bb
       0.036581293 -0.04608165 -0.018394655 -0.006354734
000120 84 ae 58 bc 49 94 ac 39 1a 53 01 3d 38 b6 d9 3c
       -0.0132252015 0.00032916878 0.031573392 0.026576146
000130 5c 52 05 bc 2a 7d f1 bc 83 63 12 bd 5f 90 0e bc
       -0.008137312 -0.029478628 -0.035739433 -0.008701413
000140 6f ff 7d b9 e6 91 03 bd f9 61 6b 3c 22 c3 9d bc
       -0.00024223117 -0.03212156 0.01436662 -0.019258086
000150 59 ff 12 3d a4 03 d9 bc 27 46 31 bc c6 e4 15 3d
       0.03588805 -0.026490994 -0.010819948 0.03659513
000160 09 4e 58 3c 59 8d f4 bc 44 d7 84 bc 33 f5 b5 bc
       0.013202199 -0.029852556 -0.016215928 -0.022211647
000170 47 56 f5 3c 53 ea 28 3c b6 84 90 3c 74 43 92 3b
       0.029948367 0.0103097735 0.017641407 0.0044636074
000180 84 42 c9 bc 5e d9 8d bc 29 54 f0 bc 46 1d a0 3b
       -0.02456785 -0.017315563 -0.029337006 0.004886302

embedding_net.conv2.weight f4 [50, 100, 3]
000000 47 10 03 bd dd 98 58 bd a0 9a 23 3d 33 58 6c bd
       -0.031997945 -0.052880157 0.039942384 -0.0577013
000010 fe 10 30 3d 76 5d 88 3c 33 5a 40 3d b5 e2 0d 3d
       0.042984955 0.016646128 0.04696102 0.034640033
000020 55 e1 ca bc 71 f1 0c 3d f9 6b 3d 3d 96 2c 2d bd
       -0.02476565 0.034409944 0.04624555 -0.04227885
000030 da 0d 13 3d 34 82 6b 3a 7b 90 35 bd e3 43 51 3d
       0.03590188 0.00089839404 -0.04432724 0.051090132
000040 5b 0b 7a bc a5 32 be 3c 0f cd 75 3c 74 96 38 3c
       -0.015261496 0.023217509 0.015002503 0.01126634
000050 94 ae 37 3c 52 ff 54 3d 65 f3 ac bc 26 21 10 3d
       0.011211056 0.052001305 -0.021112153 0.035187863
000060 83 c8 d5 bb 10 15 67 bd d4 7b fe bc d9 ba 37 3d
       -0.006524147 -0.05641657 -0.031064905 0.044855926
000070 63 33 99 bc e0 95 02 3d 6c ae e5 3c 9a 5c f1 b9
       -0.01870126 0.031881213 0.028037272 -0.00046036096
000080 90 29 20 bd 09 d0 a9 3c 1b 3d 50 bc c3 bb 3e bb
       -0.039102137 0.020729082 -0.012709881 -0.0029103614
000090 34 4a 42 3d 00 74 90 bb 47 a3 a2 3c ef 91 27 bc
       0.047434047 -0.0044083595 0.019853247 -0.010227664
0000a0 59 0d b5 bc 37 93 53 3d 06 44 4a bc 83 53 29 bd
       -0.022101091 0.051654067 -0.01234532 -0.04133941
0000b0 45 c0 68 bd d3 a0 90 ba e9 cd 51 ba b3 dd 97 3c
       -0.056823988 -0.0011034257 -0.00080034 0.018538332
0000c0 75 01 71 3b 8a 03 06 3d 33 74 c8 3c f6 57 0e bd
       0.003677455 0.03271822 0.02446947 -0.034751855
0000d0 62 ff 00 bd 68 e3 29 3c e7 b4 24 3d f9 4b df bc
       -0.031493552 0.010369159 0.040211584 -0.027257906
0000e0 04 7c f4 bc 8f 82 64 bd 9a f8 47 3c 31 10 69 bc
       -0.029844292 -0.055788573 0.012205267 -0.014225052
0000f0 ef 98 ee bc 5e b6 1e 3c d3 3c 33 3c b0 c9 89 3c
       -0.029125659 0.009687034 0.010939795 0.016819805
000100 74 57 cc 3c e0 7d 84 3c 4d fd 4d 3d b9 32 b1 bc
       0.024944045 0.016173303 0.050290395 -0.021630632
000110 ab f2 0e bc 65 59 1b bd c3 f9 de 3c a1 5d c7 3c
       -0.008724849 -0.03792705 0.027218705 0.024336638
000120 f1 20 3b bc bd 8a d0 bb 20 96 54 3c a4 09 08 3d
       -0.011421428 -0.006364195 0.012975246 0.03321232
000130 49 fe d0 bc cb cb 51 bd 44 a8 d9 3c 06 47 aa 3c
       -0.025511878 -0.051219743 0.026569493 0.02078582
000140 f0 a7 7b bc 1d e6 2d 3d 50 54 5a 3d ea de 53 3d
       -0.015359864 0.04245578 0.053303063 0.05172626
000150 b4 fc 86 b9 bd c8 1a bd 57 a1 1f bd 50 04 16 bd
       -0.0002574675 -0.037789095 -0.038972225 -0.036625206
000160 12 29 07 3d 6b 11 f0 3c 47 52 90 bc 1e 33 41 bc
       0.032998152 0.02930518 -0.017617358 -0.011791972
000170 25 6a 6a 3d 8e 8b b2 bc 66 eb e3 bb c6 56 68 bb
       0.057230134 -0.02179506 -0.006955552 -0.0035452112
000180 3e c5 65 bd 40 53 44 bd 5d 19 50 3a ed e3 1b bd
       -0.056096308 -0.047930956 0.000793835 -0.038059164
000190 2b ae 6f bc 7e 78 b9 bb 5a 75 d8 3c 48 fc 4d 3d
       -0.014628927 -0.0056601157 0.026423145 0.050289422
0001a0 46 5b dc bb 3b b2 e6 3c 94 ee 14 bd a7 1a 16 3b
       -0.006724748 0.028161159 -0.03636034 0.002290407
0001b0 60 58 f0 3c fe a9 e4 bc de 0b 46 bd ff 34 b0 bc
       0.029339015 -0.02791309 -0.04835116 -0.021509646
0001c0 82 49 55 bc f3 26 1c 3d b6 01 25 3d 91 3a dd 3c
       -0.013018014 0.038123082 0.040284835 0.027005466
0001d0 76 e6 a8 3c 14 ff 22 3c d7 16 05 bd fe f1 15 3d
       0.020617705 0.009948511 -0.032492485 0.036607735
0001e0 d3 e9 54 bd 4a 73 c5 bc a5 c0 65 bb e3 34 06 3d
       -0.051980805 -0.024102826 -0.0035057452 0.03276528
0001f0 93 2b b9 bc b3 fe 4e bd b6 57 e7 3c a9 51 a0 3c
       -0.022603786 -0.05053587 0.028240066 0.019570189
000200 ea 7d c5 3c e4 2d 0f 3d 42 bc 75 3b 1a 48 62 bd
       0.024107892 0.034955874 0.0037496244 -0.055244543
000210 ae 26 c5 3c 56 f5 49 bb 4b 59 cc bc 4c c5 2d 3d
       0.024066295 -0.0030816398 -0.024944922 0.042424485
000220 f3 ce 80 bc 20 db 1b 3d 8a 69 bd 3b 27 88 42 3d
       -0.015723681 0.03805077 0.0057804035 0.047493126
000230 79 16 47 bd f4 d7 db 3c 96 e3 67 bc 27 70 2e 3d
       -0.048605416 0.026836373 -0.014153382 0.042587426
000240 8e c4 c5 3c e6 15 df 3c 0f 3f ed bc 18 fd 8a 3c
       0.024141576 0.027232122 -0.028960733 0.016966388
000250 7a 72 64 bd 98 d8 14 3d 85 5e 11 3d 76 10 2c 3d
       -0.055773236 0.036339372 0.03549053 0.042007886
000260 e9 65 0d 3d f6 ff 86 3a e5 4e 67 3d 15 1a 2a 3d
       0.034521017 0.0010299671 0.056471724 0.04152878
000270 a2 51 22 39 b1 bc 2c 3d 48 03 39 3d af 7d 6b 3d
       0.00015479935 0.042172138 0.045169145 0.057492908
000280 94 3e bd bc e5 65 1f 3d 92 9b 81 bc d1 ce c6 bc
       -0.023101129 0.038915534 -0.015821252 -0.02426854
000290 df 24 47 3d 08 fd 13 bd 85 f7 e2 bc dc e5 09 3d
       0.048619147 -0.03612998 -0.027705917 0.033666477
0002a0 bb 09 6b 3d 63 b3 48 bd 2b 7f 16 bd 59 6c b6 3c
       0.057382327 -0.0489992 -0.03674237 0.022268461
0002b0 e1 43 09 3d 08 85 0f 3d 76 35 50 3c 07 72 b0 3a
       0.033512 0.035038978 0.012708059 0.0013461717
0002c0 31 32 60 3d ec b1 aa 3a 6d 1b fc ba 51 be 49 bc
       0.054735366 0.0013022996 -0.0019234248 -0.012313441
0002d0 48 52 5f 3d 17 6f da bc 7b 9d 8c bc 6e ed 17 3d
       0.05452183 -0.0266643 -0.017164936 0.037091665
0002e0 de 0c 6a 3d 02 dd 28 3d 26 25 31 3b 19 7d 63 bd
       0.057141177 0.041226394 0.0027030199 -0.055539224
0002f0 ff d5 5a bd 1c 40 be 3c 38 3f 57 3d 68 29 0b bd
       -0.05342674 0.02322393 0.052550524 -0.033975035
000300 9e 98 04 bd 23 32 3f 3d 94 a8 1d bd a4 71 06 3d
       -0.03237211 0.046678673 -0.038490847 0.03282322
000310 0e bc 07 3b 6b 36 61 bd 77 1f a4 bc d5 1a b0 3c
       0.0020711455 -0.054983538 -0.020034535 0.02149717
000320 fa d9 58 3d 96 94 db bc ea 7d 46 ba 03 fd 3d bd
       0.052942254 -0.02680425 -0.0007571863 -0.04638387
000330 fb 24 28 3d 4b 34 4f 3d 28 b1 a4 bc 11 5f 90 3c
       0.041050892 0.05058698 -0.020104006 0.017623456
000340 55 e7 ed 3c d1 92 53 bd db 34 4d 3d f4 86 da bc
       0.029040972 -0.051653687 0.050099235 -0.026675679
000350 39 55 06 bb a5 47 53 3d cd eb 16 3d eb 56 7c bc
       -0.0020497574 0.051581997 0.03684597 -0.015401582
000360 dd cc a9 bc 79 ea dc bc 20 57 6c 3d c6 54 16 3d
       -0.02072757 -0.026967274 0.057700276 0.03670194
000370 f4 07 56 3d 81 5e 51 bd 3a d7 d6 3c a7 ae e6 3b
       0.05225368 -0.051115517 0.026225675 0.007039863
000380 63 33 43 3d 42 c1 85 3c bb be 44 3d 17 12 16 3d
       0.047656428 0.016327504 0.048033457 0.036638346
000390 8a 8b 53 3d e4 67 d7 bc a8 d0 c4 bc 1b 71 57 bc
       0.051646747 -0.026294656 -0.024025276 -0.013149525
0003a0 93 1e ba bc 67 e9 0b 3d e1 a2 d0 3c e1 6d 37 3d
       -0.022719657 0.034158137 0.025468292 0.044782523
0003b0 1c ca 47 bd 14 38 54 bc 63 20 09 bd 52 89 9e 3c
       -0.04877673 -0.012952823 -0.033478152 0.019352589
0003c0 4e bd 4f 3d 80 f4 57 3d 4b 54 2f 3d 4a 60 a5 bc
       0.050717644 0.052723408 0.042804997 -0.020187516
0003d0 e1 e0 d8 bb 16 af 75 3c 95 bd 14 3d 85 c8 76 bc
       -0.0066186045 0.014995357 0.036313612 -0.015062456
0003e0 c7 1e d6 3c 6a d3 50 bd 8d 1a 11 bc 69 b7 10 3d
       0.026137723 -0.05098287 -0.008856428 0.035331164
0003f0 12 84 39 3c 5e 71 7e bc e7 02 46 bc b7 e6 54 bd
       0.011322992 -0.0155299585 -0.012085653 -0.05197784

embedding_net.conv2.bias f4 [50]
000000 66 38 2c bd cf 74 2e 3d 99 c8 8d 3b 10 d5 11 3c
       -0.042045973 0.042591866 0.0043268916 0.008900896
000010 9c d3 4f bc 2c eb d1 3c 61 bd c2 bc 00 ce fe 3c
       -0.012684729 0.025624834 -0.023771944 0.031104088
000020 09 1f 8e 39 d7 4d 1b 3c 0a 0d 2d bd 77 17 2f 3d
       0.00027107474 0.009479008 -0.042248763 0.042746987
000030 bc 7c 3d bd 19 f2 0e 3c 74 72 09 bd be 80 f2 bc
       -0.046261534 0.008724713 -0.033556417 -0.029602405
000040 5b 6b f8 3c ae be cc bc b7 c8 e6 bc 67 fd 78 3c
       0.030324629 -0.024993267 -0.02817188 0.015197135
000050 ca 4b fa bc fe c3 f1 bc ad 52 69 bd 17 8d 6b bd
       -0.030553717 -0.029512402 -0.05696361 -0.0575076
000060 bb e0 08 bd 32 42 05 bd 0e 88 83 bc 2c 48 0d 3d
       -0.033417445 -0.032533832 -0.016056087 0.034492657
000070 b1 5c 25 bd fe 7a d6 3c 2b 80 46 3d 4a 1b 05 3d
       -0.0403716 0.026181694 0.048462074 0.032496728
000080 45 6f 64 bd cb cd 79 ba 3a ca b8 3c 07 b5 00 bd
       -0.055770177 -0.0009529262 0.022557367 -0.03142264
000090 f3 e0 f7 bc 85 52 31 3d a2 49 a2 bc e1 f4 2b bc
       -0.030258631 0.043291587 -0.019810501 -0.010495395
0000a0 67 d8 64 bd 84 6d d7 bc 68 aa 3d 3d 9c 3b c9 3c
       -0.05587044 -0.026297338 0.04630509 0.024564557
0000b0 b4 7a 07 bc 1a 88 0a 3b 5e ea 06 3d 90 9d 5e bd
       -0.008269001 0.0021138252 0.032938354 -0.054349482
0000c0 9e 90 2a bd b3 cc 46 3d
       -0.041641824 0.04853506

embedding_net.fc1.weight f4 [70, 100]
000000 06 35 25 bd 30 79 91 3d c1 9b 42 bd f1 b1 8a bd
       -0.04033377 0.07103193 -0.04751182 -0.06772221
000010 58 f3 2a bd e8 11 f9 bb 5b 6c 70 bd 7b 68 dd 3c
       -0.041735977 -0.0076010115 -0.058697086 0.02702736
000020 9c c1 c9 3d 8e d0 9d 3c 04 53 d8 3c ec d0 ce bc
       0.09851381 0.019264486 0.026406772 -0.025246106
000030 e8 5f 30 3d ad 3b af bd 33 5b fd bc 62 42 c4 3d
       0.043060213 -0.08556304 -0.030927276 0.09582974
000040 98 cd 22 bd a0 2d b0 bc c4 96 42 3a 5a 0b ac 3a
       -0.03974685 -0.02150613 0.00074229785 0.0013125942
000050 f6 0d 94 3d 4c 36 24 bc 6e c4 c3 bd d1 d9 31 bd
       0.07229225 -0.010022711 -0.0955895 -0.043420617
000060 14 2d b3 bd 76 8c b7 bc 1a db 8d 3d 5e 77 d2 3c
       -0.08748832 -0.022405844 0.06926556 0.025691684
000070 bc 07 79 3c 0e 30 31 bd e1 ef 42 bd e0 a5 1a 3c
       0.015199598 -0.04325872 -0.047592048 0.009438962
000080 cb b2 6b 3d ec 0d 0b bc ae 14 eb bc 23 a5 a2 bd
       0.057543557 -0.008487206 -0.028696384 -0.079416536
000090 3a a8 3f bd 2b 3c ac bd 8e 1e 8d 3c dd 3f 53 3d
       -0.046791293 -0.08409914 0.017226484 0.051574577
0000a0 af 43 6c bc af 5c c7 bd b7 f8 3f bc 08 8d a4 3d
       -0.014420434 -0.09734475 -0.011717013 0.08034712
0000b0 4e cc c0 bd 4b e4 ca bd c8 2c ae bd 45 44 b3 3d
       -0.09413968 -0.09906825 -0.08504635 0.08753256
0000c0 40 47 ad 3d 37 41 91 3d b8 4e 7e 3d a8 d7 7b bc
       0.084608555 0.07092517 0.06208679 -0.015371241
0000d0 6b dc 3b bd 46 07 92 3d 1f 96 38 3d 84 1d 41 bd
       -0.045864504 0.071302935 0.04506504 -0.04714729
0000e0 db 2f 5f 3d b3 d7 ca bd 3c c7 00 bd 99 75 8f bd
       0.054488998 -0.099044226 -0.031440005 -0.07004852
0000f0 87 f6 ac bd 8e b4 04 bd 2c a8 65 bd 29 6f af bc
       -0.08445459 -0.032398753 -0.056068584 -0.02141531
000100 7a 41 10 bd a4 5d c1 bd 72 2c 53 3d f8 c9 bc bd
       -0.035218693 -0.09441689 0.05155606 -0.0921821
000110 c7 91 80 bb a2 e5 8d 3b 62 59 a5 bd f8 a5 af bd
       -0.003923628 0.004330353 -0.08073689 -0.08576578
000120 c4 fe bd bc 25 c9 7a bd 89 b6 47 bd 69 ee 96 bb
       -0.02319277 -0.061226983 -0.048758063 -0.0046060574
000130 2e 00 29 3d 15 0d 84 3d 7c b5 6a 3d 78 24 40 3d
       0.041259937 0.06447808 0.057301983 0.04690978
000140 94 7d 82 3d 21 3d 32 3d 0b ae be 3d e4 68 7e bd
       0.063716084 0.04351533 0.0931054 -0.06211175
000150 97 be 96 3d bb d4 c1 bd 9e 56 72 ba 26 e5 d8 3c
       0.07360571 -0.09464403 -0.00092444743 0.026476454
000160 75 90 df 3c 88 92 d0 3c 99 20 b5 3c 28 56 dd 3c
       0.027290562 0.025460497 0.02211027 0.027018622
000170 da 49 30 3d 57 ef b5 bd f8 14 bb 3d 25 8b bb 3d
       0.04303918 -0.08883541 0.09134859 0.09157399
000180 b3 67 1a 3d 09 eb 60 3d 31 97 92 bd bb 5d 1d 3d
       0.03769655 0.054911647 -0.07157744 0.038419466
000190 18 37 86 bd 84 de e9 bc d7 76 a3 3d b5 2f 95 3d
       -0.06553477 -0.028548487 0.07981651 0.0728449
0001a0 bc 7b b6 3a c0 85 82 3d 38 d0 82 3d 3a 1b 82 bd
       0.0013922374 0.06373167 0.06387371 -0.06352849
0001b0 31 ab 95 bd 7b 0a 6d bd 09 48 8d bd 3a 22 e1 3c
       -0.07308043 -0.057871323 -0.06898505 0.02748214
0001c0 d2 5b c7 bd ca 75 9b bd 38 7f 14 bd ab c7 ff bc
       -0.0973431 -0.07590826 -0.036254138 -0.031223139
0001d0 49 fd 90 3d 77 98 d9 bc 14 99 46 bd 75 c4 3e 3d
       0.0707956 -0.026561959 -0.04848583 0.046574075
0001e0 ca a6 93 3d de 3e ac bc ae 26 c6 3c e0 e8 b0 3d
       0.07209547 -0.021026071 0.024188366 0.086381674
0001f0 52 06 4b bd 2c 38 63 bd aa 5a a8 3b 82 1e 90 bc
       -0.049566574 -0.05547349 0.005137761 -0.017592672
000200 cf 95 d9 3c b4 9d 73 3c 8b b3 8a bd 08 8f 95 3b
       0.026560692 0.014869142 -0.06772526 0.00456417
000210 72 cf 5f 3d e5 cb 8f 3b 2a 21 2f 3d 3b 6e 10 bc
       0.054641195 0.00438832 0.042756237 -0.0088153435
000220 33 1f 07 3b 51 90 b9 bd fb da 81 3d 53 d7 05 bd
       0.0020617961 -0.09060729 0.06340595 -0.032676052
000230 45 22 01 3c f2 fe b7 bd 93 c4 55 bd 52 f8 13 bd
       0.007881706 -0.08984174 -0.05218942 -0.03612549
000240 52 ef 58 3d b4 35 9c bd 17 54 d2 bc 24 9a 39 3d
       0.05296261 -0.076274306 -0.025674863 0.045313016
000250 25 c2 28 bd c6 7f ba 3c d0 bf 97 bc e6 87 75 bc
       -0.041200776 0.022766005 -0.01852408 -0.014986014
000260 c9 e4 a8 bd 48 99 80 bd ef 42 8f 3d 5f cb 37 bc
       -0.08246762 -0.06279236 0.069951884 -0.011217921
000270 87 96 55 bd 80 e4 87 bc 06 12 db 3c f3 5c ae bd
       -0.052145507 -0.01658845 0.026741993 -0.085138224
000280 7b a5 ba 3c e4 a1 7d 3b ff 94 8d bd 76 c4 a0 bc
       0.022783985 0.003870123 -0.069131844 -0.01962493
000290 d2 e7 92 3d 73 18 c3 3d 53 bd 2f bd b5 6e 13 bd
       0.071731225 0.09526148 -0.042905163 -0.03599425
0002a0 ac 83 59 bd 34 3b 9e bd 6d e9 9b 3b fe 67 2e 3d
       -0.053104088 -0.07726136 0.004758051 0.042579643
0002b0 cc 1b bb bd b4 a5 f2 3c e0 7b 96 3d ff 7c a0 3d
       -0.09136161 0.029620029 0.07347846 0.07836341
0002c0 fe 97 1d 3d 62 c7 93 3d a7 7f a0 3d 67 67 77 3d
       0.03847503 0.07215764 0.07836848 0.060401347
0002d0 08 f2 b7 bd 1b b9 95 bd 7d c0 a9 3d 27 6e af bd
       -0.08981711 -0.07310697 0.08288667 -0.08565932
0002e0 e1 4b 78 bd a1 ca b7 3d 53 31 a6 3d 64 5b a1 bd
       -0.06061924 0.08974195 0.081148766 -0.078787595
0002f0 78 bb ef 3c 77 a0 b7 3d f4 63 aa bd 47 a9 cf bc
       0.029264197 0.08966153 -0.08319846 -0.025349272
000300 59 67 8a bd 20 0f 89 bd 57 e5 33 3d ec da 8d 3d
       -0.06757993 -0.06692338 0.043919887 0.06926522
000310 81 27 8d bd 60 3b 92 3c 7c 42 a6 3d 41 3b 64 bd
       -0.068923004 0.017850578 0.0811815 -0.05572057
000320 9f bc 98 3d b3 7d a8 bc 76 2e 55 3d 91 13 11 3d
       0.074578516 -0.02056775 0.05204626 0.03541905
000330 cc 93 88 bd 4e 77 b4 3c 77 33 a7 bd a7 55 f8 ba
       -0.06668815 0.022029545 -0.08164113 -0.0018946425
000340 3c 71 b3 3d f1 56 9d bc 7f b7 a2 bd f1 c0 2f bd
       0.08761832 -0.019206496 -0.07945155 -0.042908613
000350 e9 4a 2c bc 49 25 a7 bd a5 04 71 3d 7a 5e 77 3d
       -0.010515907 -0.081614085 0.05884232 0.060392834
000360 d4 74 bf 3d f9 cd ac 3d 51 34 a4 3c 77 94 94 3d
       0.09348455 0.08437724 0.020044478 0.0725488
000370 67 8a bf 3d a4 0d b0 bd 05 95 e5 3c 6f 25 03 bb
       0.0935257 -0.08596352 0.02802516 -0.0020011326
000380 c0 be 87 bd 87 7c d8 bc be 32 34 3b 3f 06 47 bc
       -0.066281796 -0.026426567 0.0027496065 -0.012147485
000390 df 38 20 bd 24 7f ec bc eb 96 89 bc da ef 1a 3d
       -0.039116737 -0.02886922 -0.016795596 0.037826397
0003a0 d9 5e 59 bd 57 78 8e 3d a5 4e ac bd 7f 58 75 3d
       -0.05306897 0.06956547 -0.08413438 0.05989885
0003b0 dd 24 a7 bd ba f8 11 bc ca 11 e4 bc c8 9a ca bc
       -0.08161328 -0.008909399 -0.027840514 -0.024732009
0003c0 d0 70 8b 3a 56 fe 9c bd 5d e2 ba 3d 0b d5 c1 bc
       0.0010638479 -0.07665698 0.091252066 -0.023661157
0003d0 ee 15 a2 3c 5e f5 9d 3d be e9 db bb 44 86 50 3c
       0.019785848 0.07712816 -0.006711214 0.012727324
0003e0 33 e0 05 bc 7f 1f c6 bb e9 4f 8e bc aa 00 b9 bd
       -0.008171129 -0.006046235 -0.017372089 -0.0903333
0003f0 0e 19 fa 3c 66 40 82 3b 24 0f 06 3c 26 18 f7 3b
       0.030529525 0.003974962 0.008182321 0.0075407205

embedding_net.fc1.bias f4 [70]
000000 36 60 a2 3d 18 e5 51 3d 59 81 8d 3d b0 7a 7a 3d
       0.07928507 0.05124387 0.06909437 0.06115216
000010 94 56 b4 bd 6b 4b 61 3d 21 05 17 3d d3 ff 74 bc
       -0.08805576 0.055003565 0.036870126 -0.014953571
000020 27 6a 96 bd 24 10 a7 3d e1 a6 8c 3b 03 82 70 3d
       -0.07344466 0.081573755 0.0042923545 0.05871774
000030 0d 0e e9 3c c2 2a 2f 3d bf 71 03 3d 8a fe c3 bc
       0.028449083 0.042765386 0.0320909 -0.023925085
000040 92 ea 91 bc ab 42 a5 bd 6b 9b 93 3d 64 30 25 3d
       -0.017812047 -0.080693565 0.07207378 0.040329352
000050 4f dd bf bd a4 e1 84 3d 4d 64 43 3d 3a 69 8d bd
       -0.09368383 0.0648835 0.047703076 -0.06904836
000060 72 39 4e 3c ff df fd 3b 42 54 69 bd d2 fd 9b bc
       0.012586938 0.0077476497 -0.05696512 -0.01904193
000070 c4 46 00 3d 0b d3 28 3c 32 53 1d bd 2e ac 4a 3d
       0.031317487 0.010304223 -0.03840942 0.04948061
000080 e1 4a ba 3c 79 a1 2c 3d f1 aa 0a 3d 7d 4f 21 bd
       0.022740783 0.04214618 0.03385443 -0.039382447
000090 5a a9 83 37 92 bf 6a 3c 32 81 4c bc 37 b6 78 3d
       1.5695277e-05 0.0143279005 -0.012481974 0.06072065
0000a0 fe ea 3b 3d 73 5d 36 3d 57 59 a6 3d 66 e9 70 3a
       0.045878403 0.044522714 0.08122509 0.00091900525
0000b0 30 47 21 3d f7 8f 26 bd 13 2f 9c 3d b3 57 0b 3d
       0.03937453 -0.04066464 0.07626166 0.034019183
0000c0 dc 4c 97 3d d1 6f 04 bd 1e 1d 17 bd 0b bb c3 bd
       0.07387707 -0.0323332 -0.036893003 -0.0955716
0000d0 2a 08 d1 3b 04 7a 9e bd 1e f8 6b bd b2 9b 33 3c
       0.006379147 -0.077381164 -0.05760967 0.010962414
0000e0 b2 ee 49 3c 26 f1 ac bd 09 4d 43 3b 7e 27 9f 3d
       0.012324976 -0.08444433 0.0029800555 0.077712044
0000f0 32 46 57 3d 98 8f c2 bd a3 be df bc 2b b5 c5 bb
       0.052557178 -0.095000446 -0.027312582 -0.00603356
000100 63 c5 b2 bb ca b2 9c bd e3 e4 cc bc 22 1b 91 bd
       -0.0054556592 -0.07651289 -0.025011485 -0.07085253
000110 ce 89 8d 3d 78 1f 31 3c
       0.0691105 0.010810725

embedding_net.fc2.weight f4 [50, 70]
000000 c5 07 7d 3d a3 21 d2 bd 9a 12 62 bd e9 91 67 3d
       0.061774988 -0.10260322 -0.05519352 0.056535635
000010 80 f6 af bd 32 b2 cc 3c 1c 39 df 3d 5f e1 f1 3c
       -0.08591938 0.024987314 0.108995646 0.02952641
000020 ee 03 58 3c 3e b0 11 bd 39 74 0e bc 46 f5 c9 3d
       0.013184531 -0.03556847 -0.008694702 0.09861235
000030 f9 f5 b7 3c 85 9f c2 3d b2 45 55 3d 2e 93 19 3d
       0.022456156 0.09503082 0.05206842 0.037493877
000040 1c 9b 82 3d 20 5a 9f bd 90 c1 58 bc bd 21 4f 3d
       0.06377241 -0.07780862 -0.013229743 0.050569285
000050 2a 45 9d bd 2f e5 ce 3d 55 c3 76 3d 16 c3 42 3d
       -0.076792076 0.10102307 0.060244877 0.04754933
000060 9b ce c4 3d 9e 73 96 bd 67 c0 e5 3d e6 48 e7 bc
       0.09609719 -0.07346271 0.112183385 -0.028233003
000070 53 93 12 bd c9 07 07 3d 05 5f 95 3d 46 c3 94 bd
       -0.03578503 0.03296641 0.07293514 -0.07263808
000080 fc 8c 78 3d f5 fb d9 bd 72 5d e1 3d 66 36 21 bd
       0.06068133 -0.1064376 0.110041514 -0.03935852
000090 bf 2e 8a bc b9 bd bb bd de 61 f2 3c e3 3d d9 bd
       -0.016867993 -0.09167046 0.029587682 -0.10607507
0000a0 07 71 f1 3c 49 e6 65 bd 13 25 82 bc 7f 56 a0 3c
       0.029472841 -0.05612782 -0.015886819 0.019572495
0000b0 83 0a 03 bd 20 ad d6 bd 47 8a 62 3d 3f ad 1e bd
       -0.031992447 -0.1048224 0.055307653 -0.03873944
0000c0 ce 70 c5 bc b6 9d 50 3d 96 c4 fc bc 8c 1e ed bd
       -0.024101641 0.050931655 -0.030855458 -0.11578092
0000d0 49 b8 56 bb 04 42 14 bd c0 66 f3 3d c2 f2 9a bd
       -0.003276365 -0.03619577 0.118848324 -0.07565834
0000e0 74 11 ca 3d 1c a7 ca bc a1 3a e8 bd 52 5a a0 bd
       0.0986661 -0.024737887 -0.113393076 -0.07829727
0000f0 73 5d b2 3d 54 ea 8c bd 7c 6b 2c 3c 8e 0e 80 3c
       0.0870923 -0.06880632 0.010523673 0.01563194
000100 a4 02 7c 3c b8 71 e2 3d cb c7 c2 bc 24 f5 93 3d
       0.015381489 0.110568464 -0.02377691 0.07224491
000110 83 eb f2 3d 6d 21 68 bd c3 59 0a bd 4d ce c7 bc
       0.118613265 -0.056672502 -0.03377701 -0.024390364
000120 b5 ac cb bd 17 43 a1 3d a6 1f a6 3c 02 07 84 3d
       -0.099450506 0.078741245 0.020278763 0.06446649
000130 56 af 19 3d ed 49 82 bd b6 04 ae 3d b9 ef b5 ba
       0.03752073 -0.063617565 0.08496992 -0.0013880647
000140 f2 c5 a4 bd f6 78 d9 bc 35 ca f3 bb 5a ae b0 bd
       -0.080455676 -0.026546936 -0.0074398764 -0.08627005
000150 9b 6a ac bd fc d9 e1 bc de d7 2e bd 68 92 90 bd
       -0.08418771 -0.027569763 -0.042686336 -0.07059175
000160 31 1c b8 bd 70 94 ff bc 53 77 c0 3d ab b1 9a 3d
       -0.08989752 -0.03119871 0.09397759 0.07553419
000170 9f 52 e6 3d 12 cf f2 3d 52 82 c0 bd 82 7c 9b bd
       0.112462275 0.11855902 -0.093998566 -0.07592107
000180 18 92 f2 bd a3 46 3a 3d f1 71 f0 3d 68 a3 d9 bd
       -0.118442714 0.04547752 0.117404826 -0.106268704
000190 5a 73 61 3c a9 49 78 3d 35 84 59 3d 6a 9f 16 bd
       0.013760412 0.060617123 0.053104598 -0.036773123
0001a0 7b b2 92 bd 74 7d 7a bb 71 80 c4 bb 99 74 c0 3d
       -0.07162949 -0.0038221749 -0.0059967567 0.09397239
0001b0 74 56 0f 3c 75 a6 c6 bd 8b 6d da bd 4e 35 91 bd
       0.008748639 -0.09699718 -0.10665425 -0.07090245
0001c0 f4 c4 9a bc 32 d1 9c bd 00 e5 e2 3d 5b 16 7e 3d
       -0.018892743 -0.07657088 0.110788345 0.06203304
0001d0 43 83 81 3d 61 fe b7 3b c8 79 dd 3d a9 1c e0 bc
       0.06323864 0.005615041 0.108142436 -0.027357416
0001e0 3e a1 dc bc 84 58 b2 bd ed 03 78 bd 86 42 e2 bd
       -0.026932355 -0.08708289 -0.06055062 -0.110478446
0001f0 3f 95 e4 3d fe 59 da bd 29 56 aa bc f7 4b 70 bd
       0.11161279 -0.10661696 -0.020793037 -0.058666196
000200 9b d7 39 bd bd e4 ce bd e8 b5 e7 bd b5 7d 15 bc
       -0.045371633 -0.10102222 -0.11313993 -0.009124209
000210 fb e6 e4 bb 36 31 91 3d 46 ff 08 bd 96 ae b9 3d
       -0.006985543 0.07089464 -0.033446573 0.09066503
000220 24 ef cc 3d e1 da 11 3d 21 f9 d2 3d 80 5e 54 bd
       0.1000655 0.03560913 0.10301424 -0.051847935
000230 cd 67 99 3d b5 ea 9a 3c 88 a1 e1 3d 38 cd ee bd
       0.074905016 0.018910745 0.11017138 -0.11660236
000240 e6 75 d1 bd ea 90 e5 bd c3 2e ae 3b 4c c3 75 bb
       -0.102275655 -0.11209281 0.005315633 -0.003750044
000250 bd e3 dc bd ef 79 4d bd 2a 8f ee bd 6c 94 d5 3c
       -0.10785625 -0.050165113 -0.116484 0.02607175
000260 8f 17 7a bc 59 ab e5 bd fe e6 83 3d b7 ae ab 3d
       -0.015264406 -0.112143226 0.06440543 0.083829336
000270 51 a1 11 3d bd aa f4 3c 93 a0 e3 3d 39 08 8b 3d
       0.035554234 0.02986657 0.111146115 0.06788678
000280 21 bb 7b bd c4 d5 6c 3d a3 13 d4 bd 95 13 c9 3d
       -0.061457757 0.05782105 -0.10355308 0.09818188
000290 bf 9b 81 3d d8 d6 7f bd 78 0f cc bc 3b 4b 8a bd
       0.06328534 -0.06246075 -0.02490972 -0.0675263
0002a0 04 78 80 bd 59 05 96 bd 69 6c f3 bd 9f 08 1a bd
       -0.06272891 -0.07325239 -0.11885912 -0.037605878
0002b0 87 0d 52 3d 3c cc 8a 3d 65 28 d4 bc 62 79 b2 bd
       0.051282432 0.06777236 -0.025898168 -0.08714558
0002c0 17 dd 8b 3d 07 fc 91 3a bd 66 2f bb 8f c8 7f 3d
       0.06829279 0.0011137732 -0.0026764118 0.062447127
0002d0 73 c3 f3 bc a8 57 4d 3d 9b de 56 3d 8d c6 c3 bc
       -0.029756283 0.050132424 0.052458387 -0.023898387
0002e0 5f 5e dc bc 9e a9 ab bc 2f 04 5c bd a9 bb 61 bc
       -0.026900468 -0.020954903 -0.053714927 -0.013777652
0002f0 54 32 c6 bd 1e 0e b9 bd 03 cd ce bb 0a 44 e4 bd
       -0.09677568 -0.09035896 -0.0063110604 -0.1114579
000300 68 b3 a9 bc f5 e5 c7 bd 5d 8b e8 3c 8e d9 91 ba
       -0.02071543 -0.09760658 0.028386766 -0.0011127458
000310 e2 69 a3 bd cb b0 e0 bc 7c bf 15 3d 7d 7b c7 bd
       -0.0797918 -0.027428051 0.036559567 -0.097403504
000320 0d a4 bf bd 14 27 27 3c ed a4 0f 3d da a5 77 3d
       -0.09357462 0.010202188 0.035069395 0.060460903
000330 13 a0 19 3c dc ce ee bd ac 95 b3 bd e4 56 a6 bb
       0.009376544 -0.11660549 -0.08768782 -0.005076276
000340 ec be 89 bd a4 33 28 bd 1b 98 16 3d 6f 90 8b bd
       -0.067258686 -0.041064873 0.036766153 -0.06814658
000350 36 08 e4 3c 91 a3 e0 3d a2 73 d4 3d de e2 1c bd
       0.027835947 0.10968698 0.10373618 -0.038302295
000360 b8 25 9b 3d 79 32 b8 bd 38 c5 14 3d 37 60 02 3c
       0.07575554 -0.08994002 0.036320895 0.00795751
000370 df bd de 3d 6b a3 a5 3d ff 41 dc bd 72 b6 af 3d
       0.10876059 0.0808781 -0.10754775 0.085797206
000380 5b 0e b1 3d ba ca ac 3d e7 ee 7e 3d 5a d4 81 bd
       0.08645316 0.084371045 0.062239554 -0.06339331
000390 e2 3d 2c bc fd f2 e1 bb 30 eb 13 3d 8a b1 34 3d
       -0.010512801 -0.0068954215 0.036112964 0.044114627
0003a0 ba b9 45 bd 7c 95 21 bd 5a 59 75 bd ee e2 d8 bc
       -0.048272826 -0.0394492 -0.059899665 -0.026475396
0003b0 82 63 d3 bd 6a d3 c1 bd b2 9c 48 3d 6b 66 35 bd
       -0.10321714 -0.09464152 0.04897756 -0.044287127
0003c0 96 a7 04 3d 97 5d 5e bd 32 60 c9 3a 06 82 5b 3d
       0.032386385 -0.054288473 0.0015363751 0.053590797
0003d0 47 d5 b8 bd d4 e5 bf 3d 32 0e a0 bd 0a 04 11 bd
       -0.090250544 0.09370008 -0.078152075 -0.035404243
0003e0 47 c1 4b 3d 51 a4 e9 bd 0a 9b 6b 3d 3b 0c c4 3d
       0.04974487 -0.11408294 0.057520904 0.09572645
0003f0 39 40 cf bd ef e2 f2 bb bf 4e 97 bd 9a 1e 87 3d
       -0.101196714 -0.0074123065 -0.073880665 0.06597634

embedding_net.fc2.bias f4 [50]
000000 19 af be 3d 75 17 a2 3d 30 a1 cb 3b 11 4e 81 3d
       0.09310741 0.0791463 0.0062142834 0.06313718
000010 5c 5e d0 bd fe 89 24 3d 0d 1c 8f 3d 10 1b bb bc
       -0.101742476 0.040170662 0.06987772 -0.022840053
000020 5d 70 e5 3d f8 99 18 3c cc 1a 0d bd 4a 10 ac bd
       0.11203072 0.009314053 -0.034449384 -0.084015444
000030 60 e5 7a bc 63 fe a3 3d 68 be 42 3c 45 74 9f bd
       -0.015313476 0.08007505 0.011886217 -0.077858485
000040 f4 9f cb bc 1b 55 f1 3d 54 98 ad bd 32 09 dd bd
       -0.024856545 0.11783811 -0.0847632 -0.107927695
000050 0a db 83 bd be 8b 42 bd d0 0c 3a bd e8 c1 64 3c
       -0.06438263 -0.04749655 -0.045422375 0.0139622465
000060 05 b1 d2 3d 60 ae ba bb 44 be c2 3c 18 9e 77 bc
       0.1028767 -0.0056970567 0.023772366 -0.015113376
000070 12 27 57 3d b0 e3 bd bc e4 c5 0b bd ac e7 d7 3c
       0.052527495 -0.023179859 -0.03412427 0.026355587
000080 9f 82 82 3d 37 e2 94 3d 6d 84 cb 3d e4 f0 aa 3c
       0.0637257 0.072697096 0.099373676 0.020866819
000090 bc 3b 9a bd 72 b6 21 3d 76 02 ba bd 68 81 26 3c
       -0.07530925 0.039480634 -0.09082501 0.010162689
0000a0 8c b8 2a bd de 03 54 bd 88 4f e4 bd f4 5a e0 bc
       -0.041679904 -0.0517615 -0.11147982 -0.02738712
0000b0 bc 38 d9 bd 60 71 8c bd 53 fd 95 bd 17 03 8f 3d
       -0.10606524 -0.06857562 -0.073237084 0.06983011
0000c0 c4 6f 1c bd 44 d3 25 bd
       -0.038192526 -0.04048468
