runs/TripletNet_0918a/checkpoint.pth.tar (torch_old, 236328 bytes, 8 tensors)

embedding_net.conv1.weight f4 [70, 128, 3]
000000 7f 06 ce 3c 19 3f c7 bc a7 7c 75 bc 4c 55 a8 3c
       0.025149582 -0.02432208 -0.014983333 0.020548485
000010 0c 10 52 bd d6 47 d2 3c 49 8e 35 bc cd 41 cf 3c
       -0.051284835 0.02566902 -0.011081287 0.025299931
000020 a7 bf cf 3b dc 7d cf bb d0 70 66 3c 67 fa 1e 3b
       0.0063399854 -0.0063321423 0.0140649825 0.0024258138
000030 0d 72 98 3c b8 2c a3 bc 51 60 76 bb 1d e2 96 bb
       0.018609071 -0.019918784 -0.003759403 -0.0046045915
000040 eb a2 f1 3b 6b 18 74 b9 db af 36 3d 2e fa 81 3c
       0.0073741577 -0.0002327875 0.044601303 0.015866365
000050 21 b8 9b bc 94 a6 fc bc 37 a9 0c bc 38 92 b4 bc
       -0.019008698 -0.03084115 -0.008585266 -0.022042379
000060 f2 28 86 bc 53 2f 1e 3b eb f5 f8 3c b1 0b e3 3c
       -0.016376946 0.0024137094 0.0303907 0.027715536
000070 bb 70 4c bd 7d 79 01 3d d8 a4 69 3c 04 41 46 3d
       -0.049912196 0.03161 0.014260493 0.048401847
000080 d3 f0 09 3d 22 5e 3e bd a6 ad 46 bd 69 87 c9 bc
       0.033676933 -0.04647649 -0.048505448 -0.024600701
000090 d4 91 37 3d d5 17 0b bc 04 04 b3 3c e8 6a c2 bc
       0.044816807 -0.008489569 0.0218525 -0.023732617
0000a0 d1 09 4d 3d ca fa b0 bc 94 b4 1c 3d 74 a1 1b 3a
       0.05005819 -0.02160396 0.03825815 0.0005936839
0000b0 80 53 dc bc 6a c9 d6 3c f0 08 de bc df a9 75 3c
       -0.026895285 0.026219089 -0.027103871 0.014994114
0000c0 39 02 72 bc 57 af b8 bb 81 10 49 bd cd 56 c7 bc
       -0.014771038 -0.0056361365 -0.049088005 -0.024333382
0000d0 1b cf e2 3c 2f 52 4b bc 46 2c 50 3d 9b 82 27 3d
       0.027686646 -0.012409731 0.050823472 0.04089604
0000e0 ca 19 1d bb c7 8e 0b bd bd 7e fe 3c 67 ab 81 3c
       -0.002397167 -0.03407171 0.031066293 0.015828801
0000f0 2b 43 07 bd 99 a0 07 3d 60 84 fd 3c a6 4c 39 3d
       -0.03302304 0.033112142 0.03094691 0.045239113
000100 5f 82 ea bc fa db 09 bc 1a c6 81 ba 9f 53 f4 3b
       -0.028626619 -0.008414263 -0.0009900958 0.0074562575
000110 f5 99 1e bd 11 59 14 bd 06 66 e3 3c 9b 05 44 bc
       -0.038721044 -0.036217753 0.02775861 -0.011964227
000120 b8 0e cc 3c 27 f8 3d 3b 23 23 89 3c 97 dd 37 3c
       0.024909362 0.0028987022 0.016740387 0.011222265
000130 6a fd 97 3c 2d 2f cf 3c a8 95 41 bd ec 6b d2 3c
       0.018553454 0.02529105 -0.047261864 0.025686227
000140 48 fb 12 bd 79 d6 1d bd 83 a9 49 3b 34 f8 0e bc
       -0.03588417 -0.038534615 0.0030771203 -0.008726168
000150 56 3d f5 3c b5 61 f2 bc 20 07 3a bd 31 21 18 3d
       0.029936474 -0.029587606 -0.04541695 0.03714103
000160 14 d9 f7 bb 1e 1c eb 3c 9d 67 86 3c be bd 1c bd
       -0.0075637195 0.02869993 0.016406829 -0.03826689
000170 32 ca 27 3c c3 62 48 3c f2 10 0c bd dd 92 c6 bc
       0.010241078 0.012230578 -0.034195848 -0.024239952
000180 d9 9a 8d 3c 7c bf 13 3c 4a c7 b2 bc 22 47 7d bc
       0.017285751 0.009017821 -0.021823544 -0.015458854
000190 20 5a 3f 3d a4 1e 1b bc 6b 11 ec 3c be 27 b5 3c
       0.04671681 -0.0094677545 0.0288169 0.022113677
0001a0 ee 27 07 bd ab b5 31 bd 43 a9 48 3d 0a 9c 2e 3b
       -0.032997064 -0.043386143 0.048989546 0.00266433
0001b0 8f 47 0f 3d 17 66 2d 3c 30 5b 86 3c ff d8 1b 3d
       0.034980353 0.010583422 0.016400903 0.03804874
0001c0 30 d8 45 3d a7 0c 0b bd b0 90 cc 3b 0a 42 1b 3d
       0.048301876 -0.033947613 0.006242834 0.037904777
0001d0 5b cf 16 3d ad 6c 01 3d 37 a5 17 bd c5 e4 16 bd
       0.036818843 0.031597782 -0.037022796 -0.036839265
0001e0 82 b6 fd bc ef f7 ce 3b a5 f3 4f 3d 34 88 04 bd
       -0.030970816 0.006316177 0.050769467 -0.032356456
0001f0 ba a5 dc 3c c9 db e9 bc 31 fe 44 bd 8f 6a 34 bc
       0.026934493 -0.028547185 -0.04809398 -0.011011734
000200 18 42 ef 3c 67 4b 42 3d 03 b5 01 bd a4 5a 34 3c
       0.02920632 0.04743519 -0.031666767 0.0110079385
000210 ba a2 34 3d 23 a6 0a 3d 67 50 02 3d e2 25 15 3d
       0.0441005 0.033849847 0.03181496 0.03641308
000220 aa 11 04 3d 91 25 59 3c 8e f5 0e bd 48 9d 2f bd
       0.03224341 0.013253585 -0.034902148 -0.042874604
000230 a8 83 bf bc e9 91 ce bb b3 a7 01 bd 57 a1 97 3c
       -0.023378208 -0.006304015 -0.03165407 0.01850955
000240 7e 96 80 3c de 18 3f bc 4d d0 9f 3c 39 7f 87 3c
       0.01569676 -0.011663644 0.019508505 0.016540157
000250 0b 6f fe 3c 87 89 0c 3d 77 47 8e bc e3 c9 4b 3d
       0.031058809 0.034310844 -0.017368061 0.04975308
000260 e9 c6 c4 bb 19 78 f7 ba c3 d1 45 bd 34 2a 07 bd
       -0.0060051573 -0.0018880396 -0.048295747 -0.032999232
000270 55 d4 f4 bc b2 2c b4 bc 86 8a 13 3d 17 da 87 bc
       -0.029886404 -0.021993969 0.036020778 -0.016583486
000280 d9 2d 1c bd 97 7a a0 3c d7 8b 85 3c 9f 36 07 3d
       -0.03812966 0.019589705 0.016302032 0.033011075
000290 07 a3 d8 bc d7 80 34 3c f3 ea 98 bc 49 5f 3d bc
       -0.026444925 0.011017046 -0.01866672 -0.011558362
0002a0 ec bb 25 bd a1 b3 be bc 90 ed 7f bc 5e ef b3 3c
       -0.04046242 -0.023279013 -0.015620604 0.021964725
0002b0 09 9d 1a 3c 05 e0 50 3c 07 e9 4f 3d 60 48 4c 3d
       0.009436854 0.012748723 0.05075934 0.04987371
0002c0 49 7e 10 3d 33 70 d7 3a 9f 9f 10 bd 34 99 23 3d
       0.035276685 0.0016436636 -0.035308477 0.039941028
0002d0 2c f1 57 bc 65 c2 90 bb f5 16 33 bd 70 e1 27 bc
       -0.013180058 -0.004417705 -0.043723065 -0.01024662
0002e0 a3 73 07 bd 0f d7 3f 3d ef 7e 35 bd d8 d6 23 bd
       -0.033069264 0.046835955 -0.044310506 -0.039999813
0002f0 1e 33 ed ba 42 e1 e5 bc 73 94 8f 3c 45 8c a7 bc
       -0.0018096899 -0.028061513 0.01752684 -0.020452628
000300 9b bb c0 bc 42 dd 52 3b 2d 52 19 3d 6e b5 14 bd
       -0.023526957 0.0032175337 0.037431885 -0.036305837
000310 4e 8d bf 3c 6a 4d 03 3d f3 2e 4b 3d ca 0e 14 bd
       0.023382809 0.03205625 0.04960532 -0.036146916
000320 0b 30 42 3c 1a 6a 17 bd e7 09 34 3d e7 34 a3 bc
       0.011852275 -0.03696642 0.043954756 -0.019922687
000330 f0 df f8 3c 59 fe 97 3a f9 63 8d bb e1 19 26 bb
       0.03038022 0.0011596187 -0.004314896 -0.0025345015
000340 4e 80 ff 3b d1 08 c3 3c 67 8a 11 3c 74 bb 82 3c
       0.0077972775 0.023807915 0.008883095 0.015958525
000350 3f 67 3b bd b8 d1 1e 3d c1 73 38 3d 56 a3 2d 3d
       -0.04575276 0.038774222 0.045032267 0.042392097
000360 3c 31 1b 3d 79 fa 16 bd 9a 14 9a bc 5f 17 38 3d
       0.03788875 -0.036859963 -0.018808652 0.044944163
000370 18 b0 20 bd 21 74 3d 3d 3c 4c 2c bd 12 ef 1b bd
       -0.039230436 0.046253327 -0.04206489 -0.038069792
000380 65 bd bd 3c 9c 86 18 bd d3 19 50 bc 9b 24 14 3d
       0.0231616 -0.03723775 -0.0127014695 0.036167722
000390 34 db 2a 3d 01 93 48 3d 2f ee 2f bc ae 76 20 bd
       0.041712955 0.04896832 -0.01073794 -0.03917568
0003a0 28 1f 4f 3d 5a 9a 35 bc 32 3e aa bc 40 96 3b 3c
       0.050566822 -0.011084164 -0.02078161 0.011449397
0003b0 3a cc 15 bd 5f 4c 0a 3d d0 ab fc 3c c8 2a 28 bd
       -0.03657172 0.03376424 0.030843645 -0.041056424
0003c0 26 08 2a bd 3f 16 f0 bb a5 d0 a9 3c dc 03 51 bb
       -0.041511677 -0.0073268707 0.020729372 -0.003189317
0003d0 4b e2 e5 bc 21 dc 7c ba d8 c5 4b bd 7f 0e 1f bd
       -0.028062006 -0.0009645839 -0.049749225 -0.038832184
0003e0 f7 e6 15 bd b9 41 2c 3d fe da 39 3d b7 b9 89 bc
       -0.03659722 0.042054866 0.045374863 -0.016812189
0003f0 aa 54 e3 3a 04 05 c1 3c ec d2 9d 3b bd 78 b9 bc
       0.0017343957 0.023561962 0.0048164036 -0.02264058

embedding_net.conv1.bias f4 [70]
000000 72 b7 f6 3c f2 cc c0 3c eb e0 47 3b a8 e7 15 bd
       0.03011677 0.023535226 0.0030499052 -0.036597878
000010 1c 70 03 bd ea 18 d0 bc e2 19 47 bd 13 7d 20 bd
       -0.032089338 -0.025402505 -0.04860867 -0.03918178
000020 e8 57 25 3d 42 6f b4 3c e4 77 e5 bc 8b 1e 09 bc
       0.040367037 0.022025708 -0.02801127 -0.008369098
000030 37 ac bc 3c 97 f1 a4 3c c2 21 d2 bc 7c 12 2d bd
       0.023031337 0.02013473 -0.025650863 -0.042253956
000040 4a 9b 50 3d 91 7a 2d bd 7f a0 d1 bb bc dd 48 3d
       0.050929345 -0.042353217 -0.0063973065 0.049039587
000050 84 07 4a bc 3e f5 a1 bc 70 67 48 3d d1 df 27 bd
       -0.012330893 -0.01977026 0.04892677 -0.040984932
000060 0c aa 64 bc 05 e1 3a 3d c6 db 08 bd fc b8 15 3d
       -0.013956558 0.04562475 -0.033412717 0.036553368
000070 d7 92 e6 bb ab 67 45 bc 56 63 0c bd 1a 7c d7 bc
       -0.0070365476 -0.012048642 -0.03427442 -0.026304293
000080 e1 36 20 bd d0 30 c9 bc 22 d7 b2 3c 3e e2 eb bb
       -0.039114837 -0.024559408 0.021831099 -0.007198601
000090 6b f8 c1 bc 1a 2c 1d bd d7 99 fd bc 12 c2 83 3c
       -0.023678025 -0.038372137 -0.030957146 0.01608375
0000a0 59 5a b3 3c 40 d6 dc 3b 07 17 82 bc 9d 98 2d 3c
       0.021893667 0.006739408 -0.01588012 0.010595468
0000b0 dc 98 1c 3d e5 be d8 bc 5a 4f 33 bd 61 6d 9e 3b
       0.038231716 -0.026458213 -0.043776847 0.0048348163
0000c0 22 3c 13 bd 36 19 5b 3c f0 5b 46 3d 63 71 0f 3d
       -0.03594602 0.01337271 0.048427522 0.035020243
0000d0 bb 3e c6 3a a8 45 42 3d cb 5d 0b bd 00 39 11 3c
       0.0015124896 0.04742971 -0.034024995 0.0088636875
0000e0 10 eb 3d 3b 48 55 3e bd 46 eb 1e 3d 1c 83 42 3d
       0.002897922 -0.04646805 0.038798593 0.047488317
0000f0 b3 1d 31 bd a6 66 41 3d 0d ec 40 bd b6 fe 7f 3c
       -0.043241214 0.047217034 -0.047100116 0.015624693
000100 2e ca 0e bb 67 55 c3 3c 34 c0 05 3d 2b 8a 1c bd
       -0.002178799 0.023844434 0.032654002 -0.038217705
000110 47 0d 11 3c 21 aa 24 bd
       0.008853263 -0.04020131

embedding_net.conv2.weight f4 [100, 70, 3]
000000 1e c2 8b 3d 54 e7 38 3d 62 0c 99 bd 54 95 7a bd
       0.06824134 0.045142487 -0.07473065 -0.061177567
000010 d5 83 41 3d 54 a1 88 bc bc 96 12 3d f8 f8 b1 3b
       0.047244865 -0.01667849 0.035788283 0.0054312907
000020 16 4e cd 3c 6f 19 f9 3b 07 05 9d 3c ce ca 5f 3d
       0.025061648 0.007601909 0.019167436 0.05463677
000030 44 b1 2f bc 86 80 ab bd d6 e6 82 bc ef 63 93 bd
       -0.010723416 -0.08374123 -0.015979212 -0.07196795
000040 8c 76 84 ba 35 01 cc bc 97 82 61 bd c0 c2 35 bc
       -0.001010613 -0.02490292 -0.05505618 -0.011093795
000050 b6 04 92 3b 01 a3 a3 bc c9 8f 7d 3c d6 dc e1 3c
       0.004456128 -0.019975187 0.015476176 0.027571123
000060 ff f1 fe 3a 02 2e 19 37 eb 74 a0 bd 3e 61 3c bd
       0.0019450783 9.130223e-06 -0.078348 -0.045991175
000070 cd 9d 42 3c e8 0b 46 bd 94 1c 1d bd e3 fe 44 3c
       0.011878443 -0.0483512 -0.038357332 0.01202366
000080 66 be ff bc 8e 6d 4a 3d d7 81 5b bd 30 4a b1 bc
       -0.031218719 0.049420886 -0.05359062 -0.02164182
000090 67 45 0a 3d 97 45 42 bd c1 ea ea bb 83 f0 8e 3c
       0.033757593 -0.047429647 -0.007169098 0.01744867
0000a0 49 ba 29 bc 18 e6 af 3c 7d 53 09 3d 23 2a 51 bd
       -0.010359355 0.021472022 0.033526886 -0.051065575
0000b0 18 f9 49 3d 8e 26 54 3c 89 81 82 bc 7d 32 7e bc
       0.04930982 0.012948645 -0.015930908 -0.015514967
0000c0 b4 12 4d 3d a8 d4 47 bb 14 a9 6d 3d 37 eb cc bd
       0.050066665 -0.0030491743 0.058022574 -0.10005801
0000d0 ed a8 78 bd 1d ee 17 bd 45 d0 94 bc 96 e0 93 3b
       -0.060707975 -0.037092317 -0.018165717 0.0045128567
0000e0 0f f7 6a bd 74 4a 75 bd a2 75 51 bd 7d 4f 39 3d
       -0.05736452 -0.059885457 -0.051137574 0.04524182
0000f0 0f 52 6c 3d 8a 4a 88 bd 72 b0 9b bc 3c 9c f2 bd
       0.057695445 -0.06654842 -0.019005034 -0.118462056
000100 a3 61 17 be e8 cb 06 3d 40 02 63 3d e7 a2 a4 3c
       -0.14783339 0.032909304 0.055422068 0.02009721
000110 86 38 41 bc ef 96 99 bd ec 16 b0 3c 1d 08 e3 3c
       -0.011793261 -0.074994914 0.021495305 0.02771383
000120 45 41 40 bd fe 01 12 bd c9 11 0a bd e7 b5 df 3b
       -0.046937246 -0.03564643 -0.033708367 0.0068271044
000130 f6 74 82 3d 5b e7 6b bd db d1 73 bd 32 9c 80 bd
       0.06369965 -0.057593685 -0.059526306 -0.06279792
000140 c3 c1 38 3d 08 33 ab bc 0a 74 67 bd 3a 4f f9 3b
       0.04510666 -0.020898357 -0.056507148 0.0076083215
000150 d5 e6 97 bd 2e 06 75 bd c3 13 0b 3b 0a 02 83 3d
       -0.074170746 -0.059820347 0.0021221496 0.06396873
000160 8c b6 0f 3c 84 a3 ca 3b 8a 7d 75 bd d5 0c 4e bc
       0.00877155 0.0061840434 -0.059934177 -0.012576302
000170 4c dd 0a 3d 0a 22 26 3c 1a fa 1a bd 4c 17 2a 3d
       0.03390245 0.0101399515 -0.03783617 0.041526124
000180 04 83 2b bd 35 c5 90 3d 2b 6f 72 3d 56 68 c3 bc
       -0.041872993 0.07068864 0.05918805 -0.023853462
000190 0f ee 2d bd fa a8 64 3c 9e 43 cd bc 3a d9 4e bd
       -0.04246336 0.013956303 -0.025056656 -0.050500132
0001a0 5b 3d fe 3c 50 91 d3 3c 20 64 80 bc 7e 25 12 bd
       0.031035116 0.025826126 -0.015672743 -0.035680287
0001b0 fb 8a 00 bd 96 08 29 3c a2 f4 04 bc 58 fb f7 bc
       -0.031382542 0.010316988 -0.008114966 -0.030271217
0001c0 96 92 d7 3c 96 62 3e bd e2 ae 17 3c 08 fe 32 bc
       0.026315015 -0.046480738 0.009258004 -0.010924824
0001d0 cb e9 77 bd 38 3e 4e bb b8 91 1f 3d ab 4d c5 bb
       -0.060525697 -0.003147019 0.038957328 -0.0060212216
0001e0 c4 3a 5a bd 91 72 2d bd ec 08 75 bd f7 21 f0 3c
       -0.0532787 -0.042345587 -0.05982296 0.02931307
0001f0 4b e2 34 bd ec 75 88 bd 4b 83 d2 bc b9 f4 2f 3c
       -0.044161122 -0.06663117 -0.025697371 0.010739499
000200 f7 85 08 bd 70 25 39 be 75 f5 2a be 55 78 fd bd
       -0.033330884 -0.18080688 -0.16695197 -0.12376467
000210 d9 31 19 bd 1f ed 84 bd 08 c7 08 3d bd 3a 2c 3d
       -0.037401054 -0.0649054 0.033392936 0.042048205
000220 40 30 a8 3b 73 92 d1 3c c1 5f 20 bd 03 fa 3a 3d
       0.005132705 0.025582528 -0.039153818 0.045648586
000230 78 49 c6 3c d5 8c 0e bd 2f f6 09 bd dc 28 3a bd
       0.024204955 -0.034802277 -0.033682045 -0.045449123
000240 a3 11 77 bd 55 f1 31 bd bc ea 87 bd da fe b8 3c
       -0.060319554 -0.043443043 -0.06636569 0.02258246
000250 d2 ae 61 3c f9 0d 54 bd 27 94 4d bd 44 f2 01 3d
       0.013774591 -0.051771138 -0.050190117 0.031725183
000260 8d 2d 01 3d ad 43 63 3c 86 b4 ff 3b a8 b6 ab 3b
       0.03153758 0.013871116 0.0078035025 0.00524028
000270 c4 b6 3a bd 95 30 52 3c d6 21 26 3c 13 f3 4a 3c
       -0.045584455 0.012828966 0.010139903 0.012387055
000280 d6 9e c4 bc a5 2d 01 3d db 4c 85 bd 90 83 b1 38
       -0.02400152 0.03153767 -0.065088 8.464523e-05
000290 4e 24 ae bc 35 0e 66 bd 0e df 5d bd 2f 86 8d 3d
       -0.021257546 -0.056165893 -0.0541678 0.06910359
0002a0 0f 5d 73 bd 94 31 89 bb 95 19 18 3d e7 53 89 bd
       -0.05941492 -0.0041868184 0.037133772 -0.06705456
0002b0 06 52 6f 3c 87 d8 bf bb de ff 72 bd e9 87 63 3d
       0.014606958 -0.0058546695 -0.059326045 0.055549536
0002c0 1d a6 87 bc 36 df 3e 3d 7d 76 82 bd ee 9b e9 bc
       -0.016558701 0.04659959 -0.06370256 -0.028516736
0002d0 28 c9 07 bc 37 de 4b bc 12 70 22 bb 7d 07 e5 bc
       -0.0082877055 -0.012443117 -0.0024786037 -0.027957672
0002e0 00 87 ae bb a7 bf fb b8 2c 35 81 3c bd 2a 4a 3b
       -0.005326152 -0.00012004311 0.015772425 0.0030848228
0002f0 11 e7 9d 3c 87 65 22 bc c0 d4 23 3c 31 e8 a7 bc
       0.01927522 -0.009911901 0.009999454 -0.02049646
000300 f1 92 0f bd c9 df 14 3d 4a bc 6a bb 5b e1 0e bc
       -0.035052244 0.03634623 -0.0035817795 -0.008720721
000310 c2 50 6c bd bc 74 28 bd 8b 83 64 3d 84 ef 75 3c
       -0.057694204 -0.04112695 0.05578951 0.015010718
000320 d1 eb 6f bd 1c 43 11 be 35 2c 63 bd a0 5c 70 bd
       -0.0585745 -0.14185756 -0.05546208 -0.058682084
000330 12 9e 5f bd 8b 43 54 3d 97 98 82 bd 3d bd 77 bd
       -0.054594107 0.051822226 -0.063767605 -0.060483206
000340 b6 7f 60 3d a5 ba 9e 3c ed 69 24 bd 10 5a 4f 3a
       0.054809295 0.019376108 -0.04014008 0.00079098437
000350 dd d0 ca bc 59 e9 3d 3d 36 4e b9 bc 9e 1b 86 bd
       -0.024757797 0.046365116 -0.022620302 -0.06548236
000360 77 f2 82 bc 2e 3d 38 3d bc 28 14 bd 72 1a 16 bb
       -0.015984757 0.04498022 -0.03617166 -0.0022903946
000370 23 fa 5f 3c 49 05 07 bc 16 8f d3 bd 6b 68 df bd
       0.013670477 -0.008241006 -0.10330026 -0.10908588
000380 58 5e ac bb ba 2c 65 3c 95 c2 d3 bc cf d0 09 bd
       -0.00526027 0.013987714 -0.02584962 -0.0336464
000390 47 8f 57 bd 1c d2 7d bc ab f4 ab bc e8 40 f3 bc
       -0.052626874 -0.0154919885 -0.02099069 -0.029694036
0003a0 b8 75 9e bb 00 8a 09 bd 85 c8 b9 3c 0c 12 b7 bc
       -0.0048358105 -0.033578873 0.022678623 -0.022347473
0003b0 80 12 96 bd 4a 89 d8 3c f5 e4 75 3d 12 3a 86 bd
       -0.07327747 0.026432652 0.060032804 -0.06554045
0003c0 31 a0 8f bc d4 74 d6 bc 9c d8 78 bd 34 0f 2f 3d
       -0.01753244 -0.026178755 -0.06075345 0.04273911
0003d0 5e 10 be 3c cc d2 8c bb 13 2b 4e bd 40 25 3b 3c
       0.023201164 -0.00429759 -0.050334048 0.011422455
0003e0 34 96 41 3d 2d 62 06 3d ee 06 f0 3b ec c3 b9 bc
       0.047262385 0.03280847 0.007325045 -0.02267643
0003f0 8f 4f f2 bc e2 27 2b bd 4c 8d 4d bd cc 38 d8 bc
       -0.029578952 -0.041786082 -0.05018358 -0.02639427

embedding_net.conv2.bias f4 [100]
000000 85 31 29 3d 43 4f e1 3c 03 96 48 bb 61 8c 67 bd
       0.04130699 0.027503615 -0.0030606992 -0.05653036
000010 a5 41 3e bd ea 55 b4 bc 90 fa ee 3c 04 7b 52 3c
       -0.046449322 -0.022013623 0.029172212 0.012846712
000020 0d 7c e5 3c 3d cc 27 3d a1 57 64 bd 82 d3 7c 3d
       0.028013254 0.04096626 -0.055747632 0.061725147
000030 9f 79 7e bd e6 6d 56 bd f7 6a 86 bd 44 00 8b bb
       -0.062127706 -0.0523509 -0.06563371 -0.004241975
000040 c3 2a 2c bd 74 9f a3 bc 40 87 7f 3d e1 c1 41 3c
       -0.04203297 -0.019973494 0.062384844 0.0118260095
000050 89 e6 e1 bc 6d 15 b6 bb 45 1b 15 bc 8f d2 cc bb
       -0.027575748 -0.0055567534 -0.00910074 -0.0062506865
000060 c8 d6 d9 bc c7 89 56 3d 02 62 d4 3c 1c c2 85 3d
       -0.026591673 0.05237749 0.02592564 0.06531164
000070 ab aa 56 bc c5 90 cf 3a d8 2e e5 bb 12 11 95 bc
       -0.013102214 0.0015835991 -0.0069941096 -0.018196616
000080 30 0e 70 bd b3 38 2e bd 4a 75 5c 3d 7a 4d f3 bc
       -0.05860728 -0.04253454 0.053822793 -0.02970003
000090 c3 17 5d bc d6 39 48 bd 15 ae a0 3c f4 72 01 bd
       -0.013494435 -0.04888328 0.019614259 -0.03160377
0000a0 fe 54 12 3d 09 d8 2b bd b0 7f 62 3c 29 cd 31 bd
       0.035725586 -0.041954074 0.013824388 -0.043408547
0000b0 bd 5c 03 bb 91 c3 04 3c 4f b8 71 bd 5e 51 62 3d
       -0.002004429 0.008103267 -0.05901366 0.05525338
0000c0 3c b8 77 3d 39 bc 37 3b ea 15 92 bc 7e ed c6 bc
       0.060478434 0.0028035773 -0.017832715 -0.024283167
0000d0 2a 45 12 bd 6b d0 b6 bb 32 ee 2f bd 44 cf cd 3c
       -0.03571049 -0.0055790446 -0.04295177 0.025123246
0000e0 6e 47 95 ba 17 6f 69 bd b4 27 26 bd 62 e5 27 3c
       -0.0011389086 -0.05699071 -0.040565208 0.01024756
0000f0 96 e9 eb 3c 29 40 2b bd 8c 7a f1 bc b2 7a 2e 3d
       0.028797906 -0.041809235 -0.02947738 0.04259748
000100 98 8d 93 bb cb 37 b4 3b b2 d1 aa 3a ca 5e 43 3c
       -0.0045029633 0.005499815 0.0013032465 0.011924455
000110 87 50 87 bd 10 b6 0f 3d 03 65 f3 3b 5d 9b 0f 3d
       -0.06607156 0.035085738 0.007427813 0.035060275
000120 54 93 48 3d 63 4d 9d bb 65 cc 73 bd ef b5 99 bc
       0.048968628 -0.004800485 -0.059521098 -0.01876351
000130 c1 01 5f bd 0c b6 71 3d 23 6d 13 3d 47 08 9a bc
       -0.054445032 0.059011504 0.035992753 -0.018802775
000140 2b f2 85 3d 50 4d 26 3d 4d bf 1c 3d c5 cf d6 bb
       0.065403305 0.040601075 0.038268376 -0.00655553
000150 70 1b 3d 3d e4 41 4e 3d 8d d1 18 bd 3f cd 38 3d
       0.046168745 0.050355807 -0.03730922 0.045117613
000160 17 0b 71 3d 6c 83 35 bc 02 2d 8d 3d 02 55 6d 3c
       0.058848467 -0.011078697 0.0689335 0.0144855995
000170 d9 73 73 3d 01 43 47 ba 2f 34 39 3d 0d cf 35 3d
       0.059436653 -0.0007601232 0.04521578 0.044386912
000180 52 04 d3 3c f9 f7 64 3d c2 6c 20 bd bc 10 ca 3c
       0.025758896 0.055900548 -0.03916622 0.024666183

embedding_net.fc1.weight f4 [70, 100]
000000 eb fa 46 bb 45 92 59 bd be 12 38 bd 99 b8 cf 3c
       -0.003036196 -0.05311801 -0.04493975 0.025356578
000010 27 14 8f 3c 6d e5 86 3b fe a3 c0 bc 3a ca 68 3c
       0.017465664 0.004116705 -0.023515698 0.014208371
000020 09 a5 b4 bc 6e 9d 18 3d ce b5 cb bb a0 24 2f 3d
       -0.022051351 0.03725951 -0.006216741 0.042759538
000030 04 ed 3f bb 3c e4 b0 bd 38 02 49 bc 9d 85 c0 bd
       -0.002928556 -0.08637282 -0.012268595 -0.09400485
000040 48 6a d9 bd e0 7f 1f bd 83 9a ab bd ac 04 05 bd
       -0.10615975 -0.03894031 -0.0837908 -0.03247516
000050 2b 20 b7 bd 91 49 a0 3c 25 2f e5 bb b8 59 b6 bc
       -0.089416824 0.01956633 -0.0069941455 -0.022259578
000060 9f f8 0d 3d eb 8d 93 bd 30 43 16 3d e3 8e d2 bc
       0.03466093 -0.07204803 0.03668517 -0.0257029
000070 9e 0e bd bd cb 00 2c 3d c7 de ca bd 4b 06 bc bd
       -0.09231304 0.041992944 -0.09905773 -0.09180888
000080 14 17 b6 bd 09 3a 3e bd 2e 7c 37 bd 18 13 01 bd
       -0.088911206 -0.046442065 -0.04479616 -0.03151235
000090 55 1e 25 bd ef 93 44 3d 54 69 97 3d c5 e3 e3 bc
       -0.04031213 0.047992643 0.073931366 -0.02781857
0000a0 2e 2e bb bd 17 55 ee 3a 83 35 cf bd ed 4d 33 3d
       -0.091396675 0.0018183318 -0.101176284 0.043775488
0000b0 f9 61 f4 bc 31 40 a2 bd 94 49 a2 bb d9 3b 35 3d
       -0.029831873 -0.079224 -0.004952619 0.04424653
0000c0 ff 6b 92 bc 9e 1e 96 bd af 15 38 3d 3f 4d af bc
       -0.017873762 -0.073300585 0.044942554 -0.021399138
0000d0 ff 3e a5 3c fb 78 49 bd 14 3b 15 3d b5 51 43 3b
       0.02017164 -0.04918764 0.036433294 0.002980334
0000e0 3f e3 97 bc 3e 24 3a bd 03 8a c2 bc 57 2a 20 3d
       -0.018540977 -0.04544472 -0.02374745 0.03910288
0000f0 e1 43 4c bd b4 26 85 bc 9c 8e ed bc 02 ab b5 bd
       -0.049869422 -0.016253807 -0.028998666 -0.08870508
000100 fe a4 bc 3c 53 33 45 bd 91 a0 91 bc 01 f0 cd bd
       0.023027893 -0.04814465 -0.01777676 -0.10055543
000110 27 0e e6 3c e9 cc c3 bd 24 6d 81 3d 5f 5c b3 bd
       0.02808292 -0.09560568 0.06319645 -0.08757853
000120 2f bd 8c bd 60 1f d2 bc ef 45 73 3d 55 29 5f bd
       -0.068720214 -0.025649726 0.059392866 -0.054482777
000130 98 de 60 ba f4 76 84 bd 8c f3 a1 bd 2b 94 94 3d
       -0.0008578091 -0.06468001 -0.07907781 0.07254823
000140 97 3a 8e bd 3f e3 32 bd 90 35 60 3c c1 bb a2 bb
       -0.06944769 -0.04367375 0.013684645 -0.0049662297
000150 3a 52 7e bd 56 74 6e 3c 44 e4 13 3d 71 09 b6 bc
       -0.062090136 0.014554104 0.036106363 -0.022221299
000160 46 b6 19 3d 66 72 c6 bc 7f 3e 70 3d 0a 44 9a bd
       0.037527345 -0.024224471 0.05865335 -0.07532509
000170 4b c2 fa 3c 52 52 92 3b d1 ec 5f bb 3f 88 a2 bc
       0.030610224 0.0044653798 -0.0034168253 -0.019840358
000180 c4 fb 31 3d c0 38 d8 bd f9 6b b3 bd 60 7f 3f 3a
       0.043452993 -0.10557699 -0.087608285 0.0007305052
000190 3d db 2c 3c 62 c2 ed bd 50 c0 61 bd ab b1 5e bb
       0.010550317 -0.11609341 -0.055115044 -0.003398041
0001a0 e4 38 02 3d 40 06 0c bd 1c e6 0f bb 65 08 84 bb
       0.031792536 -0.034185648 -0.0021957224 -0.004029321
0001b0 15 c6 15 3b ca 66 dc ba 05 73 b9 bd 77 6e d8 bc
       0.0022853662 -0.0016815301 -0.09055141 -0.026419861
0001c0 13 9d ce bd 52 3e 0e 3d 81 df ed bb 1b d7 4d bd
       -0.10088553 0.034727402 -0.0072593098 -0.05025397
0001d0 7c c1 64 3d 24 9e 7e bd f9 c1 9b bd c5 4e c1 bd
       0.055848584 -0.062162533 -0.07605357 -0.09438852
0001e0 32 3c 4e bd e6 35 6a bc 65 00 2d 3d 23 38 95 3b
       -0.050350375 -0.014295077 0.042236704 0.004553811
0001f0 76 9a 72 bd 7c 08 14 3d 0a 01 21 3c 7b 78 2a bd
       -0.059229337 0.036140904 0.009826908 -0.041618805
000200 13 92 20 bd 11 42 25 3d 96 a6 7d bd b5 94 39 bd
       -0.039201807 0.04034621 -0.061926447 -0.045307834
000210 b9 bb fe bc cb 3e 76 bd aa 49 d2 bd 29 16 92 bd
       -0.031095373 -0.060118478 -0.102679566 -0.07133133
000220 32 ed c1 bd cc fa e1 3c 79 5c e2 3c 5e fd 4d 3c
       -0.094690695 0.02758541 0.027631985 0.0125726145
000230 d8 28 97 bd 24 b0 8a bd 4c bd 9d bd ef e3 27 3d
       -0.07380837 -0.067718774 -0.07702121 0.04098886
000240 c2 55 18 bd a3 87 9e 3b 9b a1 3b 3d 34 bb 98 bd
       -0.03719116 0.0048379465 0.045808416 -0.07457581
000250 9a 9d 14 3c 6d 48 2f 3d d0 db 4c bc be 59 1f bd
       0.009070778 0.04279368 -0.012503579 -0.038903944
000260 98 9e 13 3b c4 2c 41 3c 03 2c bb bd 50 ad 6e 3c
       0.002252495 0.011790458 -0.09139254 0.014567688
000270 01 4b b6 bc 15 97 62 3c d2 8c 57 3d 99 7f 15 3d
       -0.022252562 0.013829966 0.05262453 0.03649864
000280 28 c7 dc bd 85 4b af bb b4 78 0e 3d 70 df 29 3d
       -0.107801735 -0.005349579 0.03478308 0.041472852
000290 40 d2 30 3d 90 6f 94 3c a5 a8 06 3b 01 7f d4 bd
       0.04316926 0.018119603 0.0020547297 -0.103757866
0002a0 93 b9 c9 b9 dd 2b b1 bd 8b 7f 58 3b ac 6f 4b 3d
       -0.0003847597 -0.086509444 0.0033035006 0.049667045
0002b0 9c c9 98 ba 6a 13 33 bd ae 17 90 3c 5d 92 d0 bc
       -0.0011656764 -0.043719687 0.017589416 -0.025460416
0002c0 23 23 47 3c a9 6a 0b bd b9 d0 4f 3c 3d 90 55 bc
       0.012154373 -0.034037266 0.012684041 -0.013034877
0002d0 00 49 9f 3d f6 84 0a bd e6 66 a3 bd 4e 5f 2e bd
       0.077775955 -0.033818208 -0.07978611 -0.04257136
0002e0 4f cc ae 3c 40 7e e1 bd 60 45 b2 bd 19 0a 18 3c
       0.021337656 -0.110104084 -0.087046385 0.009279751
0002f0 72 fe 86 bd 38 93 67 bd 93 6e 83 bc da 7d a8 bc
       -0.065915 -0.056536883 -0.016043937 -0.020567823
000300 26 cf d4 bb dc 78 b8 bd db 21 1e 3d 3c bc 99 bd
       -0.0064944206 -0.09007427 0.038606506 -0.07506606
000310 cd 87 39 3d f1 df 58 3d ee 22 78 bd 7a 01 28 bd
       0.045295525 0.052947942 -0.060580187 -0.041017033
000320 d0 e3 02 bc 8f d4 f1 bc 47 2b f2 3b 69 9e 88 bd
       -0.007988885 -0.029520301 0.007390413 -0.06670839
000330 d3 18 54 3c 69 66 d0 3c 34 4d 83 bd 43 1c 45 bd
       0.012945372 0.025439458 -0.0641121 -0.048122656
000340 b8 df 1c bd e8 09 8d bd 7e d3 bd bd b0 17 00 3d
       -0.038299292 -0.06886655 -0.092688546 0.03127259
000350 d9 28 16 bd e2 07 88 bd 15 2b 95 3d 49 b9 84 bd
       -0.03666005 -0.066421285 0.07283608 -0.06480653
000360 dc 82 33 3d 1d 7a c8 bd 24 1b 06 3d 9a 64 48 3d
       0.04382597 -0.09788916 0.032740727 0.048924066
000370 8f 05 c3 3d 6a 34 00 be 9f 6c 2c 3d 07 ce c2 bd
       0.095225446 -0.12519994 0.042095777 -0.09511953
000380 e4 58 ff bc 7c 1b a4 bd 21 5f cc bc f5 5f 03 bd
       -0.031170316 -0.08013055 -0.024947705 -0.032073934
000390 cf a3 07 3c 68 c3 a5 39 8b 71 01 3d 18 93 bc bc
       0.008278801 0.0003161684 0.031602424 -0.023019359
0003a0 38 9e 28 3d be 62 6e 3c 30 0d a8 bd 6b 15 2c 3c
       0.041166514 0.014549909 -0.0820564 0.010503153
0003b0 9a 94 83 3c 58 67 ba bc 53 9f d6 3c b2 ca 8b bd
       0.01606207 -0.022754356 0.026199019 -0.068257704
0003c0 a7 55 3a 3d 05 48 d8 bd fc 1d d1 bd 83 31 5e bd
       0.04549184 -0.10560612 -0.10210797 -0.054246437
0003d0 d3 90 b0 bd 24 0f 07 3d 02 8e 75 bc f7 f4 28 bd
       -0.08621373 0.032973424 -0.014987471 -0.04124924
0003e0 30 35 5b bd 11 9c 90 bd 4e 51 c8 bb 4d c1 e2 bd
       -0.05351752 -0.07061017 -0.006113208 -0.110720254
0003f0 d1 8b 9a bd cd 58 da 39 47 5d 83 bc 7a dd 18 3d
       -0.07546199 0.00041646362 -0.016035689 0.03732059

embedding_net.fc1.bias f4 [70]
000000 3c 57 05 bd dc 17 41 bc f3 c9 fb ba 72 71 29 b9
       -0.032553896 -0.011785474 -0.0019209966 -0.00016159358
000010 3d 86 0f bd 4b a3 04 ba 55 8e 4a bd 4c 1a ed bc
       -0.03504013 -0.0005059733 -0.049452145 -0.028943203
000020 02 8b 81 b9 b6 bf d9 ba 74 be 22 bb c8 35 a0 bc
       -0.00024708366 -0.001661292 -0.0024832757 -0.019556895
000030 7c ec 61 b9 83 2a 3c bd 4f e3 a9 b8 58 3d a8 b9
       -0.0002154577 -0.04593898 -8.1008875e-05 -0.00032089162
000040 18 11 95 bb 2a 2d 8c bd c3 9a bd bd d7 22 35 bd
       -0.004549157 -0.06844552 -0.09258034 -0.04422268
000050 f7 05 a5 bc ab ab 7c bd 2e 67 53 bd dd 5e 3a bb
       -0.020144446 -0.061687153 -0.05161207 -0.002843789
000060 33 33 c4 bd d3 63 ff b8 0c 22 23 bd d5 8b bc bd
       -0.09580078 -0.00012177941 -0.03982739 -0.09206358
000070 c8 cb 17 bb 5c 34 0d bd 85 06 92 b7 bc e0 d6 b8
       -0.0023162235 -0.034473762 -1.7407592e-05 -0.00010246175
000080 cd 43 57 bc f6 e2 26 b9 92 cb e4 bc 62 e2 b9 bd
       -0.013138724 -0.00015915543 -0.027929101 -0.09076382
000090 15 33 d6 b9 3d d9 2b b9 55 e9 5e b9 14 6e 97 bd
       -0.0004085532 -0.00016388758 -0.00021258493 -0.073940426
0000a0 e7 71 9c bd 62 37 c8 bd da d7 08 b9 46 09 fb bb
       -0.07638913 -0.097761884 -0.00013050382 -0.0076610176
0000b0 e9 fd 50 bd dc e7 1c b9 8c d5 ed b8 e8 4e 05 b9
       -0.051023398 -0.00014963694 -0.00011340817 -0.00012713263
0000c0 19 b9 2f b9 0c 09 63 ba d6 8c 06 bc 02 0f 0a b9
       -0.00016758255 -0.0008660711 -0.008212289 -0.00013166296
0000d0 6b 34 2e bd c6 f4 ac ba 04 1b 61 bd c9 e0 9b ba
       -0.04253046 -0.0013195507 -0.054957405 -0.0011892553
0000e0 1c 8b a6 bd ad 80 a4 bd 73 d6 af bc 36 ad 21 bd
       -0.08132002 -0.080323555 -0.021464562 -0.039471827
0000f0 0a 42 a8 b9 61 a5 c8 bd ce 7e db b8 4b b4 5a bd
       -0.0003209266 -0.097971685 -0.00010466353 -0.053394597
000100 93 c3 ed b9 b5 92 fb bc 4c ec 4e bd 3f 46 10 bc
       -0.00045349877 -0.030709604 -0.05051832 -0.0088058105
000110 50 e7 7a b9 92 15 e0 bc
       -0.00023928029 -0.027354036

embedding_net.fc2.weight f4 [50, 70]
000000 08 7f 6c 3c 01 c7 42 bd a9 f3 54 bd a6 c6 af 3b
       0.0144345835 -0.047553066 -0.051990185 0.005364257
000010 54 42 ac bd d0 b1 bb bc 1f c8 d2 bd 48 95 a2 bd
       -0.084110886 -0.022911936 -0.10292076 -0.079386294
000020 1a fa 17 3c 82 52 20 3d a2 39 9d 3d 11 fb 51 bd
       0.009275937 0.039141186 0.07677008 -0.051264826
000030 d7 ad 5f bd 92 9a 30 bd d3 ad 0d bd bc 07 e9 3c
       -0.054609146 -0.04311616 -0.0345896 0.02844607
000040 96 d6 67 3d 93 0e 5e 3d 72 b6 7f 3c 3c c4 9a 3d
       0.05660113 0.054213118 0.015607463 0.0755696
000050 72 1a 8d 3d 8f cd f3 bc ea 11 a0 bd d6 a4 35 bb
       0.0688981 -0.029761104 -0.07815917 -0.0027716658
000060 fa bc 7e bd 89 dd 70 3c 93 b5 5d bd c1 6d 50 bd
       -0.06219194 0.014701256 -0.05412824 -0.05088592
000070 ed 34 92 bd 6f 50 23 3d 4a 41 a3 3d f7 38 7f 3d
       -0.07139001 0.03987163 0.07971437 0.062310185
000080 fd fe 02 bd 6d e9 dc 3b c8 9d 84 3d 14 e2 99 bd
       -0.031981457 0.0067416937 0.06475407 -0.07513824
000090 75 40 e2 bc 8d 9f 84 bd 8a 50 3e 3d 1b 4e 29 bd
       -0.027618626 -0.064757444 0.046463527 -0.041334253
0000a0 13 c5 91 3d 01 54 a0 3d d5 e5 9b bd d1 15 15 bd
       0.07117667 0.078285225 -0.07612196 -0.03639776
0000b0 7e 39 de bd cd 35 6f bb 01 a7 ee 3b 97 4f 69 3d
       -0.108508095 -0.0036500574 0.007283092 0.05696067
0000c0 8f eb bc 3a b4 01 a4 3d 8e 48 58 3d ee 42 80 3d
       0.0014413464 0.08008137 0.05280357 0.06262766
0000d0 99 16 37 bd 45 06 cd 3c d4 5d c0 bd 63 ab 23 3d
       -0.044699285 0.025027404 -0.09392896 0.03995837
0000e0 88 5a 64 bd 7c d2 45 3d 46 62 00 3d 45 ba b8 3c
       -0.0557504 0.048296437 0.03134372 0.022549758
0000f0 a8 d4 1c 3d 65 72 ff bb 8f 4c 51 bd 36 38 b1 ba
       0.038288742 -0.0077956193 -0.051098403 -0.001352078
000100 20 3f 03 3d 37 c6 82 3d c2 00 f3 bd 71 75 70 3d
       0.032042623 0.06385463 -0.11865379 0.05870575
000110 e9 eb 88 bd 41 02 22 bc ed c5 c9 bd bc 4b 0b bd
       -0.06685621 -0.009888233 -0.098522045 -0.034007773
000120 2e 14 e5 3c e4 bf 7f 3d bd dc 91 3d 11 1a 7c bd
       0.027963724 0.06243886 0.071221806 -0.061548296
000130 d9 95 67 bd f8 10 1c 3b 71 26 9a bc 3e c1 cd 3c
       -0.05653939 0.0023813825 -0.018817158 0.02511656
000140 1f be 76 bd c5 50 96 3d 51 40 e0 bd bb d2 b2 bd
       -0.060239907 0.07339624 -0.109497674 -0.087316
000150 1f 00 a6 3a 3e 1e 9c 3d 7d 06 1e 3d 77 e6 49 bd
       0.0012664831 0.07622956 0.038580406 -0.049292054
000160 08 f6 c2 3d ab 83 8f 3d 1a 56 48 3d b7 85 93 bd
       0.09519583 0.070075355 0.048910238 -0.072032385
000170 5d a3 89 bd eb f4 5a 3d 8a 27 16 3d e2 89 c2 3d
       -0.06720612 0.05345623 0.0366588 0.09498955
000180 dd ea 52 3c 12 aa ad 3c 74 ea 33 3d 4f d3 42 bc
       0.012873379 0.02119926 0.043924764 -0.0118912
000190 9c 95 83 bd b6 f8 13 3d 27 f0 ac bd e2 69 52 bd
       -0.0642502 0.03612586 -0.08444243 -0.05137051
0001a0 41 9b 11 3b 5e ec 30 3d 2f e8 b5 3d d0 b2 23 bd
       0.0022217783 0.043194167 0.08882176 -0.03996545
0001b0 23 8e 7e bb 9d e5 01 3c 64 48 07 bd 8b a4 a9 bc
       -0.0038842044 0.007928279 -0.03302802 -0.020708343
0001c0 87 47 c4 bd cf c7 5b bd b8 42 25 bd 31 00 59 bb
       -0.09583955 -0.05365735 -0.04034683 -0.0033111686
0001d0 f5 33 9c bd cb 5d a5 3b d7 cc 82 bd 6e 7d 93 bb
       -0.076270975 0.0050465814 -0.06386726 -0.0045010364
0001e0 78 47 8b 3d c7 61 a0 bb 75 55 86 bb 2a 5d 01 bd
       0.06800741 -0.0048944685 -0.0040995427 -0.03158299
0001f0 42 a1 0d 3d 16 de 64 bd e1 44 d3 bd 3a 4d 94 bd
       0.034577616 -0.05587586 -0.10315872 -0.07241292
000200 2c 82 af 3d 9d ce 3b 3d b6 ca e9 3c e1 e8 0f 3d
       0.0856975 0.04585134 0.028539043 0.0351342
000210 1c 2b 3a 3d 7a 88 a2 bc 51 d4 19 bd 84 34 e0 bc
       0.04545127 -0.019840468 -0.037555996 -0.027368791
000220 8d fc 36 bd 34 62 87 3d f2 30 30 3d 3f 07 bf bd
       -0.044674445 0.06610528 0.043015428 -0.09327554
000230 99 99 af bd f0 e0 cf bd ff 2a 76 3d f7 c4 61 bd
       -0.08574218 -0.10150325 0.060099598 -0.05511948
000240 b9 0a 28 3d d2 ab 3e bd ff dc 4d bd 9b ad 80 bd
       0.04102585 -0.04655058 -0.050259586 -0.062831126
000250 41 e4 be 3d 7b 41 93 3d b2 d8 2e 3d 33 41 04 3b
       0.0932088 0.07190224 0.042687126 0.0020180463
000260 c1 dd 3e bd a8 85 1c 3d 9e e8 6d bd 96 3f 90 bd
       -0.0465982 0.038213402 -0.05808317 -0.07043378
000270 cd 12 8b bd b5 88 1d bd 9c 7d 31 bd 12 21 ce bd
       -0.06790695 -0.038460452 -0.04333268 -0.100649014
000280 ba da 6f bc e4 83 13 3b e5 e1 db 3c 9b a1 b1 bb
       -0.014639551 0.0022509033 0.026841113 -0.005420876
000290 fb f7 99 3d 6d 21 ae 3d 09 35 b6 3d f4 26 9b 3d
       0.07518002 0.08502469 0.088968344 0.07575789
0002a0 ef aa 09 3d f6 d3 d8 3b 8d 3c 38 3d 20 80 a3 3d
       0.03361028 0.0066170646 0.04497962 0.07983422
0002b0 6f 39 83 3d d0 7a 88 3d 19 fc cb 3d fd f0 b3 3d
       0.06407439 0.066640496 0.09960193 0.08786199
0002c0 8d 9c 03 3d f0 07 66 bc ed 2e 2b bd d1 21 b3 bd
       0.03213172 -0.014039978 -0.0417928 -0.08746684
0002d0 af 3f 7b 3c ec 12 a6 bd ad 38 b1 3d 8f f7 53 bc
       0.015335008 -0.08109078 0.08653388 -0.012937441
0002e0 72 b9 36 3d a2 8d 07 3c da 8a 0f bd 9e 6e 35 bd
       0.04461045 0.008273514 -0.03504453 -0.044294946
0002f0 9c 25 a5 3d 9a 85 83 3d 61 84 a4 3d d6 b3 ba bd
       0.08063814 0.06421967 0.08033062 -0.09116332
000300 f0 9f e0 b9 b8 6e fa bc f3 42 9f bd 93 13 a9 bd
       -0.00042843772 -0.030570373 -0.077764414 -0.082556866
000310 ed 8b 98 bd fa 20 66 3d 41 14 b5 bd 4d bf bf 3a
       -0.07448564 0.056183793 -0.08841754 0.0014629156
000320 e1 ed 6f 3d fd 69 c7 3c fe 66 21 bd 8c 91 83 3d
       0.05857647 0.024342531 -0.03940486 0.06424245
000330 aa 5e 06 bb b8 45 88 3d e0 c0 0d bb 58 43 7f 3d
       -0.0020503202 0.06653923 -0.0021629855 0.062320083
000340 a6 ec 0f 3b 28 27 71 3d 94 74 20 3c 94 60 00 bd
       0.0021961122 0.058875233 0.009793419 -0.031342104
000350 13 b4 17 bd a2 01 27 3d f2 3b d5 3a 3c 2e fb 3a
       -0.037036967 0.04077304 0.0016268475 0.0019163559
000360 8b c9 80 3d 7d 76 ae bc 52 b8 4a bd e7 b8 40 3c
       0.06288441 -0.021296734 -0.049492188 0.011762834
000370 44 04 82 3d 7a de ac bd df cf 23 3d 9f 95 93 3a
       0.0634847 -0.084408715 0.039993163 0.00112598
000380 56 98 87 bb 6f 4f 2c bc e9 9e 07 bd c0 46 3f 3d
       -0.004138033 -0.010516985 -0.033110533 0.04669833
000390 b1 c2 13 3d 49 31 ed bc 6d b6 47 3c 30 85 c4 3d
       0.036074344 -0.028954165 0.01218949 0.09595716
0003a0 ef e4 ab 3d 1b 24 fe 3b 6b e4 8f 3c b2 21 4c 3d
       0.08393275 0.007755769 0.017564973 0.04983682
0003b0 89 25 4d 3d d9 39 b1 3c c2 c6 1d bd 50 1f ad bd
       0.050084624 0.02163403 -0.03851963 -0.08453238
0003c0 af 79 23 bd dc ac 73 bd ee 05 a7 3d 11 c9 9b 3d
       -0.03991097 -0.059491023 0.08155428 0.0760671
0003d0 59 9e 12 bd e6 ac 64 3d 6c f1 79 bd a5 76 98 3d
       -0.035795543 0.05582895 -0.061021253 0.07444505
0003e0 e0 f0 ae bd cb 80 45 bd 1c 32 af 3d c6 d2 9e bc
       -0.08542037 -0.04821853 0.085544795 -0.019387614
0003f0 22 92 3d bd ec ea ca 3c e0 22 ce bc 58 01 cb 3a
       -0.04628194 0.024770223 -0.025163114 0.0015488071

embedding_net.fc2.bias f4 [50]
000000 d5 39 e6 3d 26 23 6b 3d 40 7b 52 bc e3 fe 6e bd
       0.11241499 0.057406567 -0.012846768 -0.058348548
000010 d9 31 85 3d 64 45 b4 bd 48 5d c3 bd b3 74 b4 3d
       0.06503648 -0.08802298 -0.09539276 0.08811321
000020 9a 6d 8a bd 18 58 f1 bc b5 a2 f4 bd c5 e1 cd 3d
       -0.06759186 -0.029460952 -0.119450964 0.10052828
000030 78 c2 59 bc 55 b0 8c 3d 4f 4f d8 3d ce 7e ae bd
       -0.013290994 0.0686957 0.10562002 -0.0852028
000040 ee 26 3b bd 0a 10 31 3d 3e d6 ec bd be 79 b9 bd
       -0.045691423 0.043228187 -0.11564301 -0.090564236
000050 e8 32 03 3c e1 81 82 3d 6a af 0d 3d 59 49 9c 3a
       0.008007742 0.06372429 0.034591116 0.0011923715
000060 36 12 9f bd 54 0f b8 3c 11 af 81 bd 38 5e 71 3c
       -0.07767145 0.022468247 -0.063322194 0.014731936
000070 8a 9f 7a 3d 7b c1 f1 3d ef d4 e7 bd 98 c8 a0 bc
       0.061187305 0.118044816 -0.11319911 -0.0196269
000080 30 49 f2 bd 11 99 b0 bd b4 02 9b bd 2b eb c1 3d
       -0.11830366 -0.08622945 -0.07568875 0.09468683
000090 6a 9c 5c 3d 52 59 15 3d 00 68 60 bc 55 c4 ea 3d
       0.053860106 0.036462136 -0.0136966705 0.114632286
0000a0 df 76 f0 3d e4 2c a4 bd 38 7f cf bc 24 69 fe bc
       0.11741423 -0.08016375 -0.025329217 -0.031055994
0000b0 4b fe 9e bd 68 5f 68 bd 49 f6 be 3d b4 be ad bc
       -0.07763346 -0.05673161 0.09324319 -0.021209098
0000c0 ca d4 3a 3d 8c 99 d3 3c
       0.045613088 0.025830053
