runs/TripletNet_0918a/model_best.pth.tar (torch_old, 236328 bytes, 8 tensors)

embedding_net.conv1.weight f4 [70, 128, 3]
0	0x3ccf3a18	0.025296256
1	0xbcc5e1f2	-0.02415559
2	0xbc73ebeb	-0.01488779
3	0x3ca9da40	0.020733953
4	0xbd519d3b	-0.051175337
5	0x3cd2437e	0.025666948
6	0xbc358ffc	-0.011081692
7	0x3ccf2f56	0.025291126
8	0x3bcf3fcb	0.0063247434
9	0xbbcf7a2b	-0.006331702
10	0x3c666c83	0.014063957
11	0x3b1eda50	0.002423901
12	0x3c98748f	0.018610267
13	0xbca32bd1	-0.019918354
14	0xbb767616	-0.0037607006
15	0xbb96dd2c	-0.0046040025
16	0x3bf1a2a0	0.0073741227
17	0xb9775fe6	-0.0002359148
18	0x3d36ac2a	0.044597782
19	0x3c81f538	0.015864
20	0xbc9bbe7f	-0.019011734
21	0xbcfcaa24	-0.030842848
22	0xbc0cac0a	-0.008585939
23	0xbcb493da	-0.022043157
24	0xbc8627f2	-0.01637647
25	0x3b1e3ad0	0.0024143942
26	0x3cf8f766	0.030391406
27	0x3ce3088c	0.027714036
28	0xbd4c7277	-0.04991385
29	0x3d0177ae	0.031608276
30	0x3c6999fc	0.014257904
31	0x3d463f0e	0.048399977
32	0x3d09ef8d	0.03367572
33	0xbd3e5ebb	-0.04647706
34	0xbd46ae09	-0.048505817
35	0xbcc987c3	-0.024600869
36	0x3d37937d	0.04481839
37	0xbc0b12aa	-0.008488337
38	0x3cb305df	0.021853385
39	0xbcc26889	-0.023731487
40	0x3d4d0aaf	0.050059017
41	0xbcb0f9a1	-0.021603407
42	0x3d1cb425	0.038257737
43	0x3a1b7f6b	0.00059317675
44	0xbcdc53ec	-0.026895486
45	0x3cd6c952	0.026219044
46	0xbcde09b6	-0.02710424
47	0x3c75a772	0.014993535
48	0xbc71fe63	-0.014770123
49	0xbbb8b061	-0.0056362604
50	0xbd491111	-0.04908854
51	0xbcc75635	-0.024333099
52	0x3ce2cead	0.027686441
53	0xbc4b5328	-0.012409963
54	0x3d502bbd	0.050822962
55	0x3d278159	0.04089484
56	0xbb1d3a85	-0.002399118
57	0xbd0b8e8f	-0.0340715
58	0x3cfe7e74	0.031066157
59	0x3c81aa36	0.015828233
60	0xbd074329	-0.033023033
61	0x3d079f82	0.033111103
62	0x3cfd8187	0.030945553
63	0x3d394c0b	0.045238536
64	0xbcea86a4	-0.028628655
65	0xbc09e5e8	-0.00841663
66	0xba820d8f	-0.0009922254
67	0x3bf43de3	0.0074536665
68	0xbd1e9d1a	-0.038724042
69	0xbd145afe	-0.03621959
70	0x3ce3613b	0.027756324
71	0xbc440e33	-0.011966276
72	0x3ccc0ca9	0.02490838
73	0x3b3dcec4	0.0028962353
74	0x3c891d33	0.016737556
75	0x3c37e025	0.011222874
76	0x3c97fdc3	0.01855362
77	0x3ccf2d7d	0.025290245
78	0xbd4194e4	-0.047261134
79	0x3cd26cc6	0.025686633
80	0xbd12fb20	-0.035884023
81	0xbd1dd3fe	-0.03853225
82	0x3b49bbf2	0.003078219
83	0xbc0ef920	-0.008726388
84	0x3cf53f38	0.029937372
85	0xbcf26438	-0.029588804
86	0xbd3a0925	-0.045418877
87	0x3d1821c1	0.037141565
88	0xbbf7d6de	-0.007563456
89	0x3ceb1ce0	0.028700292
90	0x3c866784	0.016406782
91	0xbd1cbdd4	-0.03826697
92	0x3c27cafc	0.010241266
93	0x3c4853fd	0.012227056
94	0xbd0c1464	-0.034199134
95	0xbcc69c67	-0.0242445
96	0x3c8d917d	0.017281288
97	0x3c13aa31	0.009012745
98	0xbcb2d725	-0.021831105
99	0xbc7d4a25	-0.015459572
100	0x3d3f5935	0.046715934
101	0xbc1b2255	-0.009468635
102	0x3cec0f61	0.028815927
103	0x3cb52375	0.022111634
104	0xbd072afa	-0.03299997
105	0xbd31b54e	-0.043385796
106	0x3d48a902	0.048989303
107	0x3b2e9a26	0.0026642173
108	0x3d0f4214	0.034975126
109	0x3c2d5081	0.010578276
110	0x3c865034	0.016395666
111	0x3d1bcfc6	0.038039945
112	0x3d45cda7	0.04829183
113	0xbd0b181a	-0.033958532
114	0x3bcc21d2	0.0062296176
115	0x3d1b2d43	0.03788496
116	0x3d16bd1e	0.03680145
117	0x3d016d62	0.031598456
118	0xbd17a5ee	-0.037023477
119	0xbd16e6e4	-0.03684129
120	0xbcfdb623	-0.030970639
121	0x3bcef9a3	0.00631638
122	0x3d4ff1c1	0.050767664
123	0xbd0494b4	-0.032368377
124	0x3cdc97d7	0.026927872
125	0xbce9f818	-0.028560683
126	0xbd45055f	-0.048100825
127	0xbc349176	-0.011021009
128	0x3cef3030	0.029197782
129	0x3d42463a	0.047430255
130	0xbd01c199	-0.03167877
131	0x3c3428de	0.010996072
132	0x3d34a0e2	0.044098742
133	0x3d0aa205	0.03384592
134	0x3d024ad7	0.031809654
135	0x3d152059	0.036407802
136	0x3d0402f6	0.032229386
137	0x3c58cee6	0.013232922
138	0xbd0ef510	-0.03490168
139	0xbd2f9e09	-0.042875323
140	0xbcbf8704	-0.02337981
141	0xbbce5146	-0.0062963096
142	0xbd01a36b	-0.03164999
143	0x3c978c08	0.01849939
144	0x3c80a6b9	0.0157045
145	0xbc3f07dc	-0.011659589
146	0x3c9fc187	0.01950146
147	0x3c874303	0.016511446
148	0x3cfe3d18	0.031034991
149	0x3d0c5d7b	0.034268837
150	0xbc8e59fc	-0.017376892
151	0x3d4bbf30	0.049742877
152	0xbbc53459	-0.006018203
153	0xbaf7ee4b	-0.0018915621
154	0xbd45d981	-0.04830313
155	0xbd073526	-0.03300967
156	0xbcf51231	-0.0299159
157	0xbcb46be3	-0.0220241
158	0x3d136c85	0.035992164
159	0xbc880f7c	-0.016608946
160	0xbd1c4a8b	-0.038157027
161	0x3ca03b2e	0.01955947
162	0x3c859b8b	0.01630952
163	0x3d072fbd	0.03300451
164	0xbcd8bad4	-0.026456274
165	0x3c349717	0.011022351
166	0xbc98e72f	-0.018664924
167	0xbc3d5534	-0.011555959
168	0xbd25a4a5	-0.04044022
169	0xbcbea054	-0.02326981
170	0xbc7fddb8	-0.015616827
171	0x3cb3ed31	0.021963688
172	0x3c1a7afa	0.009428734
173	0x3c50cbaf	0.012743874
174	0x3d504bc7	0.050853517
175	0x3d4c7730	0.049918354
176	0x3d109d42	0.035306223
177	0x3adab590	0.001668619
178	0xbd108ecb	-0.035292428
179	0x3d239e1e	0.039945714
180	0xbc57ace9	-0.013163784
181	0xbb902341	-0.004398734
182	0xbd332584	-0.04373695
183	0xbc27def1	-0.0102460245
184	0xbd077611	-0.03307158
185	0x3d3fd3b4	0.046832755
186	0xbd35967f	-0.044332977
187	0xbd23ea4a	-0.040018357
188	0xbaef0b09	-0.0018237542
189	0xbce6a90e	-0.028156783
190	0x3c8ed175	0.017433861
191	0xbca84593	-0.020540988
192	0xbcc1920c	-0.02362921
193	0x3b4bb4d8	0.0031083133
194	0x3d18e4ba	0.037327506
195	0xbd14a471	-0.036289636
196	0x3cbf747a	0.02337097
197	0x3d033426	0.032032155
198	0x3d4b3d72	0.049619146
199	0xbd141124	-0.03614916
200	0x3c421714	0.011846323
201	0xbd17934f	-0.03700572
202	0x3d33d518	0.043904394
203	0xbca372b2	-0.019952152
204	0x3cf91f5d	0.030410463
205	0x3a953f1f	0.0011386609
206	0xbb8deccf	-0.0043312083
207	0xbb221dfd	-0.0024737113
208	0x3bfd0d08	0.0077225007
209	0x3cc2ae8a	0.023764867
210	0x3c11e99d	0.008905795
211	0x3c82d6c3	0.015971547
212	0xbd3b65c4	-0.04575135
213	0x3d1f33d3	0.038867783
214	0x3d394e2f	0.045240577
215	0x3d2e1462	0.042499907
216	0x3d1ac620	0.037786603
217	0xbd170412	-0.036869116
218	0xbc9aa4c3	-0.018877393
219	0x3d37784f	0.04479247
220	0xbd214500	-0.039372444
221	0x3d3ce39e	0.04611551
222	0xbd2c3fa2	-0.042052872
223	0xbd1bf2f1	-0.038073484
224	0x3cbdaa6c	0.023152553
225	0xbd18843c	-0.037235484
226	0xbc502c12	-0.01270582
227	0x3d141a3e	0.03615784
228	0x3d2bbbb0	0.04192704
229	0x3d4900fd	0.049073208
230	0xbc2ec036	-0.010665944
231	0xbd202115	-0.03909405
232	0x3d4f57d6	0.050620876
233	0xbc34c030	-0.011032149
234	0xbcaa269f	-0.02077037
235	0x3c3c315b	0.011486377
236	0xbd159cdd	-0.03652655
237	0x3d09a7b3	0.033607196
238	0x3cfc570e	0.03080323
239	0xbd285052	-0.041092224
240	0xbd2a57f2	-0.041587777
241	0xbbf0fccd	-0.007354355
242	0x3ca933e0	0.020654619
243	0xbb50f398	-0.0031883474
244	0xbce5e82d	-0.028064812
245	0xba7ff038	-0.00097632734
246	0xbd4bc5c5	-0.049749155
247	0xbd1f0e54	-0.038832024
248	0xbd15e6e2	-0.03659714
249	0x3d2ce0b9	0.0422065
250	0x3d3a074a	0.045417108
251	0xbc8998f6	-0.01679657
252	0x3b01eb4d	0.0019824088
253	0x3cc1a62d	0.02363881
254	0x3b9ed6d2	0.004847386
255	0xbcbaaf4b	-0.022788664

embedding_net.conv1.bias f4 [70]
0	0x3cf6b5dc	0.030116014
1	0x3cc0cf96	0.023536485
2	0x3b47e40f	0.0030500924
3	0xbd15e7d6	-0.03659805
4	0xbd03731d	-0.032092202
5	0xbcd01a7f	-0.02540326
6	0xbd4719f2	-0.048608728
7	0xbd207c80	-0.039181232
8	0x3d2558dc	0.040367946
9	0x3cb465b2	0.022021148
10	0xbce57471	-0.028009625
11	0xbc0917cb	-0.008367489
12	0x3cbcb79e	0.023036774
13	0x3ca4ea2a	0.02013119
14	0xbcd21f26	-0.025649618
15	0xbd2d1525	-0.042256493
16	0x3d5095a6	0.050923966
17	0xbd2d7bc8	-0.042354375
18	0xbbd3ccc4	-0.006463619
19	0x3d48dd12	0.049038954
20	0xbc4a0812	-0.012331026
21	0xbca1f565	-0.019770334
22	0x3d486885	0.048927803
23	0xbd27de62	-0.040983565
24	0xbc64a506	-0.01395536
25	0x3d3ae1b7	0.045625415
26	0xbd08ded1	-0.03341562
27	0x3d15b8b7	0.03655311
28	0xbbe692b4	-0.0070365313
29	0xbc456935	-0.012049009
30	0xbd0c6408	-0.034275085
31	0xbcd784d0	-0.026308447
32	0xbd203745	-0.03911521
33	0xbcc94383	-0.024568325
34	0x3cb2df8c	0.021835111
35	0xbbebe004	-0.0071983356
36	0xbcc1f415	-0.023675958
37	0xbd1d2a5a	-0.038370468
38	0xbcfd9889	-0.030956523
39	0x3c83a295	0.016068736
40	0x3cb359a6	0.021893334
41	0x3bdcd052	0.006738701
42	0xbc8218d3	-0.015880978
43	0x3c2d834a	0.010590384
44	0x3d1ca3e7	0.038242247
45	0xbcd8c0d1	-0.02645913
46	0xbd334f20	-0.04377663
47	0x3b9e42b5	0.0048297294
48	0xbd137a09	-0.036005054
49	0x3c5b1cb2	0.013373541
50	0x3d466614	0.048437193
51	0x3d0f73a1	0.03502238
52	0x3ac63921	0.0015123227
53	0x3d424687	0.04743054
54	0xbd0b5d82	-0.034024723
55	0x3c112724	0.0088594295
56	0x3b3ddc43	0.0028970398
57	0xbd3e4a97	-0.046457853
58	0x3d1ee5a5	0.038793225
59	0x3d4283fe	0.04748916
60	0xbd311d04	-0.043240562
61	0x3d416524	0.047215596
62	0xbd40f41a	-0.047107793
63	0x3c800199	0.015625762
64	0xbb0eed14	-0.002180879
65	0x3cc35a3e	0.023846742
66	0x3d05c1a3	0.03265537
67	0xbd1c8cc7	-0.038220193
68	0x3c111138	0.008854203
69	0xbd249c81	-0.040188316

embedding_net.conv2.weight f4 [100, 70, 3]
0	0x3d8bc21e	0.06824134
1	0x3d38efa9	0.045150433
2	0xbd9900b3	-0.074708365
3	0xbd7a9554	-0.061177567
4	0x3d4183d5	0.047244865
5	0xbc88a154	-0.01667849
6	0x3d1296bc	0.035788283
7	0x3bb1f8f8	0.0054312907
8	0x3ccd5094	0.025062837
9	0x3bf9196f	0.007601909
10	0x3c9d0507	0.019167436
11	0x3d5fcace	0.05463677
12	0xbc2ec34a	-0.010666678
13	0xbdab8086	-0.08374123
14	0xbc82716b	-0.015923223
15	0xbd9363ef	-0.07196795
16	0xba84768c	-0.001010613
17	0xbccc0135	-0.02490292
18	0xbd618297	-0.05505618
19	0xbc35c2c0	-0.011093795
20	0x3b9204b6	0.004456128
21	0xbca3a301	-0.019975187
22	0x3c7d8fc9	0.015476176
23	0x3ce1dcd6	0.027571123
24	0x3afef1ff	0.0019450783
25	0x37192e02	9.130223e-06
26	0xbda074eb	-0.078348
27	0xbd3c4d55	-0.045972187
28	0x3c429dcd	0.011878443
29	0xbd460be8	-0.0483512
30	0xbd1d1c94	-0.038357332
31	0x3c44fee3	0.01202366
32	0xbcffbe66	-0.031218719
33	0x3d4a6d8e	0.049420886
34	0xbd5b81d7	-0.05359062
35	0xbcb14a30	-0.02164182
36	0x3d0ac6de	0.03388106
37	0xbd420979	-0.047372315
38	0xbbe762fe	-0.0070613613
39	0x3c8f530c	0.017495655
40	0xbc29204f	-0.010322644
41	0x3cbe010a	0.023193855
42	0x3d09537d	0.033526886
43	0xbd512a23	-0.051065575
44	0x3d49f918	0.04930982
45	0x3c54c3e3	0.012986156
46	0xbc828189	-0.015930908
47	0xbc7df976	-0.015501371
48	0x3d4ffe9c	0.050779924
49	0xbb433117	-0.0029783898
50	0x3d6dce32	0.05805797
51	0xbdccbf47	-0.09997421
52	0xbd789d59	-0.060696933
53	0xbd17ee1d	-0.037092317
54	0xbc8c9385	-0.017160187
55	0x3b9ae2e3	0.004726754
56	0xbd6a7a59	-0.057245586
57	0xbd753d70	-0.059873044
58	0xbd5175a2	-0.051137574
59	0x3d3ab24d	0.045580197
60	0x3d6c520f	0.057695445
61	0xbd884a8a	-0.06654842
62	0xbc9bb072	-0.019005034
63	0xbdf29c3c	-0.118462056
64	0xbe1761a3	-0.14783339
65	0x3d06cbe8	0.032909304
66	0x3d630240	0.055422068
67	0x3ca4a2e7	0.02009721
68	0xbc413886	-0.011793261
69	0xbd9996ef	-0.074994914
70	0x3cb016ec	0.021495305
71	0x3ce3b667	0.027796937
72	0xbd404145	-0.046937246
73	0xbd1201fe	-0.03564643
74	0xbd0a11c9	-0.033708367
75	0x3bdfb5e7	0.0068271044
76	0x3d8274f6	0.06369965
77	0xbd6be75b	-0.057593685
78	0xbd73a724	-0.05948557
79	0xbd809c32	-0.06279792
80	0x3d38f049	0.04515103
81	0xbcab3308	-0.020898357
82	0xbd67740a	-0.056507148
83	0x3bf94f3a	0.0076083215
84	0xbd97e6d5	-0.074170746
85	0xbd75062e	-0.059820347
86	0x3b0b13c3	0.0021221496
87	0x3d83020a	0.06396873
88	0x3c0fb68c	0.00877155
89	0x3bcaa384	0.0061840434
90	0xbd757d8a	-0.059934177
91	0xbc4e0cd5	-0.012576302
92	0x3d0add4c	0.03390245
93	0x3c26220a	0.0101399515
94	0xbd1af97f	-0.037835594
95	0x3d2a1786	0.04152634
96	0xbd2b5e3d	-0.04183792
97	0x3d90c535	0.07068864
98	0x3d727ee2	0.059203036
99	0xbcc36191	-0.023850234
100	0xbd2dee0f	-0.04246336
101	0x3c64a8fa	0.013956303
102	0xbccd439e	-0.025056656
103	0xbd4ed93a	-0.050500132
104	0x3d0d9142	0.034562357
105	0x3cd39150	0.025826126
106	0xbc806420	-0.015672743
107	0xbd12257e	-0.035680287
108	0xbd008afb	-0.031382542
109	0x3c290896	0.010316988
110	0xbc04f4a2	-0.008114966
111	0xbcf7fb58	-0.030271217
112	0x3cd79296	0.026315015
113	0xbd3363e1	-0.043796424
114	0x3c17aee2	0.009258004
115	0xbc32fe08	-0.010924824
116	0xbd77e9cb	-0.060525697
117	0xbb4686fb	-0.0030292857
118	0x3d1fb65d	0.038992275
119	0xbbc321df	-0.0059549655
120	0xbd5a3ac4	-0.0532787
121	0xbd2d7291	-0.042345587
122	0xbd7508ec	-0.05982296
123	0x3cf021f7	0.02931307
124	0xbd34e24b	-0.044161122
125	0xbd8875ec	-0.06663117
126	0xbcd2804c	-0.025695942
127	0x3c2ff4b9	0.010739499
128	0xbd0885f7	-0.033330884
129	0xbe392570	-0.18080688
130	0xbe2af575	-0.16695197
131	0xbdfd7855	-0.12376467
132	0xbd192b9f	-0.037395116
133	0xbd84e8a0	-0.06489682
134	0x3d08d6ce	0.03340798
135	0x3d2c3abd	0.042048205
136	0x3ba83040	0.005132705
137	0x3cd19273	0.025582528
138	0xbd2002b9	-0.039065097
139	0x3d3afa03	0.045648586
140	0x3cc64978	0.024204955
141	0xbd0e5a3f	-0.034754034
142	0xbd09f62f	-0.033682045
143	0xbd3a0d97	-0.045423117
144	0xbd76fcee	-0.060299806
145	0xbd319aff	-0.043360706
146	0xbd87ac63	-0.06624677
147	0x3cb8feda	0.02258246
148	0x3c61aed2	0.013774591
149	0xbd540df9	-0.051771138
150	0xbd4d8ce6	-0.0501832
151	0x3d01f871	0.031731073
152	0x3d012d8d	0.03153758
153	0x3c6343ad	0.013871116
154	0x3bffb486	0.0078035025
155	0x3babb6a8	0.00524028
156	0xbd3ab6c4	-0.045584455
157	0x3c523095	0.012828966
158	0x3c26bcc3	0.01017684
159	0x3c4af313	0.012387055
160	0xbcc49ed6	-0.02400152
161	0x3d012da5	0.03153767
162	0xbd854cdb	-0.065088
163	0x38b18390	8.464523e-05
164	0xbcae244e	-0.021257546
165	0xbd660e35	-0.056165893
166	0xbd5ddf0e	-0.0541678
167	0x3d8da198	0.06915587
168	0xbd735d0f	-0.05941492
169	0xbb893194	-0.0041868184
170	0x3d181995	0.037133772
171	0xbd8914ad	-0.06693397
172	0x3c703e23	0.014663252
173	0xbbbe249a	-0.005802703
174	0xbd72e9d5	-0.05930503
175	0x3d6387e9	0.055549536
176	0xbc87a61d	-0.016558701
177	0x3d3edf36	0.04659959
178	0xbd82767d	-0.06370256
179	0xbce99bee	-0.028516736
180	0xbc07c928	-0.0082877055
181	0xbc4bde37	-0.012443117
182	0xbb227012	-0.0024786037
183	0xbce5077d	-0.027957672
184	0xbbae8700	-0.005326152
185	0xb8fbbfa7	-0.00012004311
186	0x3c813f9b	0.0157774
187	0x3b4a2abd	0.0030848228
188	0x3c9de711	0.01927522
189	0xbc226587	-0.009911901
190	0x3c23d4c0	0.009999454
191	0xbca7e831	-0.02049646
192	0xbd0f92f1	-0.035052244
193	0x3d14dfc9	0.03634623
194	0xbb6ab750	-0.003581483
195	0xbc0ed672	-0.00871812
196	0xbd6c50c2	-0.057694204
197	0xbd2874bc	-0.04112695
198	0x3d64838b	0.05578951
199	0x3c75ef84	0.015010718
200	0xbd6febd1	-0.0585745
201	0xbe11431c	-0.14185756
202	0xbd632c35	-0.05546208
203	0xbd705ca0	-0.058682084
204	0xbd5f9e12	-0.054594107
205	0x3d54438b	0.051822226
206	0xbd829897	-0.063767605
207	0xbd76b24a	-0.060228623
208	0x3d60ec9a	0.05491314
209	0x3ca198db	0.019726207
210	0xbd2469ed	-0.04014008
211	0x3a4f5a10	0.00079098437
212	0xbccad0dd	-0.024757797
213	0x3d3de959	0.046365116
214	0xbcb94e36	-0.022620302
215	0xbd861b9e	-0.06548236
216	0xbc82f277	-0.015984757
217	0x3d383d2e	0.04498022
218	0xbd1428bc	-0.03617166
219	0xbb161a72	-0.0022903946
220	0x3c5ffa23	0.013670477
221	0xbc070549	-0.008241006
222	0xbdd38f16	-0.10330026
223	0xbddf686b	-0.10908588
224	0xbbac5e58	-0.00526027
225	0x3c652cba	0.013987714
226	0xbcd3c295	-0.02584962
227	0xbd09d0cf	-0.0336464
228	0xbd578f47	-0.052626874
229	0xbc7dd21c	-0.0154919885
230	0xbcabf4ab	-0.02099069
231	0xbcf340e8	-0.029694036
232	0xbb9e75b8	-0.0048358105
233	0xbd098a00	-0.033578873
234	0x3cb9c885	0.022678623
235	0xbcb7120c	-0.022347473
236	0xbd961280	-0.07327747
237	0x3cd8894a	0.026432652
238	0x3d75e4f5	0.060032804
239	0xbd863a12	-0.06554045
240	0xbc8fa031	-0.01753244
241	0xbcd674d4	-0.026178755
242	0xbd78d89c	-0.06075345
243	0x3d2f0f34	0.04273911
244	0x3cbe105e	0.023201164
245	0xbb8cd2cc	-0.00429759
246	0xbd4e2b13	-0.050334048
247	0x3c3b2540	0.011422455
248	0x3d419634	0.047262385
249	0x3d06622d	0.03280847
250	0x3bf006ee	0.007325045
251	0xbcb9c3ec	-0.02267643
252	0xbcf24f8f	-0.029578952
253	0xbd2b27e2	-0.041786082
254	0xbd4d8d4c	-0.05018358
255	0xbcd838cc	-0.02639427

embedding_net.conv2.bias f4 [100]
0	0x3d29383e	0.041313402
1	0x3ce14f43	0.027503615
2	0xbb47b16f	-0.003047075
3	0xbd678582	-0.056523807
4	0xbd3e41a5	-0.046449322
5	0xbcb455ea	-0.022013623
6	0x3cef0f5c	0.029182129
7	0x3c527b04	0.012846712
8	0x3ce57c0d	0.028013254
9	0x3d27d31b	0.04097281
10	0xbd6457f7	-0.055747952
11	0x3d7cd318	0.061724752
12	0xbd7e7991	-0.062127654
13	0xbd566de6	-0.0523509
14	0xbd866be8	-0.0656355
15	0xbb8b0044	-0.004241975
16	0xbd2c2903	-0.0420313
17	0xbca39f74	-0.019973494
18	0x3d7f9d37	0.06240579
19	0x3c436146	0.011925047
20	0xbce1c291	-0.027558597
21	0xbbb59a4d	-0.0055420757
22	0xbc151b45	-0.00910074
23	0xbbccd28f	-0.0062506865
24	0xbcd9d6c8	-0.026591673
25	0x3d56908b	0.05238394
26	0x3cd4706b	0.025932511
27	0x3d85c246	0.06531195
28	0xbc56aaa7	-0.01310221
29	0x3acf90c5	0.0015835991
30	0xbbe52ed8	-0.0069941096
31	0xbc951112	-0.018196616
32	0xbd700e30	-0.05860728
33	0xbd2e38b3	-0.04253454
34	0x3d5c7a5d	0.053827632
35	0xbcf34d7a	-0.02970003
36	0xbc5ceb1b	-0.013483788
37	0xbd4839d6	-0.04888328
38	0x3ca0c6b2	0.019625995
39	0xbd0172f4	-0.03160377
40	0x3d125562	0.03572596
41	0xbd2bd759	-0.04195342
42	0x3c64ebec	0.013972264
43	0xbd31cd29	-0.043408547
44	0xbb035cbd	-0.002004429
45	0x3c04e1c1	0.008110465
46	0xbd71b84e	-0.059013657
47	0x3d62515e	0.05525338
48	0x3d77b83c	0.060478434
49	0x3b37b44a	0.0028031045
50	0xbc9215ea	-0.017832715
51	0xbcc6ed7e	-0.024283167
52	0xbd1245be	-0.035711043
53	0xbbb6baca	-0.005576466
54	0xbd2ffacf	-0.0429638
55	0x3ccdcf44	0.025123246
56	0xba95476e	-0.0011389086
57	0xbd696ef2	-0.05699057
58	0xbd2627b4	-0.040565208
59	0x3c27dfb4	0.010246206
60	0x3cebefc7	0.028800858
61	0xbd2b4029	-0.041809235
62	0xbcf1743a	-0.029474366
63	0x3d2e7ab2	0.04259748
64	0xbb938d98	-0.0045029633
65	0x3bb44466	0.005501318
66	0x3aaad1b2	0.0013032465
67	0x3c435eca	0.011924455
68	0xbd875087	-0.06607156
69	0x3d0fb610	0.035085738
70	0x3bf3a2d0	0.0074351802
71	0x3d0f9b5d	0.035060275
72	0x3d4893e9	0.048969183
73	0xbb9cbf48	-0.0047835447
74	0xbd73c8ef	-0.059517797
75	0xbc99b5ef	-0.01876351
76	0xbd5f01c1	-0.054445032
77	0x3d71b60c	0.059011504
78	0x3d13c253	0.036073994
79	0xbc9a0738	-0.01880227
80	0x3d85f262	0.065403715
81	0x3d264d50	0.040601075
82	0x3d1cbf4d	0.038268376
83	0xbbd6cfc5	-0.00655553
84	0x3d3d1b70	0.046168745
85	0x3d4e41e4	0.050355807
86	0xbd18d18d	-0.03730922
87	0x3d38cd40	0.045117617
88	0x3d710b17	0.058848467
89	0xbc358378	-0.011078708
90	0x3d8d2d02	0.0689335
91	0x3c6d8dff	0.014499187
92	0x3d7373d9	0.059436653
93	0xba458568	-0.00075348327
94	0x3d39342f	0.04521578
95	0x3d35d783	0.04439498
96	0x3cd30ed1	0.025763901
97	0x3d64f7f9	0.055900548
98	0xbd206cc2	-0.03916622
99	0x3cca12d9	0.02466719

embedding_net.fc1.weight f4 [70, 100]
0	0xbb46faeb	-0.003036196
1	0xbd599245	-0.05311801
2	0xbd3812be	-0.04493975
3	0x3ccfb28b	0.02535369
4	0x3c8f1427	0.017465664
5	0x3b8d5f35	0.004314328
6	0xbcc0a3fe	-0.023515698
7	0x3c6957bb	0.014242108
8	0xbcb4a509	-0.022051351
9	0x3d189d6e	0.03725951
10	0xbbcbb5ce	-0.006216741
11	0x3d2f24a0	0.042759538
12	0xbb3fed04	-0.002928556
13	0xbdb0e43c	-0.08637282
14	0xbc490238	-0.012268595
15	0xbdc0859d	-0.09400485
16	0xbdd96a48	-0.10615975
17	0xbd1f7fe0	-0.03894031
18	0xbdab9a83	-0.0837908
19	0xbd0504ac	-0.03247516
20	0xbdb7202b	-0.089416824
21	0x3ca04991	0.01956633
22	0xbbe52f25	-0.0069941455
23	0xbcb659b8	-0.022259578
24	0x3d0e18ff	0.034691807
25	0xbd938deb	-0.07204803
26	0x3d164330	0.03668517
27	0xbcd28ee3	-0.0257029
28	0xbdbd0e9e	-0.09231304
29	0x3d2c00cb	0.041992944
30	0xbdcadec7	-0.09905773
31	0xbdbc064b	-0.09180888
32	0xbdb61714	-0.088911206
33	0xbd3e3a09	-0.046442065
34	0xbd377c2e	-0.04479616
35	0xbd011318	-0.03151235
36	0xbd251e55	-0.04031213
37	0x3d44b792	0.04802663
38	0x3d97695c	0.073931426
39	0xbce3e3c5	-0.02781857
40	0xbdbb2e2e	-0.091396675
41	0x3aee5517	0.0018183318
42	0xbdcf3583	-0.101176284
43	0x3d334ded	0.043775488
44	0xbcf461f9	-0.029831873
45	0xbda24031	-0.079224
46	0xbba24994	-0.004952619
47	0x3d358248	0.0443137
48	0xbc926bff	-0.017873762
49	0xbd961e9e	-0.073300585
50	0x3d38118c	0.04493861
51	0xbcaf4d3f	-0.021399138
52	0x3ca53f2e	0.020171728
53	0xbd4978fb	-0.04918764
54	0x3d153b14	0.036433294
55	0x3b4351b5	0.002980334
56	0xbc97e33f	-0.018540977
57	0xbd3a243e	-0.04544472
58	0xbcc28a03	-0.02374745
59	0x3d202a57	0.03910288
60	0xbd4c43e1	-0.049869422
61	0xbc8526b4	-0.016253807
62	0xbced8e9c	-0.028998666
63	0xbdb5ab02	-0.08870508
64	0x3cbca501	0.023027899
65	0xbd455c9e	-0.04818403
66	0xbc91a091	-0.01777676
67	0xbdcdf001	-0.10055543
68	0x3ce60e27	0.02808292
69	0xbdc3cce9	-0.09560568
70	0x3d8197fc	0.06327817
71	0xbdb35c5f	-0.08757853
72	0xbd8cbd81	-0.068720825
73	0xbcd21f60	-0.025649726
74	0x3d73dcdb	0.059536796
75	0xbd5f2955	-0.054482777
76	0xba60de98	-0.0008578091
77	0xbd8476f4	-0.06468001
78	0xbda1f38c	-0.07907781
79	0x3d94944e	0.072548494
80	0xbd8e3a97	-0.06944769
81	0xbd32e33f	-0.04367375
82	0x3c601c76	0.013678661
83	0xbba2bbda	-0.0049662413
84	0xbd7e523a	-0.062090136
85	0x3c6e6116	0.014549514
86	0x3d13e444	0.036106363
87	0xbcb60971	-0.022221299
88	0x3d197e42	0.037473924
89	0xbcc67266	-0.024224471
90	0x3d703e7f	0.05865335
91	0xbd9a440a	-0.07532509
92	0x3cfac24b	0.030610224
93	0x3b925550	0.0044657364
94	0xbb5fecd1	-0.0034168253
95	0xbca2883f	-0.019840358
96	0x3d31fbc4	0.043452993
97	0xbdd838c0	-0.10557699
98	0xbdb36bf9	-0.087608285
99	0x3a3f9902	0.0007308872
100	0x3c2ced85	0.010554676
101	0xbdedc262	-0.11609341
102	0xbd61c050	-0.055115044
103	0xbb5eb18a	-0.0033980333
104	0x3d023918	0.03179273
105	0xbd0c0640	-0.034185648
106	0xbb0fe61c	-0.0021957224
107	0xbb840865	-0.004029321
108	0x3b15c615	0.0022853662
109	0xbadc66ca	-0.0016815301
110	0xbdb97305	-0.09055141
111	0xbcd86e77	-0.026419861
112	0xbdce9d13	-0.10088553
113	0x3d0e5953	0.034753155
114	0xbbeddf81	-0.0072593098
115	0xbd4dd71b	-0.05025397
116	0x3d64c17c	0.055848584
117	0xbd7e9e24	-0.062162533
118	0xbd9bc1f9	-0.07605357
119	0xbdc14ec5	-0.09438852
120	0xbd4e3c32	-0.050350375
121	0xbc6a35e6	-0.014295077
122	0x3d2d0066	0.042236708
123	0x3b953823	0.004553811
124	0xbd729a76	-0.059229337
125	0x3d140f44	0.03614737
126	0x3c210119	0.009826922
127	0xbd2a787b	-0.041618805
128	0xbd209213	-0.039201807
129	0x3d254211	0.04034621
130	0xbd7da696	-0.061926447
131	0xbd3994b5	-0.045307834
132	0xbcfebbb9	-0.031095373
133	0xbd763ecb	-0.060118478
134	0xbdd249aa	-0.102679566
135	0xbd921629	-0.07133133
136	0xbdc1ed32	-0.094690695
137	0x3ce2525b	0.02762716
138	0x3ce25cac	0.02763208
139	0x3c4dfd5e	0.0125726145
140	0xbd9728d8	-0.07380837
141	0xbd8ab024	-0.067718774
142	0xbd9dbd4c	-0.07702121
143	0x3d27e3ef	0.04098886
144	0xbd1855c2	-0.03719116
145	0x3b9e87a3	0.0048379465
146	0x3d3c0039	0.04589865
147	0xbd98bb34	-0.07457581
148	0x3c151efa	0.009101624
149	0x3d2f6487	0.04282048
150	0xbc4cdbd0	-0.012503579
151	0xbd1f59be	-0.038903944
152	0x3b139e98	0.002252495
153	0x3c412cc4	0.011790458
154	0xbdbb2c03	-0.09139254
155	0x3c6ead50	0.014567688
156	0xbcb64b01	-0.022252562
157	0x3c6279a8	0.01382295
158	0x3d578d54	0.052625015
159	0x3d157f82	0.036498554
160	0xbddcc728	-0.107801735
161	0xbbaf4b85	-0.005349579
162	0x3d0e76ee	0.03478139
163	0x3d29df70	0.041472852
164	0x3d30d241	0.043169264
165	0x3c946f90	0.018119603
166	0x3b06a8a5	0.0020547297
167	0xbdd47f01	-0.103757866
168	0xb9c9b991	-0.00038475965
169	0xbdb12bdd	-0.086509444
170	0x3b587f8b	0.0033035006
171	0x3d4bb009	0.049728427
172	0xba98c9a7	-0.0011656777
173	0xbd33136a	-0.043719687
174	0x3c9023af	0.01759514
175	0xbcd0925d	-0.025460416
176	0x3c472323	0.012154373
177	0xbd0b6aa9	-0.034037266
178	0x3c4fd462	0.012684913
179	0xbc55903d	-0.013034877
180	0x3d9f4900	0.077775955
181	0xbd0a834b	-0.033816617
182	0xbda366e6	-0.07978611
183	0xbd2e5f4e	-0.04257136
184	0x3cae3677	0.021266205
185	0xbde17e40	-0.110104084
186	0xbdb24560	-0.087046385
187	0x3c180a19	0.009279751
188	0xbd86fe72	-0.065915
189	0xbd679338	-0.056536883
190	0xbc836e93	-0.016043937
191	0xbca87dda	-0.020567823
192	0xbbd4cf26	-0.0064944206
193	0xbdb878dc	-0.09007427
194	0x3d1e1ea8	0.038603455
195	0xbd99bc3c	-0.07506606
196	0x3d3987a2	0.045295365
197	0x3d58dff1	0.052947942
198	0xbd7822ee	-0.060580187
199	0xbd28017a	-0.041017033
200	0xbc02e3d0	-0.007988885
201	0xbcf1d68c	-0.02952125
202	0x3bf22b47	0.007390413
203	0xbd889e69	-0.06670839
204	0x3c541eb4	0.012946773
205	0x3cd0d51c	0.025492243
206	0xbd834d30	-0.06411207
207	0xbd451c42	-0.048122652
208	0xbd1cdfb8	-0.038299292
209	0xbd8d09e8	-0.06886655
210	0xbdbdd37e	-0.092688546
211	0x3d0017b0	0.03127259
212	0xbd1628d9	-0.03666005
213	0xbd8807e2	-0.066421285
214	0x3d952d58	0.07284039
215	0xbd84b932	-0.06480636
216	0x3d33829c	0.04382573
217	0xbdc87a25	-0.09788922
218	0x3d061b24	0.032740727
219	0x3d48efec	0.049056932
220	0x3dc308a1	0.0952313
221	0xbe00346a	-0.12519994
222	0x3d2c6c3b	0.042095404
223	0xbdc2ce12	-0.09511961
224	0xbcff5866	-0.031170081
225	0xbda41b7c	-0.08013055
226	0xbccc5f21	-0.024947705
227	0xbd03601f	-0.03207409
228	0x3c07a3cf	0.008278801
229	0x39a5c368	0.0003161684
230	0x3d016492	0.031590052
231	0xbcbc9318	-0.023019359
232	0x3d289e38	0.041166514
233	0x3c6e62be	0.014549909
234	0xbda80d30	-0.0820564
235	0x3c2c156b	0.010503153
236	0x3c83a534	0.016069986
237	0xbcba700d	-0.022758508
238	0x3cd69f5c	0.026199035
239	0xbd8bcab2	-0.068257704
240	0x3d3a7807	0.045524623
241	0xbdd84805	-0.10560612
242	0xbdd11dfc	-0.10210797
243	0xbd5e3183	-0.054246437
244	0xbdb090d3	-0.08621373
245	0x3d070f24	0.032973424
246	0xbc75998d	-0.014990223
247	0xbd28f54c	-0.04124956
248	0xbd5b3570	-0.05351776
249	0xbd909c11	-0.07061017
250	0xbbc85a62	-0.00611429
251	0xbde2c14d	-0.110720254
252	0xbd9a8bd4	-0.07546201
253	0x39da58cd	0.00041646362
254	0xbc835d47	-0.016035689
255	0x3d18dd7a	0.03732059

embedding_net.fc1.bias f4 [70]
0	0xbd050980	-0.032479763
1	0xbc3f05bf	-0.011659085
2	0x3ccb5758	0.024821922
3	0x3c2fc93e	0.010729132
4	0xbd0f2e15	-0.034956057
5	0x3d8a0c25	0.06740598
6	0xbd4a64c1	-0.049412493
7	0xbcec2452	-0.028825913
8	0x3d845e70	0.06463325
9	0x3d2e3578	0.04253146
10	0x3da051a5	0.078280725
11	0xbc9f9f05	-0.019485006
12	0x3d35d46a	0.044392027
13	0xbd3bde18	-0.045866102
14	0x3c5a5870	0.013326749
15	0x3d8ede5c	0.069760054
16	0xbb8acaac	-0.004235586
17	0xbd8c1bd7	-0.068412475
18	0xbdbd9631	-0.09257162
19	0xbd35040f	-0.044193324
20	0xbca40b78	-0.020025
21	0xbd7c7ce1	-0.06164253
22	0xbd53508d	-0.05159049
23	0x3d2c58ac	0.04207675
24	0xbdc41f52	-0.095762864
25	0x3bb73345	0.0055908286
26	0xbd230960	-0.039803863
27	0xbdbc7c55	-0.09203402
28	0x3da4fe54	0.08056322
29	0xbd0cf7e7	-0.034416106
30	0x3d16350a	0.036671676
31	0x3d7f332e	0.062304668
32	0xbc56c558	-0.013108574
33	0x3c462f8a	0.012096295
34	0xbce43ee5	-0.027862022
35	0xbdb9d82f	-0.09074437
36	0x3c9670dd	0.018364364
37	0x3d20e5f2	0.039281793
38	0x3d90b214	0.07065216
39	0xbd976131	-0.07391585
40	0xbd9c54f3	-0.0763339
41	0xbdc82f16	-0.09774606
42	0x3d784c0b	0.060619395
43	0xbbf96732	-0.007611179
44	0xbd50eeb9	-0.051008914
45	0x3daff8c6	0.08592372
46	0x3c03fba5	0.008055602
47	0x3d8f7d0d	0.070062734
48	0x3bf6298b	0.0075122765
49	0x3d5e150e	0.054219298
50	0xbc05e97e	-0.008173345
51	0x3c846723	0.01616246
52	0xbd2dd08b	-0.04243521
53	0x3d33b75f	0.04387605
54	0xbd6110eb	-0.054947775
55	0x3d4f461c	0.05060397
56	0xbda65335	-0.08121339
57	0xbda45051	-0.08023132
58	0xbcaec44f	-0.021333842
59	0xbd2190d1	-0.03944475
60	0x3cd0d78c	0.025493406
61	0xbdc8754f	-0.09788
62	0x3d17a5eb	0.037023466
63	0xbd5aa62d	-0.053381134
64	0x3d6c4e0f	0.05769163
65	0xbcfaa8d4	-0.030598082
66	0xbd4ed812	-0.05049903
67	0xbc0f4b69	-0.0087460065
68	0x3d80d375	0.06290332
69	0xbcdf874c	-0.027286194

embedding_net.fc2.weight f4 [50, 70]
0	0x3c6cb39a	0.014447117
1	0xbd42dd3e	-0.047574274
2	0xbd54905c	-0.051895484
3	0x3bad8606	0.005295518
4	0xbdac7a17	-0.08421724
5	0xbcc7bd58	-0.024382278
6	0xbdd2ca91	-0.10292543
7	0xbda29fd3	-0.0794064
8	0x3c1c66cb	0.009545992
9	0x3d1e630a	0.03866867
10	0x3da035e1	0.078227766
11	0xbd51fda5	-0.051267285
12	0xbd5e79ec	-0.054315493
13	0xbd30ca17	-0.043161478
14	0xbd0dc5a0	-0.034612298
15	0x3cf43171	0.029808732
16	0x3d67d8bf	0.05660319
17	0x3d5e02a5	0.05420174
18	0x3c7fe754	0.015619118
19	0x3d9ac77a	0.075575784
20	0x3d8d1fb1	0.0689081
21	0xbcf38c62	-0.029730026
22	0xbda015e0	-0.07816672
23	0xbb5d6d0e	-0.0033786925
24	0xbd7f15be	-0.062276594
25	0x3c70b87d	0.014692423
26	0xbd5da3fc	-0.054111466
27	0xbd506987	-0.05088189
28	0xbd974588	-0.07386309
29	0x3d235bd6	0.039882503
30	0x3da3f908	0.08006483
31	0x3d7e1f0b	0.062041324
32	0xbd02fcda	-0.03197942
33	0x3bdb7521	0.0066973125
34	0x3d849cf7	0.06475251
35	0xbd99e669	-0.075146504
36	0xbce17c1a	-0.027524997
37	0xbd868b11	-0.065694936
38	0x3d432369	0.04764119
39	0xbd295a39	-0.04134581
40	0x3d91c776	0.07118122
41	0x3da05b87	0.078299575
42	0xbd9c4d3b	-0.07631918
43	0xbd155d3a	-0.03646586
44	0xbdde3820	-0.10850549
45	0xbbb72663	-0.005589293
46	0x3bef12a1	0.007295922
47	0x3d685c98	0.05672893
48	0x3aaf07d0	0.0013353769
49	0x3da474ab	0.08030065
50	0x3d585ee7	0.05282488
51	0x3d7fbcd5	0.062435944
52	0xbd3720cb	-0.04470901
53	0x3cd00864	0.025394626
54	0xbdc06987	-0.09395128
55	0x3d22f517	0.039784517
56	0xbd646655	-0.055761654
57	0x3d4628f0	0.048378885
58	0x3d003994	0.03130491
59	0x3cb8e21d	0.022568757
60	0x3d1e9706	0.038718246
61	0xbc00a06f	-0.00785075
62	0xbd536b7a	-0.05161617
63	0xbab155ad	-0.0013529562
64	0x3d020196	0.031739794
65	0x3d82c9a9	0.0638612
66	0xbdf2fe32	-0.1186489
67	0x3d707afb	0.058711033
68	0xbd8cf443	-0.06882527
69	0xbc22f562	-0.009946199
70	0xbdc9d109	-0.098543234
71	0xbd0b4878	-0.03400466
72	0x3ce0ee54	0.027457394
73	0x3d7f3aa5	0.062311787
74	0x3d91e25d	0.071232535
75	0xbd8053cb	-0.06265982
76	0xbd67bd03	-0.05657674
77	0x3b19ff13	0.0023497983
78	0xbc99e958	-0.018788025
79	0x3ccf8fa3	0.025337046
80	0xbd80d7b7	-0.06291144
81	0x3d965141	0.07339717
82	0xbde28160	-0.110598326
83	0xbdb2dba7	-0.087333016
84	0x3a8c90e2	0.0010724331
85	0x3da006f0	0.07813823
86	0x3d1e0e8e	0.0385881
87	0xbd49e740	-0.049292803
88	0x3dc3027a	0.09521957
89	0x3d8f8456	0.07007663
90	0x3d4862c7	0.048922326
91	0xbd93a0b5	-0.07208387
92	0xbd89a797	-0.06721418
93	0x3d5bbe9b	0.053648572
94	0x3d1638cf	0.03667527
95	0x3dc29431	0.095009215
96	0x3c52f40e	0.01287557
97	0x3cadbea2	0.021209065
98	0x3d32ce52	0.043653794
99	0xbc43c1a5	-0.011948024
100	0xbd85b4c2	-0.065286174
101	0x3d153f1b	0.036437135
102	0xbdacf3dc	-0.0844495
103	0xbd51fab9	-0.0512645
104	0x3b10ff43	0.0022124804
105	0x3d30eb5e	0.043193214
106	0x3db6ad71	0.089198
107	0xbd25579d	-0.040366758
108	0xbb875943	-0.004130514
109	0x3c01db04	0.007925753
110	0xbd075713	-0.033042025
111	0xbca9d372	-0.020730708
112	0xbdc5ed15	-0.096643604
113	0xbd5bcc25	-0.053661484
114	0xbd253e34	-0.040342525
115	0xbba7330c	-0.005102521
116	0xbd9c5592	-0.07633509
117	0x3b8bac31	0.00426247
118	0xbd8327a4	-0.06404045
119	0xbb9c6fd2	-0.004774072
120	0x3d8b4600	0.06800461
121	0xbb9a2db4	-0.0047051553
122	0xbb86c2d8	-0.0041125827
123	0xbcfe0551	-0.031008394
124	0x3d0da131	0.034577552
125	0xbd65d589	-0.056111846
126	0xbdd35828	-0.10319549
127	0xbd948177	-0.07251256
128	0x3daf908d	0.08572493
129	0x3d3bd329	0.045855675
130	0x3ced2e53	0.028952753
131	0x3d0ff401	0.03514481
132	0x3d3c9048	0.046036035
133	0xbca28888	-0.019840494
134	0xbd1d35ad	-0.038381267
135	0xbce05b32	-0.027387235
136	0xbd370081	-0.044678215
137	0x3d876015	0.06610123
138	0x3d33638d	0.04379611
139	0xbdbf12c4	-0.09329751
140	0xbdafa0c9	-0.08575589
141	0xbdcfe410	-0.10150921
142	0x3d7854d9	0.060627792
143	0xbd62441d	-0.05524074
144	0x3d284b75	0.041087586
145	0xbd3feb23	-0.046855103
146	0xbd4dfbe5	-0.050289053
147	0xbd80bbd9	-0.06285829
148	0x3dc0c85b	0.09413215
149	0x3d930510	0.071787
150	0x3d3460ca	0.044037618
151	0x3b03116c	0.0019999398
152	0xbd3fb648	-0.046804696
153	0x3d1c9e04	0.038236633
154	0xbd6e25fc	-0.058141693
155	0xbd942e45	-0.07235388
156	0xbd8b20d0	-0.06793368
157	0xbd1d8d59	-0.038464878
158	0xbd316ecc	-0.043318555
159	0xbdce28b5	-0.10066358
160	0xbc6f8ba7	-0.014620698
161	0x3b13b335	0.0022537236
162	0x3cdbd8c4	0.02683676
163	0xbb9abb95	-0.0047220686
164	0x3d9a12cf	0.07523119
165	0x3dae1ffb	0.085021935
166	0x3db638c0	0.08897543
167	0x3d9b29b5	0.07576314
168	0x3d0ccaa3	0.034372937
169	0x3bd8fa25	0.0066216164
170	0x3d3749a6	0.04474797
171	0x3da5bf09	0.08093078
172	0x3d833e17	0.06408327
173	0x3d88c210	0.066776395
174	0x3dcc0186	0.09961228
175	0x3db3ea48	0.0878492
176	0x3d03a4d5	0.032139618
177	0xbc5c065d	-0.0134292515
178	0xbd29e854	-0.04148133
179	0xbdb31fed	-0.08746324
180	0x3c7b714d	0.015346837
181	0xbda6136c	-0.08109173
182	0x3db2ff47	0.087400965
183	0xbc53365c	-0.012891378
184	0x3d36be4f	0.044615086
185	0x3c4997a3	0.012304219
186	0xbd0f8b81	-0.03504515
187	0xbd389c03	-0.04507066
188	0x3da54c41	0.08071185
189	0x3d85169e	0.064984545
190	0x3da48617	0.08033388
191	0xbdbb3fac	-0.09143004
192	0xb9e1a724	-0.00043039874
193	0xbd00d426	-0.03145232
194	0xbd9f4274	-0.07776347
195	0xbda7f1af	-0.08200394
196	0xbd98a2ca	-0.074529245
197	0x3d6640ac	0.05621402
198	0xbdb50206	-0.088382766
199	0x3abf914f	0.0014615449
200	0x3d700a32	0.058603473
201	0x3cc7c4c4	0.024385817
202	0xbd228a21	-0.03968251
203	0x3d838f96	0.06423871
204	0xbaf6bfd9	-0.0018825486
205	0x3d88415c	0.06653091
206	0xbb0daf41	-0.0021619352
207	0x3d7f3c3c	0.062313303
208	0x3b16c051	0.0023002813
209	0x3d716215	0.05893143
210	0x3c205fc4	0.009788457
211	0xbd008043	-0.03137232
212	0xbd170268	-0.03686753
213	0x3d273b2c	0.040827915
214	0x3ace23f1	0.0015727264
215	0x3b1a76a8	0.002356926
216	0x3d80d045	0.06289724
217	0xbcaed64b	-0.021342417
218	0xbd4eaa1a	-0.05045519
219	0x3c437cc9	0.011931607
220	0x3d83c332	0.06433715
221	0xbdacf5dc	-0.084453315
222	0x3d263baf	0.040584262
223	0x3a8c706d	0.0010714658
224	0xbb87f7e7	-0.0041494253
225	0xbc30b71a	-0.010785842
226	0xbd07a8f3	-0.033120107
227	0x3d3f33df	0.046680328
228	0x3d13c1f0	0.036073625
229	0xbced43ce	-0.028962996
230	0x3c4764ff	0.012170075
231	0x3dc4a712	0.09602179
232	0x3dabe346	0.08392958
233	0x3c0c48c0	0.008562267
234	0x3c8fda53	0.01756016
235	0x3d4c2e96	0.049849115
236	0x3d4d3c0c	0.050106093
237	0x3cb13a58	0.021634266
238	0xbd225b2b	-0.039637726
239	0xbdad407a	-0.084595636
240	0xbd21a755	-0.03946622
241	0xbd77abe4	-0.060466662
242	0x3da7078c	0.08155736
243	0x3d9bf4ea	0.07615073
244	0xbd12afce	-0.03581219
245	0x3d64a79d	0.05582391
246	0xbd7ace1f	-0.06123173
247	0x3d99fa8e	0.07518493
248	0xbdb27233	-0.08713188
249	0xbd458640	-0.048223734
250	0x3daf3c5c	0.085564345
251	0xbc9ec7f7	-0.01938246
252	0xbd3bba8f	-0.045832213
253	0x3ccafcfe	0.02477884
254	0xbcce2172	-0.025162432
255	0x3b80d9ce	0.0039322143

embedding_net.fc2.bias f4 [50]
0	0x3de639d5	0.11241499
1	0x3d6b2326	0.057406567
2	0xbc527b40	-0.012846768
3	0xbd6efee3	-0.058348548
4	0x3d8531d9	0.06503648
5	0xbdb44564	-0.08802298
6	0xbdc35d48	-0.09539276
7	0x3db474b3	0.08811321
8	0xbd8a6d9a	-0.06759186
9	0xbcf15818	-0.029460952
10	0xbdf4a2b5	-0.119450964
11	0x3dcde1c5	0.10052828
12	0xbc59c278	-0.013290994
13	0x3d8cb055	0.0686957
14	0x3dd84f4f	0.10562002
15	0xbdae7ece	-0.0852028
16	0xbd3b26ee	-0.045691423
17	0x3d31100a	0.043228187
18	0xbdecd63e	-0.11564301
19	0xbdb979be	-0.090564236
20	0x3c0332e8	0.008007742
21	0x3d8281e1	0.06372429
22	0x3d0daf6a	0.034591116
23	0x3a9c4980	0.001192376
24	0xbd9f1236	-0.07767145
25	0x3cb80f54	0.022468247
26	0xbd81af11	-0.063322194
27	0x3c715e38	0.014731936
28	0x3d7a9f8a	0.061187305
29	0x3df1c17b	0.118044816
30	0xbde7d4ef	-0.11319911
31	0xbca0c898	-0.0196269
32	0xbdf24930	-0.11830366
33	0xbdb09911	-0.08622945
34	0xbd9b02b4	-0.07568875
35	0x3dc1eb2b	0.09468683
36	0x3d5c9c6a	0.053860106
37	0x3d155952	0.036462136
38	0xbc606800	-0.0136966705
39	0x3deac455	0.114632286
40	0x3df076df	0.11741423
41	0xbda42ce4	-0.08016375
42	0xbccf7f38	-0.025329217
43	0xbcfe6924	-0.031055994
44	0xbd9efe4b	-0.07763346
45	0xbd685f68	-0.05673161
46	0x3dbef649	0.09324319
47	0xbcadbeb4	-0.021209098
48	0x3d3ad4ca	0.045613088
49	0x3cd3998c	0.025830053
