runs/TripletNet/checkpoint.pth.tar (torch_old, 31530 bytes, 8 tensors)

embedding_net.conv1.weight f4 [10, 1, 3, 3]
0.20030043 -0.026990633 -0.18687072 0.070112236 -0.17616813 -0.03837301 0.0629908 0.060184248
0.033650115 -0.051078837 0.072837576 0.061084248 0.08821084 -0.13243663 -0.022176893 -0.0046834494
0.08172053 -0.036727708 0.1592113 0.09274743 -0.2179945 -0.08358948 -0.36133966 -0.043348324
-0.37377173 0.0073736818 0.122815296 -0.121938586 -0.19303924 0.31827816 -0.049741913 0.11948078
-0.019613666 -0.25901803 -0.26989084 -0.31916916 0.0071343267 0.12313662 -0.055974692 -0.0060163983
0.11049745 -0.31677532 0.25681943 0.047650997 -0.10683633 0.0695134 -0.05798905 0.090486415
-0.018895688 -0.027331838 -0.29661933 -0.17581639 0.13375479 -0.047804266 0.18218839 0.028826403
-0.12946816 -0.0689282 0.004963648 0.15454586 0.0034968501 0.030587958 0.24216935 0.14754441
-0.13146678 -0.054529097 0.101416655 0.0038399897 -0.20104522 -0.17113276 -0.07770114 -0.17693657
-0.03517804 0.05645258 0.26197192 0.100805715 -0.18070555 0.07999273 -0.23118646 0.033267576
-0.08056132 -0.33115292 -0.09329215 -0.09478604 0.13425499 -0.11577555 -0.1559689 0.15597281
0.05814569 0.11176795
00000000: 8e1b 4d3e 761b ddbc 0a5b 3fbe 0197 8f3d
00000010: 6b65 34be 042d 1dbd 5201 813d c283 763d
00000020: b4d4 093d 0b38 51bd de2b 953d 7a33 7a3d
00000030: e3a7 b43d 789d 07be 51ac b5bc 9f77 99bb
00000040: 185d a73d cb6f 16bd 4908 233e 5df2 bd3d
00000050: f339 5fbe f630 abbd 8301 b9be 038e 31bd
00000060: 025f bfbe ed9e f13b 9686 fb3d f0ba f9bd
00000070: 14ac 45be 5bf5 a23e 2dbe 4bbd 57b2 f43d
00000080: d7ac a0bc 039e 84be 222f 8abe 246a a3be
00000090: 12c7 e93b 0d2f fc3d b845 65bd 3525 c5bb
000000a0: 7d4c e23d 6030 a2be d67d 833e b12d 433d
000000b0: 01cd dabd 0b5d 8e3d ed85 6dbd f150 b93d
000000c0: 21cb 9abc 05e7 dfbc 7dde 97be 3609 34be
000000d0: 04f7 083e 68ce 43bd 988f 3a3e 5925 ec3c
000000e0: 4d93 04be 3a2a 8dbd 19a6 a23b 4541 1e3e
000000f0: 692b 653b 9993 fa3c 3efb 773e e215 173e
00000100: 3a9f 06be e759 5fbd 89b3 cf3d 56a8 7b3b
00000110: ccde 4dbe 6d3d 2fbe c621 9fbd dc2e 35be
00000120: d916 10bd d23a 673d 2f21 863e 3a73 ce3d
00000130: e00a 39be 3ad3 a33d 25bc 6cbe 9543 083d
00000140: 55fd a4bd e08c a9be f40f bfbd 2f1f c2bd
00000150: 247a 093e bb1b edbd 50b6 1fbe 56b7 1f3e
00000160: 2d2a 6e3d 98e6 e43d

embedding_net.conv1.bias f4 [10]
0.18457042 -0.21624537 -0.0024241344 -0.16915205 -0.1341025 -0.13719185 0.19591366 -0.10957535
0.007349342 -0.17494869
00000000: 0700 3d3e 6d6f 5dbe 3ade 1ebb 3236 2dbe
00000010: 2a52 09be 057c 0cbe 979d 483e 0b69 e0bd
00000020: c0d2 f03b c025 33be

embedding_net.conv2.weight f4 [20, 10, 3, 3]
0.08224043 0.05182899 0.032082427 0.07218616 0.041737687 0.02808562 0.025813714 -0.0010140898
0.005049834 0.040736888 0.053025667 0.067105114 0.10398866 -0.07213852 -0.0064297947 0.060161173
0.05749789 0.015765773 -0.067885615 -0.02617892 -0.013333704 -0.066741355 -0.028077578 -0.014740623
0.026179546 0.005064763 -0.02318343 -0.04581872 -0.041841734 -0.03631658 -0.01158854 -0.031799022
0.023443082 0.0183734 -0.054652605 0.07336216 0.027215078 0.020567197 0.019316606 -0.06004004
-0.031135518 -0.021704566 -0.09420844 -0.063401274 -0.0141147915 -0.007113417 0.031529035 0.0050922614
0.068913326 0.081401825 -0.0045516184 0.060873993 0.01786758 0.0735742 -0.021652663 0.0014047355
0.027694132 -0.06274687 0.015952177 0.032922413 0.029001907 0.041833334 0.021720368 0.022719983
-0.02438019 -0.0005817867 -0.09374754 -0.03979268 -0.055293977 -0.12902306 -0.013828512 0.00013442598
-0.006577021 -0.018849494 0.01987155 0.039573386 0.06854757 -0.020814009 0.08170889 0.08367904
0.026996223 0.015130858 -0.019167932 -0.022943791 0.024049068 0.06940627 -0.032590058 0.043553475
0.076074585 0.0030281523 0.04441505 0.055146877 0.05897301 0.046283778 0.052930173 0.026073027
0.0017841149 0.025572995 0.030934848 -0.101314776 0.023152389 -0.051180776 0.051781688 -0.04590456
0.07674807 -0.028548317 -0.019315187 -0.010823092 -0.113123015 -0.052558858 -0.015985949 -0.057630837
-0.08350334 -0.058609195 -0.008919192 -0.050308455 -0.035371996 -0.05543671 -0.053681746 -0.018620204
-0.022964653 0.023650695 -0.0087918285 0.027204046 0.06841502 0.059791185 -0.005053506 0.043132324
0.12876183 0.021812985 0.01256111 -0.04329525 0.018988755 -0.0042248513 -0.078121915 -0.021072015
-0.11182812 0.03170661 0.07478154 -0.0665735 -0.07370344 0.039740026 0.009288433 -0.017206294
0.0029636463 0.011477769 -0.02836291 0.011233834 0.0064821206 0.013258095 0.024498489 0.035306618
0.02615897 0.01227433 -0.0052611185 -0.050947864 0.066772126 0.06303536 -0.06531623 0.037934907
-0.06830123 -0.018348617 0.018676924 0.0039729155 -0.08308272 -0.040053915 -0.037173375 0.027187463
-0.015230822 0.0052646114 0.048560303 0.06960832 -0.06466223 -0.08646338 -0.056907285 -0.07551975
-0.04009265 -0.04651412 -0.052689593 0.077095695 -0.06020163 -0.0073623722 0.105866015 0.0038297314
-0.015123605 0.03279091 -0.07718595 0.032556314 -0.03865851 0.021134885 0.0032415309 -0.048504043
0.058161758 0.055638358 -0.0034590198 -0.059030354 -0.043605532 -0.010065789 -0.118940726 -0.11415715
-0.03352671 -0.0019055879 -0.025891548 -0.122524105 0.040844593 -0.0076484843 -0.08104989 0.018637536
-0.0033855736 0.033019893 -0.02830961 0.00326617 0.063218266 0.06087186 0.015582219 0.0393028
-0.055708632 0.024143798 0.10253372 0.0154050095 0.0033220125 -0.053644326 -0.062683746 -0.09147348
-0.07156277 -0.0387788 -0.06947168 0.027753191 -0.07380411 -0.0025300973 0.068054914 0.029714411
0.07214249 -0.034150276 0.020851633 -0.04367299 -0.09995871 -0.07515793 0.048657525 0.16344112
0.021615427 -0.016432038 -0.05905291 0.0765504 -0.021154305 -0.005807491 -0.014766972 -0.062172573
-0.15986098 -0.05002298 0.083901286 0.07552761 0.024676012 -0.06587442 -0.16932192 0.00012602912
00000000: ac6d a83d a34a 543d dd68 033d 56d6 933d
00000010: 23f5 2a3d d013 e63c 4877 d33c 35eb 84ba
00000020: 1479 a53b b9db 263d 7131 593d 686e 893d
00000030: 02f8 d43d 5cbd 93bd 07b1 d2bb 906b 763d
00000040: e882 6b3d 3927 813c 9d07 8bbd 2d75 d6bc
00000050: 9c75 5abc b1af 88bd f302 e6bc a782 71bc
00000060: 7d76 d63c 50f6 a53b 2deb bdbc 69ac 3bbd
00000070: 3d62 2bbd b2c0 14bd dcdd 3dbc b13f 02bd
00000080: b50b c03c d083 963c 69db 5fbd e63e 963d
00000090: 28f2 de3c 8a7c a83c dc3d 9e3c 8cec 75bd
000000a0: ea0f ffbc c6cd b1bc 5bf0 c0bd 87d8 81bd
000000b0: ba41 67bc ab17 e9bb 9724 013d fcdc a63b
000000c0: 6e22 8d3d 00b6 a63d be25 95bb 0257 793d
000000d0: 085f 923c 12ae 963d ed60 b1bc 1a1f b83a
000000e0: cede e23c 6e81 80bd 24ae 823c a7d9 063d
000000f0: 6895 ed3c 6e59 2b3d eaee b13c 421f ba3c
00000100: f7b8 c7bc 0b83 18ba b6fe bfbd a6fd 22bd
00000110: f07b 62bd 9f1e 04be fc90 62bc b3f4 0c39
00000120: 0d84 d7bb 416a 9abc a9c9 a23c b417 223d
00000130: ab62 8c3d 2482 aabc fe56 a73d eb5f ab3d
00000140: 2f27 dd3c 6be7 773c 1106 9dbc 9ef4 bbbc
00000150: 8d02 c53c e024 8e3d 277d 05bd 2165 323d
00000160: fecc 9b3d f773 463b 8eec 353d b1e1 613d
00000170: af8d 713d 0f94 3d3d 4fcd 583d 1a97 d53c
00000180: f6d8 e93a 757e d13c 146b fd3c 1f7e cfbd
00000190: 14aa bd3c efa2 51bd 0919 543d 6b06 3cbd
000001a0: 182e 9d3d 29de e9bc e23a 9ebc 5753 31bc
000001b0: 0aad e7bd f547 57bd f7f4 82bc 500e 6cbd
000001c0: cd03 abbd 3210 70bd cd21 12bc 3d10 4ebd
000001d0: 3ae2 10bd 9b11 63bd 64e1 5bbd 6689 98bc
000001e0: 5e20 bcbc 1abf c13c 9a0b 10bc 05db de3c
000001f0: 2d1d 8c3d 9ae7 743d e297 a5bb 85ab 303d
00000200: 24da 033e 25b1 b23c 1dcd 4d3c 5c56 31bd
00000210: 4e8e 9b3c 9f70 8abb 62fe 9fbd 389f acbc
00000220: 2406 e5bd cade 013d 1027 993d b057 88bd
00000230: d4f1 96bd 70c6 223d 832e 183c 37f4 8cbc
00000240: bc39 423b 410d 3c3c 5559 e8bc 1d0e 383c
00000250: f867 d43b 7b38 593c 0eb1 c83c ac9d 103d
00000260: 564b d63c 451a 493c 7665 acbb b5ae 50bd
00000270: d3bf 883d af18 813d 84c4 85bd a261 1b3d
00000280: 84e1 8bbd d74f 96bc 5900 993c 3b2f 823b
00000290: 4627 aabd 930f 24bd 1c43 18bd 3eb8 de3c
000002a0: b38a 79bc c382 ac3b 2be7 463d cf8e 8e3d
000002b0: a26d 84bd b613 b1bd 9d17 69bd 19aa 9abd
000002c0: 3138 24bd 9785 3ebd 0bd1 57bd 59e4 9d3d
000002d0: fc95 76bd 0e40 f1bb 48d0 d83d 3bfc 7a3b
000002e0: ffc8 77bc c34f 063d ab13 9ebd c559 053d
000002f0: 6358 1ebd 1123 ad3c dd6f 543b 2dac 46bd
00000300: 063b 6e3d 0ce5 633d b9b0 62bb d0c9 71bd
00000310: b79b 32bd fbea 24bc 3297 f3bd 39cb e9bd
00000320: 4e53 09bd ebc4 f9ba 831a d4bc ebed fabd
00000330: a94c 273d 23a0 fabb 7cfd a5bd bfad 983c
00000340: 80e0 5dbb de3f 073d 8ee9 e7bc 3d0d 563b
00000350: 9478 813d c554 793d 904c 7f3c f9fb 203d
00000360: bc2e 64bd 37c9 c53c 33fd d13d 4b65 7c3c
00000370: 1fb6 593b 27ba 5bbd 5660 80bd 7356 bbbd
00000380: 808f 92bd 85d6 1ebd 2b47 8ebd a95a e33c
00000390: 9c26 97bd fdcf 25bb 6060 8b3d a36b f33c
000003a0: 71bf 933d 29e1 0bbd 0bd1 aa3c 73e2 32bd
000003b0: 27b7 ccbd 67ec 99bd 1d4d 473d 1c5d 273e
000003c0: d612 b13c 7b9c 86bc 77e1 71bd 75c6 9c3d
000003d0: cb4b adbc c44c bebb 2bf1 71bc aba8 7ebd
000003e0: 99b2 23be e5e4 4cbd 70d4 ab3d 38ae 9a3d
000003f0: 5925 ca3c 2be9 86bd ba62 2dbe af26 0439

embedding_net.conv2.bias f4 [20]
-0.010075018 0.078245424 0.019987993 0.16716495 -0.030187715 0.100663416 -0.07202005 0.15997826
-0.070235506 0.098636515 -0.046370957 0.16491517 0.21495551 0.16035034 -0.108335294 0.078227215
-0.027148051 0.10011571 -0.019022314 0.15844207
00000000: b011 25bc 233f a03d dcbd a33c 4a2d 2b3e
00000010: 3a4c f7bc 9f28 ce3d 3f7f 93bd 57d1 233e
00000020: a2d7 8fbd f101 ca3d 79ef 3dbd 86df 283e
00000030: 4c1d 5c3e e132 243e e5de ddbd 9735 a03d
00000040: 9765 debc 7709 cd3d afd4 9bbc a33e 223e

embedding_net.fc1.weight f4 [50, 100]
0.0138215935 -0.045578107 -0.03685168 -0.009014781 0.003578394 -0.021235151 -0.11830657 0.1656936
-0.112638645 -0.08436019 -0.16553494 0.0046349657 0.08347976 -0.09689131 -0.040541694 0.0069531603
0.08868478 -0.010685307 -0.087975785 -0.14059936 -0.020612579 -0.029923413 -0.06895191 0.060517065
0.039399024 0.0002180751 0.047034174 0.005785789 0.048034277 -0.003135451 -0.050782688 0.021630473
-0.047365602 0.031236613 -0.043806262 -0.016094562 -0.108178966 -0.058150657 0.010468361 0.016705124
0.0024340118 -0.026011588 0.0016394662 0.06651641 -0.056076173 0.011424303 -0.011850619 -0.008480892
-0.015579671 0.026335696 -0.045117907 -0.007563824 -0.011913094 0.036590252 -0.027522737 -0.017133849
0.009717405 0.002992536 -0.02318798 -0.077237025 0.00013701325 -0.11057275 -0.08692466 -0.12230274
-0.0875908 -0.029796584 -0.09825631 0.031959604 0.046301875 0.1816785 0.0036766077 -0.018516203
0.018817728 0.07615644 -0.027825968 0.003966881 -0.053369794 -0.027549198 -0.030485123 -0.022022841
-0.053693075 -0.042760722 0.015945213 0.0037042114 0.027863031 0.07078004 0.12467746 0.010309404
-0.10101696 0.044601604 -0.0065903864 -0.02129179 -0.06283863 -0.025945233 0.073023625 -0.06572611
0.045075025 -0.030379448 0.08782944 -0.07092716 0.043664966 -0.021253945 -0.0059548966 0.034006815
0.026024515 -0.04530804 0.07939109 -0.016690684 0.010667319 -0.020439936 0.056764808 0.04805261
-0.036465228 0.058843423 0.04116514 0.04201994 -0.047534283 0.066145636 -0.046765067 -0.070174076
-0.079650685 -0.10519402 -0.09947198 -0.03544994 0.057124797 0.05617402 -0.05662684 -0.055097356
-0.03373041 0.018211827 0.110065706 0.015318938 0.030833533 -0.025840132 0.05545564 0.013336996
0.034649137 0.03275487 -0.0060802703 0.06587701 -0.012270564 0.05131368 -0.08307946 0.015281918
-0.011775452 -0.05562564 -0.13121891 -0.028837863 -0.017808255 -0.08016632 0.050290853 -0.00038211714
-0.055453204 0.048187908 -0.101677 0.0029708522 0.010284049 0.055698335 -0.01675742 -0.05643889
-0.036535062 0.06353545 -0.006077437 0.036513887 -0.061622426 0.064361416 0.06265928 -0.07811503
-0.0057864343 -0.111667804 -0.13821518 -0.13503288 -0.11388599 0.053860284 -0.02619467 -0.19216374
0.047525745 0.021849427 0.062469624 -0.0026122634 -0.035050977 0.0018548276 -0.042489182 0.0042810403
-0.027953573 -0.024718676 -0.035039384 0.02985184 -0.043206934 -0.07111594 -0.0020668462 -0.06025866
0.06191622 -0.07122168 0.03555066 0.03197628 0.13470194 -0.025956526 0.048533455 0.05401847
0.013261345 0.030927895 0.06358849 0.0718948 -0.018305479 0.0024392302 0.039658215 -0.027505478
-0.028030474 -0.0576759 -0.058686793 -0.020361336 0.027614653 0.0007060174 0.03654478 0.039411586
0.0151368305 -0.047772273 0.033454068 -0.0589156 0.008929942 0.006337865 -0.06337315 -0.024261547
-0.051404458 0.04052968 -0.04569606 0.06378715 0.030800655 0.020074876 -0.03447671 -0.029819105
-0.07134307 -0.013073601 0.06458976 0.018503314 0.046250213 0.050620545 0.07827115 -0.074097
-0.08168985 -0.024400717 -0.05629918 -0.025793072 -0.08310493 0.07476475 -0.018520871 0.085872814
-0.108248204 -0.13435194 0.026334727 0.022380846 -0.015889764 -0.050762523 0.012850409 0.0021460103
00000000: f773 623c 1cb0 3abd caf1 16bd bbb2 13bc
00000010: 7d83 6a3b 57f5 adbc b74a f2bd 95ab 293e
00000020: 17af e6bd 09c5 acbd fe81 29be e9e0 973b
00000030: 70f7 aa3d f36e c6bd 0c0f 26bd 56d7 e33b
00000040: 5ea0 b53d 6d11 2fbc a62c b4bd 47f9 0fbe
00000050: b6db a8bc f221 f5bc a936 8dbd bee0 773d
00000060: df60 213d 17ab 6439 e8a6 403d b796 bd3b
00000070: 97bf 443d 247c 4dbb 8201 50bd 6432 b13c
00000080: 6f02 42bd ede3 ff3c 326e 33bd bed8 83bc
00000090: ef8c ddbd 622f 6ebd 7d83 2b3c 2fd9 883c
000000a0: f183 1f3b 4116 d5bc 5be3 d63a c139 883d
000000b0: 21b0 65bd 002d 3b3c 1929 42bc 70f3 0abc
000000c0: e041 7fbc f5bd d73c 8ecd 38bd f4d9 f7bb
000000d0: 232f 43bc a9df 153d 5d77 e1bc 495c 8cbc
000000e0: c035 1f3c 6c1e 443b b8f4 bdbc 722e 9ebd
000000f0: 37ab 0f39 f773 e2bd 8e05 b2bd dc79 fabd
00000100: ce62 b3bd f717 f4bc 9b3a c9bd 13e8 023d
00000110: 09a7 3d3d ee09 3a3e 3ef3 703b 4baf 97bc
00000120: a327 9a3c e8f7 9b3d 49f3 e3bc 9cfc 813b
00000130: 499a 5abd dbae e1bc f0bb f9bc 3f69 b4bc
00000140: 45ed 5bbd de25 2fbd 899f 823c 5bc2 723b
00000150: 0341 e43c 20f5 903d e556 ff3d c6e8 283c
00000160: fbe1 cebd 2cb0 363d 2bf4 d7bb 1f6c aebc
00000170: 8ab1 80bd 198b d4bc 698d 953d 699b 86bd
00000180: 97a0 383d 52de f8bc ecdf b33d 4242 91bd
00000190: 09da 323d c11c aebc 4b21 c3bb bb4a 0b3d
000001a0: 5d31 d53c ec94 39bd cc97 a23d e7ba 88bc
000001b0: fbc5 2e3c a771 a7bc 3782 683d d0d2 443d
000001c0: 905c 15bd cd05 713d c79c 283d 1a1d 2c3d
000001d0: 4fb3 42bd 5d77 873d ba8c 3fbd 6db7 8fbd
000001e0: e61f a3bd f66f d7bd f7b7 cbbd f533 11bd
000001f0: b1fb 693d bb16 663d 8cf1 67bd c4ad 61bd
00000200: e628 0abd f830 953c 216a e13d 48fc 7a3c
00000210: 9b96 fc3c afae d3bc 7425 633d 6a83 5a3c
00000220: 41ec 0d3d f829 063d 013d c7bb 87ea 863d
00000230: 7a0a 49bc 4b2e 523d 9025 aabd 0361 7a3c
00000240: d3ed 40bc b6d7 63bd 405e 06be 623d ecbc
00000250: 9ee2 91bc 3d2e a4bd c8fd 4d3d e556 c8b9
00000260: e622 63bd af60 453d 083c d0bd a1b2 423b
00000270: 6e7e 283c f023 643d db46 89bc 772c 67bd
00000280: caa5 15bd e01e 823d 3d25 c7bb 968f 153d
00000290: cc67 7cbd ebcf 833d 8253 803d c6fa 9fbd
000002a0: 219c bdbb 17b2 e4bd 4888 0dbe 0f46 0abe
000002b0: 0f3d e9bd 9a9c 5c3d 3496 d6bc 92c6 44be
000002c0: 5baa 423d 92fd b23c 26e0 7f3d 8232 2bbb
000002d0: 9d91 0fbd b01d f33a 2309 2ebd f847 8c3b
000002e0: e4fe e4bc d27e cabc 7585 0fbd d98b f43c
000002f0: c1f9 30bd 3ca5 91bd ed73 07bb c9d1 76bd
00000300: dd9b 7d3d acdc 91bd 929d 113d 8ff9 023d
00000310: 4eef 093e c8a2 d4bc 04cb 463d 7942 5d3d
00000320: 1d46 593c 7f5c fd3c af3a 823d 953d 933d
00000330: 5ff5 95bc 7edb 1f3b a770 223d 2b53 e1bc
00000340: 2aa0 e5bc 913d 6cbd 9061 70bd d1cc a6bc
00000350: 2038 e23c 0714 393a fbaf 153d 0b6e 213d
00000360: 7800 783c dcac 43bd 2207 093d 7c51 71bd
00000370: e44e 123c ddad cf3b c8c9 81bd 27c0 c6bc
00000380: 7b8d 52bd 7302 263d cb2b 3bbd d6a2 823d
00000390: a851 fc3c 1174 a43c 7337 0dbd 3247 f4bc
000003a0: 511c 92bd a832 56bc a347 843d 4394 973c
000003b0: dd70 3d3d 7d57 4f3d a04c a03d 2bc0 97bd
000003c0: 024d a7bd 03e4 c7bc f899 66bd fe4b d3bc
000003d0: eb32 aabd 431e 993d 15b9 97bc 16de af3d
000003e0: 3cb1 ddbd 8e93 09be edbb d73c 0958 b73c
000003f0: 402b 82bc 5dec 4fbd 868a 523c 14a4 0c3b

embedding_net.fc1.bias f4 [50]
0.0768936 0.0987683 -0.15852977 0.07783624 0.102339834 0.10538742 -0.09678425 0.096452996
-0.12920056 0.10011744 0.084320985 0.102993034 0.10107866 0.08016012 0.06478366 0.09467927
0.09844746 0.11429754 0.01711228 0.0682691 0.08718259 0.066237055 0.09181281 0.08238456
0.066627726 0.06172303 0.0892089 0.08917737 0.08965825 0.09102982 -0.21758038 0.033996616
0.08481183 0.08598291 0.11140219 0.01018926 0.10539262 0.08994129 0.05019362 0.09065051
-0.00030954668 0.08419011 0.09625385 0.10060985 0.06755278 0.068967335 0.09408178 0.061163977
0.09312942 0.055330466
00000000: 647a 9d3d 0947 ca3d a155 22be 9b68 9f3d
00000010: 8c97 d13d 5cd5 d73d d236 c6bd 2689 c53d
00000020: 274d 04be 5f0a cd3d 7bb0 ac3d 03ee d23d
00000030: 5402 cf3d fd2a a43d 4cad 843d 35e7 c13d
00000040: d29e c93d d414 ea3d 0d2f 8c3c abd0 8b3d
00000050: c98c b23d 4ba7 873d 5b08 bc3d 3cb9 a83d
00000060: 1e74 883d 4ad1 7c3d 28b3 b63d a0a2 b63d
00000070: bf9e b73d d86d ba3d 64cd 5ebe 0940 0b3d
00000080: d3b1 ad3d cf17 b03d d526 e43d dbf0 263c
00000090: 16d8 d73d 2433 b83d d397 4d3d f9a6 b93d
000000a0: a74a a2b9 dd6b ac3d bd20 c53d 890c ce3d
000000b0: 1d59 8a3d bf3e 8d3d f3ad c03d 1487 7a3d
000000c0: a3ba be3d 33a2 623d

embedding_net.fc2.weight f4 [10, 50]
0.083591826 -0.05100291 -0.05659522 0.044308882 -0.019352209 -0.05693888 -0.007159532 -0.046528127
-0.098652385 -0.047782045 -0.1376442 0.03753778 0.032495745 -0.07833909 -0.14802946 -0.047310736
0.021573413 -0.04453451 0.14651173 -0.09158589 -0.08836977 -0.01869447 -0.06226395 -0.07340655
-0.07618172 0.09571287 0.065846585 -0.111480884 -0.03889612 -0.007133322 -0.009012942 -0.06666415
-0.05257613 0.0618699 0.01175923 -0.039171748 -0.04456242 0.010084095 -0.12230126 0.06399197
-0.09361186 -0.040132347 0.08815853 0.06630781 0.03289591 -0.07391463 0.063040674 -0.04583322
0.017325282 -0.028365264 -0.058052093 0.06452618 0.10939345 -0.07712619 0.059084274 0.101793975
0.1018433 0.06736688 0.119954504 0.069998555 0.042878054 -0.098374195 -0.09640702 0.1381168
-0.027178923 0.07586361 -0.0927727 0.07213759 -0.013922008 0.08112279 -0.005048965 -0.011595193
0.091087274 0.089222744 0.1391843 -0.012587689 -0.009401776 0.013496131 -0.07679369 0.043686245
0.06818674 0.051586717 -0.07741941 -0.0042987675 0.03895353 0.18365772 0.0609927 -0.07995332
-0.014659784 0.00085442053 0.09583398 -0.08246597 -0.05008098 -0.010372055 -0.1462876 -0.06619586
-0.0036630547 0.08013972 0.05310434 -0.049807627 0.026065316 -0.0036857822 -0.001131825 0.0011530023
0.012938854 0.0052488237 0.07887469 -0.0005880457 0.096894875 -0.00053470966 -0.055217974 -0.009584436
-0.011361119 0.01043034 -0.0748168 0.001983293 -0.018209513 0.0028677948 0.078738034 -0.014030857
-0.04397597 -0.0074952557 -0.00059865793 -0.0072998335 0.0038599668 0.04411291 0.029236058 -0.0495288
-0.040907852 0.01555264 0.014085435 -0.01780142 -0.047213033 0.030145293 0.021457667 0.018253326
-0.001947086 -0.014945978 -0.060311593 0.032185696 -0.013517719 -0.043328874 0.028444363 0.029611712
-0.027524222 -0.056171034 0.02991279 0.0019988974 0.027422858 -0.015443236 0.020274248 0.015703177
0.0697429 -0.04130684 0.043020725 0.05168268 0.04706648 0.023090627 -0.06993045 0.024859691
-0.100914024 -0.07533006 -0.07860984 0.06902529 -0.19621961 0.031579684 -0.08786235 0.03162825
0.13930269 -0.0067973947 -0.1019548 -0.031332474 0.03222643 0.018544193 0.06848641 0.084414266
0.058213674 -0.10443268 -0.13329603 0.03851645 0.07047008 -0.01049745 -0.1515347 0.057461347
0.053066567 0.14041823 0.018794304 -0.077083334 -0.15288602 0.06671686 0.007231521 -0.1422108
0.034387603 0.057235986 -0.13877559 -0.1624462 0.061445426 0.034131173 0.075670615 -0.072552584
-0.046796504 0.0087967375 0.0245211 -0.09370094 -0.023418168 0.015064262 0.0662051 0.010840814
-0.08392512 0.009583945 -0.0013062995 -0.05017012 -0.051146414 0.02510181 -0.06371972 0.010894625
-0.03334694 -0.0021054004 -0.022560662 -0.042578675 -0.02381164 -0.08708528 0.011662723 0.010739219
0.023328146 0.0075807394 0.009840316 -0.019994738 -0.04680429 -0.03855717 -0.016437322 0.014921565
-0.054325566 0.0034940746 -0.013994208 0.02057111 0.00890046 -0.09506907 -0.05106454 0.014391671
-0.005817825 -0.049755536 -0.0056991763 0.00963308 -0.05995845 -0.04743346 0.013285423 0.026899595
-0.0034006375 -0.1370479 0.03516992 0.011325452 0.01020299 0.072519355 0.047280774 0.018570246
00000000: 3132 ab3d 6de8 50bd 64d0 67bd 3b7d 353d
00000010: 8688 9ebc be38 69bd 829a eabb 4794 3ebd
00000020: 430a cabd 1bb7 43bd 9af2 0cbe 37c1 193d
00000030: 421a 053d 3f70 a0bd 0995 17be e7c8 41bd
00000040: baba b03c d169 36bd 2c07 163e 6291 bbbd
00000050: 36fb b4bd 2525 99bc 7c08 7fbd 2c56 96bd
00000060: 2905 9cbd 1c05 c43d 93da 863d 1750 e4bd
00000070: 8a51 1fbd a4be e9bb 05ab 13bc 3787 88bd
00000080: 115a 57bd 4b6b 7d3d c9a9 403c 8e72 20bd
00000090: 1687 36bd c337 253c 1579 fabd 390e 833d
000000a0: 93b7 bfbd d161 24bd 768c b43d 64cc 873d
000000b0: ddbd 063d 8e60 97bd 781b 813d 9dbb 3bbd
000000c0: c0ed 8d3c 455e e8bc 08c8 6dbd 4d26 843d
000000d0: ac09 e03d 56f4 9dbd 5a02 723d 5c79 d03d
000000e0: 3893 d03d a6f7 893d b5aa f53d 675b 8f3d
000000f0: e6a0 2f3d 6978 c9bd 0b71 c5bd 7e6e 0d3e
00000100: 55a6 debc 615e 9b3d 9dff bdbd dfbc 933d
00000110: 2219 64bc b523 a63d ca71 a5bb c4f9 3dbc
00000120: f78b ba3d 6aba b63d 5486 0e3e 983c 4ebc
00000130: e809 1abc e01e 5d3c 0346 9dbd 59f0 323d
00000140: 7da5 8b3d 984c 533d 118e 9ebd addc 8cbb
00000150: bd8d 1f3d c510 3c3e 7bd3 793d 91be a3bd
00000160: 972f 70bc 31fb 5f3a 9b44 c43d ebe3 a8bd
00000170: b721 4dbd 8def 29bc 6bcc 15be b291 87bd
00000180: dc0f 70bb 4b20 a43d f083 593d 1503 4cbd
00000190: ee86 d53c 2a8d 71bb bf59 94ba 5620 973a
000001a0: 7dfd 533c 53fe ab3b 0e89 a13d 1427 1aba
000001b0: d270 c63d c22b 0cba 3e2c 62bd 0a08 1dbc
000001c0: fd23 3abc 04e4 2a3c 8d39 99bd 23fa 013b
000001d0: 1e2c 95bc 9df1 3b3b 6841 a13d aee1 65bc
000001e0: 2620 34bd c39a f5bb 41ef 1cba 7133 efbb
000001f0: 7ff7 7c3b bdaf 343d 7580 ef3c b6de 4abd
00000200: fe8e 27bd 80d0 7e3c 99c6 663c 49d4 91bc
00000210: 7462 41bd 43f3 f63c fdc7 af3c 0088 953c
00000220: 5d35 ffba fadf 74bc 4a09 77bd 26d5 033d
00000230: 6c79 5dbc 9e79 31bd 2704 e93c 4394 f23c
00000240: 7a7a e1bc 9913 66bd ab0b f53c efff 023b
00000250: e7a5 e03c a005 7dbc 2e16 a63c f3a3 803c
00000260: 5ed5 8e3d 5c31 29bd 8036 303d 38b1 533d
00000270: c8c8 403d 8e28 bd3c b237 8fbd 8da6 cb3c
00000280: 03ac cebd a646 9abd 32fe a0bd 225d 8d3d
00000290: cbed 48be b359 013d 2df1 b3bd a08c 013d
000002a0: 5da5 0e3e aebc debb aecd d0bd 7b56 00bd
000002b0: dcff 033d fee9 973c 9a42 8c3d 63e1 ac3d
000002c0: 7671 6e3d cde0 d5bd c17e 08be 6dc3 1d3d
000002d0: 9e52 903d 7ffd 2bbc ea2b 1bbe 975c 6b3d
000002e0: 545c 593d ccc9 0f3e 83f6 993c dedd 9dbd
000002f0: 278e 1cbe d9a2 883d 65f6 ec3b b59f 11be
00000300: 04da 0c3d 4870 6a3d 301b 0ebe 4c58 26be
00000310: 33ae 7b3d 21cd 0b3d 32f9 9a3d 7396 94bd
00000320: b1ad 3fbd 3120 103c 79e0 c83c 47e6 bfbd
00000330: 75d7 bfbc 18d0 763c 8a96 873d ab9d 313c
00000340: efe0 abbd fb05 1d3c 2338 abba 2f7f 4dbd
00000350: e77e 51bd 50a2 cd3c 7c7f 82bd 5f7f 323c
00000360: cd96 08bd c2fa 09bb 23d1 b8bc fa66 2ebd
00000370: a110 c3bc c459 b2bd 0115 3f3c 8df3 2f3c
00000380: ab1a bf3c da67 f83b 4739 213c 01cc a3bc
00000390: dbb5 3fbd 20ee 1dbd 90a7 86bc 9479 743c
000003a0: 7c84 5ebd d8fc 643b f647 65bc bf84 a83c
000003b0: 3cd3 113c 93b3 c2bd 0d29 51bd 0bcb 6b3c
000003c0: 74a3 bebb 76cc 4bbd 28c0 babb 11d4 1d3c
000003d0: fe96 75bd 9649 42bd 1aab 593c 8a5c dc3c
000003e0: 3bdd 5ebb 4956 0cbe 560e 103d 638e 393c
000003f0: 712a 273c 0785 943d 7ca9 413d a120 983c

embedding_net.fc2.bias f4 [10]
0.026803035 -0.028552791 0.00045162687 0.003397738 0.024806496 -0.03253861 0.0036489537 0.058078703
-0.071327545 0.052867297
00000000: 0a92 db3c 8be7 e9bc 55c8 ec39 96ac 5e3b
00000010: fe36 cb3c 3547 05bd 4923 6f3b efe3 6d3d
00000020: 2d14 92bd 618b 583d
