runs/TripletNet/checkpoint.pth.tar (torch_old, 119080 bytes, 8 tensors)

embedding_net.conv1.weight f4 [100, 12, 3]
0.08530271 -0.0741577 -0.032930933 0.07762036 -0.15752676 0.099277906 -0.034861725 0.08418548
0.02249693 -0.021691252 0.04490821 0.006831504 0.060393322 -0.065434396 -0.012641705 -0.016256394
0.022886744 -0.0019192918 0.14507903 0.05124279 -0.06267573 -0.10159065 -0.028946688 -0.07303047
-0.054269463 0.0070582195 0.09834921 0.08956217 -0.16397202 0.10226786 0.042443827 0.15392539
0.10591572 -0.15273406 -0.1593488 -0.081259884 0.14469509 -0.02939167 0.06976958 -0.0779624
0.16304591 -0.070956126 0.12459205 0.0016313303 -0.08808857 0.08486102 -0.089123614 0.048455745
-0.048311163 -0.018418891 -0.16034696 -0.07984496 0.09003391 -0.0408831 0.16582406 0.13340016
-0.0079674125 -0.1117803 0.10086293 0.051061567 -0.108109236 0.10785869 0.10080085 0.14771254
-0.093483225 -0.027453419 -0.0036729341 0.02397561 -0.12677662 -0.11860888 0.09036207 -0.039353546
0.08110513 0.0091173975 0.054282807 0.03624083 0.06008375 0.082042426 -0.1545119 0.083724506
-0.11735447 -0.12592368 0.009954165 -0.028590893 0.0977504 -0.09662411 -0.14825432 0.12066203
-0.025321301 0.09316472 0.05344903 -0.12509488 0.03337448 0.039915983 -0.1116741 -0.07914711
0.056542385 0.029572092 -0.07116955 -0.05064819 0.15246454 -0.030999083 0.09371313 0.0719584
-0.107885286 -0.14190675 0.15980592 0.008532396 0.11413114 0.034437574 0.053488914 0.12447889
0.15798336 -0.11069137 0.020728089 0.12424901 0.12056536 0.103419356 -0.12077 -0.12021677
-0.10111864 0.020579306 0.16571222 -0.10511627 0.08900621 -0.092035316 -0.15663095 -0.035331525
0.096153766 0.15470983 -0.1035044 0.036194604 0.1436219 0.11027441 0.10371689 0.11834706
0.10530965 0.042908788 -0.113822415 -0.13984166 -0.076269664 -0.01941786 -0.102187105 0.06094956
0.051664226 -0.03763394 0.06416388 0.054302868 0.10219242 0.112666935 -0.056533843 0.16274367
-0.019378312 -0.0058548627 -0.15741546 -0.10739102 -0.097607605 -0.07151645 0.11825139 -0.054381136
-0.12450358 0.06413894 0.053245205 0.10783521 -0.08632602 0.035967827 -0.06078841 -0.03751914
-0.13269338 -0.07584288 -0.050910685 0.07075343 0.0299801 0.040766176 0.16500655 0.16116592
0.112499356 0.0047397353 -0.11586015 0.12971196 -0.041811485 -0.013587104 -0.14368425 -0.03302079
-0.10758448 0.15307154 -0.14419776 -0.1300146 -0.005755222 -0.0902208 0.059554104 -0.06422825
-0.07849582 0.00924215 0.12045548 -0.1173485 0.07816442 0.10697248 0.16291505 -0.11675597
0.04027972 -0.12334207 0.14221832 -0.06471302 0.10032342 0.0049117636 -0.013037779 -0.0053975875
0.028266802 0.0784955 0.026645252 0.050776966 -0.15000015 0.12093875 0.14483432 0.1372888
0.123132624 -0.12034711 -0.061857402 0.14664568 -0.12725449 0.15087214 -0.13100627 -0.1173066
0.08157029 -0.11971204 -0.038141724 0.12127731 0.13259634 0.15818532 -0.033309016 -0.12959696
0.16399208 -0.0356499 -0.068564855 0.04062409 -0.1165532 0.10965578 0.10456135 -0.13214187
-0.1368529 -0.014547311 0.07006084 -0.004748862 -0.08443942 0.0038884738 -0.15662082 -0.11774488
-0.11091044 0.13743043 0.14711216 -0.056427862 0.007169105 0.0739075 0.01950477 -0.08391643
00000000: 30b3 ae3d fedf 97bd 96e2 06bd 6cf7 9e3d
00000010: b24e 21be 3752 cb3d 2bcb 0ebd 7069 ac3d
00000020: 7b4b b83c dab1 b1bc acf1 373d cfda df3b
00000030: fd5e 773d 7802 86bd 271f 4fbc 212c 85bc
00000040: fb7c bb3c bf90 fbba 998f 143e f6e3 513d
00000050: 225c 80bd c20e d0bd 9b21 edbc 0091 95bd
00000060: a849 5ebd a348 e73b 506b c93d 5f6c b73d
00000070: 48e8 27be d071 d13d 94d9 2d3d 9e9e 1d3e
00000080: 57ea d83d 5166 1cbe 552c 23be 956b a6bd
00000090: f32a 143e cdc6 f0bc 5be3 8e3d c0aa 9fbd
000000a0: 82f5 263e 7251 91bd 1e2a ff3d 5dd2 d53a
000000b0: c867 b4bd 9dcb ad3d 7186 b6bd 8879 463d
000000c0: ede1 45bd 37e3 96bc fe31 24be c185 a3bd
000000d0: b363 b83d 0a75 27bd c8cd 293e 0d9a 083e
000000e0: c089 02bc 12ed e4bd 3991 ce3d ef25 513d
000000f0: 6068 ddbd 04e5 dc3d ad70 ce3d f541 173e
00000100: 2274 bfbd fee5 e0bc 9cb5 70bb 8068 c43c
00000110: bbd1 01be 36e9 f2bd c00f b93d 2f31 21bd
00000120: 721a a63d 2361 153c a657 5e3d 4471 143d
00000130: 611a 763d dc05 a83d 5e38 1ebe c177 ab3d
00000140: 8a57 f0bd 23f2 00be cb16 233c 7337 eabc
00000150: 5d31 c83d dde2 c5bd fbcf 17be a81d f73d
00000160: 9e6e cfbc 25cd be3d 5fed 5a3d df18 00be
00000170: aeb3 083d f17e 233d 64b5 e4bd e117 a2bd
00000180: fd98 673d 2c41 f23c 57c1 91bd 7a74 4fbd
00000190: aa1f 1c3e caf1 fdbc abec bf3d ed5e 933d
000001a0: f6f2 dcbd 0150 11be 2aa4 233e 76cb 0b3c
000001b0: 96bd e93d 6a0e 0d3d 3117 5b3d caee fe3d
000001c0: 64c6 213e 28b2 e2bd f4cd a93c 4476 fe3d
000001d0: f9ea f63d 87cd d33d 4356 f7bd 3634 f6bd
000001e0: 4a17 cfbd ef95 a83c 77b0 293e 3347 d7bd
000001f0: e348 b63d 037d bcbd dd63 20be cab7 10bd
00000200: 44ec c43d 416c 1e3e 1dfa d3bd cb40 143d
00000210: 9f11 133e 8dd7 e13d 8569 d43d f25f f23d
00000220: 96ac d73d 20c1 2f3d ba1b e9bd a732 0fbe
00000230: 4533 9cbd 3412 9fbc 7947 d1bd 3fa6 793d
00000240: de9d 533d 0c26 1abd 5a68 833d af6c 5e3d
00000250: 424a d13d ecbd e63d 0890 67bd 47a6 263e
00000260: 44bf 9ebc 26da bfbb 8531 21be d3ef dbbd
00000270: 7fe6 c7bd 3777 92bd c92d f23d c1be 5ebd
00000280: bcfb febd 475b 833d a517 5a3d b5d8 dc3d
00000290: b2cb b0bd 0053 133d 45fd 78bd abad 19bd
000002a0: c6e0 07be 8353 9bbd b987 50bd 2de7 903d
000002b0: d498 f53c 6ffa 263d 7af7 283e ae08 253e
000002c0: 1066 e63d c84f 9b3b 1648 edbd 36d3 043e
000002d0: 8542 2bbd 729c 5ebc f721 13be cf40 07bd
000002e0: 4055 dcbd c9be 1c3e 94a8 13be 8c22 05be
000002f0: 4d96 bcbb afc5 b8bd 01ef 733d 1a8a 83bd
00000300: 6bc2 a0bd 636c 173c 5db1 f63d 6954 f0bd
00000310: ab14 a03d 6314 db3d 34d3 263e c11d efbd
00000320: 59fc 243d c49a fcbd aea1 113e 4388 84bd
00000330: 5d76 cd3d dcf2 a03b 699c 55bc 3fde b0bb
00000340: c88f e73c 40c2 a03d 2547 da3c 82fb 4f3d
00000350: a499 19be bcae f73d 734f 143e 6f95 0c3e
00000360: f52c fc3d 8c78 f6bd 305e 7dbd 492a 163e
00000370: 004f 02be 3a7e 1a3e 8226 06be 713e f0bd
00000380: 530e a73d 962b f5bd 7f3a 1cbd 3d60 f83d
00000390: 56c7 073e 55fb 213e 096f 08bd 11b5 04be
000003a0: 8aed 273e a105 12bd bb6b 8cbd 7265 263d
000003b0: 72b3 eebd 3693 e03d 4324 d63d 3350 07be
000003c0: 2b23 0cbe d857 6ebc 0f7c 8f3d 579c 9bbb
000003d0: 93ee acbd c4d5 7e3b 3561 20be 3a24 f1bd
000003e0: 0325 e3bd 90ba 0c3e 92a4 163e e720 67bd
000003f0: d0ea ea3b d15c 973d 78c8 9f3c 61dc abbd

embedding_net.conv1.bias f4 [100]
-0.059125546 -0.15355219 -0.10165297 -0.16628619 -0.032532737 -0.13306369 -0.0747212 0.12675872
-0.15628919 0.10284938 -0.0063559785 -0.0896674 0.16429463 0.1353736 -0.09343204 0.0054383334
-0.06602153 -0.15356736 0.08431754 0.08990885 0.136192 -0.10059063 -0.047489505 0.086764775
-0.093868665 0.14607514 0.004004696 0.03048253 0.05983139 0.097517736 0.04247046 -0.098857075
0.1532025 -0.074503876 0.020267256 -0.15913965 -0.07176875 0.113357194 0.017148403 0.014267281
-0.06784055 -0.13522492 0.12290369 -0.11599553 0.12103068 -0.10255593 0.13730109 0.009498273
-0.10707106 0.1620165 0.13447513 -0.089629725 -0.094692 -0.047064975 -0.0038451927 0.109666385
-0.1019338 0.079775974 0.14499009 0.055400074 -0.06269453 0.15587309 -0.0621797 0.02549137
-0.113425605 0.06402917 -0.16355236 0.057016484 -0.12159393 -0.15759505 -0.063563 0.118608914
0.08533281 -0.13701098 0.090439014 -0.04416249 -0.081143536 -0.15845488 -0.082604386 0.1541706
-0.10310601 0.117022224 -0.058173344 -0.15422487 -0.100772806 0.059452657 0.071436524 0.03382072
0.042494763 -0.056076746 -0.0062843394 0.03447516 -0.021869613 0.13602361 0.13880457 0.15047477
0.14996351 -0.16205181 -0.051647466 0.10728395
00000000: a12d 72bd c93c 1dbe 6f2f d0bd ed46 2abe
00000010: 0c41 05bd d941 08be 6e07 99bd 0acd 013e
00000020: 460a 20be b2a2 d23d d045 d0bb 8ba3 b7bd
00000030: da3c 283e 619f 0a3e 4c59 bfbd 0c34 b23b
00000040: 4c36 87bd c340 1dbe adae ac3d 2222 b83d
00000050: ea75 0b3e 7602 cebd 5b84 42bd bbb1 b13d
00000060: 373e c0bd b994 153e d339 833b 80b6 f93c
00000070: c211 753d 61b7 c73d 81f5 2d3d 9475 cabd
00000080: 1ee1 1c3e 7d95 98bd 8407 a63c 81f5 22be
00000090: 7ffb 92bd d127 e83d cf7a 8c3c 50c1 693c
000000a0: fcef 8abd 6778 0abe eeb4 fb3d 108f edbd
000000b0: efde f73d d808 d2bd a898 0c3e a59e 1b3c
000000c0: 1248 dbbd a7e7 253e d9b3 093e ca8f b7bd
000000d0: e1ed c1bd 34c7 40bd a1ff 7bbb c598 e03d
000000e0: abc2 d0bd 9661 a33d 4878 143e 30eb 623d
000000f0: fd65 80bd 329d 1f3e 24b0 7ebd 47d3 d03c
00000100: af4b e8bd ba21 833d 457a 27be 1e8a 693d
00000110: 3d06 f9bd 9960 21be 512d 82bd 3be9 f23d
00000120: f8c2 ae3d 9b4c 0cbe 1738 b93d bae3 34bd
00000130: 952e a6bd ff41 22be 7d2c a9bd e6de 1d3e
00000140: 3e29 d3bd 59a9 ef3d 2c47 6ebd 20ed 1dbe
00000150: f961 cebd a184 733d 504d 923d 9887 0a3d
00000160: fd0e 2e3d bbb0 65bd dcec cdbb d335 0d3d
00000170: e727 b3bc c649 0b3e c922 0e3e 0f16 1a3e
00000180: 0990 193e e9f0 25be 4b8c 53bd b0b7 db3d

embedding_net.conv2.weight f4 [50, 100, 3]
0.03576824 0.00366153 0.016304748 0.007684708 0.008693238 -0.020144893 -0.0055980613 0.029221032
0.054233387 -0.0134194 0.03822263 0.055511314 0.00973356 0.043211322 0.02650628 -0.05038714
-0.03512729 0.022625096 -0.022669518 -0.01763546 -0.01619305 -0.052606113 -0.008623222 0.004723514
-0.009387901 -0.03737831 -0.03967492 0.04360453 0.045104478 -0.031495906 -0.040936112 -0.0137160625
-0.034577 -0.056300443 -0.04223975 0.04950539 -0.02090627 0.037024684 0.01624294 -0.0046503264
-0.021667821 0.0387493 -0.014330525 -0.038291734 0.022267219 -0.026604649 0.02739794 0.015407472
-0.053201552 -0.031051151 0.0062757344 -0.0018687181 0.0071833143 -0.0066028233 -0.014879695 -0.010401386
0.026228348 -0.023172913 -0.019328 0.05243721 0.044167206 0.032384895 0.040430054 -0.03793134
-0.015678804 -0.042343006 -0.029128863 0.025539301 0.0492567 -0.054952096 0.03987762 -0.023067987
0.046141516 0.012223911 -0.03664677 0.036023412 -0.03772602 -0.025921052 -0.032373734 0.022666909
0.018647784 -0.030872174 -0.0348005 0.00915277 0.026444877 0.027844684 -0.04714668 0.019206883
-0.05249158 -0.012188621 -0.0061279265 -0.054041844 0.031609062 -0.042315044 0.010787314 -0.029198501
0.023729049 0.0121226385 0.02279513 -0.0063056517 -0.026315685 -0.022888975 0.038868733 0.010395224
-0.029345902 -0.031390175 -0.015079819 -0.023964223 -0.021582125 0.05410988 -0.030152889 0.052809343
0.04362607 -0.037941195 0.02492006 -0.05313242 0.0050079613 -0.040863506 -0.040578626 0.0142945
0.024173662 -0.015147814 -0.0076517155 0.020372834 -0.05540119 0.002184183 -0.05576086 -0.019229598
0.04995271 -0.02358849 -0.028416678 -0.056506302 0.04960805 0.013986059 -0.05111934 -0.015518559
0.044745576 -0.05701672 0.0047410373 -0.042841237 -0.043887902 -0.013138823 0.021839676 -0.058061484
-0.031985242 -0.046226576 -0.0119867725 -0.031485274 0.026672909 -0.004167453 -0.0095018875 -0.052649315
-0.0006986758 -0.055991523 -0.05176149 0.02358886 -0.05808216 0.0019645696 0.013162846 -0.003461563
0.03884157 -0.012546 0.03912503 -0.033710867 -0.046667777 -0.04219742 0.027054673 0.00058947183
-0.0069813384 -0.0062483423 -0.023375865 0.008084842 -0.007698637 -0.009939444 -0.02568623 -0.038790442
0.006590574 -0.0040923962 -0.058702346 0.04304853 0.026143463 0.035499368 0.017037163 -0.01907931
0.016195962 0.023443338 0.022684602 -0.01870633 -0.030179154 -0.0021559712 0.045529094 -0.031607848
-0.023950765 -0.029195627 -0.04877549 0.021073557 -0.00921514 0.0050199786 0.056304224 0.009170748
0.0450055 0.008314298 -0.0070632957 0.034172393 0.01764532 -0.0067345486 0.0019380122 -0.028088272
-0.004615852 0.038309477 0.048922587 0.053141557 -0.042128142 -0.003954992 0.020942476 0.037296508
-0.034239568 -0.048602693 0.01696907 -0.036326386 0.054563608 -0.03873813 0.022930449 -0.02308512
-0.05225378 -0.059467006 0.021444555 -0.021221034 -0.037690803 0.056449365 0.03340344 0.03802172
-0.025947599 -0.002877509 0.012768893 -0.006660626 0.027686657 -0.014541095 -0.013292302 -0.0064508514
-0.022828542 -0.039729085 -0.0066148546 -0.021544943 -0.019275628 -0.026514266 0.026734807 -0.009382769
0.044472694 0.016914599 -0.0192135 0.057439175 -0.021323852 -0.051963065 0.036044363 -0.033013314
00000000: b881 123d 48f6 6f3b 8991 853c 01d0 fb3b
00000010: 156e 0e3c e706 a5bc f16f b7bb f260 ef3c
00000020: d423 5e3d 0bdd 5bbc 558f 1c3d d55f 633d
00000030: 8279 1f3c 5bfe 303d b323 d93c bf62 4ebd
00000040: a2e1 0fbd 4458 b93c 6db5 b9bc 3d78 90bc
00000050: 4aa7 84bc 8279 57bd 6a48 0dbc b5c7 9a3b
00000060: b6cf 19bc 001a 19bd 2b82 22bd aa9a 323d
00000070: 79bf 383d da01 01bd a0ac 27bd 56b9 60bc
00000080: 9da0 0dbd 4b9b 66bd 9703 2dbd 2ac6 4a3d
00000090: a043 abbc 32a7 173d ea0f 853c c461 98bb
000000a0: b780 b1bc 96b7 1e3d 94ca 6abc cbd7 1cbd
000000b0: be69 b63c fef1 d9bc a571 e03c 9f6f 7c3c
000000c0: dfe9 59bd fc5e febc ada4 cd3b c6ef f4ba
000000d0: 0262 eb3b 7f5c d8bb f7c9 73bc 936a 2abc
000000e0: d5dc d63c 1fd5 bdbc c155 9ebc 66c8 563d
000000f0: ace8 343d 06a6 043d fc99 253d e55d 1bbd
00000100: d670 80bc dc6f 2dbd a79f eebc cc37 d13c
00000110: 65c1 493d 7315 61bd b756 233d 13f9 bcbc
00000120: e3fe 3c3d cc46 483c ec1a 16bd 498d 133d
00000130: 9986 1abd 6358 d4bc 529a 04bd f4af b93c
00000140: 3dc3 983c a4e7 fcbc f88a 0ebd 80f5 153c
00000150: eda2 d83c 891a e43c e11c 41bd c157 9d3c
00000160: 6901 57bd c8b2 47bc c6cc c8bb fb5a 5dbd
00000170: 8178 013d 8a52 2dbd 46bd 303c b231 efbc
00000180: 6c63 c23c 089e 463c dabc ba3c a49f cebb
00000190: fe93 d7bc a981 bbbc d234 1f3d bb50 2a3c
000001a0: d166 f0bc fc92 00bd 5811 77bc 9e50 c4bc
000001b0: ffcc b0bc 52a2 5d3d 3103 f7bc 9c4e 583d
000001c0: 40b1 323d 3a68 1bbd 2725 cc3c 61a1 59bd
000001d0: d319 a43b 7e60 27bd c635 26bd 7b33 6a3c
000001e0: d807 c63c 892e 78bc 3ebb fabb eee4 a63c
000001f0: 5cec 62bd 8324 0f3b 8065 64bd 6487 9dbc
00000200: 369b 4c3d a63c c1bc 18ca e8bc 2773 67bd
00000210: d031 4b3d c925 653c 8362 51bd 8e41 7ebc
00000220: 2347 373d 5d8a 69bd b45a 9b3b 4b7a 2fbd
00000230: cdc3 33bd 3844 57bc 1fe9 b23c e1d1 6dbd
00000240: f502 03bd 1458 3dbd 2b64 44bc b4f6 00bd
00000250: 2581 da3c 218f 88bb cead 1bbc cfa6 57bd
00000260: 5727 37ba 5e57 65bd db03 54bd 6d3d c13c
00000270: 8fe7 6dbd 02c0 003b faa8 573c 64db 62bb
00000280: 5718 1f3d bd8d 4dbc 9141 203d 6814 0abd
00000290: b626 3fbd 34d7 2cbd c3a1 dd3c c986 1a3a
000002a0: b6c3 e4bb e5be ccbb be7e bfbc 4976 043c
000002b0: d944 fcbb 0dd9 22bc ee6b d2bc bae2 1ebd
000002c0: bef5 d73b 8219 86bb df71 70bd a853 303d
000002d0: d12a d63c c967 113d 8591 8b3c 374c 9cbc
000002e0: 65ad 843c 3e0c c03c 0fd5 b93c 043e 99bc
000002f0: 463a f7bc 324b 0dbb b77c 3a3d 3b77 01bd
00000300: 6534 c4bc ab2b efbc cfc8 47bd 74a2 ac3c
00000310: 19fb 16bc a27e a43b 429f 663d e840 163c
00000320: b057 383d b138 083c 3873 e7bb 5af8 0b3d
00000330: eb8c 903c 7dad dcbb e604 fe3a 6019 e6bc
00000340: 9340 97bb 66ea 1c3d 0d63 483d f6aa 593d
00000350: 8f8e 2cbd e198 81bb 8e8f ab3c 39c4 183d
00000360: ca3e 0cbd 9e13 47bd b802 8b3c faca 14bd
00000370: 177e 5f3d e0ab 1ebd a3d8 bb3c 011d bdbc
00000380: 0f08 56bd ad93 73bd 7eac af3c bcd7 adbc
00000390: ac61 1abd 7337 673d 0cd2 083d aabc 1b3d
000003a0: 0f90 d4bc 9794 3cbb 9e34 513c 6141 dabb
000003b0: 21cf e23c c63d 6ebc f5c7 59bc aa61 d3bb
000003c0: ec02 bbbc f7ba 22bd 6cc1 d8bb 057f b0bc
000003d0: ece7 9dbc 7234 d9bc f402 db3c 30ba 19bc
000003e0: 0029 363d 7c90 8a3c a165 9dbc 5745 6b3d
000003f0: 5caf aebc 39d7 54bd 41a3 133d f838 07bd

embedding_net.conv2.bias f4 [50]
0.006131253 -0.025988096 -0.028841697 -0.0380358 0.03925292 0.028178327 0.004025152 -0.007970516
-0.019722244 0.015651822 0.03349279 -0.0003056975 -0.004172426 0.021827405 0.031001471 -0.037617322
-0.00061653927 -0.028663965 0.036703385 -0.025811685 -0.008371933 -0.030844329 -0.048230864 -0.023175169
0.04270905 0.03165209 0.0040268227 -0.05746084 0.021450337 -0.016759988 -0.05444651 0.028301
0.03573405 0.019016495 -0.012649144 -0.032892257 -0.0061256513 -0.006465275 -0.010175442 -0.022451324
0.0059153233 -0.029673282 -0.053781528 0.04618695 0.035421945 -0.02325366 0.026766015 0.03221143
0.04905901 -0.013784363
00000000: aee8 c83b fde4 d4bc 6c45 ecbc 6dcb 1bbd
00000010: abc7 203d 3cd6 e63c 6ce5 833b c496 02bc
00000020: 8b90 a1bc 4038 803c bc2f 093d 0646 a0b9
00000030: d9b8 88bb 63cf b23c ccf6 fd3c 9f14 1abd
00000040: 409f 21ba b1d0 eabc 4a56 163d 0773 d3bc
00000050: 6f2a 09bc 3fad fcbc ba8d 45bd dad9 bdbc
00000060: afef 2e3d 9fa5 013d 70f3 833b 0f5c 6bbd
00000070: 9eb8 af3c 3e4c 89bc 4e03 5fbd 80d7 e73c
00000080: de5d 123d 7bc8 9b3c 5b3e 4fbc 08ba 06bd
00000090: b0b9 c8bb a8da d3bb e6b6 26bc d7eb b7bc
000000a0: 54d5 c13b 6215 f3bc 054a 5cbd 872e 3d3d
000000b0: 9a16 113d 767e bebc 6744 db3c 22f0 033d
000000c0: 1af2 483d cfd7 61bc

embedding_net.fc1.weight f4 [70, 100]
-0.06956424 0.005726535 -0.043815512 0.020781934 -0.054014042 -0.07628564 0.020969698 -0.06829423
0.08604736 -0.09192756 0.08843629 -0.0597287 -0.0147748375 0.07851918 0.052854948 -0.06332268
0.08058161 0.09587512 0.072354734 -0.0065914565 -0.07905457 0.0026950843 -0.030752042 0.0131826
-0.032651752 -0.0009765878 0.061641853 0.024729216 0.029409964 -0.020420346 -0.07954049 -0.0802652
0.06409252 -0.061350584 0.085275725 0.09628117 0.033322122 0.022804527 -0.053338375 -0.067413315
0.0076420982 -0.008901845 0.09363227 -0.08234881 -0.034280572 0.013340415 0.029516496 -0.019618537
-0.046039857 -0.035878316 -0.015585605 -0.0654847 0.087609924 0.08398662 6.4793225e-05 0.015564859
-0.019309375 -0.04868484 0.060102478 0.057883352 0.07630114 -0.029626025 0.045567915 0.03563185
-0.03986619 -0.044467073 0.053403787 0.010575095 -0.07371041 -0.073368974 0.07077396 -0.04758792
0.08917121 0.024933483 0.060256906 -0.033000838 -0.08673588 -0.090668336 -0.09166233 0.05185413
0.026409954 -0.022062412 0.08566705 -0.08264778 -0.084509835 -0.09350725 -0.0032280101 -0.024148708
0.03367411 -0.0076081916 -0.06956554 -0.026686655 -0.067726165 -0.0825189 0.072994955 -0.0072524706
-0.08465969 0.07982255 0.07403956 0.07685176 0.009641052 0.05177197 0.072820574 -0.086404346
0.03596597 -0.08347456 -0.0028406999 0.046532784 0.0829354 -0.06733749 -0.0016480789 -0.045379724
-0.009027126 -0.0031543782 -0.06745207 -0.06001997 -0.008340778 0.09891965 -0.0816901 -0.0686712
0.076080576 -0.077289365 -0.05252781 0.00812404 0.049276285 -0.032964177 -0.01431407 -0.026907971
-0.05534035 0.05132676 -0.012408765 0.097838275 -0.09402204 -0.05977774 0.062211346 -0.0914611
0.07448745 -0.008155407 0.018029952 0.09309988 0.047303215 -0.03956304 -0.071729906 -0.017257525
-0.05676072 0.051528744 -0.008245217 -0.0061643436 -0.072026 0.008380434 -0.08313686 -0.06351934
0.02741409 -0.005624926 -0.0088399835 0.08290308 -0.09774848 0.04190189 0.07512933 -0.03268478
0.035618786 -0.047174327 0.037487015 -0.06423552 -0.08983089 0.053321686 -0.020983571 -0.034437932
-0.020218262 0.052364245 -0.07178595 -0.01519656 -0.06587179 -0.020842012 0.052458376 -0.05055801
-0.017197859 0.03904922 -0.008842045 -0.04808833 0.0045724893 0.048074577 0.019321606 0.0691167
0.041929845 -0.08374162 -0.059405133 0.024504406 -0.054761183 -0.016440237 -0.05249449 -0.065538496
-0.0778122 -0.07697779 -0.0151753025 -0.09663083 0.051514123 -0.007822506 -0.021216962 0.064544946
0.05510444 -0.08748675 -0.06450147 0.0100409845 -0.016322166 0.016294943 -0.020533102 -0.043884046
0.081122264 -0.06419387 0.010864538 -0.0822141 -0.07076877 -0.03327006 0.040768452 0.0324007
0.09631025 -0.09833035 0.04444583 0.012120504 0.025141628 0.033856075 -0.013915649 0.028781092
-0.011126703 -0.028808739 0.039833035 0.09933968 -0.019025104 0.034986973 0.0120516615 -0.016977265
0.09956899 -0.025132047 0.047655646 0.036856234 0.0001446223 -0.024524296 -0.095148146 0.068966165
0.033942316 -0.046973605 -0.08089056 -0.07170447 -0.09674616 0.042833816 0.0070282347 -0.075401016
-0.07410101 -0.089598686 -0.036475763 -0.053844824 0.052195232 -0.04791756 0.011422395 0.004404237
00000000: b277 8ebd a8a5 bb3b e577 33bd e03e aa3c
00000010: d43d 5dbd a53b 9cbd a5c8 ab3c d8dd 8bbd
00000020: 9939 b03d 8444 bcbd 161e b53d 15a6 74bd
00000030: 2912 72bc aace a03d 6e7e 583d 52af 81bd
00000040: f907 a53d 2d5a c43d b82e 943d 25fd d7bb
00000050: 5de7 a1bd 03a0 303b b5eb fbbc d5fb 573c
00000060: d8bd 05bd d900 80ba 2b7c 7c3d ed94 ca3c
00000070: 2aed f03c 9248 a7bc 20e6 a2bd 1562 a4bd
00000080: f042 833d c04a 7bbd 0aa5 ae3d 102f c53d
00000090: c77c 083d 8fd0 ba3c 5779 5abd fe0f 8abd
000000a0: 916a fa3b 0bd9 11bc 47c2 bf3d 7ea6 a8bd
000000b0: c969 0cbd c291 5a3c 94cc f13c 0eb7 a0bc
000000c0: 4a94 3cbd 24f5 12bd c45a 7fbc d81c 86bd
000000d0: d56c b33d 2d01 ac3d 99e1 8738 c003 7f3c
000000e0: b22e 9ebc c169 47bd 042e 763d 1817 6d3d
000000f0: c643 9c3d 47b2 f2bc 6ca5 3a3d b4f2 113d
00000100: bb4a 23bd 1b23 36bd eebd 5a3d 2a43 2d3c
00000110: 7cf5 96bd 7942 96bd f0f1 903d 8deb 42bd
00000120: 659f b63d 4e41 cc3c f2cf 763d e32b 07bd
00000130: 95a2 b1bd 52b0 b9bd 76b9 bbbd ff64 543d
00000140: b059 d83c 3bbc b4bc 3572 af3d 3d43 a9bd
00000150: 7e13 adbd bb80 bfbd 068d 53bb 83d3 c5bc
00000160: dded 093d 234e f9bb 6178 8ebd f99d dabc
00000170: 04b4 8abd abff a8bd 617e 953d 22a6 edbb
00000180: 0f62 adbd 017a a33d 0ea2 973d 7564 9d3d
00000190: 81f5 1d3c d80e 543d f422 953d c3f4 b0bd
000001a0: 0e51 133d b6f4 aabd 092b 3abb 2999 3e3d
000001b0: 09da a93d 3de8 89bd 5a04 d8ba 17e0 39bd
000001c0: 83e6 13bc afb9 4ebb 5024 8abd 80d7 75bd
000001d0: c2a7 08bc 6396 ca3d 244d a7bd 7ca3 8cbd
000001e0: 22d0 9b3d e349 9ebd 6727 57bd b21a 053c
000001f0: eed5 493d 7205 07bd 9085 6abc 1b6e dcbc
00000200: 90ac 62bd 023c 523d 224e 4bbc 6f5f c83d
00000210: a18e c0bd 81d9 74bd 53d1 7e3d f54f bbbd
00000220: e08c 983d 429e 05bc 8db3 933c 26ab be3d
00000230: 04c1 413d db0c 22bd 21e7 92bd a75f 8dbc
00000240: ee7d 68bd ce0f 533d f216 07bc 43fe c9bb
00000250: 5e82 93bd 164e 093c a843 aabd 6d16 82bd
00000260: 8393 e03c 4d51 b8bb 94d5 10bc 17c9 a93d
00000270: 5b30 c8bd 51a1 2b3d 68dd 993d 7ae0 05bd
00000280: 01e5 113d de39 41bd fc8b 193d ea8d 83bd
00000290: 42f9 b7bd d767 5a3d bde5 abbc ca0e 0dbd
000002a0: c5a0 a5bc e47b 563d 8304 93bd fefa 78bc
000002b0: cae7 86bd debc aabc 98de 563d ea15 4fbd
000002c0: 86e2 8cbc 13f2 1f3d 3ade 10bc 45f8 44bd
000002d0: d2d4 953b d9e9 443d 5848 9e3c 0e8d 8d3d
000002e0: a1be 2b3d ba80 abbd cc52 73bd 77bd c83c
000002f0: 434d 60bd adad 86bc 7604 57bd 0c39 86bd
00000300: 015c 9fbd 88a6 9dbd d5a1 78bc 62e6 c5bd
00000310: 7900 533d f829 00bc 32cf adbc 2430 843d
00000320: 31b5 613d 412c b3bd 5919 84bd f182 243c
00000330: 10b6 85bc f97c 853c 0935 a8bc c2bf 33bd
00000340: 6e23 a63d 1378 83bd 2d01 323c de5f a8bd
00000350: 38ef 90bd 3046 08bd d2fc 263d 99b6 043d
00000360: 4f3e c53d 6c61 c9bd d50c 363d 1495 463c
00000370: d1f5 cd3c abac 0a3d 76fe 63bc 53c6 eb3c
00000380: c64c 36bc 4e00 ecbc f727 233d 9a72 cb3d
00000390: 89da 9bbc 804e 0f3d 5574 453c e813 8bbc
000003a0: d4ea cb3d b9e1 cdbc 9132 433d 90f6 163d
000003b0: c1a5 1739 2de7 c8bc 08dd c2bd 223e 8d3d
000003c0: 1907 0b3d 6567 40bd f3a9 a5bd cbd9 92bd
000003d0: da22 c6bd 8372 2f3d 1b4d e63b d96b 9abd
000003e0: 45c2 97bd 847f b7bd 9c67 15bd 648c 5cbd
000003f0: abca 553d 3445 44bd ff24 3b3c 6b51 903b

embedding_net.fc1.bias f4 [70]
-0.07542206 -0.047609925 0.0069518606 -0.049670573 -0.05254385 -0.017991835 0.005154056 0.013354483
-0.0877673 -0.06980567 -0.09468043 0.0010432487 0.047427904 0.052150305 -0.05938964 -0.08438197
0.035996623 -0.08794012 0.039331842 0.0433019 -0.04422215 -0.03426053 -0.09878519 -0.041859
0.049099 -0.012141269 0.020724028 0.03416515 -0.009102407 0.024364663 -0.09980223 0.0009233012
0.023754433 -0.057378497 0.014236515 -0.06346688 0.046114393 -0.013514379 0.026173448 -0.04296614
-0.0030439785 -0.027849922 0.03177726 -0.0994904 0.014886986 -0.071944736 -0.01794342 -0.075076744
-0.040589217 -0.04697791 0.02148796 -0.0013824492 -0.0918865 -0.012261578 -0.054239076 -0.033778127
0.051818687 -0.08907764 -0.034078524 -0.07651761 -0.031869374 0.027144823 -0.08911399 -0.091642186
-0.04455633 -0.046634138 0.06154322 -0.025085127 0.031205194 -0.018977348
00000000: e276 9abd a002 43bd 6fcc e33b 5f73 4bbd
00000010: 3838 57bd 9d63 93bc 5be3 a83b c3cc 5a3c
00000020: 58bf b3bd 46f6 8ebd d0e7 c1bd 9ebd 883a
00000030: c343 423d 8f9b 553d 8d42 73bd 74d0 acbd
00000040: 3271 133d f319 b4bd 6d1a 213d 555d 313d
00000050: 4922 35bd c554 0cbd e44f cabd 5874 2bbd
00000060: 081c 493d 2cec 46bc 70c5 a93c c2f0 0b3d
00000070: 4322 15bc 6798 c73c 1d65 ccbd b209 723a
00000080: a898 c23c b705 6bbd 4640 693c ecfa 81bd
00000090: 72e2 3c3d 6a6b 5dbc b369 d63c 43fd 2fbd
000000a0: 7c7d 47bb 8525 e4bc df28 023d 9fc1 cbbd
000000b0: 8ce8 733c c357 93bd 14fe 92bc d6c1 99bd
000000c0: e140 26bd e96b 40bd 8507 b03c 4c33 b5ba
000000d0: fd2e bcbd c9e4 48bc cb29 5ebd ef5a 0abd
000000e0: d53f 543d 566e b6bd ec95 0bbd 44b5 9cbd
000000f0: 7689 02bd d25e de3c 6581 b6bd e6ae bbbd
00000100: b380 36bd 7003 3fbd be14 7c3d 537f cdbc
00000110: 09a2 ff3c 6276 9bbc

embedding_net.fc2.weight f4 [50, 70]
0.07443638 0.08078203 -0.047125876 -0.0419527 0.057209086 -0.113542594 0.003967919 -0.084079504
0.024576189 -0.052512772 -0.09696311 0.11827884 0.04443985 -0.111196466 0.011373244 -0.019723792
-0.09244911 -0.04053866 0.073789425 -0.03315688 -0.03062142 0.07388368 0.019352516 0.10815216
-0.02000819 0.033504598 -0.060001172 0.11231609 0.06308626 0.01969131 0.08515324 -0.09434755
-0.110759236 -0.067842364 -0.059314325 0.028070396 0.057003204 -0.051012095 0.06795749 0.02753662
0.022997063 0.08610623 0.019138379 0.103308454 0.02848213 0.031090759 0.09702101 -0.037809785
-0.10491293 0.1136961 0.06298016 0.11373556 0.11227468 0.07227628 -0.035254665 -0.015701
-0.107106544 0.08003463 0.09996486 0.08122297 -0.09031806 0.11614058 -0.023844669 0.042554338
0.0999122 0.11541444 -0.036963213 -0.0075918105 -0.07564122 0.019091822 -0.006882321 -0.046515316
0.10797096 0.11223369 0.061659303 -0.055766467 -0.09990439 -0.025236491 -0.006270328 0.08068481
-0.029406749 -0.05762914 0.04637036 0.030499497 0.06982594 0.08516815 0.07956947 0.017335886
-0.037026744 0.05304908 -0.007814456 0.097522035 -0.07716846 0.04342853 -0.1174715 -0.04232431
0.029667716 -0.1022571 -0.06892782 -0.024289744 0.10630097 -0.037022393 -0.0049024206 0.08390044
0.098875135 0.06928935 -0.075079486 0.10566006 -0.0153887365 0.0052604047 0.01934558 -0.06622067
0.109014235 0.06257519 -0.033350706 0.010129864 0.087909125 0.08167643 0.11373506 -0.0536807
0.0024289363 0.059944574 0.11286824 -0.09685588 -0.06525741 0.08009788 0.020417718 -0.11838389
-0.05027764 -0.0028167425 0.090673976 0.0050100638 0.03306325 -0.072491266 0.0095099 -0.06863096
0.017585633 0.10656899 0.045083616 0.0011818513 0.01435105 -0.014270741 -0.08715512 0.08040316
-0.0019367939 0.08032066 -0.075241014 0.01426552 -0.096128985 -0.017044622 -0.07065469 -0.11261152
0.0074932864 0.0507017 -0.03161759 0.018268479 0.01651464 0.052699447 -0.010870419 0.07454432
0.026434917 0.010445124 -0.09291425 -0.053867612 -0.03684334 -0.11675053 0.0565543 -0.046375614
-0.11285583 0.07379969 -0.037397254 0.047292493 0.04756549 -0.006092389 -0.06013793 0.003470478
-0.005171505 -0.08912252 -0.07510729 -0.047379937 0.09533318 -0.056352388 -0.06322992 0.043495208
0.08039727 -0.09868477 -0.09061967 -0.04382048 -0.06920826 -0.0050455728 -0.07614394 0.053545583
-0.013139801 0.01997062 -0.01853095 0.0017960633 0.020085717 -0.023048962 -0.07833466 0.08391211
0.111709595 -0.11006255 -0.030117031 -0.06708478 -0.10918645 -0.07909069 0.08851617 0.11296554
0.005819754 0.050824102 0.055814713 0.05975845 0.090242 0.0033069656 -0.10995854 0.11142459
0.00062677084 0.015598975 0.06479035 -0.042093452 -0.06654108 -0.082430474 -0.018754253 0.049901742
-0.009895355 0.059520822 0.00881273 0.020842329 -0.07545925 0.0067823958 -0.047477253 0.040084876
0.1178542 -0.09264344 -0.11405827 -0.09500061 -0.03820508 -0.07838727 0.016608572 0.007867469
-0.013831271 -0.057177473 0.10440361 0.027451416 0.0288401 0.05546398 0.10681603 -0.05558301
0.102131575 0.07591089 -0.027565911 0.00043733834 -0.08733661 0.07049358 0.11680543 0.039724838
00000000: 1a72 983d 0d71 a53d 1007 41bd 98d6 2bbd
00000010: 1354 6a3d 0589 e8bd 5105 823b e031 acbd
00000020: 0154 c93c a217 57bd 9894 c6bd 2d3c f23d
00000030: 8f06 363d f9ba e3bd d856 3a3c ca93 a1bc
00000040: f555 bdbd de0b 26bd e91e 973d 82cf 07bd
00000050: c6d9 fabc 5450 973d 2b89 9e3c e17e dd3d
00000060: 37e8 a3bc 1e3c 093d cac3 75bd fa05 e63d
00000070: 5e33 813d ac4f a13c d264 ae3d 4a39 c1bd
00000080: bdd5 e2bd f0f0 8abd 94f3 72bd e3f3 e53c
00000090: 317c 693d 0ff2 50bd 4c2d 8b3d 7a94 e13c
000000a0: 5664 bc3c 7758 b03d 17c8 9c3c 6293 d33d
000000b0: 5b53 e93c 0cb2 fe3c f4b2 c63d 6fde 1abd
000000c0: 97dc d6bd 80d9 e83d befb 803d 30ee e83d
000000d0: 44f0 e53d 9605 943d 3267 10bd 629f 80bc
000000e0: ad5a dbbd 32e9 a33d 60ba cc3d 3a58 a63d
000000f0: adf8 b8bd 1ddb ed3d e555 c3bc 754d 2e3d
00000100: c49e cc3d 685e ec3d bd66 17bd b9c4 f8bb
00000110: c9e9 9abd 7466 9c3c 1885 e1bb d886 3ebd
00000120: e11f dd3d c7da e53d 778e 7c3d 616b 64bd
00000130: ac9a ccbd c2bc cebc 5377 cdbb 143e a53d
00000140: 6ce6 f0bc 880c 6cbd d9ee 3d3d 15da f93c
00000150: e700 8f3d a46c ae3d 51f5 a23d fd03 8e3c
00000160: 5ba9 17bd fe49 593d 3408 00bc a2b9 c73d
00000170: 7f0a 9ebd 1de2 313d e694 f0bd 415c 2dbd
00000180: b609 f33c 2c6c d1bd 072a 8dbd 49fb c6bc
00000190: 53b4 d93d cba4 17bd 7ca4 a0bb fed3 ab3d
000001a0: 0c7f ca3d 93e7 8d3d 46c3 99bd 4d64 d83d
000001b0: 0a21 7cbc 795f ac3b 9f7a 9e3c b49e 87bd
000001c0: db42 df3d 6c27 803d c09a 08bd bbf7 253c
000001d0: b309 b43d f945 a73d eded e83d 4be0 5bbd
000001e0: ca2e 1f3b 7188 753d 7727 e73d 605c c6bd
000001f0: ada5 85bd 5b0a a43d 0f43 a73c 4173 f2bd
00000200: edef 4dbd 1999 38bb 47b3 b93d 762b a43b
00000210: 556d 073d 4d76 94bd 69cf 1b3c 648e 8cbd
00000220: bf0f 903c d840 da3d 99a9 383d 59e8 9a3a
00000230: ab20 6b3c d3cf 69bc 627e b2bd 69aa a43d
00000240: 05dc fdba 287f a43d f617 9abd edb9 693c
00000250: 46df c4bd 2aa1 8bbc 68b3 90bd dea0 e6bd
00000260: 3e8a f53b 96ac 4f3d 7281 01bd c7a7 953c
00000270: b649 873c 60db 573d d819 32bc b1aa 983d
00000280: 0a8e d83c 0622 2b3c d449 bebd 49a4 5cbd
00000290: 0be9 16bd e71a efbd 7ba5 673d 5bf4 3dbd
000002a0: f520 e7bd 4b24 973d dd2d 19bd c6b5 413d
000002b0: 08d4 423d aaa2 c7bb 3153 76bd f670 633b
000002c0: ba75 a9bb de85 b6bd dad1 99bd 7711 42bd
000002d0: 0b3e c33d c3d1 66bd b07e 81bd 0828 323d
000002e0: 53a7 a43d 3e1b cabd ce96 b9bd 1b7d 33bd
000002f0: 0fbd 8dbd 5555 a5bb 5bf1 9bbd 9d52 5b3d
00000300: 5248 57bc 6d99 a33c 38ce 97bc e269 eb3a
00000310: cd8a a43c 2dd1 bcbc ec6d a0bd 1dda ab3d
00000320: 00c8 e43d 7968 e1bd feb7 f6bc bf63 89bd
00000330: 259d dfbd 4dfa a1bd f747 b53d 7a5a e73d
00000340: a3b3 be3b ef2c 503d f89d 643d 47c5 743d
00000350: ccd0 b83d adb9 583b f131 e1bd 9332 e43d
00000360: e14d 243a d892 7f3c ceb0 843d 2f6a 2cbd
00000370: b146 88bd 4fd1 a8bd 85a2 99bc c565 4c3d
00000380: 2120 22bc 1bcc 733d 4563 103c 88bd aa3c
00000390: 618a 9abd dc3e de3b 8277 42bd 0a30 243d
000003a0: 8b5d f13d d8bb bdbd 6297 e9bd ae8f c2bd
000003b0: ee7c 1cbd 8189 a0bd b30e 883c 8fe6 003c
000003c0: 8e9c 62bc ed32 6abd 8fd1 d53d cbe1 e03c
000003d0: 1342 ec3c 332e 633d 5dc2 da3d 03ab 63bd
000003e0: 5c2a d13d 2b77 9b3d e8d1 e1bc 8f4a e539
000003f0: 89dd b2bd f05e 903d af37 ef3d 83b6 223d

embedding_net.fc2.bias f4 [50]
-0.05009219 0.112138994 0.079877816 0.055362843 0.027681284 -0.058361914 -0.011663593 0.119474225
-0.08887388 -0.018948488 0.091933064 0.082916774 0.10792311 -0.06334231 0.113736235 0.041380532
-0.089371614 0.07906448 0.108052425 -0.0062021464 -0.099247225 -0.058860004 0.11139084 0.008173488
-0.047968082 -0.07486875 -0.059210323 -0.07539338 -0.10228401 0.09374174 -0.07880363 -0.04408717
-0.11078364 -0.108690456 0.118610494 0.07305274 -0.06573355 0.04094357 0.008141555 -0.040029235
0.03882862 -0.076690674 -0.0030442774 0.10653099 0.05442617 0.044692434 0.07749315 0.11052997
-0.094920546 0.015878431
00000000: 782d 4dbd 21a9 e53d fb96 a33d 26c4 623d
00000010: dcc3 e23c e70c 6fbd a818 3fbc e7ae f43d
00000020: 8203 b6bd dc39 9bbc 6747 bc3d 45d0 a93d
00000030: cb06 dd3d 9db9 81bd 8bee e83d a27e 293d
00000040: 7708 b7bd 8fec a13d 974a dd3d 603b cbbb
00000050: 2142 cbbd 3017 71bd e120 e43d 18ea 053c
00000060: 2e7a 44bd ca54 99bd 8686 72bd d867 9abd
00000070: 477a d1bd abfb bf3d cc63 a1bd c094 34bd
00000080: 88e2 e2bd 1a99 debd 0fea f23d ad9c 953d
00000090: 509f 86bd 72b4 273d 2864 053c b2f5 23bd
000000a0: c20a 1f3d 0010 9dbd 8082 47bb eb2c da3d
000000b0: faed 5e3d 6a0f 373d bbb4 9e3d 895d e23d
000000c0: b465 c2bd 7c13 823c
