runs/TripletNet/model_best.pth.tar (torch_old, 119080 bytes, 8 tensors)

embedding_net.conv1.weight f4 [100, 12, 3]
0	0x3daf3de7	0.08556729
1	0xbd974841	-0.07386828
2	0xbd05a15c	-0.032624587
3	0x3d9f9ac6	0.077931926
4	0xbe20f698	-0.15719068
5	0x3dcc1a54	0.09965959
6	0xbd0d42f2	-0.034487672
7	0x3dad3a57	0.08458393
8	0x3cbbc2bf	0.02292001
9	0xbcac2a51	-0.021016272
10	0x3d3acb3c	0.045603976
11	0x3bf78cb1	0.0075546135
12	0x3d7871b9	0.06065533
13	0xbd85756f	-0.06516539
14	0xbc4ab824	-0.012373004
15	0xbc7e8dbc	-0.015536722
16	0x3cc19dae	0.023634758
17	0xba9ac268	-0.0011807205
18	0x3e14eb40	0.14542866
19	0x3d536550	0.05161029
20	0xbd7f3d6d	-0.06231444
21	0xbdcf2213	-0.10113921
22	0xbce90786	-0.02844597
23	0xbd94697b	-0.07246681
24	0xbd5c7535	-0.053822715
25	0x3bf7375d	0.0075444416
26	0x3dca8035	0.09887735
27	0x3db89ff8	0.090148866
28	0xbe274e50	-0.16338468
29	0x3dd2a5b8	0.102855146
30	0x3d364bc7	0.04450586
31	0x3e1fbe33	0.15599899
32	0x3ddd145b	0.10794898
33	0xbe1bf3b7	-0.15229689
34	0xbe22b8e3	-0.15890841
35	0xbda589c5	-0.08082918
36	0x3e152e84	0.14568526
37	0xbce8e0b1	-0.028427454
38	0x3d90c022	0.070678964
39	0xbd9ef1cc	-0.07760963
40	0x3e274c49	0.16337694
41	0xbd90bac6	-0.07066874
42	0x3dffae7d	0.12484453
43	0x3af1a15b	0.0018434928
44	0xbdb410e2	-0.08792283
45	0x3daebac0	0.085317135
46	0xbdb5c8bd	-0.088761784
47	0x3d47bb15	0.0487624
48	0xbd45664b	-0.048193257
49	0xbc9619ff	-0.018322943
50	0xbe241dac	-0.16026944
51	0xbda2f2d3	-0.07956471
52	0x3db90877	0.09034818
53	0xbd2633a3	-0.04057659
54	0x3e29ed15	0.16594346
55	0x3e08bec1	0.13354017
56	0xbc00876c	-0.007844787
57	0xbde46697	-0.1115238
58	0x3dcf3ae4	0.10118654
59	0x3d527c0b	0.051387828
60	0xbddcdedd	-0.10784695
61	0x3ddd7847	0.10813957
62	0x3dcef732	0.101057425
63	0x3e175eed	0.14782305
64	0xbdbf499b	-0.09340211
65	0xbce07d66	-0.027403545
66	0xbb5fa8dc	-0.0034127748
67	0x3cc642b0	0.024201721
68	0xbe01a4dd	-0.12660547
69	0xbdf27870	-0.11839378
70	0x3db9766a	0.09055789
71	0xbd20805d	-0.039184917
72	0x3da675c5	0.081279315
73	0x3c18faa3	0.0093371
74	0x3d5f6b99	0.054545972
75	0x3d15f288	0.03660825
76	0x3d77ef0d	0.06053071
77	0x3da90a71	0.08253945
78	0xbe1e18d7	-0.15439163
79	0x3dabbc6b	0.08385547
80	0xbdf00f88	-0.11721712
81	0xbe00d58f	-0.12581466
82	0x3c24f4ac	0.0100681
83	0xbce93b44	-0.028470643
84	0x3dc86bd8	0.097861946
85	0xbdc5b2e8	-0.09653264
86	0xbe17baa6	-0.14817294
87	0x3df82857	0.12117069
88	0xbccb739f	-0.024835406
89	0x3dbfba70	0.09361732
90	0x3d5b5769	0.053550158
91	0xbe000150	-0.125005
92	0x3d090b61	0.033458117
93	0x3d23e30b	0.040011447
94	0xbde491dd	-0.11160634
95	0xbda1f9aa	-0.07908948
96	0x3d68c79d	0.05683099
97	0x3cf48818	0.02985005
98	0xbd91350f	-0.07090198
99	0xbd4ec135	-0.050477225
100	0x3e1c47e4	0.15261799
101	0xbcfce24f	-0.030869631
102	0x3dc03cbf	0.093865864
103	0x3d93a4c2	0.072091594
104	0xbddcbd63	-0.1077831
105	0xbe113760	-0.1418128
106	0x3e23be1e	0.15990493
107	0x3c0d60f5	0.008629073
108	0x3de9df7f	0.114195816
109	0x3d0d5707	0.034506824
110	0x3d5b6e93	0.05357225
111	0x3dff11ee	0.12454592
112	0x3e21df60	0.15807867
113	0xbde26c96	-0.110558674
114	0x3cabc1b1	0.020966383
115	0x3dfef5ea	0.12449248
116	0x3df770e4	0.12082079
117	0x3dd400f7	0.103517465
118	0xbdf71f6e	-0.120665416
119	0xbdf5f4b4	-0.12009564
120	0xbdce8585	-0.100840606
121	0x3cab0936	0.020878416
122	0x3e2a066c	0.16604012
123	0xbdd771c9	-0.1051975
124	0x3db6133a	0.08890386
125	0xbdbcb172	-0.092135325
126	0xbe206fc7	-0.1566764
127	0xbd10ed71	-0.03538269
128	0x3dc4cd1c	0.09609434
129	0x3e1e6e6f	0.15471815
130	0xbdd40010	-0.103515744
131	0x3d1421c8	0.03616503
132	0x3e1333b1	0.14375187
133	0x3de210d7	0.11038368
134	0x3dd49f80	0.10381985
135	0x3df28e44	0.11843541
136	0x3dd7e1f8	0.10541147
137	0x3d3045fe	0.0430355
138	0xbde95cbf	-0.11394643
139	0xbe0f4f09	-0.13994993
140	0xbd9c681a	-0.07637043
141	0xbc9f064b	-0.01941218
142	0xbdd139a2	-0.10216071
143	0x3d79ca4d	0.060983945
144	0x3d53085d	0.051521648
145	0xbd1ac834	-0.037788585
146	0x3d831cb5	0.0640196
147	0x3d5cf1b6	0.05394145
148	0x3dd09324	0.10184315
149	0x3de60e73	0.11233225
150	0xbd684158	-0.05670294
151	0x3e26790b	0.16257112
152	0xbca0234d	-0.019548083
153	0xbbc210da	-0.005922419
154	0xbe21476a	-0.15749899
155	0xbddc1580	-0.10746288
156	0xbdc7aaad	-0.09749351
157	0xbd923928	-0.07139808
158	0x3df27242	0.11838199
159	0xbd5f370d	-0.05449586
160	0xbdff2da1	-0.12459875
161	0x3d83378e	0.064070806
162	0x3d5a3e82	0.05328227
163	0x3ddcea2e	0.10786854
164	0xbdb0bfd0	-0.08630335
165	0x3d132e2a	0.035932697
166	0xbd7940cb	-0.060852807
167	0xbd1a13c6	-0.037616514
168	0xbe0809ce	-0.1328499
169	0xbd9b9f92	-0.07598795
170	0xbd512ce4	-0.0510682
171	0x3d916369	0.07099039
172	0x3cf740cb	0.030182263
173	0x3d27a0d7	0.040924873
174	0x3e296a65	0.16544493
175	0x3e25739f	0.16157387
176	0x3de72706	0.1128674
177	0x3ba50c83	0.005036892
178	0xbdecaa87	-0.11555963
179	0x3e05201c	0.1300053
180	0xbd2b1619	-0.04176912
181	0xbc5e24d1	-0.013558582
182	0xbe131b94	-0.14365989
183	0xbd070943	-0.032967817
184	0xbddc3b22	-0.10753466
185	0x3e1ccb89	0.15312018
186	0xbe139be0	-0.1441493
187	0xbe0516d1	-0.12996985
188	0xbbbb2528	-0.0057112165
189	0xbdb8a944	-0.0901666
190	0x3d7415e0	0.059591174
191	0xbd837ac9	-0.06419904
192	0xbda09605	-0.07841114
193	0x3c18a8d8	0.009317599
194	0x3df6d291	0.12051881
195	0xbdf03fe2	-0.11730935
196	0x3da02658	0.078198135
197	0x3ddb2245	0.10699896
198	0x3e26dbea	0.16294828
199	0xbdef0fac	-0.11672911
200	0x3d250fb6	0.040298186
201	0xbdfc7b7b	-0.123282395
202	0x3e11aca8	0.1422602
203	0xbd8474c8	-0.06467587
204	0x3dcd89b6	0.10036032
205	0x3ba18b7e	0.004929959
206	0xbc553bc8	-0.013014741
207	0xbbaef58a	-0.005339329
208	0x3ce7f1df	0.028313575
209	0x3da0dce3	0.07854631
210	0x3cdaaa8c	0.026692651
211	0x3d50213f	0.050812956
212	0xbe198c1e	-0.14994857
213	0x3df827d0	0.12116969
214	0x3e148be9	0.14506496
215	0x3e0cd46b	0.13752906
216	0x3dfc5efa	0.12322803
217	0xbdf647e3	-0.1202543
218	0xbd7d05b5	-0.06177302
219	0x3e166329	0.14686264
220	0xbe02164e	-0.12703821
221	0x3e1ab876	0.15109429
222	0xbe062237	-0.1309899
223	0xbdf03baf	-0.11730134
224	0x3da715be	0.08158444
225	0xbdf50923	-0.11964633
226	0xbd1bfb57	-0.038081493
227	0x3df885fd	0.12134931
228	0x3e07ac20	0.13249254
229	0x3e21e532	0.15810087
230	0xbd08b091	-0.03337151
231	0xbe0494dc	-0.1294741
232	0x3e281869	0.16415562
233	0xbd113a9a	-0.035456277
234	0xbd8c5eb3	-0.06854
235	0x3d2689b9	0.040658686
236	0xbdeea386	-0.11652283
237	0x3de0979a	0.10966416
238	0x3dd62b20	0.10457444
239	0xbe074dc5	-0.1321326
240	0xbe0c2520	-0.13686037
241	0xbc6e6a05	-0.014551644
242	0x3d8f7862	0.07005383
243	0xbb9ccfa9	-0.004785497
244	0xbdacfcb0	-0.08446634
245	0x3b7d0dfe	0.0038613076
246	0xbe2063e9	-0.15663113
247	0xbdf12ccf	-0.11776125
248	0xbde32b1e	-0.11092208
249	0x3e0cadf4	0.13738233
250	0x3e1695b8	0.1470555
251	0xbd67586e	-0.056480817
252	0x3bed7e10	0.007247694
253	0x3d979799	0.07401962
254	0x3ca0c155	0.019623438
255	0xbdab5ebf	-0.08367681

embedding_net.conv1.bias f4 [100]
0	0xbd67d550	-0.056599915
1	0xbe1bfdeb	-0.15233581
2	0xbdceb0aa	-0.1009229
3	0xbe29f2ce	-0.16596529
4	0xbd05ba36	-0.032648288
5	0xbe080024	-0.13281304
6	0xbd98adf0	-0.07455051
7	0x3e041798	0.12899625
8	0xbe200dd1	-0.1563027
9	0x3dda6ccc	0.106652826
10	0xbbb436f0	-0.005499713
11	0xbdb7c839	-0.08973736
12	0x3e22af13	0.15887098
13	0x3e0cd074	0.13751394
14	0xbdbf5753	-0.09342828
15	0x3bc9f7f3	0.006163591
16	0xbd8b26d3	-0.067945145
17	0xbe1e4efa	-0.15459815
18	0x3daf3ad5	0.08556143
19	0x3db8f12a	0.090303734
20	0x3e0d7065	0.13812406
21	0xbdcdf70c	-0.10056886
22	0xbd3d23dd	-0.04617678
23	0x3db30d0c	0.08742723
24	0xbdbf7856	-0.09349124
25	0x3e15b151	0.14618422
26	0x3b5e31f5	0.0033904288
27	0x3cf372f1	0.029717894
28	0x3d75a445	0.059971113
29	0x3dc9d514	0.098550946
30	0x3d2de77c	0.04245709
31	0xbdc9b573	-0.09849062
32	0x3e1a66ea	0.15078321
33	0xbd970ceb	-0.07375511
34	0x3ca38503	0.019960886
35	0xbe26691a	-0.1625103
36	0xbd91f534	-0.07126847
37	0x3def4dda	0.11684771
38	0x3c9c6a9b	0.019093802
39	0x3c70ddbd	0.014701304
40	0xbd86e527	-0.06586676
41	0xbe0a6b81	-0.13517572
42	0x3dfde3a9	0.12396938
43	0xbdebb066	-0.11508255
44	0x3df7ab25	0.1209319
45	0xbdca00b1	-0.09863413
46	0x3e0c9298	0.13727796
47	0x3bfe1f2e	0.0077551818
48	0xbddaed6d	-0.106898166
49	0x3e25e49f	0.16200493
50	0x3e09c70b	0.13454835
51	0xbdb69d0e	-0.089166746
52	0xbdc3bd63	-0.09557607
53	0xbd3fe07b	-0.04684494
54	0xbb528127	-0.0032120438
55	0x3de5a03d	0.11212204
56	0xbdd07129	-0.101778336
57	0x3da3de28	0.08001357
58	0x3e1660fb	0.14685433
59	0x3d657a79	0.056025002
60	0xbd80591c	-0.06266996
61	0x3e1ffe7e	0.15624425
62	0xbd7ed5e6	-0.06221571
63	0x3cd865f3	0.0264158
64	0xbdeab02d	-0.11459384
65	0x3d87af77	0.06625264
66	0xbe276d6a	-0.16350332
67	0x3d6f532e	0.058428936
68	0xbdf7d983	-0.12102034
69	0xbe2186ea	-0.15774122
70	0xbd8277ba	-0.06370492
71	0x3df6579d	0.1202843
72	0x3da54d3d	0.08071373
73	0xbe0ca674	-0.13735372
74	0x3db56776	0.08857624
75	0xbd314202	-0.04327584
76	0xbda42c44	-0.080162555
77	0xbe222342	-0.15833762
78	0xbda988d4	-0.08278051
79	0x3e1f432d	0.1555297
80	0xbdd2d501	-0.102945335
81	0x3def2dd1	0.11678661
82	0xbd6e472c	-0.058173344
83	0xbe1dcd3b	-0.1541032
84	0xbdcd25e8	-0.10016996
85	0x3d6eb6c6	0.058279775
86	0x3d95b373	0.07309618
87	0x3d09d1dc	0.033647403
88	0x3d3423c2	0.043979414
89	0xbd65a9c0	-0.05607009
90	0xbbc18027	-0.0059051695
91	0x3d217502	0.039418228
92	0xbcb19445	-0.021677146
93	0x3e08653b	0.13319866
94	0x3e118818	0.14212072
95	0x3e1853ff	0.14875792
96	0x3e19c2cf	0.1501572
97	0xbe25578f	-0.16146682
98	0xbd557bf7	-0.052120175
99	0x3dde57b7	0.10856574

embedding_net.conv2.weight f4 [50, 100, 3]
0	0x3d166b8d	0.036723662
1	0x3b9492c4	0.0045340974
2	0x3c8b3969	0.016995149
3	0x3bfbf6f8	0.007689353
4	0x3c0f8bc9	0.008761355
5	0xbca46687	-0.02006842
6	0xbbb523e9	-0.0055279625
7	0x3cf01aae	0.029309597
8	0x3d5ebe0d	0.054380465
9	0xbc5b4549	-0.013383218
10	0x3d1ceadc	0.038309917
11	0x3d643366	0.05571308
12	0x3c420d1e	0.011843948
13	0x3d396e56	0.04527124
14	0x3ce7229d	0.028214747
15	0xbd4e87ce	-0.050422482
16	0xbd0ff64b	-0.035146993
17	0x3cb95264	0.022622295
18	0xbcb9eac5	-0.022694955
19	0xbc909e0d	-0.01765349
20	0xbc84aca0	-0.016195595
21	0xbd4d83a9	-0.05017439
22	0xbbc69e43	-0.0060613467
23	0x3bef9e69	0.007312585
24	0xbc19cefc	-0.009387728
25	0xbd191a84	-0.037378803
26	0xbd22806b	-0.03967325
27	0x3d3ba5f8	0.045812577
28	0x3d41726c	0.04722826
29	0xbcf4263f	-0.029803393
30	0xbd24ff77	-0.040282693
31	0xbc554479	-0.013016813
32	0xbd0b7c32	-0.03405399
33	0xbd66b735	-0.056327064
34	0xbd2d2d39	-0.042279456
35	0x3d4b04b2	0.049565025
36	0xbc91ecbe	-0.017813083
37	0x3d24f798	0.040275186
38	0x3c9efaa2	0.01940662
39	0xbb91f147	-0.0044538113
40	0xbcafe6ca	-0.021472353
41	0x3d2039d4	0.03911765
42	0xbc6ac9de	-0.014330355
43	0xbd1cd7c7	-0.03829172
44	0x3cb6684f	0.022266535
45	0xbcd9f409	-0.026605623
46	0x3ce072bd	0.027398461
47	0x3c7c852c	0.01541261
48	0xbd543ff1	-0.05181879
49	0xbcf13146	-0.02944244
50	0x3c0126c5	0.0078827785
51	0xb8b860da	-8.791844e-05
52	0x3c11e6d8	0.008905135
53	0xbba543fa	-0.005043504
54	0xbc663796	-0.014051339
55	0xbc1d6d36	-0.009608557
56	0x3cdccd56	0.02695338
57	0xbcbd5a8b	-0.023114463
58	0xbc9dc89e	-0.0192607
59	0x3d57115b	0.052506786
60	0x3d477279	0.048693154
61	0x3d1782b7	0.036989894
62	0x3d3748c7	0.04474714
63	0xbd1b5dd3	-0.037931275
64	0xbc8071c3	-0.015679246
65	0xbd2d7064	-0.042343512
66	0xbcde3ba1	-0.027128043
67	0x3ce2d1f7	0.02768801
68	0x3d52e5ed	0.051488806
69	0xbd6115ec	-0.054952547
70	0x3d23450c	0.03986077
71	0xbcbcef06	-0.023063194
72	0x3d3d295c	0.04618202
73	0x3c499122	0.012302669
74	0xbd15ba09	-0.03655437
75	0x3d173635	0.03691693
76	0xbd1723bb	-0.03689931
77	0xbccd18cf	-0.025036244
78	0xbcfd33d0	-0.030908495
79	0x3cc51203	0.02405644
80	0x3ca334b0	0.019922584
81	0xbcfbb856	-0.030727547
82	0xbd0e2614	-0.034704283
83	0x3c1894aa	0.009312788
84	0x3cd930ba	0.026512492
85	0x3ce4b8fe	0.027920242
86	0xbd404638	-0.046941966
87	0x3c9f043f	0.019411204
88	0xbd5657cf	-0.052329835
89	0xbc412c25	-0.01179031
90	0xbbafc6bd	-0.0053642676
91	0xbd59d95e	-0.053185813
92	0x3d060291	0.03271729
93	0xbd2cfd38	-0.042233676
94	0x3c31a822	0.010843309
95	0xbceecbff	-0.029150007
96	0x3cd30b4e	0.025762226
97	0x3c69f0b2	0.014278578
98	0x3ccab75c	0.024745636
99	0xbbc93627	-0.0061404887
100	0xbcd64bae	-0.026159134
101	0xbcb97f65	-0.022643754
102	0x3d254c0b	0.040355723
103	0x3c43cfa8	0.011951365
104	0xbce5607a	-0.028000105
105	0xbcf7be05	-0.030241976
106	0xbc6414e1	-0.013920994
107	0xbcbc29da	-0.022969175
108	0xbcb155c1	-0.021647336
109	0x3d5d5286	0.05403378
110	0xbcf788b7	-0.030216558
111	0x3d61219d	0.054963697
112	0x3d3aec36	0.045635425
113	0xbd14a1ae	-0.036287002
114	0x3cce204a	0.025161881
115	0xbd58baa4	-0.05291237
116	0x3baf35f1	0.0053470065
117	0xbd213b10	-0.039362967
118	0xbd1feb96	-0.03904303
119	0x3c7feeb4	0.015620876
120	0x3cc7e6fa	0.02440213
121	0xbc74d9a7	-0.0149444705
122	0xbbf4f635	-0.007475639
123	0x3ca76c43	0.020437365
124	0xbd62b5b3	-0.055349063
125	0x3b116b31	0.0022189135
126	0xbd646b01	-0.05576611
127	0xbc9d5260	-0.019204319
128	0x3d4d916b	0.05018751
129	0xbcb510f5	-0.022102812
130	0xbcdcf334	-0.026971437
131	0xbd629a28	-0.055322796
132	0x3d577a24	0.052606717
133	0x3c8cd799	0.017192649
134	0xbd4469da	-0.04795251
135	0xbc6f1193	-0.014591592
136	0x3d3a82a0	0.04553473
137	0xbd67143e	-0.05641579
138	0x3ba2027f	0.004944145
139	0xbd2f0df0	-0.0427379
140	0xbd3347b4	-0.043769553
141	0xbc51355d	-0.01276907
142	0x3cb68c55	0.022283712
143	0xbd6bfa36	-0.057611667
144	0xbd02c79d	-0.031928647
145	0xbd3d2e9d	-0.046187032
146	0xbc43e592	-0.011956589
147	0xbcf082a1	-0.029359164
148	0x3ceb7884	0.02874399
149	0xbb124ad7	-0.002232244
150	0xbc0cb47f	-0.0085879555
151	0xbd5385d8	-0.051641315
152	0x39dedfce	0.00042509887
153	0xbd655455	-0.05598863
154	0xbd53fdca	-0.051755704
155	0x3cc153b4	0.023599483
156	0xbd6c871c	-0.057746038
157	0x3b1a140d	0.0023510486
158	0x3c5d241f	0.0134973815
159	0xbb6438be	-0.003482386
160	0x3d1eef15	0.038802225
161	0xbc4ddbf6	-0.01256465
162	0x3d221eb1	0.03958005
163	0xbd083450	-0.033253014
164	0xbd3d533d	-0.04622196
165	0xbd2507a5	-0.040290494
166	0x3cedc0fc	0.029022686
167	0x3b2ab823	0.0026049695
168	0xbbe5a11e	-0.007007732
169	0xbbcd8053	-0.006271401
170	0xbcbfa89c	-0.023395829
171	0x3c214c75	0.009844889
172	0xbbbb885a	-0.0057230415
173	0xbc03825d	-0.0080266865
174	0xbccef4d2	-0.025263224
175	0xbd1d19f7	-0.03835484
176	0x3be4afef	0.0069789807
177	0xba05ce9a	-0.00051043334
178	0xbd60fbf7	-0.054927792
179	0x3d3e2b0c	0.04642777
180	0x3cd62a59	0.02614324
181	0x3d116812	0.03549964
182	0x3c8b9210	0.017037421
183	0xbc8ed306	-0.017434608
184	0x3c921fd0	0.017837435
185	0x3ccd2b5d	0.025045091
186	0x3cb9b453	0.022668993
187	0xbc994e88	-0.018714204
188	0xbcf7424a	-0.030182976
189	0xbb0b1db9	-0.0021227433
190	0x3d3aafb3	0.045577716
191	0xbd013bc3	-0.031551134
192	0xbcc10b5f	-0.023564992
193	0xbcec702b	-0.02886208
194	0xbd46ba1f	-0.048517343
195	0x3cb0ac57	0.021566553
196	0xbc1167bf	-0.008874833
197	0x3bad5a54	0.005290309
198	0x3d66a9ae	0.056314163
199	0x3c164a4b	0.009172986
200	0x3d385943	0.045007
201	0x3c0f0b97	0.008730791
202	0xbbda3678	-0.006659325
203	0x3d0dffce	0.034667782
204	0x3c908ab8	0.017644271
205	0xbbdcb880	-0.0067358613
206	0x3afdf839	0.0019376344
207	0xbce616f6	-0.02808712
208	0xbb973e9c	-0.004615618
209	0x3d1ce66a	0.038305677
210	0x3d48635c	0.04892288
211	0x3d59adaf	0.053144153
212	0xbd2c8f71	-0.042128984
213	0xbb374f0f	-0.0027970707
214	0x3cb44d22	0.022009436
215	0x3d1c6156	0.038178764
216	0xbd077870	-0.033073843
217	0xbd41fa35	-0.047357757
218	0x3c95a34d	0.018266344
219	0xbd0e448f	-0.03473335
220	0x3d65d74c	0.056113526
221	0xbd1974f4	-0.03746505
222	0x3cd1a511	0.025591405
223	0xbca84215	-0.020539323
224	0xbd4c8ec3	-0.049940836
225	0xbd6d88dc	-0.057991847
226	0x3cbdca7a	0.023167837
227	0xbc9ff77d	-0.019527191
228	0xbd197b83	-0.037471306
229	0x3d682342	0.05667425
230	0x3d09af1a	0.033614255
231	0x3d1bb96f	0.03801864
232	0xbcd48f47	-0.025947226
233	0xbb3c69c8	-0.0028749574
234	0x3c514381	0.012772442
235	0xbbda2963	-0.0066577657
236	0x3ce2f9f1	0.027707072
237	0xbc6a15b4	-0.014287401
238	0xbc568c7f	-0.01309502
239	0xbbcc3163	-0.0062314733
240	0xbcbad241	-0.022805335
241	0xbd2286cd	-0.039679337
242	0xbbd68266	-0.0065463064
243	0xbcad66f8	-0.021167263
244	0xbc9a4481	-0.018831493
245	0xbcd4c09c	-0.02597075
246	0x3cdb02f4	0.026734807
247	0xbc19ba30	-0.009382769
248	0x3d362900	0.044472694
249	0x3c8a91ca	0.01691522
250	0xbc9d5e38	-0.019209966
251	0x3d6b4775	0.057441194
252	0xbca1c707	-0.019748224
253	0xbd4e62da	-0.05038724
254	0x3d18d364	0.037310973
255	0xbd06d486	-0.032917522

embedding_net.conv2.bias f4 [50]
0	0x3c5b244b	0.013375352
1	0xbcc1a4f9	-0.023638235
2	0xbcec456c	-0.028841697
3	0xbcf07cf6	-0.029356461
4	0x3d377775	0.044791657
5	0x3d0cbb2c	0.03435819
6	0x3c57d4b9	0.013173276
7	0xbb5dd1dd	-0.0033847012
8	0xbc766beb	-0.015040378
9	0x3c91eaba	0.017812122
10	0x3d2090b1	0.03920049
11	0x3c058ac7	0.008150763
12	0xbb6710a7	-0.0035257728
13	0x3cd724f8	0.026262745
14	0x3cfdf6cc	0.031001471
15	0xbd09eabb	-0.033671122
16	0x3bbb7e80	0.005721867
17	0xbcead0c9	-0.02866401
18	0x3d33991c	0.04384719
19	0xbca22b8e	-0.01979616
20	0xbb8bbb35	-0.00426426
21	0xbcfd652a	-0.030932028
22	0xbd45dad3	-0.04830439
23	0xbcbaabc9	-0.022786992
24	0x3d442f3c	0.04789661
25	0x3d20e0e6	0.03927698
26	0x3c11288f	0.008859768
27	0xbd65a548	-0.056065828
28	0x3ccffabf	0.02538812
29	0xbab7347b	-0.0013977432
30	0xbd5aa7d2	-0.053382702
31	0x3d1ec438	0.038761348
32	0x3d16af83	0.036788475
33	0x3cbead7c	0.023276083
34	0xbc2e47a1	-0.010637195
35	0xbcc1e348	-0.023667946
36	0xbb1bc2d0	-0.002376724
37	0x3b172bfc	0.0023066988
38	0xbb93f083	-0.004514755
39	0xbc87bee8	-0.016570523
40	0x3bbee0ea	0.0058251517
41	0xbce321e7	-0.027726127
42	0xbd4dc526	-0.050236844
43	0x3d4a51af	0.049394306
44	0x3d20e590	0.039281428
45	0xbca22e36	-0.019797426
46	0x3d120f06	0.03565886
47	0x3d1ed63f	0.03877854
48	0x3d54053a	0.051762797
49	0xbc368bca	-0.011141727

embedding_net.fc1.weight f4 [70, 100]
0	0xbd8e77cf	-0.069564454
1	0x3bbb91f0	0.005724184
2	0xbd3378d4	-0.043816403
3	0x3caa45e9	0.020785289
4	0xbd5d3e00	-0.054014206
5	0xbd9c3d0e	-0.07628833
6	0x3cabc700	0.020968914
7	0xbd8bde49	-0.06829507
8	0x3db03ae4	0.086049825
9	0xbdbc46f8	-0.09193224
10	0x3db51920	0.08842683
11	0xbd74a298	-0.059725374
12	0xbc7210ca	-0.014774511
13	0x3da0cd9c	0.07851717
14	0x3d588297	0.052858915
15	0xbd81aca0	-0.06331754
16	0x3da50bde	0.08058904
17	0x3dc45b9e	0.09587787
18	0x3d9434e1	0.07236648
19	0xbbd8045a	-0.0065923156
20	0xbda1e49b	-0.07904931
21	0x3b30c8bf	0.0026975123
22	0xbcfbddd6	-0.030745428
23	0x3c582495	0.013192316
24	0xbd05b901	-0.032647137
25	0xba8089e7	-0.0009806723
26	0x3d7c76c7	0.061636712
27	0x3cca9e00	0.024733543
28	0x3cf0ea6d	0.029408658
29	0xbca7357e	-0.02041125
30	0xbda2e25d	-0.079533316
31	0xbda460ab	-0.080262505
32	0x3d834973	0.06410494
33	0xbd7b427f	-0.061342712
34	0x3daea587	0.085276656
35	0x3dc5333b	0.09628912
36	0x3d087708	0.033316642
37	0x3cbacec2	0.022803668
38	0xbd5a728a	-0.05333189
39	0xbd8a1351	-0.067419656
40	0x3bfa3ed0	0.0076368824
41	0xbc11d3a3	-0.008900556
42	0x3dbfc2f4	0.09363356
43	0xbda8a788	-0.08235079
44	0xbd0c6d22	-0.034283765
45	0x3c5a8f17	0.013339779
46	0x3cf1d432	0.029520128
47	0xbca0c3b9	-0.019624578
48	0xbd3c99a5	-0.046044964
49	0xbd12f56d	-0.035878588
50	0xbc7f7001	-0.015590669
51	0xbd862225	-0.06549481
52	0x3db36eb4	0.08761349
53	0x3dac01af	0.083987586
54	0x3886a18a	6.419707e-05
55	0x3c7f0697	0.015565536
56	0xbc9e2eae	-0.019309368
57	0xbd476f23	-0.048689973
58	0x3d76240e	0.06009298
59	0x3d6d0f1f	0.05787575
60	0x3d9c3fb2	0.076293364
61	0xbcf2ae2b	-0.029624065
62	0x3d3aa81e	0.045570485
63	0x3d11fc9f	0.03564131
64	0xbd2344cb	-0.039860528
65	0xbd362579	-0.04446933
66	0x3d5abc65	0.053402323
67	0x3c2d473f	0.010576068
68	0xbd96f3fb	-0.07370754
69	0xbd964388	-0.07337099
70	0x3d90efff	0.070770256
71	0xbd42ef83	-0.047591697
72	0x3db6a259	0.08917684
73	0x3ccc3ff9	0.024932848
74	0x3d76d216	0.060258947
75	0xbd072bac	-0.033000633
76	0xbdb1a20d	-0.08673487
77	0xbdb9b06b	-0.09066852
78	0xbdbbb914	-0.0916616
79	0x3d546aa5	0.051859517
80	0x3cd86df3	0.026419615
81	0xbcb4af1c	-0.022056155
82	0x3daf73e6	0.08567028
83	0xbda94332	-0.082647696
84	0xbdad1374	-0.08450976
85	0xbdbf82a8	-0.093510926
86	0xbb53b5e1	-0.0032304453
87	0xbcc5cb02	-0.024144653
88	0x3d09e924	0.033669606
89	0xbbf93c40	-0.0076060593
90	0xbd8e79a0	-0.06956792
91	0xbcdaa2de	-0.02668899
92	0xbd8ab6bc	-0.06773135
93	0xbda8fdc0	-0.08251524
94	0x3d957d64	0.07299307
95	0xbbeda254	-0.007252017
96	0xbdad64d2	-0.084664956
97	0x3da379f4	0.07982245
98	0x3d97a357	0.074042015
99	0x3d9d63dd	0.07685063
100	0x3c1e0ce6	0.00964663
101	0x3d5416d0	0.05177957
102	0x3d952707	0.072828345
103	0xbdb0f3bf	-0.08640241
104	0x3d135acb	0.03597526
105	0xbdaaf03d	-0.08346603
106	0xbb39c75d	-0.002834759
107	0x3d3ea167	0.046540644
108	0x3da9dffe	0.08294676
109	0xbd89e611	-0.06733335
110	0xbad7ebf0	-0.0016473513
111	0xbd39de93	-0.04537828
112	0xbc13db8d	-0.009024513
113	0xbb4e9c8d	-0.0031526417
114	0xbd8a2442	-0.06745197
115	0xbd75d606	-0.06001856
116	0xbc0898a0	-0.00833717
117	0x3dca93de	0.09891485
118	0xbda750c1	-0.081696995
119	0xbd8ca44e	-0.06867276
120	0x3d9bcddf	0.07607626
121	0xbd9e4a90	-0.077290654
122	0xbd5729b1	-0.052529994
123	0x3c0505a3	0.00811902
124	0x3d49d141	0.049271826
125	0xbd07093c	-0.03296779
126	0xbc6a8802	-0.014314653
127	0xbcdc6f26	-0.026908468
128	0xbd62adb2	-0.05534143
129	0x3d5238b9	0.051323626
130	0xbc4b5c72	-0.012412177
131	0x3dc85e0a	0.097835615
132	0xbdc08f54	-0.09402338
133	0xbd74dd86	-0.059781574
134	0x3d7ece31	0.06220836
135	0xbdbb5366	-0.09146766
136	0x3d988c04	0.07448581
137	0xbc0599c9	-0.008154341
138	0x3c93b12c	0.018028818
139	0x3dbeab80	0.09310055
140	0x3d41c398	0.047305673
141	0xbd220b2a	-0.039561428
142	0xbd92e582	-0.071726814
143	0xbc8d5bad	-0.017255628
144	0xbd687ac8	-0.05675772
145	0x3d5310c4	0.05152966
146	0xbc070b33	-0.008242416
147	0xbbc9f843	-0.0061636283
148	0xbd938234	-0.07202569
149	0x3c0949e3	0.008379432
150	0xbdaa43d8	-0.083137214
151	0xbd821653	-0.06351914
152	0x3ce0912a	0.02741297
153	0xbbb83d63	-0.0056225522
154	0xbc10d20b	-0.008839141
155	0x3da9ca07	0.08290487
156	0xbdc82ffe	-0.09774779
157	0x3d2ba418	0.04190454
158	0x3d99e120	0.07513642
159	0xbd05dc5b	-0.03268085
160	0x3d11ec03	0.03562547
161	0xbd413a80	-0.04717493
162	0x3d198da4	0.037488595
163	0xbd838e0a	-0.06423576
164	0xbdb7f934	-0.089830786
165	0x3d5a6848	0.053322107
166	0xbcabe141	-0.020981433
167	0xbd0d0dc2	-0.03443695
168	0xbca59f10	-0.020217448
169	0x3d567cc9	0.0523651
170	0xbd9303db	-0.0717847
171	0xbc78fdc0	-0.015197217
172	0xbd86e823	-0.06587245
173	0xbcaabb34	-0.020841219
174	0x3d56e055	0.052460033
175	0xbd4f1642	-0.050558336
176	0xbc8ce084	-0.017196901
177	0x3d1ff510	0.03905207
178	0xbc10cf44	-0.0088384785
179	0xbd44f711	-0.048087183
180	0x3b95e413	0.0045743077
181	0x3d44ed14	0.048077658
182	0x3c9e45b2	0.019320343
183	0x3d8d8e17	0.06911867
184	0x3d2bc3c1	0.041934732
185	0xbdab80ad	-0.08374152
186	0xbd7353ce	-0.059406094
187	0x3cc8c1ac	0.024506412
188	0xbd604d66	-0.054761313
189	0xbc86ab8c	-0.016439222
190	0xbd570315	-0.052493174
191	0xbd863875	-0.06553737
192	0xbd9f5c10	-0.077812314
193	0xbd9da692	-0.076977864
194	0xbc78a263	-0.015175435
195	0xbdc5e63a	-0.09663053
196	0x3d5302bc	0.05151628
197	0xbc002a67	-0.0078226095
198	0xbcadc947	-0.02121414
199	0x3d843161	0.06454731
200	0x3d618e1e	0.055067174
201	0xbdb339d9	-0.08751268
202	0xbd84198b	-0.064501844
203	0x3c252a6c	0.010080915
204	0xbc85a341	-0.016313197
205	0x3c8599f5	0.016308764
206	0xbca828f2	-0.020527337
207	0xbd33cf52	-0.043898888
208	0x3da623af	0.08112275
209	0xbd836e91	-0.06417573
210	0x3c31f16d	0.010860783
211	0xbda84fdf	-0.08218359
212	0xbd90e258	-0.07074422
213	0xbd0838fd	-0.033257473
214	0x3d26c344	0.040713564
215	0x3d04e2c7	0.032442834
216	0x3dc57a63	0.09642484
217	0xbdc93590	-0.09824669
218	0x3d362411	0.04446799
219	0x3c4696f2	0.012120949
220	0x3ccda4e3	0.025103038
221	0x3d0a9b8a	0.03383974
222	0xbc645725	-0.0139367925
223	0x3cebe126	0.028793883
224	0xbc36f22a	-0.011166135
225	0xbcecbe75	-0.02889941
226	0x3d22e4c7	0.03976896
227	0x3dcb7d3c	0.09935996
228	0xbc9b88c6	-0.018986117
229	0x3d0facaf	0.035076793
230	0x3c46917c	0.012119647
231	0xbc8a4033	-0.016876316
232	0x3dcbe6c6	0.09956126
233	0xbccd91e7	-0.025093986
234	0x3d431e20	0.04763615
235	0x3d16d9aa	0.036828674
236	0x389ef04f	7.578788e-05
237	0xbcc9760b	-0.02459242
238	0xbdc30d20	-0.09523988
239	0x3d8d58c3	0.069016956
240	0x3d0af82c	0.03392808
241	0xbd406f8b	-0.046981376
242	0xbda5a78e	-0.08088599
243	0xbd92ddb9	-0.071711965
244	0xbdc63540	-0.096781254
245	0x3d2f83d7	0.04285034
246	0x3be721f7	0.0070536095
247	0xbd9a5eb7	-0.07537597
248	0xbd97bf23	-0.07409503
249	0xbdb78549	-0.08960969
250	0xbd154e0f	-0.036451396
251	0xbd5c60dd	-0.053803314
252	0x3d55f670	0.052236974
253	0xbd444fa0	-0.0479275
254	0x3c3b4a67	0.011431313
255	0x3b90930c	0.0044120606

embedding_net.fc1.bias f4 [70]
0	0xbd9a71f7	-0.07541268
1	0xbd42d561	-0.047566775
2	0x3bcb77c4	0.0062093455
3	0xbd4b9a95	-0.049707968
4	0xbd5745fe	-0.052556984
5	0xbc936c73	-0.017996049
6	0x3cac36f4	0.021022297
7	0x3c461063	0.012088868
8	0xbdb41c21	-0.08794428
9	0xbd8f8bf7	-0.07009118
10	0xbdc1e5f3	-0.094676875
11	0x38d6c97d	0.00010241845
12	0x3d47f8ec	0.048821375
13	0x3da90c80	0.08254337
14	0xbd7382c7	-0.05945089
15	0xbdace9eb	-0.08443054
16	0x3d499191	0.04921109
17	0xbdb43117	-0.08798426
18	0x3d50ae50	0.050947487
19	0x3d875063	0.066071294
20	0xbd32b1bd	-0.043626536
21	0xbd089438	-0.033344477
22	0xbdca439e	-0.09876178
23	0xbd2a3e87	-0.041563537
24	0x3d56a59a	0.052404024
25	0xbc229ac6	-0.009924596
26	0x3cfbded8	0.030745909
27	0x3d678ab3	0.05652876
28	0xbc123a3e	-0.008925019
29	0x3ced43cf	0.028962998
30	0xbdcc65e6	-0.09980373
31	0xba1d07a1	-0.00059902115
32	0x3d1b4652	0.03790886
33	0xbd6ada30	-0.057336986
34	0x3c95c6e1	0.01828331
35	0xbd81f05b	-0.06344672
36	0x3da757e3	0.0817106
37	0xbc3a4c19	-0.011370682
38	0x3d2c3f73	0.042052697
39	0xbd207131	-0.039170448
40	0xbb4d71ed	-0.0031348423
41	0xbcea6ea6	-0.028617214
42	0x3d101268	0.035173804
43	0xbdcbbaf5	-0.099477686
44	0x3c850e13	0.016242063
45	0xbd93379f	-0.07188343
46	0xbc88742f	-0.016656963
47	0xbd98ca0a	-0.07460411
48	0xbd261ae1	-0.040552977
49	0xbd4094af	-0.047016796
50	0x3cedded3	0.029036915
51	0xb9d5fe6e	-0.0004081609
52	0xbdbc2f7f	-0.09188747
53	0xbc197270	-0.009365663
54	0xbd58e0c6	-0.052948736
55	0xbd09c172	-0.03363175
56	0x3d8436ac	0.0645574
57	0xbdb5e798	-0.088820636
58	0xbd0cc4ae	-0.034367256
59	0xbd9d1a61	-0.07671047
60	0xbd030506	-0.031987213
61	0x3d0bfd3b	0.034177046
62	0xbdb68d1c	-0.08913633
63	0xbdbbaca2	-0.091637865
64	0xbd359052	-0.044327088
65	0xbd3d8ee1	-0.046278838
66	0x3db59c4d	0.08867703
67	0xbcc1683d	-0.023609275
68	0x3d32f7b1	0.04369325
69	0xbc8b0f6b	-0.016975125

embedding_net.fc2.weight f4 [50, 70]
0	0x3d987330	0.07443845
1	0x3da570c2	0.080781475
2	0xbd413244	-0.047167078
3	0xbd2bd5ac	-0.04195182
4	0x3d6a5482	0.0572095
5	0xbde87321	-0.11350084
6	0x3b9fe78e	0.0048798984
7	0xbdac3780	-0.08409023
8	0x3cc942ab	0.024567923
9	0xbd57145a	-0.052509643
10	0xbdc694d5	-0.09696356
11	0x3df2322c	0.11825976
12	0x3d3669a8	0.044534355
13	0xbde752ad	-0.11295066
14	0x3c3a8188	0.011383422
15	0xbca18f01	-0.01972151
16	0xbdbe62ba	-0.09296174
17	0xbd260d8b	-0.04054026
18	0x3d98ddb5	0.07464162
19	0xbd0ce526	-0.03439822
20	0xbcfae354	-0.030625977
21	0x3d9789c5	0.07399324
22	0x3c9e8e79	0.019355046
23	0x3ddd7ca8	0.10814792
24	0xbca2aeb1	-0.01985869
25	0x3d09b2cf	0.03361779
26	0xbd77cf91	-0.060500685
27	0x3de8ec17	0.113731556
28	0x3d812f92	0.063079014
29	0x3ca0772c	0.019588076
30	0x3dae64e6	0.085153386
31	0xbdc12578	-0.09430975
32	0xbde347ba	-0.11097665
33	0xbd8af15c	-0.06784317
34	0xbd72d5f4	-0.059286073
35	0x3ce5f19e	0.028069314
36	0x3d6c0201	0.0576191
37	0xbd5194b1	-0.051167194
38	0x3d8d0a3e	0.06886719
39	0x3ce245bc	0.027621143
40	0x3cbc9f13	0.023025071
41	0x3db059a4	0.086108476
42	0x3c9c7cf2	0.019102547
43	0x3dd3931d	0.10330794
44	0x3ce975e8	0.028498605
45	0x3cfee875	0.031116704
46	0x3dc6dd68	0.09710199
47	0xbd1adaf6	-0.037806474
48	0xbdd6dba5	-0.104911126
49	0x3de9171b	0.1138136
50	0x3d82ce32	0.06386985
51	0x3de9018b	0.113772474
52	0x3de5fdda	0.11230059
53	0x3d9439ca	0.07237585
54	0xbd105e3b	-0.035246115
55	0xbc80a76e	-0.015704837
56	0xbddc1577	-0.107462816
57	0x3da3ff71	0.08007706
58	0x3dccb706	0.099958465
59	0x3da65842	0.081223026
60	0xbdb8f0bf	-0.09030294
61	0x3def3031	0.11679114
62	0xbcc3562d	-0.023844803
63	0x3d2e4e9e	0.042555444
64	0x3dcc9fdf	0.099914305
65	0x3dec78b9	0.115464635
66	0xbd19874d	-0.03748255
67	0xbbf7405e	-0.007545515
68	0xbd9b892f	-0.07594525
69	0x3c9cef1c	0.019156985
70	0xbbe17c65	-0.006881284
71	0xbd3e87d7	-0.046516266
72	0x3ddd1a2d	0.10796008
73	0x3de5d98d	0.11223135
74	0x3d7c8d26	0.061658047
75	0xbd64639f	-0.05575907
76	0xbdcdbc4d	-0.10045681
77	0xbcce2822	-0.025165621
78	0xbbcd63aa	-0.0062679844
79	0x3da537c0	0.08067274
80	0xbcf0eaa9	-0.02940877
81	0xbd6c0838	-0.057625026
82	0x3d3d317e	0.046189778
83	0x3d00562a	0.031332172
84	0x3d8efe94	0.06982151
85	0x3dae6dc7	0.08517032
86	0x3da3ae93	0.07992282
87	0x3c8e05fb	0.017336836
88	0xbd188d2a	-0.037244
89	0x3d5cb26e	0.0538811
90	0xbbfff1ce	-0.007810808
91	0x3dc7ad1c	0.09749815
92	0xbd9e0e15	-0.0771753
93	0x3d31f426	0.04344573
94	0xbdf0f8ee	-0.117662296
95	0xbd2da68b	-0.042395156
96	0x3cf6833d	0.030091876
97	0xbdd3e696	-0.10346715
98	0xbd8d2c75	-0.06893245
99	0xbcc663dc	-0.024217539
100	0x3dd9b45a	0.106301025
101	0xbd1787df	-0.03699481
102	0xbb955214	-0.0045569036
103	0x3dabd45f	0.08390116
104	0x3dcadc08	0.09905249
105	0x3d8de7db	0.069289885
106	0xbd9bc537	-0.07605975
107	0x3dd891fe	0.10574721
108	0xbc8274a2	-0.015924755
109	0x3ba9bd02	0.005180002
110	0x3c9e4a01	0.019322397
111	0xbd8794f8	-0.066202104
112	0x3ddfcdc6	0.1092792
113	0x3d80283c	0.06257674
114	0xbd082d8b	-0.03324656
115	0x3c25f6a9	0.010129609
116	0x3db40ce6	0.08791523
117	0x3da742d8	0.08167046
118	0x3de8f001	0.11373902
119	0xbd5c30c7	-0.053757455
120	0x3b01b4d1	0.0019791613
121	0x3d75dfa2	0.060027726
122	0x3de715a2	0.11283423
123	0xbdc63aa6	-0.09679155
124	0xbd859896	-0.06523244
125	0x3da40f2f	0.080107085
126	0x3ca61aeb	0.020276507
127	0xbdf2840a	-0.11841591
128	0xbd4de5aa	-0.050267853
129	0xbb38bd12	-0.0028188867
130	0x3db9b5b5	0.09067861
131	0x3ba1d964	0.004939245
132	0x3d076d74	0.033063367
133	0xbd9476f2	-0.072492495
134	0x3c1bdf20	0.009513646
135	0xbd8ca119	-0.068666644
136	0x3c95bee8	0.018279508
137	0x3dda4ccd	0.1065918
138	0x3d39ddae	0.045377426
139	0x3a95b7be	0.0011422557
140	0x3c6b2cf6	0.014353981
141	0xbc69c7a4	-0.014268789
142	0xbdb25ed8	-0.08709496
143	0x3da4acb4	0.08040753
144	0xbafded3b	-0.0019373068
145	0x3da47451	0.08029998
146	0xbd9c4a03	-0.07631304
147	0x3c6acd85	0.014331226
148	0xbdc4dd69	-0.09612543
149	0xbc8ba6af	-0.017047254
150	0xbd90b3a5	-0.070655145
151	0xbde6a278	-0.11261457
152	0x3bf4046f	0.0074468176
153	0x3d53f765	0.051749606
154	0xbd0182d4	-0.031618908
155	0x3c9595f6	0.018259984
156	0x3c86d6ae	0.01645979
157	0x3d57dc31	0.052700225
158	0xbc34c329	-0.011032858
159	0x3d9abb6e	0.075552806
160	0x3cd892ba	0.026437152
161	0x3c28315e	0.010265676
162	0xbdbe4aa5	-0.09291581
163	0xbd5ca679	-0.0538697
164	0xbd1793cc	-0.037006184
165	0xbdef4497	-0.11683004
166	0x3d697e59	0.05700526
167	0xbd434d8f	-0.047681388
168	0xbde719ac	-0.112841934
169	0x3d9780e7	0.07397633
170	0xbd192dab	-0.037397068
171	0x3d41979b	0.047263723
172	0x3d43ca00	0.047800064
173	0xbbc7a8c2	-0.0060931155
174	0xbd770dcc	-0.060315892
175	0x3b63798d	0.00347099
176	0xbbb6102e	-0.005556128
177	0xbdb63271	-0.0889634
178	0xbd9b94b1	-0.0759672
179	0xbd42fa59	-0.04760203
180	0x3dc3402f	0.095337264
181	0xbd66d039	-0.05635092
182	0xbd81bb76	-0.063345835
183	0x3d3227ea	0.043495096
184	0x3da494da	0.08036204
185	0xbdca2050	-0.09869444
186	0xbdb9b87a	-0.09068389
187	0xbd338416	-0.04382714
188	0xbd8dbc7e	-0.06920718
189	0xbba7e174	-0.0051233117
190	0xbd9c9016	-0.0764467
191	0x3d5b6d68	0.053571135
192	0xbc578f81	-0.013156773
193	0x3ca3d61f	0.019999562
194	0xbc981156	-0.018562954
195	0x3aec39a7	0.0018022553
196	0x3ca64b8e	0.0202997
197	0xbcbcea45	-0.023060927
198	0xbda06c4e	-0.078331575
199	0x3dabd9bb	0.08391138
200	0x3de4bb0f	0.11168491
201	0xbde24e9a	-0.11050148
202	0xbcf6bbca	-0.030118842
203	0xbd8963f5	-0.067085184
204	0xbddfa613	-0.10920348
205	0xbda21533	-0.079142
206	0x3db86d28	0.09005195
207	0x3de74f0a	0.112943724
208	0x3bc26d55	0.0059334436
209	0x3d5002ce	0.050783925
210	0x3d649d46	0.05581405
211	0x3d74c620	0.05975926
212	0x3db8bfb9	0.09020943
213	0x3b58bafd	0.0033070438
214	0xbde130f2	-0.10995664
215	0x3de438a5	0.111436166
216	0x3936d5d3	0.00017436528
217	0x3c7f64f1	0.015588031
218	0x3d84b261	0.064793356
219	0xbd2c6c8b	-0.042095702
220	0xbd88468f	-0.06654083
221	0xbda8cb9f	-0.08241963
222	0xbc98dbde	-0.018659528
223	0x3d4e8f65	0.05042972
224	0xbc22399d	-0.009901431
225	0x3d73ced7	0.05952343
226	0x3c18162b	0.009282629
227	0x3caabe84	0.020842798
228	0xbd9af359	-0.07565946
229	0x3bfbd2fe	0.0076850643
230	0xbd42832c	-0.047488376
231	0x3d242395	0.040072996
232	0x3df15f68	0.117857754
233	0xbdbdcfc3	-0.09268143
234	0xbde9857c	-0.11402413
235	0xbdc2bbec	-0.095084995
236	0xbd1ea2a3	-0.03872932
237	0xbda1c2ba	-0.07898469
238	0x3c88282a	0.016620714
239	0x3bfc355c	0.0076967906
240	0xbc629ed6	-0.013831815
241	0xbd6a2a41	-0.057169203
242	0x3dd79600	0.10526657
243	0x3ce0e068	0.027450755
244	0x3cee89eb	0.029118499
245	0x3d632de7	0.055463698
246	0x3dddf957	0.108385734
247	0xbd63ee5a	-0.05564723
248	0x3dd309be	0.103045925
249	0x3d9bb81d	0.07603476
250	0xbce17b50	-0.02752462
251	0x39e5390c	0.00043720787
252	0xbdb33ae6	-0.08751468
253	0x3d905f78	0.07049459
254	0x3def7b60	0.11693454
255	0x3d22d285	0.03975155

embedding_net.fc2.bias f4 [50]
0	0xbd4d2d78	-0.05009219
1	0x3de5a921	0.112138994
2	0x3da396fb	0.079877816
3	0x3d62c426	0.055362843
4	0x3ce2c3dc	0.027681284
5	0xbd6f0ce7	-0.058361914
6	0xbc3f18a8	-0.011663593
7	0x3df4aee7	0.119474225
8	0xbdb60382	-0.08887388
9	0xbc9b39dc	-0.018948488
10	0x3dbc4767	0.091933064
11	0x3da9d045	0.082916774
12	0x3ddd06cb	0.10792311
13	0xbd81b99d	-0.06334231
14	0x3de8ee8b	0.113736235
15	0x3d297ea2	0.041380532
16	0xbdb70877	-0.089371614
17	0x3da1ec8f	0.07906448
18	0x3ddd4a97	0.108052425
19	0xbbcb3b60	-0.0062021464
20	0xbdcb4221	-0.099247225
21	0xbd711730	-0.058860004
22	0x3de420e1	0.11139084
23	0x3c05ea18	0.008173488
24	0xbd447a2e	-0.047968082
25	0xbd9954ca	-0.07486875
26	0xbd728686	-0.059210323
27	0xbd9a67d8	-0.07539338
28	0xbdd17a47	-0.10228401
29	0x3dbffbab	0.09374174
30	0xbda163cc	-0.07880363
31	0xbd3494c0	-0.04408717
32	0xbde2e288	-0.11078364
33	0xbdde991a	-0.108690456
34	0x3df2ea0f	0.118610494
35	0x3d959cad	0.07305274
36	0xbd869f50	-0.06573355
37	0x3d27b472	0.04094357
38	0x3c056428	0.008141555
39	0xbd23f5b2	-0.040029235
40	0x3d1f0ac2	0.03882862
41	0xbd9d1000	-0.076690674
42	0xbb478280	-0.0030442774
43	0x3dda2ceb	0.10653099
44	0x3d5eedfa	0.05442617
45	0x3d370f6a	0.044692434
46	0x3d9eb4bb	0.07749315
47	0x3de25d89	0.11052997
48	0xbdc265b4	-0.094920546
49	0x3c82137c	0.015878431
