runs/TripletNet_0919a/checkpoint.pth.tar (torch_old, 51818 bytes, 8 tensors)

embedding_net.conv1.weight f4 [10, 1, 3, 3]
000000 cc d0 00 bf 29 d1 a1 be fb 1e d8 be a4 8d 05 bf
       -0.503186 -0.3160489 -0.42211136 -0.5216925
000010 d6 84 03 bf 8f a1 ea be 15 bc 04 bf 69 95 8f bd
       -0.51374567 -0.45826384 -0.5184949 -0.070109196
000020 d5 ee 06 bf 07 ac c7 bd 43 87 f6 3c 3b 33 81 3d
       -0.5270818 -0.097496085 0.030093795 0.063085996
000030 b5 f8 6b 3d 7f 09 26 be d2 ea c4 bb b4 4d ea bd
       0.057610232 -0.1621456 -0.006009438 -0.11440602
000040 0f 07 b3 bb 11 36 57 3c 2b e7 9c bd 78 95 99 bb
       -0.005463488 0.013135449 -0.07661279 -0.0046870075
000050 9c bd 0f be 7f bb c3 be 1e d2 0b be 1f 03 80 be
       -0.14037174 -0.38228986 -0.13654372 -0.2500238
000060 97 c0 5c be 11 c8 85 bd 7f 80 6b bd 15 ba 03 be
       -0.21557842 -0.065323 -0.05749559 -0.12863953
000070 37 10 f4 be fb b1 ef be 39 c7 57 be eb 6b 4f 3e
       -0.4766862 -0.46815476 -0.21072091 0.20256011
000080 86 c3 99 be 70 cf d1 be 45 9c b1 be 64 b2 ab be
       -0.30031985 -0.40978575 -0.34689537 -0.3353454
000090 44 db 55 be d8 54 2b bf da 51 15 3d 80 ff 21 bf
       -0.20884424 -0.66926336 0.036455013 -0.6328049
0000a0 ef 12 b5 be 3c fe 56 be 77 ce 01 be 3f 11 bd be
       -0.35366008 -0.2099542 -0.12676416 -0.3692722
0000b0 32 b5 2a be 9d 33 ca bd 10 80 3d be a6 40 9c 3d
       -0.16670683 -0.09873126 -0.18505883 0.07629518
0000c0 e6 f9 5d be 3d 26 a3 bd 88 48 ac be c8 b8 7f be
       -0.2167736 -0.07966278 -0.33649087 -0.24972832
0000d0 08 71 d7 bc 8d b4 eb bd 11 e8 fb 3e 24 9d 64 bc
       -0.026299015 -0.11509047 0.4920049 -0.013953481
0000e0 ca 10 42 3d 15 2b 1b be 5f 91 c4 be 8e 5e cb 3c
       0.047379293 -0.15153153 -0.3839216 0.02482536
0000f0 5b 9e 0b be 4f 26 36 be fc f3 4a 3e 7d 3b 78 be
       -0.13634627 -0.17788051 0.19819635 -0.24241443
000100 5b f2 a7 be 35 6b e8 bd 3b 54 ba be cf e0 0f be
       -0.3280209 -0.11348573 -0.36392388 -0.14050601
000110 b6 9f 95 be 90 7e ce be 0b 72 35 bd d4 c2 f3 bd
       -0.29223412 -0.40330935 -0.044298213 -0.11902395
000120 99 1a 94 be 1e 25 43 bf a2 9a 00 bf 07 d3 92 be
       -0.28926542 -0.7622851 -0.5023595 -0.28676626
000130 67 fb 73 bf ee cb d2 be fa 93 ff be 4c a2 2b bf
       -0.95305485 -0.4117121 -0.49917585 -0.6704452
000140 d3 66 06 bf b0 70 ad be 05 96 95 3b ce b5 af bd
       -0.5250065 -0.33875036 0.004565003 -0.08579598
000150 d5 f8 da bd 91 48 78 be 56 71 ba be 77 88 81 be
       -0.10691992 -0.24246432 -0.36414593 -0.25299427
000160 50 b4 13 be a9 54 33 bb
       -0.14424253 -0.0027363694

embedding_net.conv1.bias f4 [10]
000000 c8 40 db 3d 65 02 80 be 74 f2 88 3d 11 fe a3 3d
       0.107057154 -0.25001827 0.06686869 0.08007444
000010 44 8d 64 be 31 06 22 be d8 f7 e9 3d 88 d0 73 3d
       -0.22319514 -0.15822674 0.114242256 0.059525043
000020 5d 50 11 be b6 bd ce bd
       -0.14190812 -0.10094778

embedding_net.conv2.weight f4 [20, 10, 3, 3]
000000 7d 43 50 3d 48 e1 83 bd ae ed d3 bc a5 09 9b bc
       0.05084561 -0.06439453 -0.02587017 -0.018925497
000010 99 91 4f be 32 05 39 be 18 64 3a 3d 0b 8f f8 bd
       -0.20270385 -0.18068388 0.045505613 -0.12136658
000020 21 55 cc bd e9 1d 73 3c f8 b1 9d 3c 97 e4 67 3d
       -0.099771746 0.014838674 0.019249901 0.056614485
000030 b0 86 bd 3d 9b a1 b8 bd ea 65 cf bc 4a 40 8b 3d
       0.09254205 -0.09015199 -0.025317151 0.067993715
000040 0a 8a 1e 3d 12 ba 93 3c 23 1d bf bd ca 8d d2 bd
       0.038705863 0.018033061 -0.09331729 -0.1028095
000050 b8 fb d1 bd 3a 75 dd bc 8a 9b 78 3c 67 b9 a2 bd
       -0.1025309 -0.027033437 0.015173802 -0.07945519
000060 2d 7a 2e 3d 86 3b 04 be 92 80 52 be 48 f0 33 bd
       0.042596985 -0.12913331 -0.20556858 -0.043930322
000070 8a 5d fb ba 2a 44 d6 bc 7f 58 c5 bd fc c0 14 bd
       -0.0019177657 -0.02615555 -0.0963602 -0.036316857
000080 ed e7 2a 3d 60 a3 4d bc be 8b 18 be c2 71 56 bd
       0.041725088 -0.012551159 -0.14897057 -0.05235458
000090 e7 d8 7b 3c f3 a6 2d bd 4d 56 44 be 0b 5e 11 be
       0.015371538 -0.042395543 -0.19173546 -0.14196031
0000a0 ab 9f 64 be 4c 35 50 be c9 97 f0 bd b8 5b 32 be
       -0.22326533 -0.20332831 -0.11747701 -0.174178
0000b0 3e 93 54 be 00 be e3 bc 5b 49 cd 3c ff 0f bf 3c
       -0.20759293 -0.02780056 0.025059393 0.023323057
0000c0 2a 79 5e 3d e6 13 22 3c 9b 37 2d bd 4b 5c c8 3d
       0.05431477 0.0098924395 -0.042289358 0.097832285
0000d0 19 63 cd bc 30 48 2e bd a3 c7 14 be 53 cb 53 be
       -0.025071668 -0.042549312 -0.1452928 -0.20683031
0000e0 15 74 7a be 5e cf 21 be 2e f2 96 be 67 91 1b be
       -0.24458344 -0.1580176 -0.29481643 -0.15192185
0000f0 a2 b3 41 be e5 76 d6 be 20 59 62 be e4 e5 38 3d
       -0.1891618 -0.41887584 -0.22104311 0.045141116
000100 33 6e 9f bd d1 64 c0 bb 84 85 7e bd 3c 4f de bd
       -0.07784691 -0.0058713933 -0.06213905 -0.108549565
000110 b7 36 d4 bd 28 a8 79 bd 5d 66 9a bd d0 a0 a0 bd
       -0.103619985 -0.060951382 -0.075390555 -0.078431726
000120 7e 21 80 3a 8b 36 1a bd 5e aa be 3b 28 8c 8e 3d
       0.0009775606 -0.037649672 0.005818649 0.069603264
000130 8d f1 ba bd 1e c4 63 bd 5e f4 08 be a4 c9 03 be
       -0.091281034 -0.055606954 -0.13374469 -0.12869889
000140 91 5d 36 be bb c9 19 bd 41 7c f8 bd 90 f1 72 bd
       -0.1780913 -0.0375459 -0.121330746 -0.059312403
000150 68 e3 d0 bd 6c 0d 80 bc 9b 92 8c be e6 cc c0 bd
       -0.10199624 -0.0156314 -0.274556 -0.09414081
000160 3a 4e f5 bc 16 90 06 be 6d 26 c4 bd 32 cc 07 be
       -0.029944528 -0.13140902 -0.09577642 -0.13261488
000170 5f 1a 09 be d8 84 74 be 61 27 3e bd dc 3c 68 be
       -0.13388966 -0.23878801 -0.046424273 -0.22679466
000180 45 b4 6a be 5a ab 0c be fa 43 a8 bd 70 e6 e8 bd
       -0.2292033 -0.1373724 -0.082160905 -0.113720775
000190 78 de 44 3c 5f d3 e4 bd 89 c1 f2 3c 3f 65 a9 bd
       0.012015931 -0.11173128 0.0296333 -0.08271264
0001a0 16 1e ef 3c 4c f6 91 bd 59 f4 8b bd c0 44 10 bd
       0.02918915 -0.071270555 -0.06833715 -0.035221815
0001b0 68 3d 58 bd 11 99 29 3c 36 27 ab bc 84 2e ac bd
       -0.052792937 0.010351435 -0.02089272 -0.0840731
0001c0 e1 46 0b be 25 66 49 bd 04 9c c3 bd a2 be a1 3b
       -0.13601257 -0.04916968 -0.09551242 0.0049360553
0001d0 13 f0 0f bd 00 c2 db bd 7a 63 05 be 99 20 bb 3c
       -0.035141062 -0.10730362 -0.13026229 0.022842692
0001e0 b9 7b 36 be 97 13 33 bd 18 85 2a be 2e fc 8d be
       -0.17820634 -0.043719854 -0.16652334 -0.2773146
0001f0 63 22 d5 bd 55 c0 67 be b8 2b 80 be 7b 90 83 bd
       -0.10406949 -0.22631963 -0.25033355 -0.06424042
000200 db 5f d9 bd c9 77 aa be 07 68 8b be 79 41 94 be
       -0.10613986 -0.33294514 -0.27227804 -0.28956202
000210 f4 2d 03 bf 81 68 a8 be da 39 8c be e1 87 88 3b
       -0.51241994 -0.3289223 -0.27387887 0.0041665887
000220 90 b3 ca bd 0f e5 65 3d 0f f2 d6 3b 86 58 be bd
       -0.0989753 0.05612665 0.0065596174 -0.09294228
000230 c4 b9 ec bd 54 eb ad bd fc 71 ed 3c c4 61 16 bd
       -0.115588695 -0.08492151 0.028985016 -0.03671433
000240 37 7d 7d be 9b 15 62 be 8f 6a b3 be 59 2f 08 bf
       -0.24754797 -0.22078554 -0.35042235 -0.53197247
000250 2e 0d a3 be 47 3f 98 be 35 66 40 bf 4e a2 93 be
       -0.31845993 -0.29735777 -0.75155956 -0.28834766
000260 89 f2 e7 be 94 b8 4f bc 0b 07 8a bc 51 8f a0 bd
       -0.45302227 -0.012678284 -0.016849061 -0.078398354
000270 4d 57 a5 bd 73 3c 22 3d 64 9a c4 bd 57 82 67 be
       -0.08073292 0.03960843 -0.0959976 -0.22608314
000280 12 54 23 3d d9 42 57 3c c2 24 01 be 9f 5d 1b bc
       0.039875098 0.013138496 -0.12611678 -0.00948277
000290 ac c5 cb bd c4 f7 89 be 34 5c 93 bd b6 04 6f be
       -0.09949812 -0.26946843 -0.07195321 -0.23341641
0002a0 13 0f a1 be d6 53 44 be 5b 88 39 be 33 a1 0d be
       -0.31456813 -0.19172606 -0.18118422 -0.13831024
0002b0 b4 7f 47 bd ee 78 13 bc 73 c2 8f be e1 2b 59 be
       -0.04870577 -0.009001 -0.2807804 -0.21208145
0002c0 b8 7b 34 be 69 12 38 be e0 1c 88 be 3e 71 69 bd
       -0.1762532 -0.17975773 -0.2658453 -0.05699276
0002d0 e0 19 c7 bd 20 25 27 bd 7c 58 cf bb a1 5a 8d 3c
       -0.09721732 -0.04080689 -0.006327687 0.01725513
0002e0 f5 cd 9a bd e9 f7 8a bd 26 13 cb bd 28 11 9b 3d
       -0.075588144 -0.06785566 -0.09915762 0.07571632
0002f0 35 71 cc bc dc 7c 3a 3c 81 e6 c7 bc 7c 64 be bd
       -0.024956325 0.011382308 -0.024401905 -0.092965096
000300 5c b6 57 3d fc f8 35 3d 70 2c 84 bb 93 53 7a bd
       0.052664146 0.044426903 -0.0040336177 -0.06111486
000310 34 7e 42 bd 46 42 c5 39 cf 38 bd bd c1 88 dd bd
       -0.047483638 0.00037624146 -0.09239351 -0.10817099
000320 1b 26 99 bd 6a cb 31 bd ab 2d dc bc ba c3 66 bd
       -0.07477971 -0.04340688 -0.026877245 -0.056339003
000330 db c8 78 bc 96 cb 4a bd dd af c5 bd 83 04 d4 bc
       -0.015184606 -0.04951056 -0.09652684 -0.025881058
000340 b5 f0 cd bd 8a 77 dd bd 92 d6 99 bd 03 8a 8d bd
       -0.10055677 -0.10813816 -0.07511629 -0.06911089
000350 4f 54 24 be 40 cc 58 bd 47 d8 83 3d ca 5c df bd
       -0.16047786 -0.052929163 0.06437736 -0.1090637
000360 5a 6e e3 bd 57 bf bb bd 88 1c bd bd 6b 05 30 3c
       -0.11105032 -0.091673546 -0.092339575 0.010743479
000370 d5 15 bb bd 6c e6 8b bd 34 1f ce bc 52 7f 5f bd
       -0.091350235 -0.06831059 -0.025161363 -0.05456478
000380 b6 7e 23 3d 57 28 4c bd a5 21 8c bd 24 6b 52 3a
       0.039915763 -0.04984316 -0.06842355 0.00080268295
000390 55 e1 a6 bd 5b d4 26 bd 35 f2 1a 3d 88 ad 1b 3d
       -0.081484474 -0.04072986 0.037828643 0.03800729
0003a0 ee 49 ad 3d d1 25 92 bd 0a e1 20 be 4f 37 92 be
       0.084613666 -0.07136119 -0.15710846 -0.28557822
0003b0 58 99 a4 be cd cd f5 bd f9 bf af bd bd 5b 8f bd
       -0.32148242 -0.12002144 -0.08581538 -0.069999196
0003c0 5a 3b 87 bd 0e 72 cb bd 2b de c1 bd 87 15 8e 3d
       -0.06603117 -0.099338636 -0.09466203 0.069377
0003d0 66 3b 89 bd e2 57 99 bd f2 82 41 bd 9e f3 ca bd
       -0.067007825 -0.074874654 -0.04724402 -0.099097475
0003e0 b2 03 f0 bd 41 69 82 bd a5 e6 50 3d 77 33 c3 3c
       -0.11719455 -0.06367732 0.05100121 0.023828251
0003f0 10 36 05 be 2f 58 33 be 59 b6 e7 bd 5d 2c 0d 3d
       -0.13008904 -0.17514108 -0.11314077 0.034466136

embedding_net.conv2.bias f4 [20]
000000 5a 85 43 3c 31 30 46 3d c6 21 7c 3d 88 e8 bc 3d
       0.011933649 0.048385803 0.061555646 0.09224039
000010 69 28 95 bd e7 ea ef 3c 2a 37 bb bd 5a 28 20 3d
       -0.07283098 0.029286815 -0.09141381 0.039100982
000020 11 30 5e bd 39 64 27 3d 95 46 9f bd ef f8 63 3d
       -0.05424506 0.040867064 -0.07777134 0.055657323
000030 e3 36 9a 3d c9 32 6d 3d 41 6a b5 bd ef c8 86 3d
       0.0753 0.05790976 -0.08858157 0.06581294
000040 81 86 89 bd 96 37 ca bd ae 9f 8c 3d fc 57 92 3c
       -0.06715108 -0.098738834 0.06866394 0.01786422

embedding_net.fc1.weight f4 [70, 100]
000000 e9 8f 14 bd 1d f6 b6 bd 69 d4 bb 3c 81 15 4f bd
       -0.036270056 -0.08933661 0.022928433 -0.050557617
000010 e5 ef a6 bd 07 0a 9e bc a0 d3 b5 bd ac c1 16 3d
       -0.08151225 -0.01929189 -0.08878255 0.036805794
000020 1a b3 8a bd cc 8c 1e bd 2f 9e ce bd 4c d0 94 bc
       -0.06772442 -0.038708493 -0.10088765 -0.01816573
000030 a1 df 13 bd 14 21 3d 3d 3c 2f 14 bd 07 7a 50 3d
       -0.03610194 0.046174124 -0.03617786 0.050897624
000040 f6 dc 87 3d 0f 25 fa bb 22 c6 47 bd a3 5a c5 bd
       0.06633942 -0.0076338123 -0.04877294 -0.09636428
000050 ad 2b 92 bd 45 04 12 bd 17 20 83 bd bd dc 4c 3d
       -0.07137237 -0.035648603 -0.06402605 0.0500152
000060 af 44 18 bd d0 00 c9 bb 99 87 d9 bb e9 24 ba bd
       -0.037174877 -0.00613413 -0.006638479 -0.09089071
000070 34 bc 93 3d ff e0 2e bd f5 7d a9 bd 9a e7 6c bb
       0.07213631 -0.04269504 -0.082759775 -0.0036148787
000080 63 74 bc bd c1 f3 3a 3a b8 aa 90 bd 90 8a 04 bd
       -0.092018865 0.0007131659 -0.07063812 -0.032358706
000090 89 9f 20 bd 50 4a 4b 3d 69 97 6c 3d 73 cc 89 3d
       -0.039214645 0.049631417 0.057761583 0.06728449
0000a0 0e 48 e9 3b d8 5d 65 3d 1a f5 ca bd a4 29 c8 bd
       0.0071191853 0.0559977 -0.09910031 -0.09773567
0000b0 d2 16 b7 3a 87 19 a2 bc 7d 27 09 bd 3b 98 b3 bc
       0.0013968593 -0.019787563 -0.033484925 -0.021923175
0000c0 45 78 59 bd 48 f1 26 bd b1 84 22 bd 7e 23 0f bd
       -0.053093214 -0.040757447 -0.039677326 -0.034945957
0000d0 1f e9 83 3c f5 fe 97 3d 4a 69 9b bc 40 17 20 bd
       0.016102372 0.07421676 -0.018971104 -0.039084673
0000e0 e4 d5 39 3d 54 45 50 3d e4 fa 1e bc e9 7e 14 bd
       0.045369998 0.050847366 -0.009703372 -0.036253843
0000f0 91 b7 cf bd 2d 0f 8d 3b a3 62 e5 3c 76 01 a9 bd
       -0.101424344 0.0043047876 0.028001135 -0.08252232
000100 92 8d a0 bd 9c e6 dc bd 3e 64 91 3d da f6 a5 3d
       -0.078395024 -0.10786173 0.07099198 0.08103724
000110 bb 78 a4 3d 47 02 91 3d e0 fb 82 bc 30 ad 0d 3d
       0.0803084 0.070805125 -0.015989244 0.034588993
000120 3c b2 22 3d 5b 90 72 bd 89 9a c9 bd 45 27 fc 3c
       0.03972076 -0.0592197 -0.09843928 0.030780444
000130 8a 5d 6a bd 7f 72 35 bd da 00 aa bd e4 f8 bd bd
       -0.057218112 -0.044298645 -0.08300944 -0.09275988
000140 9e c8 ac bc 23 4f 5d ba b0 82 56 3d 39 06 63 3d
       -0.021091755 -0.0008442273 0.052370727 0.055425856
000150 be 39 be bc b6 37 b5 3d 93 5a 68 bd 94 ea 9a bb
       -0.023220893 0.08848517 -0.056727003 -0.004727671
000160 cb 8e 8c bd 2e 1d 2b 3c 7e 77 b7 3d 59 fe ab bd
       -0.06863173 0.010443969 0.08958338 -0.08398122
000170 dd d6 a7 3c 0d bc c4 bd 2c a3 cf bc 48 23 50 bd
       0.020488197 -0.0960618 -0.025346361 -0.050814897
000180 57 08 5c bb e6 33 9d bd 93 34 97 3c de 59 d7 bd
       -0.0033574307 -0.076759145 0.018457687 -0.10515188
000190 51 a6 99 3c 3f 83 2a bd f6 cf 7e bd 1b ee 9a 3d
       0.018756064 -0.041629072 -0.062210046 0.07564946
0001a0 59 30 e4 3a 70 e6 91 bd 60 e9 89 bd 57 06 54 bd
       0.0017409428 -0.071240306 -0.06733966 -0.05176386
0001b0 36 95 80 bd a0 2f 8a 3a a0 6a 1b bb 3d 49 a4 3d
       -0.0627846 0.0010542758 -0.0023714676 0.080217816
0001c0 e7 46 12 bc c6 51 96 bd 9c 71 71 3d a5 4b 4f 3c
       -0.008928037 -0.07339816 0.058946237 0.012652312
0001d0 e3 b8 3c bd 2a bb 6f 3c ed cc 4e 3d cf 64 c8 bd
       -0.04607476 0.014632026 0.0504884 -0.09784853
0001e0 fb 24 ab bd 37 29 88 bd 16 a5 b2 bd a2 62 08 bd
       -0.08356663 -0.06648486 -0.08722894 -0.03329719
0001f0 be c8 e5 3c 2a 50 bc bd b5 eb cb bd 45 ea b4 bd
       0.028049823 -0.091949776 -0.09957067 -0.08833746
000200 d6 9c 61 bd fd 8e 66 3d 4d d5 b1 3d 6a e4 c3 3d
       -0.05508121 0.056288708 0.08683262 0.09565051
000210 84 94 97 bb a0 8e ba bd f3 16 b3 3d 95 90 98 bd
       -0.0046258587 -0.09109235 0.087446116 -0.07449452
000220 70 82 c4 3c 50 b6 14 3d fd 63 d0 3c cc 1c a8 3c
       0.023987979 0.03630668 0.025438303 0.020521544
000230 9d c3 c6 bd 6a 60 1e bd 79 af 95 bd 2a 37 68 3d
       -0.09705279 -0.038666166 -0.073088594 0.056693234
000240 dd d7 8c bd da f1 41 bc 9e cd 92 3d a4 c4 5a 3d
       -0.0687711 -0.011837447 0.071681246 0.053410187
000250 0f 64 a8 bd b9 63 b8 bd f7 36 9c 3d 81 f4 ca 3c
       -0.0822221 -0.090033956 0.07627671 0.024774792
000260 04 ae a9 bd 0c f3 a5 3d bb 1a a1 bd 0c 9c 95 3d
       -0.08285144 0.08102998 -0.078664266 0.07305154
000270 ce eb 4f 3d cb 05 6f 3d 41 75 e1 bc f1 d7 2a bb
       0.05076199 0.058355134 -0.027521731 -0.0026068653
000280 83 1b b2 bd 51 4c 42 3d 6f c3 5d bc c9 57 68 3d
       -0.08696654 0.047436062 -0.0135353645 0.056724343
000290 15 cf 8e bd 9b 9c 97 3d a9 10 2d 3d d0 03 84 bd
       -0.069730915 0.07402917 0.042252216 -0.0644604
0002a0 46 fe 20 bc 1a 9d b4 bd da 7a 8e bd 74 68 91 bd
       -0.0098262485 -0.08819027 -0.06957026 -0.07100001
0002b0 54 72 7b bd 3f cf c0 3c 20 ed 40 bd 8e d1 20 bd
       -0.06138833 0.023536323 -0.04710114 -0.039262347
0002c0 a8 57 7e 3d 76 b7 c4 3b dd cf 5c bd 5e 5e 05 bd
       0.062095314 0.0060033156 -0.05390917 -0.0325607
0002d0 ce 08 f7 bc 22 a6 24 3d ed 5f 64 3d a8 13 95 3d
       -0.030155566 0.0401975 0.055755544 0.0727914
0002e0 69 d4 ab bd e0 41 b3 bc cd 9f 5c bc 43 0f 46 bd
       -0.083901234 -0.021881998 -0.013465834 -0.0483544
0002f0 2d c3 80 3d 28 1a 09 bd 9c c2 c6 3b e5 c6 b8 bd
       0.06287227 -0.03347221 0.0060656797 -0.09022311
000300 70 be 5d 3d db 7f 9d bd db 7e e8 bc 01 a7 cd bd
       0.054136693 -0.07690402 -0.028380802 -0.10041619
000310 60 14 33 3d 29 13 f4 bc ab f6 c5 bc 71 af c4 bd
       0.043720603 -0.029794293 -0.024165472 -0.09603775
000320 57 d1 c4 ba 77 5a e5 3c cd 9c 0e 3d 5b 00 70 3c
       -0.0015016001 0.027997239 0.034817506 0.014648522
000330 d1 d5 85 bd 08 07 2f bd 51 da 13 bd 78 b1 ac bd
       -0.06534923 -0.042731315 -0.036096875 -0.08432287
000340 5a 26 b2 bd c1 bd 05 be f8 00 cc bd 36 39 59 bd
       -0.08698721 -0.13060667 -0.09961122 -0.053033076
000350 d2 3b 4f 3c 3a e3 0e 3c 9d be dc 3b 77 f0 4e 3c
       0.01264854 0.008721167 0.00673659 0.0126305735
000360 bc 33 ae bc 80 51 cc bd 2f 73 a4 3d 77 47 a1 bd
       -0.021264903 -0.099764824 0.08029782 -0.07874959
000370 7b fa b6 bb fb 1f ef 3c 2c 0f 27 3c a2 06 5f bd
       -0.005584059 0.029190054 0.010196488 -0.054449685
000380 1a b5 d6 bd 2c e7 72 3d ab 2f a8 bc 43 0d 0a 3d
       -0.10483761 0.059302494 -0.020530542 0.033704054
000390 a6 54 4d 3c 01 f6 c9 b9 d2 69 53 3c 8f 5a 06 bd
       0.012532389 -0.00038520995 0.0129036475 -0.032801207
0003a0 6e 92 b6 bd 68 00 80 bd e5 7d 80 3c 49 36 c5 bb
       -0.08914648 -0.062500775 0.015685031 -0.006018434
0003b0 80 4d 78 3c 81 bc b2 3c 77 98 65 bb 60 4e ef bd
       0.015155196 0.021818401 -0.0035033503 -0.11684871
0003c0 93 72 65 bd 83 88 ba bb a2 a7 59 bd 69 4c ef bc
       -0.05601747 -0.005692543 -0.053138383 -0.02921124
0003d0 90 6b 16 bd b3 c6 a4 3d d7 27 22 bc 96 23 b8 3d
       -0.036723673 0.08045711 -0.009897194 0.089911625
0003e0 9d be ad bd fd 44 d2 bd cc 1b 2a 3c a6 6b 3f 3c
       -0.08483622 -0.10267065 0.010382604 0.01168338
0003f0 cb 6b 4e bd 0f fa 7d bd b3 4b c9 3b 3d 94 13 bc
       -0.050395768 -0.062006053 0.0061430573 -0.009007511

embedding_net.fc1.bias f4 [70]
000000 69 3a c1 bc e2 07 77 3c bb a4 3e 3d 6b 08 67 3d
       -0.023587422 0.015077563 0.046543818 0.056404512
000010 f0 0f 9e bd 3f 76 6e 3d f9 61 37 3d 82 92 9b 3b
       -0.077178836 0.058218237 0.04477117 0.0047476897
000020 c3 54 c5 bd 32 aa 2e 3c 87 ea 7a 3c b6 c2 47 bd
       -0.09635308 0.010660695 0.015314705 -0.048769675
000030 87 fd 5c bd d7 e7 a2 bd 3c 6c 8f bb c0 91 56 3c
       -0.05395272 -0.07954376 -0.004376916 0.013096273
000040 96 bb 7d 3d d5 7d 7e 3d 0c cb 02 bd 67 a7 93 3c
       0.061946474 0.06213172 -0.03193192 0.01802416
000050 31 59 59 3d 60 e4 56 3d 23 3e 05 3c 3e 11 52 3d
       0.053063575 0.05246389 0.00813249 0.051285975
000060 56 9d 84 bd 7b a0 86 3c 5c d8 6f 3b 83 31 85 3d
       -0.06475322 0.016433945 0.0036597466 0.06503584
000070 b8 d6 9d bc 49 34 bd bd 65 4f 85 bc 23 ce fa bb
       -0.019267425 -0.09238488 -0.01627321 -0.007653968
000080 7f 24 bb 3c 2d 51 c9 bd c9 d9 8a bd 49 d7 47 3d
       0.022844551 -0.09829936 -0.067798205 0.048789296
000090 ea 99 7e 3d 3d 60 8b 3c 9d 6e 14 3c 5c 8b 8a 3d
       0.062158503 0.017013663 0.009059575 0.06764862
0000a0 03 5f bc bd d9 b3 07 bc 6c ef 81 3d 00 78 95 3d
       -0.091978095 -0.008282625 0.06344494 0.07298279
0000b0 49 df be bc b7 f3 c0 3b 01 2a a3 bd df 41 f1 3b
       -0.02329983 0.005888428 -0.07966996 0.007362589
0000c0 62 10 2a 3d 1a 31 86 3c 26 e9 1d bd 83 2c c5 bd
       0.04151953 0.016380835 -0.038552426 -0.096276306
0000d0 c0 66 cc 3b 0c 8f a2 bd 18 6d d0 3c 78 71 a9 bd
       0.0062378347 -0.0793744 0.025442645 -0.082735956
0000e0 6d 9e 51 3d f3 54 b8 bd 89 16 99 3c 93 78 17 3d
       0.051176477 -0.09000578 0.018687503 0.036980223
0000f0 8d 81 85 3d 54 08 60 3d 4f 98 2f bb ea 57 6b 3d
       0.065188505 0.054695442 -0.0026793664 0.05745689
000100 3e 77 95 bc d3 fa 58 3d 34 9f 66 3d 0c e6 30 bd
       -0.018245336 0.05297358 0.05630417 -0.04318814
000110 fb 7d 33 3d 34 6b f4 bc
       0.043821316 -0.029836275

embedding_net.fc2.weight f4 [50, 70]
000000 1e e1 59 3d 52 47 e1 3d d8 b9 82 bd 49 44 a1 bd
       0.053193204 0.109999314 -0.06383103 -0.078743525
000010 86 4b 8d bd 50 7a a3 bd e9 e4 a5 3d 9c d2 32 3d
       -0.068991706 -0.07982314 0.08100302 0.043657884
000020 29 26 62 bd 59 0d 46 3d 79 77 c4 3d 7b 28 6b bd
       -0.055212174 0.048352573 0.095931 -0.057411652
000030 68 b8 4d 3d dd 6a 3a bd d9 d3 c4 3c e3 e8 be bd
       0.05022469 -0.04551207 0.024026798 -0.09321763
000040 75 45 12 bd 74 4f 84 3d 5a 15 a3 bd ed d0 5f bd
       -0.03571077 0.06460467 -0.07963057 -0.054642607
000050 a3 4b 88 3d 99 af 31 bd e6 ac be 3d 58 e7 0a 3d
       0.066550516 -0.043380354 0.093103215 0.033912033
000060 91 0d 4d 3d 43 1e 6c 3d 45 e4 32 bb e7 d7 ab bc
       0.050061766 0.057646047 -0.0027296704 -0.020976974
000070 38 26 98 bd 07 61 9e bd 7b cc 60 bd 53 48 83 3d
       -0.07429165 -0.0773335 -0.054882508 0.06410279
000080 bc d1 a5 bd dd c5 34 bd 7f 1e 2a 3d d2 d7 26 bc
       -0.08096644 -0.04413401 0.04153299 -0.0101832915
000090 32 47 2f 3d 33 ad c3 3c d5 b4 b8 3c 26 40 88 bd
       0.042792507 0.023886299 0.022547165 -0.0665286
0000a0 ea cc 54 3d 5b f9 1d 3d ee c1 63 bd 7a 37 14 3d
       0.051953234 0.038567882 -0.055604868 0.03618572
0000b0 c3 3f c2 3d ad 08 1a 3c 88 f3 c4 3c ea 36 76 3b
       0.09484818 0.0094014825 0.024041906 0.0037569352
0000c0 c0 5e 0e 3d 49 f3 63 bd f3 d7 12 3d 48 33 c0 bc
       0.03475833 -0.055651937 0.035850476 -0.023461953
0000d0 6d 66 aa bd 43 dd e3 3d 33 a7 9e 3d 0d f3 e3 3d
       -0.083203174 0.11126187 0.077467345 0.11130343
0000e0 0a 8d 3a bd f2 12 cc 3d ca c9 a0 bd 1f 5b 51 bd
       -0.04554466 0.09964551 -0.07850988 -0.05111229
0000f0 d7 67 ff 3c de 2b 8d 3d 6e 70 ad bd 06 ea b6 3d
       0.031177444 0.068931326 -0.0846871 0.08931355
000100 81 b7 8e 3c 94 9e 30 3d 3a 48 1b bc f9 ab 02 3e
       0.017421486 0.043119982 -0.009477669 0.12760915
000110 a6 ee ed 3b fd 55 f8 3b 48 75 40 bd be 8a 50 bd
       0.007261115 0.00757861 -0.046986848 -0.050913565
000120 d6 7f ae 3d 09 3b 02 bd 4e 31 a1 bc c0 78 0a 3d
       0.085204765 -0.03179458 -0.01967683 0.033806562
000130 53 eb bf bd 97 8a 60 3d ec 86 9e 3d b1 c8 c3 3d
       -0.093710564 0.05481967 0.07740578 0.09559763
000140 ec 7a ce 3b 7a 46 64 bd 06 85 9a 3d 12 81 99 3d
       0.0063012745 -0.055731274 0.075449035 0.07495321
000150 5f e3 ed 3d db ae bd bd e2 52 58 bd ec 48 c5 bd
       0.11615633 -0.09261867 -0.05281342 -0.09633049
000160 66 95 aa bd d0 f6 c2 3d e9 d0 da bd bb a4 4b 3d
       -0.08329277 0.09519732 -0.10684378 0.049717646
000170 a8 46 9b bc f3 36 bb 3d 63 28 d2 3d aa b4 e8 3c
       -0.01895459 0.0914134 0.102616094 0.02840646
000180 f1 b6 b7 bc bb 0e 96 3d 15 d8 55 3d e9 e1 b3 bc
       -0.0224261 0.07327028 0.052208025 -0.021958308
000190 33 31 b0 bd e3 ee a3 3c b6 39 06 bd ea 6e 18 bd
       -0.08603134 0.020011371 -0.03276988 -0.03721515
0001a0 a2 8f d2 3c 86 9f a2 3d 46 97 c4 bd 0b a9 7b 3d
       0.025703255 0.07940583 -0.095991656 0.06144051
0001b0 da 32 22 bb 2b de 84 bb 78 46 d5 3d 3c 13 5a 3c
       -0.0024749548 -0.004054805 0.104138315 0.01331025
0001c0 81 a2 38 bd 07 17 b7 bc a0 87 99 bc b9 ae ae bd
       -0.04507685 -0.022349847 -0.018741429 -0.085294195
0001d0 78 3d 94 bd d1 77 56 3d 27 3b c7 bd 3d ce f2 bc
       -0.07238287 0.05236036 -0.09728079 -0.029639358
0001e0 8e 90 bb 3d 33 ee 12 3a f9 8f 06 bd c8 a6 ad bc
       0.09158431 0.00056049525 -0.032852147 -0.021197692
0001f0 d8 56 66 bc 4a 11 9f bd 3e 9e c7 bd ae 0f b3 bb
       -0.014058791 -0.077669695 -0.09746979 -0.0054645156
000200 b4 fc da 3c 1f c0 9c 3d 1e 60 fe bb c2 70 84 bd
       0.026731826 0.07653832 -0.007762923 -0.06466819
000210 e6 b1 66 3d ed 51 a3 bd 6b e9 f3 3c b1 29 71 3d
       0.056322 -0.079746105 0.029774388 0.05887765
000220 69 4b 69 bc 45 7b 87 3d f8 ba b7 bd ca 0d 13 bd
       -0.014239171 0.06615309 -0.08971208 -0.035901822
000230 00 30 79 3d e4 f9 e4 3d 02 3d bb 3d c3 bb e8 3c
       0.060836792 0.11180475 0.09142496 0.028409844
000240 f0 67 ba bd a8 77 c0 bc 52 a9 a7 bd 15 87 8b bd
       -0.09101856 -0.023494557 -0.08186592 -0.06812874
000250 b7 24 0f bd c4 87 ec bc a3 59 c3 3d 6f a5 ae bd
       -0.034947123 -0.028873332 0.09538581 -0.08527648
000260 ce 5e 8f 3d 0c c1 3a 3d 59 92 9c bd 9b 97 0c bc
       0.070005044 0.04559426 -0.07645101 -0.008581067
000270 ea 86 8b bd 9b 63 c7 3c 13 bc 10 3d af b3 6e bd
       -0.06812842 0.024339488 0.03533561 -0.05827683
000280 fc c6 b5 3d 47 63 61 bd c4 a4 94 bc fe 52 5f 3a
       0.08875844 -0.05502632 -0.018144973 0.00085191417
000290 70 fa 8c bd 74 0a 95 bc 15 b1 23 bd 3a 9a 4b 3c
       -0.06883705 -0.018193461 -0.0399638 0.012426907
0002a0 31 dc 85 3c 9e 23 b1 bd 27 b6 b1 3d 6a 5d 3f 3c
       0.016340347 -0.086493716 0.08677321 0.0116799865
0002b0 e5 3d dd 3d bf 6c cf 3c ce 2b 23 bd f2 d1 14 bd
       0.10802821 0.025320409 -0.039836697 -0.036333032
0002c0 1c da 47 bc 3b 85 98 bc a8 f2 2f 3d 4e 83 6c bc
       -0.012197997 -0.018618217 0.042956024 -0.014435602
0002d0 be c5 37 bd 57 35 2f 3d 30 27 e8 3d e2 72 02 bc
       -0.044866316 0.04277548 0.113355994 -0.0079619605
0002e0 3d 87 48 3d 7c 86 a2 bd c6 c2 71 bd c2 dd dc bd
       0.0489571 -0.07935807 -0.05902364 -0.107844844
0002f0 7b 82 59 bd fc 15 80 3d cc d5 c5 3d 59 9c e4 3d
       -0.05310295 0.06254193 0.09659919 0.111626334
000300 84 c1 80 3c 67 bb 49 bd cf 6a 4f b9 04 8e 52 3d
       0.015717275 -0.049250986 -0.00019780848 0.051404968
000310 52 e3 7c 3d bb d0 df bc 69 d8 93 bc a6 25 c4 bd
       0.061740227 -0.02732121 -0.018047528 -0.09577493
000320 d3 cc 34 3d 3f aa 82 3c 5e fa 9c bd 66 35 9f 3c
       0.044140648 0.01595032 -0.07664941 0.019434642
000330 86 0c a9 3c 28 7e 95 bd c8 03 e7 3d 6b 6f 66 bd
       0.020635854 -0.07299453 0.11280018 -0.0562586
000340 06 b4 5b 3d e3 52 2c bd dc 7b 93 bd 9e 40 35 bd
       0.05363848 -0.042071234 -0.07201359 -0.044251077
000350 1f 3c 93 bc 44 8f cd bc 64 b1 2a 3d 56 6c d2 bd
       -0.017973004 -0.025092728 0.04167308 -0.1027457
000360 0d ea 79 bd a7 c2 ad bc 68 52 a8 bd 59 3d 65 bd
       -0.061014224 -0.021210982 -0.08218843 -0.05596671
000370 33 fc d3 bd ba ac 46 3d f9 c0 7b bd f0 63 89 3d
       -0.103508376 0.04850457 -0.06146333 0.06708515
000380 4d 70 cf 3d 71 7d 9e bd 7d 9b a1 3d ba 1a 08 bd
       0.101288415 -0.0773877 0.07890985 -0.033228613
000390 88 af d7 3d df 22 33 3d 65 35 66 3d 4e 84 ff bc
       0.10531527 0.043734428 0.056203265 -0.031191017
0003a0 35 6b a1 3c f3 ba 4e bc c1 c9 e5 3c a7 89 85 3c
       0.01970444 -0.012617814 0.028050305 0.01630099
0003b0 ba 0e ac bd 18 ec 0c 3d eb f8 99 bd 61 91 b7 3d
       -0.08401246 0.034404844 -0.075181805 0.08963276
0003c0 eb e2 9c bd 2f 3a be bb b9 ea 98 3d fb 0c db bd
       -0.07660469 -0.005805276 0.07466645 -0.10695835
0003d0 4d 10 8d bd 71 ce b9 3d 34 cc 84 bd e2 8f 89 3d
       -0.06887875 0.09072579 -0.06484261 0.067168966
0003e0 59 e4 83 3d 16 43 a8 bd cb a3 96 bd e5 99 c9 bd
       0.06440038 -0.082159206 -0.0735546 -0.09843806
0003f0 a6 de 0a bd 80 27 06 bd aa 74 83 3d 13 a1 bb bd
       -0.03390374 -0.032752514 0.06418736 -0.09161582

embedding_net.fc2.bias f4 [50]
000000 3c 15 55 bd b3 81 f1 3d 20 be 3d bb 49 05 f3 3d
       -0.052022204 0.11792316 -0.0028952435 0.118662424
000010 a4 78 bd bc 98 77 87 bd b7 f6 83 3d 57 37 ae 3d
       -0.023128815 -0.066146076 0.064435415 0.08506649
000020 b9 85 d4 bd a8 a6 a9 bc 24 52 a2 3c 06 64 96 bd
       -0.10377068 -0.02070935 0.019814558 -0.07343297
000030 bf 69 f0 3d 36 c7 45 3d a2 59 1b bd b4 d0 a4 bc
       0.117389195 0.048285685 -0.037927277 -0.020119049
000040 44 c1 81 3c ff ed e1 bd 24 ba dc 3c a9 4b be 3d
       0.015839227 -0.11031722 0.026944228 0.09291775
000050 07 6f a3 3d 79 e5 ba 3d c2 35 5f bd b4 26 c3 3c
       0.07980161 0.091258 -0.054494627 0.023822166
000060 64 21 89 3c ee 5f 99 bd aa 94 5a 3d 94 fb d2 bc
       0.016739555 -0.07489 0.053364433 -0.025754727
000070 80 1f ee bc af b4 d3 3d 8b da e7 3d d6 a8 1d 3d
       -0.029067755 0.10337197 0.11320981 0.038491093
000080 3c b3 dd 3c 4a 3b 40 3d fd 56 84 3d ef ea 97 3d
       0.027063005 0.046931542 0.06461904 0.07417857
000090 fd 3c 90 3d 54 1d 31 bd 7d 68 d0 3d 0c 98 e6 3c
       0.070428826 -0.04324086 0.101761796 0.028148673
0000a0 0c a4 eb 3c 0a e4 78 3d cd 14 bd 3d ea d7 69 3d
       0.028764747 0.06076435 0.09232483 0.057090677
0000b0 bf 16 b8 3d 5c 78 3c bd 3d 8c 92 3d 30 b5 7d bc
       0.089887135 -0.04601322 0.071556546 -0.015485093
0000c0 0b 34 81 3d fc 8b 21 bd
       0.063087545 -0.03944014
