runs/TripletNet_0919a/model_best.pth.tar (torch_old, 51818 bytes, 8 tensors)

embedding_net.conv1.weight f4 [10, 1, 3, 3]
000000 cc d0 00 bf 2e d1 a1 be fa 1e d8 be a4 8d 05 bf
       -0.503186 -0.31604904 -0.42211133 -0.5216925
000010 d6 84 03 bf 8e a1 ea be 15 bc 04 bf 55 95 8f bd
       -0.51374567 -0.4582638 -0.5184949 -0.07010905
000020 d5 ee 06 bf a4 a6 c7 bd b8 f1 f9 3c e7 8f 84 3d
       -0.5270818 -0.09748581 0.030510768 0.0647276
000030 42 fd 6b 3d b5 ed 25 be 70 f3 ba bb d7 4b ea bd
       0.057614572 -0.1620396 -0.0057052895 -0.114402466
000040 f6 28 b2 bb 9b a0 57 3c 38 e7 9c bd d8 96 99 bb
       -0.005437012 0.01316085 -0.07661289 -0.0046871714
000050 a5 bd 0f be 7c bb c3 be 25 d2 0b be 1f 03 80 be
       -0.14037187 -0.38228977 -0.13654383 -0.2500238
000060 87 c0 5c be 05 c8 85 bd 74 80 6b bd 02 ba 03 be
       -0.21557818 -0.06532291 -0.05749555 -0.12863925
000070 36 10 f4 be f9 b1 ef be 2f c7 57 be e3 6b 4f 3e
       -0.47668618 -0.4681547 -0.21072076 0.20256
000080 86 c3 99 be 6f cf d1 be 52 9c b1 be 64 b2 ab be
       -0.30031985 -0.40978572 -0.34689575 -0.3353454
000090 48 db 55 be d5 54 2b bf 32 49 15 3d 80 ff 21 bf
       -0.2088443 -0.6692632 0.036446758 -0.6328049
0000a0 ee 12 b5 be 50 fe 56 be 76 ce 01 be 3a 11 bd be
       -0.35366005 -0.2099545 -0.12676415 -0.36927205
0000b0 4d b5 2a be 50 34 ca bd b2 80 3d be 52 11 9c 3d
       -0.16670723 -0.09873259 -0.18506125 0.07620491
0000c0 33 fa 5d be 35 27 a3 bd 60 49 ac be 1e b9 7f be
       -0.21677475 -0.079664625 -0.3364973 -0.2497296
0000d0 a8 74 d7 bc 96 b5 eb bd 78 ea fb 3e c5 91 6c bc
       -0.026300743 -0.11509244 0.49202323 -0.014439051
0000e0 dd af 38 3d 34 23 1b be 8a 9d c4 be 43 89 c7 3c
       0.04508959 -0.15150148 -0.38401443 0.024357444
0000f0 bf 94 0b be 84 29 36 be b2 e4 4a 3e 7e 3b 78 be
       -0.13630961 -0.17789274 0.19813803 -0.24241444
000100 5d f2 a7 be 40 6b e8 bd 3d 54 ba be d2 e0 0f be
       -0.32802096 -0.11348581 -0.36392394 -0.14050606
000110 bb 9f 95 be 89 7e ce be d6 71 35 bd da c2 f3 bd
       -0.29223427 -0.40330914 -0.044298016 -0.11902399
000120 9d 1a 94 be 1e 25 43 bf a1 9a 00 bf 08 d3 92 be
       -0.28926554 -0.7622851 -0.50235945 -0.2867663
000130 67 fb 73 bf ed cb d2 be f8 93 ff be 4c a2 2b bf
       -0.95305485 -0.41171208 -0.4991758 -0.6704452
000140 d3 66 06 bf b0 70 ad be d7 95 95 3b d7 b5 af bd
       -0.5250065 -0.33875036 0.0045649814 -0.08579605
000150 da f8 da bd 95 48 78 be 58 71 ba be 77 88 81 be
       -0.10691996 -0.24246438 -0.364146 -0.25299427
000160 56 b4 13 be e3 54 33 bb
       -0.14424261 -0.002736383

embedding_net.conv1.bias f4 [10]
000000 fe 40 db 3d 58 02 80 be 6c f2 88 3d bc fd a3 3d
       0.10705756 -0.25001788 0.06686863 0.0800738
000010 4a 8d 64 be 30 06 22 be fa fb e9 3d e4 d0 73 3d
       -0.22319523 -0.15822673 0.11425014 0.059525385
000020 56 50 11 be 8a bd ce bd
       -0.14190802 -0.100947455

embedding_net.conv2.weight f4 [20, 10, 3, 3]
000000 7d 43 50 3d 48 e1 83 bd ae ed d3 bc a5 09 9b bc
       0.05084561 -0.06439453 -0.02587017 -0.018925497
000010 99 91 4f be 32 05 39 be 18 64 3a 3d 0b 8f f8 bd
       -0.20270385 -0.18068388 0.045505613 -0.12136658
000020 21 55 cc bd e9 1d 73 3c f8 b1 9d 3c 97 e4 67 3d
       -0.099771746 0.014838674 0.019249901 0.056614485
000030 b0 86 bd 3d 9b a1 b8 bd ea 65 cf bc 4a 40 8b 3d
       0.09254205 -0.09015199 -0.025317151 0.067993715
000040 0a 8a 1e 3d 12 ba 93 3c 23 1d bf bd ca 8d d2 bd
       0.038705863 0.018033061 -0.09331729 -0.1028095
000050 b8 fb d1 bd 3a 75 dd bc 8a 9b 78 3c 67 b9 a2 bd
       -0.1025309 -0.027033437 0.015173802 -0.07945519
000060 2d 7a 2e 3d 86 3b 04 be 92 80 52 be 48 f0 33 bd
       0.042596985 -0.12913331 -0.20556858 -0.043930322
000070 8a 5d fb ba 2a 44 d6 bc 7f 58 c5 bd fc c0 14 bd
       -0.0019177657 -0.02615555 -0.0963602 -0.036316857
000080 ed e7 2a 3d 60 a3 4d bc be 8b 18 be c2 71 56 bd
       0.041725088 -0.012551159 -0.14897057 -0.05235458
000090 e7 d8 7b 3c f3 a6 2d bd 4d 56 44 be 0b 5e 11 be
       0.015371538 -0.042395543 -0.19173546 -0.14196031
0000a0 ab 9f 64 be 4c 35 50 be c9 97 f0 bd b8 5b 32 be
       -0.22326533 -0.20332831 -0.11747701 -0.174178
0000b0 3e 93 54 be 00 be e3 bc 5b 49 cd 3c ff 0f bf 3c
       -0.20759293 -0.02780056 0.025059393 0.023323057
0000c0 2a 79 5e 3d e6 13 22 3c 9b 37 2d bd 4b 5c c8 3d
       0.05431477 0.0098924395 -0.042289358 0.097832285
0000d0 19 63 cd bc 30 48 2e bd a3 c7 14 be 53 cb 53 be
       -0.025071668 -0.042549312 -0.1452928 -0.20683031
0000e0 15 74 7a be 5e cf 21 be 2e f2 96 be 67 91 1b be
       -0.24458344 -0.1580176 -0.29481643 -0.15192185
0000f0 a2 b3 41 be e5 76 d6 be 20 59 62 be e4 e5 38 3d
       -0.1891618 -0.41887584 -0.22104311 0.045141116
000100 33 6e 9f bd d1 64 c0 bb 84 85 7e bd 3c 4f de bd
       -0.07784691 -0.0058713933 -0.06213905 -0.108549565
000110 b7 36 d4 bd 28 a8 79 bd 5d 66 9a bd d0 a0 a0 bd
       -0.103619985 -0.060951382 -0.075390555 -0.078431726
000120 7e 21 80 3a 8b 36 1a bd 5e aa be 3b 28 8c 8e 3d
       0.0009775606 -0.037649672 0.005818649 0.069603264
000130 8d f1 ba bd 1e c4 63 bd 5e f4 08 be a4 c9 03 be
       -0.091281034 -0.055606954 -0.13374469 -0.12869889
000140 91 5d 36 be bb c9 19 bd 41 7c f8 bd 90 f1 72 bd
       -0.1780913 -0.0375459 -0.121330746 -0.059312403
000150 68 e3 d0 bd 6c 0d 80 bc 9b 92 8c be e6 cc c0 bd
       -0.10199624 -0.0156314 -0.274556 -0.09414081
000160 3a 4e f5 bc 16 90 06 be 6d 26 c4 bd 32 cc 07 be
       -0.029944528 -0.13140902 -0.09577642 -0.13261488
000170 5f 1a 09 be d8 84 74 be 61 27 3e bd dc 3c 68 be
       -0.13388966 -0.23878801 -0.046424273 -0.22679466
000180 45 b4 6a be 5a ab 0c be fa 43 a8 bd 70 e6 e8 bd
       -0.2292033 -0.1373724 -0.082160905 -0.113720775
000190 78 de 44 3c 5f d3 e4 bd 89 c1 f2 3c 3f 65 a9 bd
       0.012015931 -0.11173128 0.0296333 -0.08271264
0001a0 16 1e ef 3c 4c f6 91 bd 59 f4 8b bd c0 44 10 bd
       0.02918915 -0.071270555 -0.06833715 -0.035221815
0001b0 68 3d 58 bd 13 99 29 3c 36 27 ab bc 84 2e ac bd
       -0.052792937 0.010351437 -0.02089272 -0.0840731
0001c0 e1 46 0b be 25 66 49 bd 04 9c c3 bd a2 be a1 3b
       -0.13601257 -0.04916968 -0.09551242 0.0049360553
0001d0 13 f0 0f bd 00 c2 db bd 7a 63 05 be 99 20 bb 3c
       -0.035141062 -0.10730362 -0.13026229 0.022842692
0001e0 b9 7b 36 be 97 13 33 bd 18 85 2a be 2e fc 8d be
       -0.17820634 -0.043719854 -0.16652334 -0.2773146
0001f0 63 22 d5 bd 55 c0 67 be b8 2b 80 be 7b 90 83 bd
       -0.10406949 -0.22631963 -0.25033355 -0.06424042
000200 db 5f d9 bd c9 77 aa be 07 68 8b be 79 41 94 be
       -0.10613986 -0.33294514 -0.27227804 -0.28956202
000210 f4 2d 03 bf 81 68 a8 be da 39 8c be e1 87 88 3b
       -0.51241994 -0.3289223 -0.27387887 0.0041665887
000220 90 b3 ca bd 0f e5 65 3d 0f f2 d6 3b 86 58 be bd
       -0.0989753 0.05612665 0.0065596174 -0.09294228
000230 c4 b9 ec bd 54 eb ad bd fc 71 ed 3c c4 61 16 bd
       -0.115588695 -0.08492151 0.028985016 -0.03671433
000240 2f 7d 7d be 99 15 62 be 8f 6a b3 be 59 2f 08 bf
       -0.24754785 -0.22078551 -0.35042235 -0.53197247
000250 2d 0d a3 be 47 3f 98 be 35 66 40 bf 47 a2 93 be
       -0.3184599 -0.29735777 -0.75155956 -0.28834745
000260 8a f2 e7 be 94 b8 4f bc 0b 07 8a bc 51 8f a0 bd
       -0.4530223 -0.012678284 -0.016849061 -0.078398354
000270 4d 57 a5 bd 73 3c 22 3d 64 9a c4 bd 57 82 67 be
       -0.08073292 0.03960843 -0.0959976 -0.22608314
000280 12 54 23 3d d9 42 57 3c c2 24 01 be 9f 5d 1b bc
       0.039875098 0.013138496 -0.12611678 -0.00948277
000290 ac c5 cb bd c4 f7 89 be 34 5c 93 bd b6 04 6f be
       -0.09949812 -0.26946843 -0.07195321 -0.23341641
0002a0 13 0f a1 be d6 53 44 be 5b 88 39 be 33 a1 0d be
       -0.31456813 -0.19172606 -0.18118422 -0.13831024
0002b0 b4 7f 47 bd ee 78 13 bc 73 c2 8f be e1 2b 59 be
       -0.04870577 -0.009001 -0.2807804 -0.21208145
0002c0 b8 7b 34 be 69 12 38 be e0 1c 88 be 3e 71 69 bd
       -0.1762532 -0.17975773 -0.2658453 -0.05699276
0002d0 e1 19 c7 bd 36 25 27 bd 81 59 cf bb a1 5a 8d 3c
       -0.09721733 -0.04080697 -0.0063278084 0.01725513
0002e0 f5 cd 9a bd e9 f7 8a bd 26 13 cb bd 28 11 9b 3d
       -0.075588144 -0.06785566 -0.09915762 0.07571632
0002f0 35 71 cc bc dc 7c 3a 3c 81 e6 c7 bc 7c 64 be bd
       -0.024956325 0.011382308 -0.024401905 -0.092965096
000300 5c b6 57 3d fc f8 35 3d 70 2c 84 bb 93 53 7a bd
       0.052664146 0.044426903 -0.0040336177 -0.06111486
000310 34 7e 42 bd 46 42 c5 39 d0 38 bd bd c3 88 dd bd
       -0.047483638 0.00037624146 -0.09239352 -0.10817101
000320 1b 26 99 bd 6a cb 31 bd ab 2d dc bc ba c3 66 bd
       -0.07477971 -0.04340688 -0.026877245 -0.056339003
000330 db c8 78 bc 96 cb 4a bd dd af c5 bd 83 04 d4 bc
       -0.015184606 -0.04951056 -0.09652684 -0.025881058
000340 b5 f0 cd bd 88 77 dd bd 92 d6 99 bd 03 8a 8d bd
       -0.10055677 -0.108138144 -0.07511629 -0.06911089
000350 4f 54 24 be 40 cc 58 bd 47 d8 83 3d ca 5c df bd
       -0.16047786 -0.052929163 0.06437736 -0.1090637
000360 5a 6e e3 bd 57 bf bb bd 88 1c bd bd 6b 05 30 3c
       -0.11105032 -0.091673546 -0.092339575 0.010743479
000370 d5 15 bb bd 6c e6 8b bd 34 1f ce bc 52 7f 5f bd
       -0.091350235 -0.06831059 -0.025161363 -0.05456478
000380 b6 7e 23 3d 57 28 4c bd a5 21 8c bd 24 6b 52 3a
       0.039915763 -0.04984316 -0.06842355 0.00080268295
000390 55 e1 a6 bd 5b d4 26 bd 35 f2 1a 3d 88 ad 1b 3d
       -0.081484474 -0.04072986 0.037828643 0.03800729
0003a0 ee 49 ad 3d d1 25 92 bd eb e0 20 be 4a 37 92 be
       0.084613666 -0.07136119 -0.157108 -0.28557807
0003b0 66 99 a4 be 65 cd f5 bd 57 c0 af bd ff 5b 8f bd
       -0.32148284 -0.120020665 -0.08581608 -0.06999969
0003c0 2d 3b 87 bd 75 72 cb bd dd de c1 bd 86 15 8e 3d
       -0.06603084 -0.0993394 -0.09466336 0.06937699
0003d0 6f 3b 89 bd e6 57 99 bd f2 82 41 bd 9e f3 ca bd
       -0.06700789 -0.074874684 -0.04724402 -0.099097475
0003e0 b2 03 f0 bd 41 69 82 bd a5 e6 50 3d 77 33 c3 3c
       -0.11719455 -0.06367732 0.05100121 0.023828251
0003f0 10 36 05 be 2f 58 33 be 59 b6 e7 bd 5d 2c 0d 3d
       -0.13008904 -0.17514108 -0.11314077 0.034466136

embedding_net.conv2.bias f4 [20]
000000 3d 7d 43 3c 84 32 46 3d 97 1c 7c 3d 95 ea bc 3d
       0.011931715 0.04838802 0.061550703 0.092244305
000010 69 28 95 bd 7a e7 ef 3c 2a 37 bb bd 16 2b 20 3d
       -0.07283098 0.029285181 -0.09141381 0.03910359
000020 3b 26 5e bd 67 65 27 3d 95 46 9f bd 3e ef 63 3d
       -0.05423568 0.04086819 -0.07777134 0.05564808
000030 8f 37 9a 3d 97 26 6d 3d 41 6a b5 bd d6 c3 86 3d
       0.07530128 0.05789813 -0.08858157 0.065803215
000040 81 86 89 bd 96 37 ca bd 03 9e 8c 3d 7a 5a 92 3c
       -0.06715108 -0.098738834 0.06866076 0.017865408

embedding_net.fc1.weight f4 [70, 100]
000000 e9 8f 14 bd 1d f6 b6 bd 69 d4 bb 3c 81 15 4f bd
       -0.036270056 -0.08933661 0.022928433 -0.050557617
000010 e5 ef a6 bd 07 0a 9e bc a0 d3 b5 bd ac c1 16 3d
       -0.08151225 -0.01929189 -0.08878255 0.036805794
000020 1a b3 8a bd cc 8c 1e bd 2f 9e ce bd 4c d0 94 bc
       -0.06772442 -0.038708493 -0.10088765 -0.01816573
000030 a1 df 13 bd 14 21 3d 3d 3c 2f 14 bd 07 7a 50 3d
       -0.03610194 0.046174124 -0.03617786 0.050897624
000040 f6 dc 87 3d 0f 25 fa bb 22 c6 47 bd a3 5a c5 bd
       0.06633942 -0.0076338123 -0.04877294 -0.09636428
000050 ad 2b 92 bd 45 04 12 bd 17 20 83 bd bd dc 4c 3d
       -0.07137237 -0.035648603 -0.06402605 0.0500152
000060 af 44 18 bd d0 00 c9 bb 99 87 d9 bb e9 24 ba bd
       -0.037174877 -0.00613413 -0.006638479 -0.09089071
000070 48 bd 93 3d ff e0 2e bd f5 7d a9 bd 9a e7 6c bb
       0.07213837 -0.04269504 -0.082759775 -0.0036148787
000080 63 74 bc bd c1 f3 3a 3a b8 aa 90 bd 90 8a 04 bd
       -0.092018865 0.0007131659 -0.07063812 -0.032358706
000090 89 9f 20 bd 50 4a 4b 3d 69 97 6c 3d 73 cc 89 3d
       -0.039214645 0.049631417 0.057761583 0.06728449
0000a0 0e 48 e9 3b d8 5d 65 3d 1a f5 ca bd a4 29 c8 bd
       0.0071191853 0.0559977 -0.09910031 -0.09773567
0000b0 d2 16 b7 3a 87 19 a2 bc 7d 27 09 bd 3b 98 b3 bc
       0.0013968593 -0.019787563 -0.033484925 -0.021923175
0000c0 45 78 59 bd 48 f1 26 bd b1 84 22 bd 7e 23 0f bd
       -0.053093214 -0.040757447 -0.039677326 -0.034945957
0000d0 1f e9 83 3c f5 fe 97 3d 4a 69 9b bc 40 17 20 bd
       0.016102372 0.07421676 -0.018971104 -0.039084673
0000e0 e4 d5 39 3d 54 45 50 3d e4 fa 1e bc e9 7e 14 bd
       0.045369998 0.050847366 -0.009703372 -0.036253843
0000f0 91 b7 cf bd 2d 0f 8d 3b a3 62 e5 3c 76 01 a9 bd
       -0.101424344 0.0043047876 0.028001135 -0.08252232
000100 92 8d a0 bd 9c e6 dc bd 3e 64 91 3d da f6 a5 3d
       -0.078395024 -0.10786173 0.07099198 0.08103724
000110 93 78 a4 3d 47 02 91 3d e0 fb 82 bc 30 ad 0d 3d
       0.0803081 0.070805125 -0.015989244 0.034588993
000120 3c b2 22 3d 5b 90 72 bd 89 9a c9 bd 45 27 fc 3c
       0.03972076 -0.0592197 -0.09843928 0.030780444
000130 8a 5d 6a bd 7f 72 35 bd da 00 aa bd e4 f8 bd bd
       -0.057218112 -0.044298645 -0.08300944 -0.09275988
000140 9e c8 ac bc 23 4f 5d ba b0 82 56 3d 39 06 63 3d
       -0.021091755 -0.0008442273 0.052370727 0.055425856
000150 be 39 be bc b6 37 b5 3d 93 5a 68 bd 94 ea 9a bb
       -0.023220893 0.08848517 -0.056727003 -0.004727671
000160 cb 8e 8c bd 2e 1d 2b 3c 7e 77 b7 3d 59 fe ab bd
       -0.06863173 0.010443969 0.08958338 -0.08398122
000170 dd d6 a7 3c 0d bc c4 bd 2c a3 cf bc 48 23 50 bd
       0.020488197 -0.0960618 -0.025346361 -0.050814897
000180 57 08 5c bb e6 33 9d bd 93 34 97 3c de 59 d7 bd
       -0.0033574307 -0.076759145 0.018457687 -0.10515188
000190 51 a6 99 3c a2 83 2a bd e1 cf 7e bd 19 ee 9a 3d
       0.018756064 -0.04162944 -0.062209968 0.07564945
0001a0 59 30 e4 3a 6d e6 91 bd 62 e9 89 bd 5a 06 54 bd
       0.0017409428 -0.07124028 -0.06733967 -0.05176387
0001b0 36 95 80 bd 8e 2f 8a 3a a0 6a 1b bb f9 48 a4 3d
       -0.0627846 0.0010542737 -0.0023714676 0.08021731
0001c0 da 46 12 bc c5 51 96 bd a3 71 71 3d 9e 4b 4f 3c
       -0.008928025 -0.07339815 0.058946263 0.012652306
0001d0 e0 b8 3c bd 2a bb 6f 3c ed cc 4e 3d cc 64 c8 bd
       -0.046074748 0.014632026 0.0504884 -0.097848505
0001e0 fb 24 ab bd 2a 29 88 bd 1b a5 b2 bd a5 62 08 bd
       -0.08356663 -0.066484764 -0.087228976 -0.0332972
0001f0 ba c8 e5 3c 2a 50 bc bd b5 eb cb bd 45 ea b4 bd
       0.028049815 -0.091949776 -0.09957067 -0.08833746
000200 d6 9c 61 bd 89 8f 66 3d 4d d5 b1 3d 57 e4 c3 3d
       -0.05508121 0.05628923 0.08683262 0.09565037
000210 8e 93 97 bb a1 8e ba bd f3 16 b3 3d 93 90 98 bd
       -0.004625744 -0.091092356 0.087446116 -0.0744945
000220 6e 82 c4 3c 52 b6 14 3d fd 63 d0 3c cc 1c a8 3c
       0.023987975 0.036306687 0.025438303 0.020521544
000230 9d c3 c6 bd cb 60 1e bd 7d af 95 bd 22 37 68 3d
       -0.09705279 -0.038666528 -0.07308862 0.056693204
000240 dd d7 8c bd df f1 41 bc 9f cd 92 3d a4 c4 5a 3d
       -0.0687711 -0.011837452 0.07168125 0.053410187
000250 0f 64 a8 bd b9 63 b8 bd f7 36 9c 3d 97 f3 ca 3c
       -0.0822221 -0.090033956 0.07627671 0.024774356
000260 06 ae a9 bd 01 f3 a5 3d bb 1a a1 bd 0b 9c 95 3d
       -0.082851455 0.0810299 -0.078664266 0.073051535
000270 cb eb 4f 3d 19 06 6f 3d 41 75 e1 bc 2a d8 2a bb
       0.05076198 0.058355425 -0.027521731 -0.0026068785
000280 83 1b b2 bd be 4c 42 3d 71 c3 5d bc d1 57 68 3d
       -0.08696654 0.04743647 -0.013535366 0.056724373
000290 15 cf 8e bd 9b 9c 97 3d af 10 2d 3d d0 03 84 bd
       -0.069730915 0.07402917 0.04225224 -0.0644604
0002a0 46 fe 20 bc 1a 9d b4 bd da 7a 8e bd a1 68 91 bd
       -0.0098262485 -0.08819027 -0.06957026 -0.071000345
0002b0 7d 72 7b bd 3d cf c0 3c 20 ed 40 bd 9b d1 20 bd
       -0.06138848 0.023536319 -0.04710114 -0.039262395
0002c0 9a 57 7e 3d 76 b7 c4 3b dd cf 5c bd 63 5e 05 bd
       0.062095262 0.0060033156 -0.05390917 -0.032560717
0002d0 ce 08 f7 bc 49 a6 24 3d 0d 60 64 3d a6 13 95 3d
       -0.030155566 0.040197644 0.055755664 0.07279138
0002e0 6d d4 ab bd e0 41 b3 bc cd 9f 5c bc 43 0f 46 bd
       -0.083901264 -0.021881998 -0.013465834 -0.0483544
0002f0 2d c3 80 3d 29 1a 09 bd 9c c2 c6 3b b6 c6 b8 bd
       0.06287227 -0.033472214 0.0060656797 -0.09022276
000300 78 be 5d 3d dc 7f 9d bd db 7e e8 bc 01 a7 cd bd
       0.054136723 -0.07690403 -0.028380802 -0.10041619
000310 60 14 33 3d 0f 13 f4 bc a0 f6 c5 bc 71 af c4 bd
       0.043720603 -0.029794244 -0.024165452 -0.09603775
000320 57 d1 c4 ba 1b 5b e5 3c c9 9c 0e 3d 5f 00 70 3c
       -0.0015016001 0.027997544 0.03481749 0.014648526
000330 d1 d5 85 bd 03 07 2f bd 53 da 13 bd 79 b1 ac bd
       -0.06534923 -0.042731296 -0.036096882 -0.08432288
000340 5a 26 b2 bd bb bd 05 be f8 00 cc bd ef 38 59 bd
       -0.08698721 -0.13060658 -0.09961122 -0.05303281
000350 03 3c 4f 3c 42 e3 0e 3c db bd dc 3b 0e ef 4e 3c
       0.012648585 0.008721175 0.0067364997 0.012630237
000360 ca 33 ae bc 80 51 cc bd 2f 73 a4 3d 6c 47 a1 bd
       -0.02126493 -0.099764824 0.08029782 -0.07874951
000370 7b fa b6 bb a6 1f ef 3c 0d 0f 27 3c a0 06 5f bd
       -0.005584059 0.029189896 0.0101964595 -0.054449677
000380 19 b5 d6 bd 2c e7 72 3d ab 2f a8 bc 43 0d 0a 3d
       -0.104837604 0.059302494 -0.020530542 0.033704054
000390 89 53 4d 3c be 15 ca b9 d2 69 53 3c 98 5a 06 bd
       0.012532123 -0.00038544642 0.0129036475 -0.03280124
0003a0 67 92 b6 bd 69 00 80 bd e5 7d 80 3c 46 36 c5 bb
       -0.08914643 -0.06250078 0.015685031 -0.006018433
0003b0 83 4d 78 3c 89 bc b2 3c 77 98 65 bb 60 4e ef bd
       0.015155199 0.021818416 -0.0035033503 -0.11684871
0003c0 93 72 65 bd 3f 83 ba bb af a7 59 bd 8a 4c ef bc
       -0.05601747 -0.0056919153 -0.05313843 -0.029211301
0003d0 90 6b 16 bd b4 c6 a4 3d d7 27 22 bc 96 23 b8 3d
       -0.036723673 0.08045712 -0.009897194 0.089911625
0003e0 9d be ad bd 00 45 d2 bd cc 1b 2a 3c 14 6c 3f 3c
       -0.08483622 -0.10267067 0.010382604 0.011683483
0003f0 ba 6b 4e bd 02 fa 7d bd b3 4b c9 3b 52 94 13 bc
       -0.050395705 -0.062006004 0.0061430573 -0.00900753

embedding_net.fc1.bias f4 [70]
000000 75 39 c1 bc a6 93 6e 3c 04 de 57 3d 85 67 8e 3d
       -0.023586968 0.014561569 0.052701965 0.069533385
000010 da 0f 9e bd 8f 77 95 3d e2 cc 4f 3d 4d 34 9c 3b
       -0.07717867 0.072981946 0.0507325 0.004766977
000020 bc 54 c5 bd 10 7b 24 3c 94 1e 73 3c cf c0 47 bd
       -0.096353024 0.010039106 0.014838833 -0.04876786
000030 90 fd 5c bd d7 e7 a2 bd 95 1d 8f bb c3 76 47 3c
       -0.053952754 -0.07954376 -0.00436754 0.012174311
000040 a4 f9 98 3d 67 0a 8a 3d 5d cb 02 bd c8 79 88 3c
       0.0746949 0.06740265 -0.031932224 0.016659632
000050 46 53 8d 3d b9 21 64 3d 7c cd 02 3c d1 7f 71 3d
       0.06900649 0.055696223 0.007983562 0.058959786
000060 56 9d 84 bd d3 83 7f 3c f1 d5 6e 3b d1 a1 8f 3d
       -0.06475322 0.015595394 0.0036443437 0.07013286
000070 7d d7 9d bc 18 34 bd bd c4 4e 85 bc c7 8f fa bb
       -0.019267792 -0.09238452 -0.01627291 -0.007646534
000080 e8 ba b3 3c 55 50 c9 bd 85 d9 8a bd 8f f2 52 3d
       0.02193971 -0.09829775 -0.0677977 0.051500853
000090 a5 7f 91 3d 11 59 87 3c 93 8b 12 3c f8 7e a8 3d
       0.071044244 0.016521962 0.00894441 0.08227342
0000a0 12 5f bc bd df b1 07 bc e9 01 a1 3d 90 de aa 3d
       -0.09197821 -0.008282154 0.078616925 0.08343232
0000b0 03 e0 be bc c5 7b c2 3b 01 2a a3 bd 47 ac e6 3b
       -0.023300176 0.0059351646 -0.07966996 0.00703958
0000c0 40 5a 2d 3d 88 31 85 3c 26 e9 1d bd 73 2c c5 bd
       0.042322397 0.01625897 -0.038552426 -0.09627619
0000d0 75 13 ca 3b 0f 8f a2 bd 84 84 cf 3c dd 70 a9 bd
       0.0061668702 -0.079374425 0.025331743 -0.0827348
0000e0 27 15 72 3d f3 54 b8 bd 53 1e 9a 3c a7 6c 21 3d
       0.059102204 -0.09000578 0.018813288 0.03941026
0000f0 4d c9 9c 3d 3e 3c 91 3d 2c ad 2f bb e5 0d 80 3d
       0.076555826 0.070915684 -0.00268061 0.0625265
000100 c2 75 95 bc 54 e7 73 3d 03 8a 8c 3d 07 e6 30 bd
       -0.018244628 0.059546784 0.06862261 -0.04318812
000110 ba cd 35 3d 67 6a f4 bc
       0.04438565 -0.029835893

embedding_net.fc2.weight f4 [50, 70]
000000 31 e1 59 3d 00 3c e1 3d da 02 83 bd 67 b0 a1 bd
       0.053193275 0.10997772 -0.06397028 -0.07894974
000010 86 4b 8d bd c0 8f a4 bd ea 3f a6 3d be d0 32 3d
       -0.068991706 -0.08035231 0.081176594 0.043656103
000020 29 26 62 bd 90 0b 46 3d df 73 c4 3d 91 28 6b bd
       -0.055212174 0.04835087 0.09592413 -0.057411734
000030 66 b8 4d 3d dd 6a 3a bd 1b d4 c4 3c 11 dd be bd
       0.050224684 -0.04551207 0.024026921 -0.09319509
000040 c4 31 12 bd 10 83 84 3d 5a 15 a3 bd de d6 5f bd
       -0.03569199 0.06470311 -0.07963057 -0.054648273
000050 b2 06 89 3d d9 45 32 bd f4 a9 be 3d 4b 2f 0a 3d
       0.0669073 -0.043523643 0.0930976 0.03373651
000060 91 0d 4d 3d 89 12 6c 3d c6 f1 32 bb 26 01 ae bc
       0.050061766 0.057634864 -0.0027304753 -0.021240782
000070 2c 26 98 bd 0d 61 9e bd c3 cc 60 bd fd 47 83 3d
       -0.07429156 -0.07733355 -0.054882776 0.06410215
000080 35 bd a5 bd 82 c6 34 bd 9e 1e 2a 3d 67 6b 25 bc
       -0.08092729 -0.044134624 0.041533105 -0.0100964075
000090 a9 91 30 3d 1b 82 c3 3c c6 af b8 3c e9 e1 88 bd
       0.043107662 0.02386575 0.022544753 -0.06683714
0000a0 e4 cc 54 3d 5b f9 1d 3d 89 45 65 bd c0 87 15 3d
       0.05195321 0.038567882 -0.055974517 0.036506414
0000b0 b5 3f c2 3d 5b 13 1a 3c 88 f3 c4 3c d8 61 76 3b
       0.094848074 0.009404029 0.024041906 0.003759494
0000c0 46 34 0e 3d d0 e6 63 bd f3 d7 12 3d 53 33 c0 bc
       0.03471782 -0.05564004 0.035850476 -0.023461973
0000d0 eb 67 aa bd 3e dd e3 3d d0 b8 9e 3d 18 f3 e3 3d
       -0.08320602 0.11126183 0.07750094 0.11130351
0000e0 d0 51 3a bd f2 12 cc 3d c3 cc a0 bd ff 5d 51 bd
       -0.04548818 0.09964551 -0.07851555 -0.051115032
0000f0 10 07 ff 3c a0 d8 8e 3d 70 70 ad bd ba 40 b7 3d
       0.031131297 0.06974912 -0.084687114 0.089478925
000100 81 b7 8e 3c 73 86 30 3d a5 0d 15 bc f1 ab 02 3e
       0.017421486 0.04309697 -0.009097491 0.12760903
000110 b3 6a ee 3b a9 53 f8 3b 17 75 40 bd ac 92 50 bd
       0.007275903 0.0075783324 -0.046986666 -0.050921127
000120 b8 dd ae 3d 19 ff 01 bd 4a 31 a1 bc 99 f3 0b 3d
       0.08538383 -0.03173742 -0.019676823 0.03416786
000130 b3 0d c0 bd 13 8d 60 3d ec 86 9e 3d a1 c4 c3 3d
       -0.09377613 0.05482204 0.07740578 0.09558988
000140 c7 ca cd 3b 84 46 64 bd e1 84 9a 3d 12 81 99 3d
       0.0062802765 -0.05573131 0.07544876 0.07495321
000150 67 e3 ed 3d 16 b4 bd bd 5d 51 58 bd e7 56 c6 bd
       0.11615639 -0.09262864 -0.05281197 -0.09684544
000160 64 95 aa bd 35 f1 c2 3d fe 94 dc bd 1a 77 4c 3d
       -0.08329275 0.09518663 -0.107706055 0.04991827
000170 c8 4a 9b bc c2 74 bb 3d 63 28 d2 3d 5e b3 e8 3c
       -0.018956557 0.09153129 0.102616094 0.028405841
000180 80 b5 b7 bc 43 9d 97 3d 07 d8 55 3d e5 e1 b3 bc
       -0.022425413 0.07403042 0.052207973 -0.0219583
000190 3f 31 b0 bd 0d ee a3 3c 75 48 06 bd 4f 6f 18 bd
       -0.08603143 0.020010972 -0.032783944 -0.037215527
0001a0 8a 8f d2 3c b7 9b a2 3d 92 78 c5 bd 31 c9 7b 3d
       0.02570321 0.079398565 -0.096421376 0.061471168
0001b0 d2 30 22 bb c8 e5 86 bb 7a 46 d5 3d 3b 13 5a 3c
       -0.0024748337 -0.0041167475 0.10413833 0.013310249
0001c0 65 fe 3a bd 87 28 b8 bc 89 87 99 bc 63 ad ae bd
       -0.045652766 -0.022480262 -0.018741386 -0.08529165
0001d0 78 3d 94 bd 58 76 56 3d 07 97 c7 bd eb f4 f2 bc
       -0.07238287 0.052358955 -0.09745603 -0.029657802
0001e0 8e 90 bb 3d 5d ef 12 3a 55 8a 06 bd b7 a6 ad bc
       0.09158431 0.0005605126 -0.032846767 -0.02119766
0001f0 0e c3 66 bc 38 11 9f bd 5a 3b c8 bd ae 0f b3 bb
       -0.014084591 -0.07766956 -0.097769454 -0.0054645156
000200 dd 0b db 3c 07 02 9d 3d 51 d2 02 bc 38 92 85 bd
       0.026739055 0.07666402 -0.007984714 -0.0652203
000210 e8 b1 66 3d ff 4a a4 bd 6b e9 f3 3c 08 2d 72 3d
       0.05632201 -0.08022117 0.029774388 0.059124976
000220 03 ec 6d bc 40 7b 87 3d a1 06 b8 bd f9 0d 13 bd
       -0.014521602 0.06615305 -0.08985639 -0.035901997
000230 d2 2f 79 3d 13 ea e4 3d 42 76 bb 3d cb e3 e9 3c
       0.06083662 0.111774586 0.09153415 0.028551003
000240 f1 67 ba bd 58 b2 c3 bc 53 99 a7 bd 2f 88 8b bd
       -0.091018565 -0.023888752 -0.08183541 -0.06813084
000250 b7 24 0f bd 21 8d ec bc 9d 55 c3 3d 72 a5 ae bd
       -0.034947123 -0.02887589 0.09537814 -0.0852765
000260 ca 5e 8f 3d 0c c1 3a 3d 65 92 9c bd 43 97 0c bc
       0.070005015 0.04559426 -0.0764511 -0.0085809855
000270 54 ee 8b bd 1a 84 ca 3c 0d bc 10 3d 93 bb 6e bd
       -0.06832567 0.024721194 0.03533559 -0.058284353
000280 4e db b6 3d d6 c2 61 bd 1b 98 94 bc fe a2 51 3a
       0.08928548 -0.05511745 -0.018138936 0.0007997005
000290 70 fa 8c bd dd 13 95 bc da b1 23 bd 1f 0a 47 3c
       -0.06883705 -0.018197948 -0.039964534 0.012148409
0002a0 3d dc 85 3c a4 23 b1 bd 39 b6 b1 3d 4c 5f 3f 3c
       0.01634037 -0.08649376 0.08677334 0.011680435
0002b0 09 2b dd 3d 88 6d cf 3c d2 2b 23 bd 72 ca 15 bd
       0.10799224 0.025320783 -0.039836712 -0.03657002
0002c0 8e b2 49 bc ee ab 98 bc 59 f3 2f 3d dd 61 6f bc
       -0.012310637 -0.01863667 0.042956684 -0.014610735
0002d0 c3 c5 37 bd 57 35 2f 3d 8d 64 e9 3d 71 37 01 bc
       -0.044866335 0.04277548 0.11396132 -0.007886753
0002e0 23 87 48 3d f8 86 a2 bd c6 c2 71 bd ef d9 dc bd
       0.048957 -0.079358995 -0.05902364 -0.10783755
0002f0 8f b2 58 bd 4a 24 80 3d cc d5 c5 3d 57 9c e4 3d
       -0.05290466 0.062569216 0.09659919 0.11162632
000300 d6 be 80 3c 71 bb 49 bd d3 bf 4d b9 f7 8d 52 3d
       0.015715998 -0.049251024 -0.00019621784 0.05140492
000310 71 d3 7e 3d bb d0 df bc 63 e6 93 bc 2e f9 c3 bd
       0.062213365 -0.02732121 -0.018054193 -0.09569012
000320 7f f4 35 3d ee 4a 81 3c 6a fa 9c bd 60 0f a0 3c
       0.044422623 0.0157828 -0.0766495 0.019538581
000330 86 0c a9 3c 26 15 96 bd fa 0a e8 3d 6b 6f 66 bd
       0.020635854 -0.073282525 0.113302186 -0.0562586
000340 0b d4 5b 3d b2 52 2c bd da 7b 93 bd 46 5b 35 bd
       0.053669017 -0.042071052 -0.07201357 -0.0442765
000350 12 7f 93 bc 25 78 ce bc 66 b1 2a 3d c1 c8 d3 bd
       -0.018004928 -0.025203774 0.041673087 -0.10341025
000360 3a 10 7a bd ea c3 ad bc 68 52 a8 bd 34 42 65 bd
       -0.06105063 -0.021211583 -0.08218843 -0.05597134
000370 83 06 d4 bd a3 ac 46 3d 1b c1 7b bd f0 63 89 3d
       -0.103528045 0.048504483 -0.061463457 0.06708515
000380 4d 70 cf 3d 3b 78 9e bd 72 a3 a1 3d 14 c1 08 bd
       0.101288415 -0.07737776 0.07892503 -0.03338726
000390 8b af d7 3d 90 20 33 3d 8e 3a 67 3d d0 bd 00 bd
       0.10531529 0.043732226 0.056452326 -0.03143102
0003a0 98 78 a1 3c bd c3 4b bc c1 c9 e5 3c cf 8c 85 3c
       0.019710824 -0.012436804 0.028050305 0.016302494
0003b0 66 0e ac bd c1 74 0d 3d e9 f8 99 bd 5c 91 b7 3d
       -0.08401184 0.034535173 -0.07518179 0.08963272
0003c0 f8 e2 9c bd c8 3c be bb 80 f4 98 3d 1a 0d db bd
       -0.07660478 -0.0058055855 0.0746851 -0.10695858
0003d0 4e 10 8d bd cd 13 ba 3d 7c cc 84 bd d2 8c 89 3d
       -0.068878755 0.09085808 -0.06484315 0.067163125
0003e0 19 e2 83 3d 1f 84 a9 bd cb a3 96 bd e5 99 c9 bd
       0.06439609 -0.08277153 -0.0735546 -0.09843806
0003f0 2a 9f 0b bd 55 fe 06 bd a5 74 83 3d 53 a0 bb bd
       -0.034087338 -0.032957394 0.064187326 -0.09161439

embedding_net.fc2.bias f4 [50]
000000 3c 15 55 bd b3 81 f1 3d 20 be 3d bb 49 05 f3 3d
       -0.052022204 0.11792316 -0.0028952435 0.118662424
000010 a4 78 bd bc 98 77 87 bd b7 f6 83 3d 57 37 ae 3d
       -0.023128815 -0.066146076 0.064435415 0.08506649
000020 b9 85 d4 bd a8 a6 a9 bc 24 52 a2 3c 06 64 96 bd
       -0.10377068 -0.02070935 0.019814558 -0.07343297
000030 bf 69 f0 3d 36 c7 45 3d a2 59 1b bd b4 d0 a4 bc
       0.117389195 0.048285685 -0.037927277 -0.020119049
000040 44 c1 81 3c ff ed e1 bd 24 ba dc 3c a9 4b be 3d
       0.015839227 -0.11031722 0.026944228 0.09291775
000050 07 6f a3 3d 79 e5 ba 3d c2 35 5f bd b4 26 c3 3c
       0.07980161 0.091258 -0.054494627 0.023822166
000060 64 21 89 3c ee 5f 99 bd aa 94 5a 3d 94 fb d2 bc
       0.016739555 -0.07489 0.053364433 -0.025754727
000070 80 1f ee bc af b4 d3 3d 8b da e7 3d d6 a8 1d 3d
       -0.029067755 0.10337197 0.11320981 0.038491093
000080 3c b3 dd 3c 4a 3b 40 3d fd 56 84 3d ef ea 97 3d
       0.027063005 0.046931542 0.06461904 0.07417857
000090 fd 3c 90 3d 54 1d 31 bd 7d 68 d0 3d 0c 98 e6 3c
       0.070428826 -0.04324086 0.101761796 0.028148673
0000a0 0c a4 eb 3c 0a e4 78 3d cd 14 bd 3d ea d7 69 3d
       0.028764747 0.06076435 0.09232483 0.057090677
0000b0 bf 16 b8 3d 5c 78 3c bd 3d 8c 92 3d 30 b5 7d bc
       0.089887135 -0.04601322 0.071556546 -0.015485093
0000c0 0b 34 81 3d fc 8b 21 bd
       0.063087545 -0.03944014
