runs/TripletNet_0919b/checkpoint.pth.tar (torch_old, 51818 bytes, 8 tensors)

embedding_net.conv1.weight f4 [10, 1, 3, 3]
00000000: d6d0 00bf 30d1 a1be ec1e d8be b78d 05bf
00000010: d184 03bf 9ea1 eabe 1bbc 04bf 5a95 8fbd
00000020: d3ee 06bf 9ca6 c7bd 6df1 f93c e28f 843d
00000030: 1afd 6b3d b8ed 25be e0f3 babb c84b eabd
00000040: b629 b2bb 07a1 573c 67e7 9cbd af96 99bb
00000050: a2bd 0fbe 71bb c3be 25d2 0bbe 2103 80be
00000060: 81c0 5cbe fdc7 85bd 6a80 6bbd 01ba 03be
00000070: 3310 f4be 09b2 efbe 38c7 57be e16b 4f3e
00000080: 8cc3 99be 6dcf d1be 4f9c b1be 64b2 abbe
00000090: 40db 55be cc54 2bbf 4d49 153d 81ff 21bf
000000a0: d312 b5be 53fe 56be 69ce 01be 4611 bdbe
000000b0: 4db5 2abe 5a34 cabd ad80 3dbe 4d11 9c3d
000000c0: 31fa 5dbe 3e27 a3bd 6049 acbe 1bb9 7fbe
000000d0: e274 d7bc 99b5 ebbd 8aea fb3e ee8e 6cbc
000000e0: 84b0 383d 1823 1bbe 869d c4be 468a c73c
000000f0: a494 0bbe 5629 36be e0e4 4a3e a73b 78be
00000100: 58f2 a7be 3c6b e8bd 2f54 babe d0e0 0fbe
00000110: bb9f 95be 887e cebe 0272 35bd ddc2 f3bd
00000120: 961a 94be 1425 43bf 9d9a 00bf 12d3 92be
00000130: 5ffb 73bf e9cb d2be fe93 ffbe 4fa2 2bbf
00000140: d166 06bf ba70 adbe 5795 953b dfb5 afbd
00000150: 18f9 dabd 9c48 78be 5c71 babe 7088 81be
00000160: 4db4 13be 6451 33bb
-0.5031866 -0.3160491 -0.42211092 -0.52169365 -0.51374537 -0.4582643 -0.51849526 -0.070109084
-0.52708167 -0.09748575 0.030510629 0.06472756 0.057614423 -0.16203964 -0.0057053417 -0.114402354
-0.0054371012 0.0131609505 -0.07661324 -0.0046871523 -0.14037183 -0.38228944 -0.13654383 -0.25002387
-0.2155781 -0.06532285 -0.057495512 -0.12863924 -0.4766861 -0.46815518 -0.2107209 0.20255996
-0.30032003 -0.40978566 -0.34689566 -0.3353454 -0.20884418 -0.66926265 0.03644686 -0.63280493
-0.35365924 -0.20995454 -0.12676395 -0.3692724 -0.16670723 -0.098732665 -0.18506117 0.07620487
-0.21677472 -0.07966469 -0.3364973 -0.24972956 -0.026300851 -0.115092464 0.49202377 -0.014438374
0.045090213 -0.15150106 -0.3840143 0.024357926 -0.1363092 -0.17789206 0.19813871 -0.24241506
-0.3280208 -0.11348578 -0.36392352 -0.14050603 -0.29223427 -0.4033091 -0.04429818 -0.119024016
-0.28926533 -0.7622845 -0.5023592 -0.2867666 -0.95305437 -0.41171196 -0.49917597 -0.6704454
-0.52500635 -0.33875066 0.004564922 -0.08579611 -0.10692042 -0.24246448 -0.3641461 -0.25299406
-0.14424248 -0.0027361745

embedding_net.conv1.bias f4 [10]
00000000: fe40 db3d 5802 80be 6cf2 883d bcfd a33d
00000010: 4a8d 64be 3006 22be 11fc e93d e4d0 733d
00000020: 5650 11be 8abd cebd
0.10705756 -0.25001788 0.06686863 0.0800738 -0.22319523 -0.15822673 0.11425031 0.059525385
-0.14190802 -0.100947455

embedding_net.conv2.weight f4 [20, 10, 3, 3]
00000000: 7d43 503d 49e1 83bd aeed d3bc a009 9bbc
00000010: 9991 4fbe 3205 39be 1864 3a3d 0f8f f8bd
00000020: 2155 ccbd ea1d 733c f8b1 9d3c 91e4 673d
00000030: b086 bd3d 9ba1 b8bd eb65 cfbc 4e40 8b3d
00000040: 108a 1e3d 14ba 933c 231d bfbd c98d d2bd
00000050: b9fb d1bd 3a75 ddbc 8a9b 783c 67b9 a2bd
00000060: 2d7a 2e3d 873b 04be 9280 52be 48f0 33bd
00000070: 475d fbba 2644 d6bc 8158 c5bd fcc0 14bd
00000080: eee7 2a3d 6da3 4dbc bc8b 18be c571 56bd
00000090: f3d8 7b3c f1a6 2dbd 4c56 44be 0b5e 11be
000000a0: ad9f 64be 4d35 50be ca97 f0bd b85b 32be
000000b0: 3f93 54be 00be e3bc 5b49 cd3c fd0f bf3c
000000c0: 2a79 5e3d e113 223c 9b37 2dbd 4b5c c83d
000000d0: 1963 cdbc 3048 2ebd a3c7 14be 53cb 53be
000000e0: 1374 7abe 5dcf 21be 2df2 96be 6691 1bbe
000000f0: a3b3 41be e476 d6be 2059 62be e4e5 383d
00000100: 336e 9fbd e064 c0bb 8285 7ebd 3b4f debd
00000110: b736 d4bd 28a8 79bd 5c66 9abd d2a0 a0bd
00000120: 9e21 803a 8f36 1abd 6caa be3b 288c 8e3d
00000130: 8df1 babd 1ec4 63bd 5ef4 08be a4c9 03be
00000140: 935d 36be bac9 19bd 417c f8bd 8df1 72bd
00000150: 68e3 d0bd 710d 80bc 9b92 8cbe e7cc c0bd
00000160: 364e f5bc 1790 06be 6d26 c4bd 33cc 07be
00000170: 5e1a 09be d984 74be 6127 3ebd db3c 68be
00000180: 45b4 6abe 5aab 0cbe 0244 a8bd 70e6 e8bd
00000190: 79de 443c 5fd3 e4bd 89c1 f23c 3f65 a9bd
000001a0: 181e ef3c 4cf6 91bd 59f4 8bbd be44 10bd
000001b0: 693d 58bd 0c99 293c 3827 abbc 852e acbd
000001c0: e146 0bbe 2b66 49bd 049c c3bd 91be a13b
000001d0: 10f0 0fbd 01c2 dbbd 7a63 05be 9520 bb3c
000001e0: b87b 36be 9213 33bd 1885 2abe 2efc 8dbe
000001f0: 5b22 d5bd 55c0 67be b82b 80be 7d90 83bd
00000200: df5f d9bd cd77 aabe 0768 8bbe 7841 94be
00000210: f42d 03bf 7f68 a8be da39 8cbe e187 883b
00000220: 91b3 cabd 0ee5 653d 0ff2 d63b 8558 bebd
00000230: c5b9 ecbd 55eb adbd fc71 ed3c c461 16bd
00000240: 2f7d 7dbe 9815 62be 8f6a b3be 592f 08bf
00000250: 2e0d a3be 473f 98be 3366 40bf 47a2 93be
00000260: 86f2 e7be 9fb8 4fbc 0c07 8abc 518f a0bd
00000270: 4d57 a5bd 723c 223d 649a c4bd 5782 67be
00000280: 1654 233d d442 573c c124 01be af5d 1bbc
00000290: a9c5 cbbd c2f7 89be 355c 93bd b604 6fbe
000002a0: 150f a1be d653 44be 5d88 39be 36a1 0dbe
000002b0: b27f 47bd f778 13bc 72c2 8fbe e12b 59be
000002c0: b87b 34be 6d12 38be e01c 88be 4171 69bd
000002d0: e219 c7bd 3425 27bd 8159 cfbb a15a 8d3c
000002e0: f5cd 9abd e9f7 8abd 2613 cbbd 2811 9b3d
000002f0: 3571 ccbc db7c 3a3c 80e6 c7bc 7c64 bebd
00000300: 5ab6 573d fcf8 353d 702c 84bb 9353 7abd
00000310: 347e 42bd 3f42 c539 d038 bdbd c388 ddbd
00000320: 1b26 99bd 6acb 31bd a92d dcbc bac3 66bd
00000330: dbc8 78bc 95cb 4abd ddaf c5bd 8704 d4bc
00000340: b5f0 cdbd 8d77 ddbd 92d6 99bd 038a 8dbd
00000350: 4f54 24be 40cc 58bd 47d8 833d ca5c dfbd
00000360: 5a6e e3bd 54bf bbbd 861c bdbd 6e05 303c
00000370: d315 bbbd 6be6 8bbd 341f cebc 537f 5fbd
00000380: b77e 233d 5628 4cbd a521 8cbd 246b 523a
00000390: 55e1 a6bd 5bd4 26bd 35f2 1a3d 88ad 1b3d
000003a0: ee49 ad3d d125 92bd e9e0 20be 4b37 92be
000003b0: 6599 a4be 67cd f5bd 58c0 afbd fe5b 8fbd
000003c0: 2c3b 87bd 7872 cbbd ddde c1bd 8715 8e3d
000003d0: 6f3b 89bd e657 99bd f382 41bd 9cf3 cabd
000003e0: b203 f0bd 4169 82bd a6e6 503d 7733 c33c
000003f0: 1036 05be 2e58 33be 57b6 e7bd 622c 0d3d
0.05084561 -0.06439454 -0.02587017 -0.018925488 -0.20270385 -0.18068388 0.045505613 -0.12136661
-0.099771746 0.014838675 0.019249901 0.056614462 0.09254205 -0.09015199 -0.025317153 0.067993745
0.038705885 0.018033065 -0.09331729 -0.102809496 -0.102530904 -0.027033437 0.015173802 -0.07945519
0.042596985 -0.12913333 -0.20556858 -0.043930322 -0.0019177579 -0.026155543 -0.096360214 -0.036316857
0.04172509 -0.012551171 -0.14897054 -0.052354593 0.015371549 -0.042395536 -0.19173545 -0.14196031
-0.22326536 -0.20332833 -0.117477015 -0.174178 -0.20759295 -0.02780056 0.025059393 0.023323053
0.05431477 0.009892435 -0.042289358 0.097832285 -0.025071668 -0.042549312 -0.1452928 -0.20683031
-0.24458341 -0.15801759 -0.2948164 -0.15192184 -0.18916182 -0.4188758 -0.22104311 0.045141116
-0.07784691 -0.0058714002 -0.06213904 -0.10854956 -0.103619985 -0.060951382 -0.07539055 -0.07843174
0.0009775644 -0.037649687 0.0058186557 0.069603264 -0.091281034 -0.055606954 -0.13374469 -0.12869889
-0.17809133 -0.037545897 -0.121330746 -0.059312392 -0.10199624 -0.01563141 -0.274556 -0.09414082
-0.02994452 -0.13140903 -0.09577642 -0.1326149 -0.13388965 -0.23878802 -0.046424273 -0.22679465
-0.2292033 -0.1373724 -0.082160965 -0.113720775 0.012015932 -0.11173128 0.0296333 -0.08271264
0.029189155 -0.071270555 -0.06833715 -0.035221808 -0.05279294 0.010351431 -0.020892724 -0.084073104
-0.13601257 -0.0491697 -0.09551242 0.0049360474 -0.03514105 -0.10730363 -0.13026229 0.022842685
-0.17820632 -0.043719836 -0.16652334 -0.2773146 -0.104069434 -0.22631963 -0.25033355 -0.06424043
-0.10613989 -0.33294526 -0.27227804 -0.289562 -0.51241994 -0.32892224 -0.27387887 0.0041665887
-0.09897531 0.056126647 0.0065596174 -0.092942275 -0.1155887 -0.08492152 0.028985016 -0.03671433
-0.24754785 -0.2207855 -0.35042235 -0.53197247 -0.31845993 -0.29735777 -0.75155944 -0.28834745
-0.45302218 -0.012678294 -0.016849063 -0.078398354 -0.08073292 0.039608426 -0.0959976 -0.22608314
0.039875112 0.013138492 -0.12611677 -0.009482785 -0.0994981 -0.26946837 -0.071953215 -0.23341641
-0.3145682 -0.19172606 -0.18118425 -0.13831028 -0.048705764 -0.009001008 -0.28078038 -0.21208145
-0.1762532 -0.17975779 -0.2658453 -0.056992773 -0.09721734 -0.040806964 -0.0063278084 0.01725513
-0.075588144 -0.06785566 -0.09915762 0.07571632 -0.024956325 0.011382307 -0.024401903 -0.092965096
0.05266414 0.044426903 -0.0040336177 -0.06111486 -0.047483638 0.00037624125 -0.09239352 -0.10817101
-0.07477971 -0.04340688 -0.026877241 -0.056339003 -0.015184606 -0.049510557 -0.09652684 -0.025881065
-0.10055677 -0.10813818 -0.07511629 -0.06911089 -0.16047786 -0.052929163 0.06437736 -0.1090637
-0.11105032 -0.09167352 -0.09233956 0.010743482 -0.09135022 -0.06831058 -0.025161363 -0.054564785
0.039915767 -0.049843155 -0.06842355 0.00080268295 -0.081484474 -0.04072986 0.037828643 0.03800729
0.084613666 -0.07136119 -0.15710796 -0.2855781 -0.3214828 -0.12002068 -0.085816085 -0.06999968
-0.06603083 -0.099339426 -0.09466336 0.069377 -0.06700789 -0.074874684 -0.047244024 -0.09909746
-0.11719455 -0.06367732 0.051001213 0.023828251 -0.13008904 -0.17514107 -0.113140754 0.034466155

embedding_net.conv2.bias f4 [20]
00000000: 3c7d 433c 8432 463d 971c 7c3d 95ea bc3d
00000010: 6928 95bd 7ae7 ef3c 2a37 bbbd 162b 203d
00000020: 3b26 5ebd 6765 273d 9546 9fbd 3eef 633d
00000030: 8f37 9a3d 9726 6d3d 416a b5bd d6c3 863d
00000040: 8186 89bd 9637 cabd 039e 8c3d 2b59 923c
0.011931714 0.04838802 0.061550703 0.092244305 -0.07283098 0.029285181 -0.09141381 0.03910359
-0.05423568 0.04086819 -0.07777134 0.05564808 0.07530128 0.05789813 -0.08858157 0.065803215
-0.06715108 -0.098738834 0.06866076 0.017864784

embedding_net.fc1.weight f4 [70, 100]
00000000: e98f 14bd 1df6 b6bd 69d4 bb3c 8115 4fbd
00000010: e5ef a6bd 070a 9ebc a0d3 b5bd acc1 163d
00000020: 1ab3 8abd cc8c 1ebd 2f9e cebd 4cd0 94bc
00000030: a1df 13bd 1421 3d3d 3c2f 14bd 077a 503d
00000040: f6dc 873d 0f25 fabb 22c6 47bd a35a c5bd
00000050: ad2b 92bd 4504 12bd 1720 83bd bddc 4c3d
00000060: af44 18bd d000 c9bb 9987 d9bb e924 babd
00000070: 48bd 933d ffe0 2ebd f57d a9bd 9ae7 6cbb
00000080: 6374 bcbd c1f3 3a3a b8aa 90bd 908a 04bd
00000090: 899f 20bd 504a 4b3d 6997 6c3d 73cc 893d
000000a0: 0e48 e93b d85d 653d 1af5 cabd a429 c8bd
000000b0: d216 b73a 8719 a2bc 7d27 09bd 3b98 b3bc
000000c0: 4578 59bd 48f1 26bd b184 22bd 7e23 0fbd
000000d0: 1fe9 833c f5fe 973d 4a69 9bbc 4017 20bd
000000e0: e4d5 393d 5445 503d e4fa 1ebc e97e 14bd
000000f0: 91b7 cfbd 2d0f 8d3b a462 e53c 7601 a9bd
00000100: 928d a0bd 9ce6 dcbd 3e64 913d daf6 a53d
00000110: 9378 a43d 4702 913d e0fb 82bc 30ad 0d3d
00000120: 3cb2 223d 5b90 72bd 899a c9bd 4527 fc3c
00000130: 8a5d 6abd 7f72 35bd da00 aabd e4f8 bdbd
00000140: 9ec8 acbc 234f 5dba b182 563d 3906 633d
00000150: be39 bebc b637 b53d 935a 68bd 94ea 9abb
00000160: cb8e 8cbd 2e1d 2b3c 7e77 b73d 59fe abbd
00000170: ddd6 a73c 0dbc c4bd 2ca3 cfbc 4823 50bd
00000180: 5708 5cbb e533 9dbd 9334 973c de59 d7bd
00000190: 51a6 993c a283 2abd e1cf 7ebd 1aee 9a3d
000001a0: 5930 e43a 6de6 91bd 62e9 89bd 5a06 54bd
000001b0: 3695 80bd 8d2f 8a3a a06a 1bbb f948 a43d
000001c0: da46 12bc c551 96bd a371 713d 9e4b 4f3c
000001d0: e0b8 3cbd 2abb 6f3c edcc 4e3d cc64 c8bd
000001e0: fb24 abbd 2a29 88bd 1ba5 b2bd a562 08bd
000001f0: bac8 e53c 2a50 bcbd b5eb cbbd 45ea b4bd
00000200: d69c 61bd 898f 663d 4dd5 b13d 57e4 c33d
00000210: 8e93 97bb a18e babd f316 b33d 9390 98bd
00000220: 6e82 c43c 52b6 143d fd63 d03c cc1c a83c
00000230: 9dc3 c6bd cb60 1ebd 7daf 95bd 2137 683d
00000240: ddd7 8cbd dff1 41bc 9fcd 923d a4c4 5a3d
00000250: 0f64 a8bd b963 b8bd f736 9c3d 97f3 ca3c
00000260: 06ae a9bd 01f3 a53d bb1a a1bd 0b9c 953d
00000270: cbeb 4f3d 1906 6f3d 4175 e1bc 29d8 2abb
00000280: 831b b2bd be4c 423d 71c3 5dbc d157 683d
00000290: 15cf 8ebd 9b9c 973d af10 2d3d d003 84bd
000002a0: 46fe 20bc 1a9d b4bd da7a 8ebd a168 91bd
000002b0: 7d72 7bbd 3dcf c03c 20ed 40bd 9bd1 20bd
000002c0: 9a57 7e3d 74b7 c43b ddcf 5cbd 635e 05bd
000002d0: ce08 f7bc 49a6 243d 0d60 643d a613 953d
000002e0: 6dd4 abbd e041 b3bc cd9f 5cbc 430f 46bd
000002f0: 2dc3 803d 291a 09bd 9cc2 c63b b6c6 b8bd
00000300: 78be 5d3d dc7f 9dbd db7e e8bc 01a7 cdbd
00000310: 6014 333d 0f13 f4bc a0f6 c5bc 71af c4bd
00000320: 57d1 c4ba 1b5b e53c c99c 0e3d 5f00 703c
00000330: d1d5 85bd 0307 2fbd 53da 13bd 79b1 acbd
00000340: 5a26 b2bd bbbd 05be f800 ccbd ef38 59bd
00000350: 053c 4f3c 42e3 0e3c dbbd dc3b 0eef 4e3c
00000360: ca33 aebc 8051 ccbd 2f73 a43d 6c47 a1bd
00000370: 7bfa b6bb a61f ef3c 0d0f 273c a006 5fbd
00000380: 19b5 d6bd 2ce7 723d ab2f a8bc 430d 0a3d
00000390: 8953 4d3c be15 cab9 d269 533c 985a 06bd
000003a0: 6792 b6bd 6900 80bd e57d 803c 4636 c5bb
000003b0: 834d 783c 89bc b23c 7798 65bb 604e efbd
000003c0: 9372 65bd 3f83 babb afa7 59bd 8a4c efbc
000003d0: 906b 16bd b4c6 a43d d727 22bc 9623 b83d
000003e0: 9dbe adbd 0045 d2bd cc1b 2a3c 146c 3f3c
000003f0: ba6b 4ebd 02fa 7dbd b34b c93b 5294 13bc
-0.036270056 -0.08933661 0.022928433 -0.050557617 -0.08151225 -0.01929189 -0.08878255 0.036805794
-0.06772442 -0.038708493 -0.10088765 -0.01816573 -0.03610194 0.046174124 -0.03617786 0.050897624
0.06633942 -0.0076338123 -0.04877294 -0.09636428 -0.07137237 -0.035648603 -0.06402605 0.0500152
-0.037174877 -0.00613413 -0.006638479 -0.09089071 0.07213837 -0.04269504 -0.082759775 -0.0036148787
-0.092018865 0.0007131659 -0.07063812 -0.032358706 -0.039214645 0.049631417 0.057761583 0.06728449
0.0071191853 0.0559977 -0.09910031 -0.09773567 0.0013968593 -0.019787563 -0.033484925 -0.021923175
-0.053093214 -0.040757447 -0.039677326 -0.034945957 0.016102372 0.07421676 -0.018971104 -0.039084673
0.045369998 0.050847366 -0.009703372 -0.036253843 -0.101424344 0.0043047876 0.028001137 -0.08252232
-0.078395024 -0.10786173 0.07099198 0.08103724 0.0803081 0.070805125 -0.015989244 0.034588993
0.03972076 -0.0592197 -0.09843928 0.030780444 -0.057218112 -0.044298645 -0.08300944 -0.09275988
-0.021091755 -0.0008442273 0.05237073 0.055425856 -0.023220893 0.08848517 -0.056727003 -0.004727671
-0.06863173 0.010443969 0.08958338 -0.08398122 0.020488197 -0.0960618 -0.025346361 -0.050814897
-0.0033574307 -0.07675914 0.018457687 -0.10515188 0.018756064 -0.04162944 -0.062209968 0.075649455
0.0017409428 -0.07124028 -0.06733967 -0.05176387 -0.0627846 0.0010542736 -0.0023714676 0.08021731
-0.008928025 -0.07339815 0.058946263 0.012652306 -0.046074748 0.014632026 0.0504884 -0.097848505
-0.08356663 -0.066484764 -0.087228976 -0.0332972 0.028049815 -0.091949776 -0.09957067 -0.08833746
-0.05508121 0.05628923 0.08683262 0.09565037 -0.004625744 -0.091092356 0.087446116 -0.0744945
0.023987975 0.036306687 0.025438303 0.020521544 -0.09705279 -0.038666528 -0.07308862 0.0566932
-0.0687711 -0.011837452 0.07168125 0.053410187 -0.0822221 -0.090033956 0.07627671 0.024774356
-0.082851455 0.0810299 -0.078664266 0.073051535 0.05076198 0.058355425 -0.027521731 -0.0026068783
-0.08696654 0.04743647 -0.013535366 0.056724373 -0.069730915 0.07402917 0.04225224 -0.0644604
-0.0098262485 -0.08819027 -0.06957026 -0.071000345 -0.06138848 0.023536319 -0.04710114 -0.039262395
0.062095262 0.0060033146 -0.05390917 -0.032560717 -0.030155566 0.040197644 0.055755664 0.07279138
-0.083901264 -0.021881998 -0.013465834 -0.0483544 0.06287227 -0.033472214 0.0060656797 -0.09022276
0.054136723 -0.07690403 -0.028380802 -0.10041619 0.043720603 -0.029794244 -0.024165452 -0.09603775
-0.0015016001 0.027997544 0.03481749 0.014648526 -0.06534923 -0.042731296 -0.036096882 -0.08432288
-0.08698721 -0.13060658 -0.09961122 -0.05303281 0.012648587 0.008721175 0.0067364997 0.012630237
-0.02126493 -0.099764824 0.08029782 -0.07874951 -0.005584059 0.029189896 0.0101964595 -0.054449677
-0.104837604 0.059302494 -0.020530542 0.033704054 0.012532123 -0.00038544642 0.0129036475 -0.03280124
-0.08914643 -0.06250078 0.015685031 -0.006018433 0.015155199 0.021818416 -0.0035033503 -0.11684871
-0.05601747 -0.0056919153 -0.05313843 -0.029211301 -0.036723673 0.08045712 -0.009897194 0.089911625
-0.08483622 -0.10267067 0.010382604 0.011683483 -0.050395705 -0.062006004 0.0061430573 -0.00900753

embedding_net.fc1.bias f4 [70]
00000000: 7539 c1bc a593 6e3c 04de 573d 8567 8e3d
00000010: da0f 9ebd 8f77 953d e2cc 4f3d 4d34 9c3b
00000020: bc54 c5bd 107b 243c 951e 733c cfc0 47bd
00000030: 90fd 5cbd d7e7 a2bd 951d 8fbb c276 473c
00000040: a4f9 983d 680a 8a3d 5dcb 02bd c879 883c
00000050: 4753 8d3d b921 643d 7dcd 023c d27f 713d
00000060: 569d 84bd d583 7f3c f0d5 6e3b d1a1 8f3d
00000070: 7ed7 9dbc 1834 bdbd c44e 85bc c98f fabb
00000080: e8ba b33c 5550 c9bd 85d9 8abd 8ef2 523d
00000090: a47f 913d 1159 873c 928b 123c f87e a83d
000000a0: 125f bcbd dfb1 07bc e901 a13d 90de aa3d
000000b0: 03e0 bebc c47b c23b 012a a3bd 46ac e63b
000000c0: 405a 2d3d 8831 853c 26e9 1dbd 732c c5bd
000000d0: 7313 ca3b 0f8f a2bd 8484 cf3c dd70 a9bd
000000e0: 2715 723d f354 b8bd 531e 9a3c a76c 213d
000000f0: 4ec9 9c3d 3f3c 913d 2cad 2fbb e50d 803d
00000100: c275 95bc 53e7 733d 038a 8c3d 07e6 30bd
00000110: bbcd 353d 676a f4bc
-0.023586968 0.014561568 0.052701965 0.069533385 -0.07717867 0.072981946 0.0507325 0.004766977
-0.096353024 0.010039106 0.014838834 -0.04876786 -0.053952754 -0.07954376 -0.00436754 0.01217431
0.0746949 0.06740266 -0.031932224 0.016659632 0.069006495 0.055696223 0.007983563 0.05895979
-0.06475322 0.015595396 0.0036443435 0.07013286 -0.019267794 -0.09238452 -0.01627291 -0.007646535
0.02193971 -0.09829775 -0.0677977 0.05150085 0.07104424 0.016521962 0.008944409 0.08227342
-0.09197821 -0.008282154 0.078616925 0.08343232 -0.023300176 0.005935164 -0.07966996 0.0070395796
0.042322397 0.01625897 -0.038552426 -0.09627619 0.0061668693 -0.079374425 0.025331743 -0.0827348
0.059102204 -0.09000578 0.018813288 0.03941026 0.07655583 0.07091569 -0.00268061 0.0625265
-0.018244628 0.05954678 0.06862261 -0.04318812 0.044385653 -0.029835893

embedding_net.fc2.weight f4 [50, 70]
00000000: 31e1 593d 003c e13d da02 83bd 67b0 a1bd
00000010: 864b 8dbd c08f a4bd ea3f a63d bed0 323d
00000020: 2926 62bd 900b 463d df73 c43d 9128 6bbd
00000030: 66b8 4d3d dd6a 3abd 1bd4 c43c 11dd bebd
00000040: c431 12bd 1083 843d 5a15 a3bd ded6 5fbd
00000050: b206 893d d945 32bd f4a9 be3d 4b2f 0a3d
00000060: 910d 4d3d 8a12 6c3d ccf1 32bb 2601 aebc
00000070: 2c26 98bd 0d61 9ebd c3cc 60bd fd47 833d
00000080: 35bd a5bd 82c6 34bd 9e1e 2a3d 676b 25bc
00000090: a991 303d 1b82 c33c c5af b83c e9e1 88bd
000000a0: e4cc 543d 5bf9 1d3d 8945 65bd c087 153d
000000b0: b53f c23d 5b13 1a3c 88f3 c43c d861 763b
000000c0: 4634 0e3d d0e6 63bd f2d7 123d 5333 c0bc
000000d0: eb67 aabd 3edd e33d d0b8 9e3d 18f3 e33d
000000e0: d051 3abd f212 cc3d c3cc a0bd ff5d 51bd
000000f0: 0f07 ff3c a0d8 8e3d 7070 adbd ba40 b73d
00000100: 81b7 8e3c 7386 303d a50d 15bc f1ab 023e
00000110: b36a ee3b a953 f83b 1975 40bd ac92 50bd
00000120: b8dd ae3d 19ff 01bd 4a31 a1bc 99f3 0b3d
00000130: b30d c0bd 138d 603d ec86 9e3d a1c4 c33d
00000140: c7ca cd3b 8446 64bd e184 9a3d 1281 993d
00000150: 67e3 ed3d 16b4 bdbd 5d51 58bd e756 c6bd
00000160: 6495 aabd 35f1 c23d fe94 dcbd 1a77 4c3d
00000170: c84a 9bbc c274 bb3d 6328 d23d 5eb3 e83c
00000180: 80b5 b7bc 439d 973d 06d8 553d e5e1 b3bc
00000190: 3f31 b0bd 0dee a33c 7548 06bd 4f6f 18bd
000001a0: 8b8f d23c b79b a23d 9278 c5bd 31c9 7b3d
000001b0: d330 22bb c8e5 86bb 7a46 d53d 3b13 5a3c
000001c0: 65fe 3abd 8728 b8bc 8987 99bc 63ad aebd
000001d0: 783d 94bd 5876 563d 0797 c7bd ebf4 f2bc
000001e0: 8e90 bb3d 5def 123a 558a 06bd b7a6 adbc
000001f0: 0ec3 66bc 3811 9fbd 5a3b c8bd af0f b3bb
00000200: dd0b db3c 0702 9d3d 51d2 02bc 3892 85bd
00000210: e8b1 663d ff4a a4bd 6be9 f33c 082d 723d
00000220: 03ec 6dbc 407b 873d a106 b8bd f90d 13bd
00000230: d22f 793d 13ea e43d 4276 bb3d cbe3 e93c
00000240: f167 babd 58b2 c3bc 5399 a7bd 2f88 8bbd
00000250: b724 0fbd 218d ecbc 9d55 c33d 72a5 aebd
00000260: ca5e 8f3d 0cc1 3a3d 6592 9cbd 4397 0cbc
00000270: 54ee 8bbd 1b84 ca3c 0dbc 103d 93bb 6ebd
00000280: 4edb b63d d6c2 61bd 1a98 94bc fea2 513a
00000290: 70fa 8cbd dd13 95bc dab1 23bd 1f0a 473c
000002a0: 3ddc 853c a423 b1bd 39b6 b13d 4c5f 3f3c
000002b0: 092b dd3d 886d cf3c d22b 23bd 72ca 15bd
000002c0: 8db2 49bc eeab 98bc 59f3 2f3d dd61 6fbc
000002d0: c3c5 37bd 5735 2f3d 8d64 e93d 7137 01bc
000002e0: 2387 483d f886 a2bd c6c2 71bd efd9 dcbd
000002f0: 8eb2 58bd 4a24 803d ccd5 c53d 579c e43d
00000300: d6be 803c 71bb 49bd cfbf 4db9 f78d 523d
00000310: 71d3 7e3d bbd0 dfbc 63e6 93bc 2ef9 c3bd
00000320: 7ff4 353d ee4a 813c 69fa 9cbd 600f a03c
00000330: 860c a93c 2615 96bd fa0a e83d 6b6f 66bd
00000340: 0bd4 5b3d b252 2cbd d97b 93bd 465b 35bd
00000350: 127f 93bc 2578 cebc 66b1 2a3d c1c8 d3bd
00000360: 3a10 7abd eac3 adbc 6852 a8bd 3442 65bd
00000370: 8306 d4bd a3ac 463d 1bc1 7bbd f063 893d
00000380: 4d70 cf3d 3c78 9ebd 72a3 a13d 14c1 08bd
00000390: 8baf d73d 9020 333d 8e3a 673d d0bd 00bd
000003a0: 9978 a13c bec3 4bbc c1c9 e53c cf8c 853c
000003b0: 660e acbd c174 0d3d e9f8 99bd 5c91 b73d
000003c0: f8e2 9cbd c83c bebb 80f4 983d 1a0d dbbd
000003d0: 4e10 8dbd cd13 ba3d 7ccc 84bd d28c 893d
000003e0: 19e2 833d 1f84 a9bd cba3 96bd e599 c9bd
000003f0: 2a9f 0bbd 56fe 06bd a574 833d 53a0 bbbd
0.053193275 0.10997772 -0.06397028 -0.07894974 -0.068991706 -0.08035231 0.081176594 0.043656103
-0.055212174 0.04835087 0.09592413 -0.057411734 0.050224684 -0.04551207 0.024026921 -0.09319509
-0.03569199 0.06470311 -0.07963057 -0.054648273 0.0669073 -0.043523643 0.0930976 0.03373651
0.050061766 0.057634868 -0.0027304767 -0.021240782 -0.07429156 -0.07733355 -0.054882776 0.06410215
-0.08092729 -0.044134624 0.041533105 -0.0100964075 0.043107662 0.02386575 0.022544751 -0.06683714
0.05195321 0.038567882 -0.055974517 0.036506414 0.094848074 0.009404029 0.024041906 0.003759494
0.03471782 -0.05564004 0.035850473 -0.023461973 -0.08320602 0.11126183 0.07750094 0.11130351
-0.04548818 0.09964551 -0.07851555 -0.051115032 0.031131295 0.06974912 -0.084687114 0.089478925
0.017421486 0.04309697 -0.009097491 0.12760903 0.007275903 0.0075783324 -0.046986673 -0.050921127
0.08538383 -0.03173742 -0.019676823 0.03416786 -0.09377613 0.05482204 0.07740578 0.09558988
0.0062802765 -0.05573131 0.07544876 0.07495321 0.11615639 -0.09262864 -0.05281197 -0.09684544
-0.08329275 0.09518663 -0.107706055 0.04991827 -0.018956557 0.09153129 0.102616094 0.028405841
-0.022425413 0.07403042 0.05220797 -0.0219583 -0.08603143 0.020010972 -0.032783944 -0.037215527
0.025703212 0.079398565 -0.096421376 0.061471168 -0.002474834 -0.0041167475 0.10413833 0.013310249
-0.045652766 -0.022480262 -0.018741386 -0.08529165 -0.07238287 0.052358955 -0.09745603 -0.029657802
0.09158431 0.0005605126 -0.032846767 -0.02119766 -0.014084591 -0.07766956 -0.097769454 -0.005464516
0.026739055 0.07666402 -0.007984714 -0.0652203 0.05632201 -0.08022117 0.029774388 0.059124976
-0.014521602 0.06615305 -0.08985639 -0.035901997 0.06083662 0.111774586 0.09153415 0.028551003
-0.091018565 -0.023888752 -0.08183541 -0.06813084 -0.034947123 -0.02887589 0.09537814 -0.0852765
0.070005015 0.04559426 -0.0764511 -0.0085809855 -0.06832567 0.024721196 0.03533559 -0.058284353
0.08928548 -0.05511745 -0.018138934 0.0007997005 -0.06883705 -0.018197948 -0.039964534 0.012148409
0.01634037 -0.08649376 0.08677334 0.011680435 0.10799224 0.025320783 -0.039836712 -0.03657002
-0.012310636 -0.01863667 0.042956684 -0.014610735 -0.044866335 0.04277548 0.11396132 -0.007886753
0.048957 -0.079358995 -0.05902364 -0.10783755 -0.052904658 0.062569216 0.09659919 0.11162632
0.015715998 -0.049251024 -0.00019621778 0.05140492 0.062213365 -0.02732121 -0.018054193 -0.09569012
0.044422623 0.0157828 -0.076649494 0.019538581 0.020635854 -0.073282525 0.113302186 -0.0562586
0.053669017 -0.042071052 -0.072013564 -0.0442765 -0.018004928 -0.025203774 0.041673087 -0.10341025
-0.06105063 -0.021211583 -0.08218843 -0.05597134 -0.103528045 0.048504483 -0.061463457 0.06708515
0.101288415 -0.07737777 0.07892503 -0.03338726 0.10531529 0.043732226 0.056452326 -0.03143102
0.019710826 -0.012436805 0.028050305 0.016302494 -0.08401184 0.034535173 -0.07518179 0.08963272
-0.07660478 -0.0058055855 0.0746851 -0.10695858 -0.068878755 0.09085808 -0.06484315 0.067163125
0.06439609 -0.08277153 -0.0735546 -0.09843806 -0.034087338 -0.032957397 0.064187326 -0.09161439

embedding_net.fc2.bias f4 [50]
00000000: 3c15 55bd b381 f13d 20be 3dbb 4905 f33d
00000010: a478 bdbc 9877 87bd b7f6 833d 5737 ae3d
00000020: b985 d4bd a8a6 a9bc 2452 a23c 0664 96bd
00000030: bf69 f03d 36c7 453d a259 1bbd b4d0 a4bc
00000040: 44c1 813c ffed e1bd 24ba dc3c a94b be3d
00000050: 076f a33d 79e5 ba3d c235 5fbd b426 c33c
00000060: 6421 893c ee5f 99bd aa94 5a3d 94fb d2bc
00000070: 801f eebc afb4 d33d 8bda e73d d6a8 1d3d
00000080: 3cb3 dd3c 4a3b 403d fd56 843d efea 973d
00000090: fd3c 903d 541d 31bd 7d68 d03d 0c98 e63c
000000a0: 0ca4 eb3c 0ae4 783d cd14 bd3d ead7 693d
000000b0: bf16 b83d 5c78 3cbd 3d8c 923d 30b5 7dbc
000000c0: 0b34 813d fc8b 21bd
-0.052022204 0.11792316 -0.0028952435 0.118662424 -0.023128815 -0.066146076 0.064435415 0.08506649
-0.10377068 -0.02070935 0.019814558 -0.07343297 0.117389195 0.048285685 -0.037927277 -0.020119049
0.015839227 -0.11031722 0.026944228 0.09291775 0.07980161 0.091258 -0.054494627 0.023822166
0.016739555 -0.07489 0.053364433 -0.025754727 -0.029067755 0.10337197 0.11320981 0.038491093
0.027063005 0.046931542 0.06461904 0.07417857 0.070428826 -0.04324086 0.101761796 0.028148673
0.028764747 0.06076435 0.09232483 0.057090677 0.089887135 -0.04601322 0.071556546 -0.015485093
0.063087545 -0.03944014
