runs/TripletNet_0919c/checkpoint.pth.tar (torch_old, 194140 bytes, 8 tensors)

embedding_net.conv1.weight f4 [70, 128, 3, 1]
000000 d0 44 bd 3c 2a ae cb bc f4 11 44 bc 0c 37 c0 3c
       0.023104101 -0.024863321 -0.011967171 0.023463748
000010 ad b4 45 bd f0 eb 07 3d f3 ce 24 bc 46 01 d7 3c
       -0.04826801 0.033183992 -0.010059106 0.026245724
000020 e5 f5 f3 3b 05 a2 ca bb 6c 6b 68 3c 62 cc 28 3b
       0.0074450844 -0.006183865 0.014185768 0.0025756587
000030 1c f9 98 3c de b1 a2 bc a6 67 70 bb ec 12 93 bb
       0.018673472 -0.019860204 -0.0036682873 -0.0044883396
000040 f3 03 f6 3b cf a4 7c b8 62 00 37 3d 64 b5 82 3c
       0.007507795 -6.0234972e-05 0.0446781 0.015955634
000050 72 08 9b bc 0f 6d fc bc 57 2d 0c bc 16 50 b4 bc
       -0.018924925 -0.030813722 -0.008555732 -0.022010844
000060 05 cc 85 bc ef c8 21 3b 7d 75 f9 3c 92 ab e3 3c
       -0.016332636 0.0024686416 0.03045153 0.027791772
000070 9b 19 4c bd e9 cb 01 3d 65 ef 69 3c e0 57 46 3d
       -0.049829107 0.031688605 0.0142782675 0.048423648
000080 a4 09 0a 3d 6c 72 3e bd e3 bc 46 bd 1c a7 c9 bc
       0.0337006 -0.04649584 -0.04851998 -0.024615817
000090 a7 98 37 3d e0 04 0b bc df 11 b3 3c 9c 13 c2 bc
       0.044823315 -0.008485049 0.021859108 -0.023690991
0000a0 9f 38 4d 3d c3 86 b0 bc f2 c8 1c 3d 5c 9e 20 3a
       0.050102826 -0.021548634 0.038277574 0.0006127113
0000b0 6c 1d dc bc 2c 0e d7 3c df b7 dd bc cf 6e 76 3c
       -0.026869498 0.026251875 -0.027065216 0.015041067
0000c0 89 2d 71 bc 25 bd b6 bb b0 cf 48 bd 8d 4a c7 bc
       -0.014720329 -0.005576747 -0.04902619 -0.02432754
0000d0 a5 de e2 3c f6 19 4b bc d2 68 50 3d 86 c5 27 3d
       0.027694056 -0.012396326 0.050881214 0.040959857
0000e0 f7 e5 18 bb 7d 63 0b bd b1 d6 fe 3c 8a fd 81 3c
       -0.002333043 -0.034030426 0.031108232 0.015867967
0000f0 d1 de 06 bd d9 04 08 3d 0a 34 fe 3c 85 9c 39 3d
       -0.032927338 0.033207748 0.031030674 0.045315284
000100 42 e5 e9 bc 79 ad 08 bc 00 20 7f ba 6e c6 f4 3b
       -0.028551701 -0.00834214 -0.00097322464 0.0074699437
000110 4f 80 1e bd c8 4a 14 bd c1 92 e3 3c d3 93 43 bc
       -0.038696583 -0.03620413 0.027779939 -0.0119370995
000120 e4 20 cc 3c 1a 23 3f 3b b3 6b 89 3c 92 92 37 3c
       0.024918027 0.002916521 0.016774988 0.011204379
000130 11 e0 97 3c 23 42 cf 3c 5c 7c 41 bd ec 9b d2 3c
       0.01853946 0.025300091 -0.04723774 0.025709115
000140 d4 d8 12 bd a6 65 1d bd 21 7a 50 3b 18 a6 0c bc
       -0.035851315 -0.038427018 0.0031811076 -0.008584522
000150 70 0a f6 3c bb 6c f1 bc 22 5d 39 bd 8e 10 18 3d
       0.030034274 -0.029470792 -0.045254834 0.037125163
000160 22 4b f8 bb 85 16 eb 3c 1c 68 86 3c a7 bc 1c bd
       -0.007577316 0.028697262 0.016407065 -0.03826585
000170 90 2e 28 3c e8 dc 49 3c 70 99 0b bd a4 64 c5 bc
       0.010265008 0.012320735 -0.034081876 -0.02409584
000180 fb de 8e 3c ed 49 17 3c 2e 69 b0 bc 01 2a 7d bc
       0.01744031 0.009233934 -0.021534529 -0.015451909
000190 8c 6c 3f 3d b0 8b 1a bc 87 40 ec 3c 8d 90 b5 3c
       0.046734378 -0.009432718 0.028839363 0.022163654
0001a0 c1 c2 06 bd 15 8f 31 bd cb d6 48 3d 2c 51 32 3b
       -0.032900576 -0.043349344 0.049032968 0.0027209027
0001b0 ae ec 0f 3d 02 f7 2f 3c 63 2a 88 3c f5 75 1c 3d
       0.035137825 0.010740044 0.016621774 0.03819843
0001c0 bc 69 46 3d df 48 0a bd fd 7c d2 3b cf 2d 1c 3d
       0.04844068 -0.0337609 0.006423591 0.038129624
0001d0 de 42 18 3d 17 e7 01 3d c4 30 17 bd ae 35 16 bd
       0.037173145 0.031714525 -0.03691174 -0.036672287
0001e0 21 5c fc bc 91 03 d4 3b 70 b3 50 3d 92 b5 02 bd
       -0.03080565 0.0064701517 0.050952375 -0.03191144
0001f0 22 1c e1 3c 6e 19 e5 bc a2 69 43 bd fe a2 2c bc
       0.027479235 -0.027966227 -0.04770816 -0.010536907
000200 99 5c f3 3c 3c df 42 3d 72 72 00 bd 36 5e 3c 3c
       0.02970724 0.047576174 -0.031359144 0.011497071
000210 27 30 34 3d 14 8c 0a 3d 26 83 02 3d cc 22 15 3d
       0.043991234 0.033824995 0.031863354 0.036410138
000220 e0 5b 05 3d 11 32 60 3c db a6 0e bd 77 46 2f bd
       0.032558322 0.013683812 -0.034827095 -0.04279181
000230 d3 ee be bc ba e5 ad bb 0c 99 fb bc 70 cb 9e 3c
       -0.02330724 -0.0053069266 -0.030712627 0.019384116
000240 4d b7 81 3c 40 51 3b bc f7 0e a2 3c ba 5f 86 3c
       0.015834475 -0.011432946 0.019782526 0.016403068
000250 f9 4f 00 3d 2d 65 0d 3d fe 70 8c bc 98 f4 4c 3d
       0.031326268 0.034520317 -0.017143723 0.05003795
000260 d0 29 bc bb 30 1b cf ba 3c ac 44 bd 92 d2 05 bd
       -0.005742289 -0.0015800949 -0.048015818 -0.03267152
000270 e0 70 f4 bc ed 80 b2 bc d7 ba 14 3d 80 5b 86 bc
       -0.02983898 -0.021789992 0.036310997 -0.016401052
000280 ae 75 1a bd c6 35 a4 3c 72 b7 87 3c 95 d0 08 3d
       -0.037709884 0.020045172 0.016566966 0.033402044
000290 a6 38 d4 bc e9 9f 37 3c 11 c9 96 bc 62 e0 37 bc
       -0.025905918 0.011207559 -0.018406423 -0.011222931
0002a0 94 75 21 bd 4d bd b3 bc 1c 6c 66 bc ec 7a b7 3c
       -0.039418772 -0.021940852 -0.014063861 0.02239748
0002b0 b9 01 23 3c 44 5e 59 3c 51 cb 5c 3d 46 8e 5b 3d
       0.009949141 0.013267104 0.053904835 0.05360248
0002c0 ab f4 1e 3d 17 45 f3 3a 90 f5 0e bd 23 d4 25 3d
       0.038807552 0.0018560019 -0.034902155 0.040485512
0002d0 29 dc 3e bc 8b a6 33 bb 9b 02 2e bd 8f 9a 1c bc
       -0.01164917 -0.00274125 -0.042482954 -0.009558334
0002e0 ad a4 04 bd b7 d7 41 3d 07 69 31 bd 1a 7d 1f bd
       -0.03238361 0.047324862 -0.043313053 -0.038937666
0002f0 3d bd 78 ba 94 8e e1 bc 9a 59 95 3c ce 30 9e bc
       -0.0009488648 -0.027533807 0.018231202 -0.019310381
000300 04 a8 c7 bc 24 1c 24 3b ca ad 17 3d 07 f8 0b bd
       -0.024372108 0.0025041187 0.037030973 -0.034172084
000310 dd 6d d0 3c 39 83 0c 3d 48 7d 50 3d 5a 58 0e bd
       0.025443012 0.03430483 0.050900728 -0.034752227
000320 fd 79 59 3c e8 75 05 bd 88 1d 49 3d 01 9b 61 bc
       0.013273713 -0.032583147 0.04910043 -0.013769866
000330 90 9d 05 3d ff 28 77 3b eb 19 ca ba 87 94 31 3b
       0.032620966 0.0037713645 -0.0015419101 0.0027096586
000340 ca cd 6c 3c d3 2e 01 3d 97 b4 01 3c 01 c0 7b 3c
       0.014453361 0.031538796 0.007916591 0.0153656015
000350 8c 1e 3c bd d3 dd 10 3d 77 b6 31 3d f1 a3 2c 3d
       -0.04592757 0.035367798 0.043386903 0.042148534
000360 c8 21 23 3d 8a 0b 0e bd a1 0c 85 bc 85 52 48 3d
       0.03982714 -0.034678973 -0.016241373 0.04890682
000370 b3 0c 10 bd 5a 22 4e 3d 52 69 1f bd cc 58 0e bd
       -0.03516836 0.05032573 -0.0389188 -0.034752652
000380 fa ec d5 3c fd 2c 14 bd 41 0d 34 bc a7 67 1a 3d
       0.026113976 -0.036175717 -0.010989488 0.037696507
000390 7e 6b 35 3d 31 4e 56 3d 69 b7 b3 bb 44 a6 19 bd
       0.044291966 0.052320663 -0.0054845107 -0.03751208
0003a0 09 92 55 3d 8b a9 11 bc a3 5c 0e bc 6a bc c0 3c
       0.052141223 -0.00889052 -0.0086890785 0.023527343
0003b0 5f 73 cb bc 6d 33 25 3d 19 85 1e 3d 4b 59 09 bd
       -0.024835287 0.040332247 0.03870115 -0.033532422
0003c0 ed 7b fe bc 41 cb 0a 3c 0e 83 15 3d de 9b 86 39
       -0.031064952 0.008471311 0.036501937 0.00025674602
0003d0 14 da ce bc b2 85 1a 3b 94 e0 3a bd ee ce 0f bd
       -0.025250472 0.0023578224 -0.04562433 -0.035109453
0003e0 97 af 01 bd 74 10 40 3d e3 e4 3c 3d 0a 5a 7a bc
       -0.031661596 0.04689069 0.04611672 -0.015280256
0003f0 1f 8b 04 3c 24 e9 c9 3c 34 1c 46 3c 8d 0d e1 bb
       0.00808981 0.024647303 0.012091685 -0.0068680705

embedding_net.conv1.bias f4 [70]
000000 ba 07 f7 3c f2 ad c0 3c 23 25 4a 3b 49 cc 15 bd
       0.030155051 0.023520444 0.003084489 -0.036571775
000010 c4 83 03 bd 01 e0 cf bc 77 22 47 bd 45 78 20 bd
       -0.032108083 -0.025375368 -0.048616853 -0.039177198
000020 4d 51 25 3d 91 65 b4 3c 87 8b e5 bc e1 22 09 bc
       0.040360738 0.022021087 -0.028020633 -0.008370132
000030 48 eb bc 3c ef 39 a5 3c 72 e8 d1 bc 20 0b 2d bd
       0.02306141 0.020169226 -0.025623534 -0.042246938
000040 e1 99 50 3d ad 6b 2d bd 2a b5 d5 bb 38 d7 48 3d
       0.050928 -0.042339016 -0.0065218406 0.049033374
000050 9c 02 4a bc a5 87 a1 bc b8 6f 48 3d 91 e4 27 bd
       -0.012329724 -0.019718 0.04893467 -0.040989462
000060 3c f7 64 bc a9 24 3b 3d 87 fc 08 bd 04 ca 15 3d
       -0.013974961 0.04568926 -0.033443954 0.03656961
000070 8a 00 e6 bb c8 0f 45 bc 88 7a 0c bd 2a 9a d7 bc
       -0.007019107 -0.012027688 -0.034296542 -0.026318628
000080 2f 63 20 bd 41 1a c9 bc 74 25 b3 3c 18 90 ec bb
       -0.03915709 -0.024548652 0.021868445 -0.0072193258
000090 8a 3e c2 bc d0 2b 1d bd 5d e2 fd bc 5d 98 83 3c
       -0.023711462 -0.03837186 -0.030991727 0.016063863
0000a0 6b 9d b3 3c 2d 35 de 3b 34 0d 82 bc 4a 00 2e 3c
       0.021925649 0.0067812414 -0.015875436 0.010620186
0000b0 65 b1 1c 3d b6 35 d8 bc 5f 0b 33 bd 7e c8 9f 3b
       0.038255114 -0.026392799 -0.043712016 0.0048761955
0000c0 19 c4 13 bd 6e ed 5a 3c 9f 53 46 3d 76 8c 0f 3d
       -0.036075685 0.013362272 0.04841959 0.035046063
0000d0 a8 a9 c5 3a db 21 42 3d 88 6e 0b bd 38 86 10 3c
       0.0015080469 0.04739557 -0.034040958 0.008821063
0000e0 01 14 3b 3b 64 63 3e bd 7c ef 1e 3d 34 80 42 3d
       0.0028545859 -0.046481505 0.03880261 0.047485545
0000f0 81 19 31 bd bf 4b 41 3d 24 e0 40 bd 68 9a 7f 3c
       -0.043237213 0.047191378 -0.047088757 0.015600778
000100 46 f9 0e bb 6e f1 c2 3c b8 cd 05 3d 19 76 1c bd
       -0.002181606 0.023796763 0.03266689 -0.038198564
000110 7f 97 10 3c d8 ab 24 bd
       0.008825182 -0.040202945

embedding_net.conv2.weight f4 [50, 70, 3, 1]
000000 a1 cd ee bd c0 da 8d 3d 8d 23 2c be f2 aa 9d bd
       -0.11660314 0.06926489 -0.16810437 -0.07698621
000010 93 35 8c 3c 22 96 0a bd 35 71 87 3c de 96 00 bd
       0.01711539 -0.033834584 0.016533474 -0.03139388
000020 02 f8 c3 bd 5c 7a 24 be df 6f 88 bc e1 6d 8a 3a
       -0.09568788 -0.16062301 -0.016654907 0.0010561311
000030 f5 30 dc bd 6d f6 04 be 73 a4 9f bc 47 aa 0c be
       -0.10751525 -0.12984629 -0.019487595 -0.1373683
000040 03 69 d8 bb e6 bd 07 be be 2d 76 bd 05 3c b9 bb
       -0.0066043152 -0.13256034 -0.060102217 -0.005652907
000050 d6 57 9f bc c8 57 4c bc 01 71 a3 3c e8 d3 c0 3c
       -0.019451063 -0.012472101 0.019951345 0.023538545
000060 64 56 1b bf 15 d7 82 be 45 39 b1 bd ac 99 9b be
       -0.60678697 -0.2555472 -0.086535014 -0.3039068
000070 03 47 91 bd ee f3 d7 bc 44 4e 77 bd 41 16 5b bb
       -0.070936225 -0.026361432 -0.060377374 -0.0033430012
000080 d5 05 18 bd 7e 4c 31 3d 04 e8 82 bd ad 79 0e bd
       -0.037114937 0.04328584 -0.0639191 -0.034784008
000090 25 3e 1f 3d fc 0e 61 bd 51 81 a3 bc 3f 05 43 bc
       0.038877625 -0.05494593 -0.019959124 -0.011903106
0000a0 4e 93 81 bb 7d ac 63 3c 0d da 93 3c 8d 27 a7 bd
       -0.0039543277 0.013896105 0.01804831 -0.081618406
0000b0 29 b8 b4 3c 9b c8 13 3d c1 7d fd ba 3a 5f 91 bc
       0.02206047 0.036079984 -0.0019339846 -0.017745603
0000c0 d7 e7 4a 3d 40 3f 50 bc fe b9 1f 3d 74 a5 ce bc
       0.049537506 -0.0127103925 0.038995735 -0.025225379
0000d0 1f 46 37 bd b2 59 06 bd 8f ec f6 be be ce 01 be
       -0.044744607 -0.032800384 -0.48227355 -0.12676522
0000e0 b2 48 27 bc e7 48 35 bd a1 1a 44 bd fe f3 26 3d
       -0.010210203 -0.04425898 -0.047876958 0.040760033
0000f0 b3 e6 55 3d 53 e6 6d bd d5 67 89 bc 9b 91 1d bd
       0.052221965 -0.058080982 -0.016773144 -0.03846894
000100 61 93 01 be ef d7 2b 3d 6b ea 3a be 30 13 00 be
       -0.12653877 0.041953977 -0.18253486 -0.1250732
000110 20 7f 9c bd 28 e2 8b bd 07 02 7e 3c 3f 20 3c 3d
       -0.07641435 -0.06830245 0.015503413 0.04592919
000120 38 98 98 bd a5 42 6f bd a9 51 75 bd d3 42 13 be
       -0.074509084 -0.058413167 -0.05989233 -0.1438096
000130 20 cd cc 3b 50 f1 cc bd be 04 7c bd 6c bf 9b bd
       0.0062500387 -0.10006964 -0.06152796 -0.0760487
000140 c3 af 88 bd ca 3e 0c bd 67 06 89 bd 87 67 1c bc
       -0.06674149 -0.034239568 -0.06690674 -0.009546167
000150 d4 7d 8a bd 2e 45 7d bd f5 19 ec 3b 36 42 71 3d
       -0.06762281 -0.061833553 0.0072052428 0.058901034
000160 a6 e2 34 3b 28 c4 13 bc c3 c1 8a bd 88 80 8e bc
       0.0027600913 -0.009018935 -0.06775238 -0.017395273
000170 c5 f5 a8 3c 67 36 08 be ff 19 b9 bd f5 a2 8c 3d
       0.020625005 -0.13302003 -0.090381615 0.06867019
000180 f3 0a a2 bd e9 fb 0d 3d 6a d2 99 3b ef 0c c0 3a
       -0.07912245 0.03466407 0.0046942728 0.0014652292
000190 cd 52 9a bc 58 fe 40 bd 27 9d 24 bf 2f b9 70 be
       -0.01883831 -0.04711756 -0.64302295 -0.23508142
0001a0 b7 47 b9 bd a1 8a 3c 3b 1b ba 08 bd e1 13 43 bd
       -0.09046882 0.0028769153 -0.03338061 -0.04762638
0001b0 f4 95 46 bd 7d 5c a7 bc 06 72 a2 bc f0 ae 34 3c
       -0.04848285 -0.020429844 -0.019829761 0.0110280365
0001c0 21 46 9f 3d fc 63 68 bd 17 a3 08 bc fe cb bb bc
       0.07777048 -0.056735978 -0.008339665 -0.02292442
0001d0 7b 47 8f bd ef d4 f9 3c 1e 56 de 3c f6 41 2f bd
       -0.06996056 0.030497042 0.027140673 -0.042787515
0001e0 0f 72 8f bd c8 3a 91 bd 5b 44 c3 bd 11 0a e5 3c
       -0.07004177 -0.0709129 -0.09534522 0.027958902
0001f0 e2 69 98 bd bc cb 03 be 5a 80 4e bb 93 0c e0 3c
       -0.074420705 -0.12870687 -0.003150961 0.027349746
000200 78 6e 5b bd f2 c4 53 be b6 8c 1d be 37 73 db bd
       -0.053572148 -0.20680597 -0.15385708 -0.10715335
000210 eb 6a 73 be aa 0c 9a bd b6 29 56 3d ef 11 d4 3c
       -0.23771255 -0.07521947 0.052285872 0.025887458
000220 a3 66 00 bd c0 9f 1c bd 7d ae a3 be a9 ed 4f bd
       -0.031347882 -0.038238287 -0.31969061 -0.05076376
000230 3c e0 b1 bd fb 39 1a bd 66 39 3a bd da db cb bd
       -0.086853474 -0.03765295 -0.045464896 -0.09954043
000240 b9 45 3f bd 99 64 b7 bd 39 8d 99 bd 2b 09 21 3d
       -0.046697352 -0.08954734 -0.07497639 0.039315384
000250 63 ec 88 3d 0f 4f 47 bd 88 c9 cd bd 19 b8 89 bc
       0.06685712 -0.04865938 -0.10048205 -0.016811417
000260 32 72 0f 3b 22 a2 4d 3c 57 ca c8 3b 79 20 a4 3a
       0.0021888134 0.0125508625 0.0061276364 0.0012521885
000270 0d d9 48 3d 73 21 ea 3c ad ae 01 3c 0e 85 3f 3b
       0.04903512 0.028580403 0.007915181 0.0029223594
000280 35 09 39 bd d0 fa 0b ba b1 79 83 bd f3 cb a5 bb
       -0.045174796 -0.0005339803 -0.06419695 -0.005059713
000290 e0 1f 18 bd cc 63 8d bd d2 21 8c bd 57 79 59 3d
       -0.037139773 -0.069038 -0.06842388 0.053094234
0002a0 cc 53 74 bd cd 04 36 bb 42 48 25 3d 3e 2a bd bd
       -0.059650227 -0.0027773858 0.040352114 -0.09236573
0002b0 92 29 06 ba 79 50 23 bd 14 11 6c bd 98 d1 04 3d
       -0.0005117889 -0.039871667 -0.057633474 0.032426447
0002c0 f9 2d 82 bd 12 74 26 3d 42 7b 99 bd 65 0f 56 bd
       -0.06356425 0.040638037 -0.07494213 -0.052260775
0002d0 ea ef 7e bc f0 6a e2 bc fc db d9 bb e4 f6 61 bd
       -0.01556013 -0.027638882 -0.0066485386 -0.055167094
0002e0 96 eb 03 bd 43 d1 cc bc 01 37 09 3d 28 69 b0 3b
       -0.032207094 -0.025002128 0.03349972 0.0053836294
0002f0 bd 16 4b 3d 19 ae 49 bd 90 79 bb bc 8f e1 2e bd
       0.04958223 -0.049238298 -0.022885114 -0.04269558
000300 ca e4 02 bd 04 a2 c8 3c b9 dd 93 bc dd c5 71 3c
       -0.03195647 0.024491318 -0.018050062 0.014756647
000310 5e 31 09 bd 63 95 3f bd ab 12 13 3d 00 c9 4f 3a
       -0.033494346 -0.046773326 0.035906475 0.00079263747
000320 20 fc ac bd 25 77 46 bd ed 46 66 bc 67 ed 4c bd
       -0.084465265 -0.04845347 -0.014054996 -0.050031092
000330 40 78 83 bd 3b e6 bc 3c 18 98 cf bd dc a7 3f bd
       -0.0641942 0.023059001 -0.101364315 -0.046790943
000340 3c 1f bb 3d df 0a 5e 3d 95 0d f7 be 9e 73 14 bf
       0.09136817 0.054209586 -0.4825255 -0.5798892
000350 71 46 d2 be 60 aa 54 3d 67 bd 4c bc 61 9c 7b bd
       -0.41069368 0.051920295 -0.012496329 -0.06142843
000360 bc d4 ad bd 70 d9 19 bc 64 2a 22 bd 8c 77 4c be
       -0.084878415 -0.00939022 -0.039591208 -0.19967479
000370 c7 05 9e be 8d 7a 85 be bf bb d7 bd 53 af 76 be
       -0.30863783 -0.2607006 -0.105338566 -0.24090318
000380 c0 69 41 be 1a a9 0f be 4b e1 89 be 82 fc 1f be
       -0.18887997 -0.14029351 -0.26929697 -0.15623668
000390 78 df 48 bd 34 f6 d5 3b 10 a1 48 bc 3d 09 d7 bb
       -0.04904124 0.006529594 -0.012245432 -0.0065623806
0003a0 1c f1 8c 3c a3 c8 e5 bc 6f 34 2e bf ad c4 74 bf
       0.017204814 -0.028049773 -0.6804876 -0.95612603
0003b0 58 88 82 bf 7f 92 52 be 73 28 ba be 07 be d5 be
       -1.0197859 -0.20563696 -0.36358985 -0.41746542
0003c0 a4 9b e0 bb 2b 13 8d bc 1a 56 46 bd c4 36 6a 3d
       -0.0068544913 -0.017221054 -0.048421957 0.057181135
0003d0 30 66 fc 3c 89 87 05 bc 60 79 10 bd e6 76 c0 3c
       0.030810446 -0.00814999 -0.035272002 0.023494195
0003e0 b1 39 7d 3d 38 1b b6 bd 3d 10 cd bd 72 7e 86 bc
       0.061822597 -0.0889191 -0.10012863 -0.016417716
0003f0 2b ba 0b bc 90 b6 98 bc a3 b1 10 bd 69 08 80 bb
       -0.008528273 -0.01864174 -0.035325658 -0.0039072526

embedding_net.conv2.bias f4 [50]
000000 77 ff 60 3d 6e bd 66 bd 4a 49 63 3d 87 e0 68 bd
       0.05493113 -0.056332998 0.055489816 -0.05685475
000010 c0 4e 2c 3d 5b f7 2a bd 73 fe c3 3c 36 a8 78 3c
       0.04206729 -0.041739803 0.023925042 0.015176823
000020 ee ea 55 bd 91 60 40 3d d1 b2 78 bd 6a a2 f7 bb
       -0.052226 0.046967093 -0.060717408 -0.007557203
000030 2f 5c 81 3d 69 0d 34 bd fe b4 4c bc 9a 99 55 bd
       0.06316411 -0.0439581 -0.012494324 -0.05214844
000040 a1 e2 6d bd b2 c7 a9 3c 0a 33 93 bc 8d aa fb bc
       -0.05807746 0.020725105 -0.017968673 -0.030720973
000050 93 3b 89 3d b9 4b 13 3d 7c 16 68 bd b6 8a 5c bd
       0.06700816 0.035960887 -0.056662068 -0.053843223
000060 bf db da 3c 76 b9 91 bc f4 50 c7 3c af ea 4b bc
       0.026716111 -0.01778863 0.024330594 -0.01244609
000070 8c 05 84 3c 9f 98 44 bd a9 60 61 bd f5 6a 3f bd
       0.016115926 -0.047997113 -0.055023823 -0.04673286
000080 04 2d c2 3b 32 2c 5c 3d 82 9e 33 bd e8 a3 2e bd
       0.0059257764 0.053753085 -0.043852337 -0.042636782
000090 c8 7b d6 3c f7 30 1c 3d dc 2d b4 3b 68 57 5c 3d
       0.02618207 0.038132634 0.005498631 0.053794295
0000a0 cb 3a 7a 3d 95 f2 ed 3c 1d f5 55 bd b2 63 06 3d
       0.061091226 0.029046336 -0.05223571 0.03280992
0000b0 7c d8 59 3c 21 80 48 3d c3 06 aa 3c 06 3e 6b bd
       0.013296243 0.04895032 0.020755177 -0.057432197
0000c0 f2 af 66 bd ec 29 26 3d
       -0.05632014 0.040567324

embedding_net.fc1.weight f4 [70, 100]
000000 73 57 b0 bd af 47 79 bd 24 16 10 3c 71 b7 98 bd
       -0.086104296 -0.06085938 0.008794341 -0.07456864
000010 a5 f2 d8 bd 12 5b 90 bd 0a a2 d0 bd 7d aa e7 bc
       -0.10593156 -0.0704862 -0.101871565 -0.028279537
000020 0a e1 78 3b d2 a8 d2 3c 5f 15 43 bd 1b 33 ee bd
       0.003797593 0.025715265 -0.047627803 -0.11630841
000030 11 07 ae bd 91 2b a3 3d 3a a5 c1 bd 8a f8 d5 bc
       -0.084974416 0.07967294 -0.094553426 -0.02611949
000040 30 1c b7 3c 77 cc 75 bd a2 ad 02 bd 5b a0 5b bd
       0.022352308 -0.060009446 -0.03190387 -0.053619724
000050 c7 ab 8d bd 84 d0 58 bc 35 61 07 bd 49 a1 88 bd
       -0.069175296 -0.013233308 -0.03305169 -0.06671388
000060 8e e5 11 bd 11 2a 2b 3d 98 0c c3 3d 6f a4 43 bd
       -0.03561931 0.041788165 0.095238864 -0.047764238
000070 cd cd ba bd d8 c8 22 be 1c 73 2e be a9 93 f3 bd
       -0.09121285 -0.15896928 -0.17036098 -0.11893398
000080 cf c3 fe bd 44 12 00 3d 03 8d a6 bd 13 61 56 bd
       -0.12439691 0.03126742 -0.081323646 -0.05233867
000090 4d b5 e6 bb e1 e4 0e 3a 9a fd b4 bc 35 18 85 bc
       -0.0070406557 0.0005450976 -0.022093583 -0.016246894
0000a0 64 a1 21 be 0b ea 8b bd 0d 82 55 bc ba 45 1b 3d
       -0.15784222 -0.068317495 -0.013031495 0.037908293
0000b0 3e 4e 6a bd d0 7b 48 bc 79 dc 67 bd 2b 82 36 bb
       -0.057203524 -0.01223655 -0.056606743 -0.0027848582
0000c0 6f 5d 85 39 fe a2 03 3d d7 4c 36 bd 75 49 1d be
       0.0002543735 0.032137863 -0.044506874 -0.15360053
0000d0 eb 4e bd bd b7 5f f9 bd 1f c0 05 be 41 5a 93 3c
       -0.09243568 -0.12176459 -0.1306157 0.017987372
0000e0 c3 40 60 3c 1d 7d 08 be 6b 67 56 bd 4c f6 51 bd
       0.013687315 -0.13328977 -0.05234472 -0.051260278
0000f0 9c 0d 41 bd ce 4d 81 3d 06 79 38 bd a8 79 0b bd
       -0.04713212 0.06313668 -0.045037292 -0.034051567
000100 6c 8a c4 bd 71 34 9f bc 54 3e ee ba 0d e0 8c 3c
       -0.095967144 -0.019434186 -0.0018176534 0.01719668
000110 6e b6 81 bc 10 df 37 bd 17 59 0f 3c f5 df 8c 3d
       -0.01583406 -0.044890463 0.008749268 0.06878654
000120 81 53 ac bc ac 4c 4e 3c 28 b5 a6 bd c3 5c 02 be
       -0.021035912 0.012591522 -0.081400216 -0.12730698
000130 52 a1 88 3c c7 01 bd bc 1f 22 24 3c af 70 c2 bd
       0.016678486 -0.023072137 0.010017901 -0.09494149
000140 08 2d 7a bd 40 73 aa bd 5f 1c 9a bd 70 ca ee 3c
       -0.0610781 -0.083227634 -0.075249426 0.029149264
000150 a0 da c3 bd 7a 04 30 bd 77 9c 6b bd 7a 87 c1 bc
       -0.09563184 -0.04297302 -0.057522263 -0.02362417
000160 83 37 97 bd 3f 94 be bd 15 85 e0 3c fe 94 44 3c
       -0.07383635 -0.093056194 0.027407208 0.011998413
000170 6b fc d9 bd 34 2c 5a bc 2f 66 5f bc 7e 7e 46 bb
       -0.10643848 -0.013316203 -0.013635202 -0.0030287798
000180 4e 9d ce bd f0 72 8a bc f9 b9 ce bd 98 55 72 bd
       -0.10088597 -0.01690051 -0.10094065 -0.05916366
000190 e3 9d 4d bd a7 96 33 3a 08 77 02 3d 43 46 ab bd
       -0.0501994 0.0006850757 0.0318518 -0.08363011
0001a0 5e bf 20 bd a5 dd 9b 3d 72 1a 6f bc dc f9 43 3d
       -0.039245002 0.07610635 -0.014593707 0.047845706
0001b0 0b f1 0a 3c a4 71 61 3c 93 42 cd bd 95 d2 df bd
       0.008480321 0.013760004 -0.10022464 -0.10928837
0001c0 11 e5 f8 3b c1 f5 36 3d 8f db 4a 3d 5c c2 4d bd
       0.007595666 0.044667963 0.049525794 -0.050234184
0001d0 f7 9e 30 3d 83 32 6a 3c 57 08 5d 3c f8 5e cf 3c
       0.04312035 0.0142942695 0.013490758 0.02531384
0001e0 d2 dc 99 bc 4f 67 47 be 4b 91 a1 bd 55 9f 57 3d
       -0.018782053 -0.19473003 -0.078890406 0.052642185
0001f0 68 4c 13 3d ea 80 e6 3c ba d4 c8 bd ae f1 01 bd
       0.03596154 0.028137643 -0.09806199 -0.031724624
000200 f5 a7 85 bd a3 77 70 3d 99 4f e4 bc 99 35 6a 3d
       -0.06526176 0.058707844 -0.027869986 0.05718002
000210 70 2b 38 3c 55 b2 b2 3d 88 de 80 bd 0a e3 8e bc
       0.011240825 0.087254204 -0.062924445 -0.017442245
000220 c9 44 3f bd ca ba 23 3d e5 b1 b2 bd 71 a1 69 bc
       -0.046696458 0.039973058 -0.08725337 -0.014259682
000230 28 2f bf 3b 7a ec b0 bd fe f8 f4 bc f0 ec e4 bd
       0.005834479 -0.08638854 -0.029903885 -0.11178005
000240 b9 7e e0 bc 73 93 38 3d fd 8c 8d bc 23 5c 38 bd
       -0.027404176 0.045062494 -0.017279143 -0.045009743
000250 80 9e 1c bd 18 fa 1d bd 79 bd 33 bd f7 56 f1 bc
       -0.038237095 -0.038568586 -0.043881867 -0.029460413
000260 66 e3 a6 bd fc 6b b2 3c 26 05 03 bd 99 8e 86 bd
       -0.081488416 0.021780007 -0.03198733 -0.06570167
000270 89 bf 6e bc 02 26 82 3d 51 48 c8 3c 75 b8 80 3b
       -0.014572033 0.06354906 0.024448546 0.003928239
000280 cf 5d 38 3d 80 eb b8 bd fa 9e c3 3b 34 25 81 3c
       0.045011338 -0.09029293 0.005969879 0.01576481
000290 d6 66 3b bd 75 22 1e 3d 00 8a 91 bd a7 97 ba bd
       -0.04575237 0.03860708 -0.071063995 -0.09110957
0002a0 e8 4e 8c bd 44 19 b3 bd cd ac a1 bc 08 6e b1 bd
       -0.06850988 -0.087450534 -0.019735718 -0.08663565
0002b0 84 b5 89 bc 34 e1 fb 3c bc d3 98 bc 95 bf f3 bc
       -0.016810186 0.030747034 -0.01865565 -0.02975444
0002c0 8c c4 a7 bc 88 a0 fc bc 6d d6 ac bd d4 41 c1 bd
       -0.020479463 -0.030838266 -0.08439336 -0.09436384
0002d0 8a 72 ce bc fd ea 19 3d 24 02 e8 bc 0d 39 9e bd
       -0.0252011 0.037577618 -0.028321333 -0.07725725
0002e0 d2 40 9f bd f8 f4 e5 bd 37 e6 a4 bc b9 4b 79 3d
       -0.07776035 -0.11228365 -0.020129306 0.06086323
0002f0 bf 64 19 bd 00 14 e5 bd d7 b2 20 3d 51 b0 55 3d
       -0.037449595 -0.11185455 0.039233055 0.0521701
000300 ac ee 93 bd 99 3b 6b 3d 2c 30 77 bd b6 24 95 bd
       -0.072232574 0.057429884 -0.060348675 -0.07282393
000310 6f 0b 95 bd fe 86 8a bc 2a b9 f1 bc 92 cb 79 bd
       -0.072775714 -0.016910072 -0.029507238 -0.060985155
000320 63 cf 4b bd 16 98 1f bd 00 2d 77 bd c7 ff 08 3d
       -0.049758326 -0.0389634 -0.06034565 0.033447053
000330 13 a2 15 be ea c2 7c 3c 51 51 ae bd 70 fd b4 3d
       -0.14612608 0.0154273305 -0.085116036 0.08837402
000340 e6 99 bd bd 0f 4f 26 bc e9 43 ed bc cd 55 8f bd
       -0.092578694 -0.010150685 -0.028963046 -0.06998787
000350 07 ad b5 bd 84 57 7b bd 2c 80 9e bd 8c cd ae bd
       -0.08870893 -0.06136276 -0.077392906 -0.08535299
000360 0a 51 8c 3b 3a a8 1b 3d 53 59 2d bd 30 ff b5 bd
       0.0042821215 0.03800223 -0.042321514 -0.08886564
000370 f0 f9 d1 bd 2f df 34 bc 63 d6 95 3c 1d b4 fb bd
       -0.1025275 -0.011039539 0.018290704 -0.12290213
000380 8b 97 f2 bc 29 66 00 3d 0f 98 1f 3d 87 fb 9d 3c
       -0.029613277 0.031347428 0.038963374 0.019284977
000390 b8 98 d8 bd 11 fa bd bd 73 a5 ba bd 86 f7 9b bd
       -0.10576004 -0.09276212 -0.09113588 -0.07615571
0003a0 93 f1 ca 3c 0c 26 34 bd 13 7c 12 bd 88 07 c7 bc
       0.024773395 -0.043981597 -0.035762858 -0.024295583
0003b0 c8 0f b2 bd 41 7a 1b bd 56 af a3 bc a8 2f c5 3d
       -0.08694416 -0.037958387 -0.019981068 0.0962823
0003c0 5e d3 94 3b 26 71 93 bd 8b d5 08 3d 92 10 25 bc
       0.0045417985 -0.07199316 0.033406775 -0.010074751
0003d0 94 e8 4e 3d 96 60 e8 bd d9 5b 31 3d 2c 43 3a 3d
       0.050514773 -0.11346547 0.043300483 0.045474216
0003e0 66 84 93 3b 0b 30 72 3c 7e 6a 22 3d ec 41 1c bd
       0.004501867 0.014781962 0.03965234 -0.038148805
0003f0 44 0d c0 bd df 7a 6f bc c6 31 6a 3d c1 4b d1 bd
       -0.0937753 -0.014616697 0.057176374 -0.10219527

embedding_net.fc1.bias f4 [70]
000000 ea dd e6 bc 98 82 61 bd 3d 48 29 b9 9a c0 a4 bd
       -0.028181989 -0.055056185 -0.00016144007 -0.08044548
000010 f3 ad a5 ba 40 65 14 ba 83 b5 77 ba af 19 9a b9
       -0.0012640342 -0.00056608394 -0.00094493496 -0.00029392305
000020 a2 00 50 bb 36 19 63 ba 82 53 23 bd 54 67 b3 b9
       -0.0031738658 -0.00086631195 -0.03987456 -0.00034218526
000030 f6 c7 3b b8 41 4e ac bd 95 d9 0d b9 86 8e 5c bd
       -4.4770502e-05 -0.08413363 -0.00013527863 -0.05384686
000040 8e 3e 0d bb 71 2d 62 bd 6b 4d 93 bc 73 6f ae bd
       -0.0021552178 -0.055219118 -0.017981252 -0.08517351
000050 6e 97 12 ba 05 83 a8 bd 0d 69 61 bd 70 2b 39 bd
       -0.0005592023 -0.08228115 -0.055031825 -0.04520744
000060 38 9f 05 bb e6 7d 65 b9 d5 41 8e bd 90 58 4a bd
       -0.0020389091 -0.00021886043 -0.0694615 -0.049400866
000070 13 80 40 bb 64 b8 a3 bd 27 ee 0a b9 3e 4f 2e b9
       -0.0029373213 -0.07994154 -0.00013249424 -0.00016623453
000080 76 91 c5 bd 91 2e 77 b9 3b 0d 4c b9 83 cb 75 b9
       -0.09646885 -0.00023573103 -0.00019459885 -0.00023440835
000090 bf 36 fc ba 8f c5 e0 b8 bf cb 11 b9 02 64 89 bd
       -0.001924239 -0.000107179505 -0.00013904179 -0.06708528
0000a0 c9 59 27 b9 bf 85 6d ba e3 a7 bb bd 07 56 aa b8
       -0.00015959809 -0.0009060762 -0.09162881 -8.1222555e-05
0000b0 30 03 3f bd c4 b6 96 bd 20 21 0b bd 12 22 a6 bd
       -0.0466339 -0.073590785 -0.033967137 -0.08111967
0000c0 3f 0c ab bd 55 6c ce b9 51 3c 93 b9 db 96 f9 b9
       -0.08351945 -0.00039372095 -0.00028082964 -0.00047605377
0000d0 04 10 a6 bb 0b ec de b8 9e 29 c4 bc 4c 30 1d bd
       -0.005067827 -0.00010629751 -0.023945626 -0.038376138
0000e0 09 85 21 bc ed 35 a4 bd 79 9b 47 bc aa 8d cf b8
       -0.009858378 -0.08018098 -0.012183064 -9.896916e-05
0000f0 5c 9d 90 bd 8e 74 84 bc 18 87 34 bb 7e 25 65 b9
       -0.07061264 -0.016168859 -0.0027546342 -0.00021853109
000100 7c 67 84 bd c7 65 9b b8 13 06 bb b9 08 0d 64 bc
       -0.064650506 -7.4099335e-05 -0.00035671945 -0.0139191225
000110 1d 31 c4 bd 93 17 8f bc
       -0.0957968 -0.017467296

embedding_net.fc2.weight f4 [50, 70]
000000 3f ed c6 3c 9e 65 a5 bd fd 41 6f 3d 19 57 61 bc
       0.02428305 -0.080760226 0.05841254 -0.013753676
000010 58 4d c3 bd 23 d1 f0 bc 43 06 57 bd 90 39 28 bd
       -0.095362365 -0.0293966 -0.052496206 -0.04107052
000020 f2 c7 2e bd 39 ef 35 bd 30 39 44 3d 73 43 1a bd
       -0.04267115 -0.044417594 0.0479061 -0.03766198
000030 6f 24 5d 3d 99 fe 4d bd 78 f6 4c 3c b8 35 b9 bd
       0.053989824 -0.05029163 0.012509935 -0.09043449
000040 89 be 07 3d c4 0a 1c 3c 23 bd 17 bc ca 29 a0 3d
       0.033140693 0.009524051 -0.009261402 0.07820471
000050 8d 42 7a 3d f8 ff fb 3d 89 4f 56 bd 3b 72 db bd
       0.061098624 0.123046815 -0.052321944 -0.10715147
000060 f0 33 d6 3c dc 1c 1d 3d c9 7e bb 3d 99 8b 8d bd
       0.026147813 0.0383576 0.09155042 -0.06911392
000070 4f 08 1c bd a1 93 77 3d 0c 75 f7 3c 92 bb 1a bc
       -0.03809386 0.060443524 0.03020718 -0.009444134
000080 90 e8 69 bd 9c 75 14 3c 3a da b9 bd 8e 25 69 bd
       -0.057106555 0.009061243 -0.090748265 -0.05692058
000090 9f 70 85 3d 66 11 82 bc 7a 3f 83 3d e9 52 db bc
       0.065156214 -0.015877437 0.064085916 -0.026772933
0000a0 14 06 c2 bd 68 46 9e 3d 5b 03 07 bc b9 68 2e bd
       -0.094738156 0.07728273 -0.008240546 -0.04258034
0000b0 52 7f 83 bc a9 99 b3 bd c0 35 61 3d 9b f1 15 bd
       -0.016051922 -0.08769543 0.0549829 -0.036607366
0000c0 e1 b2 60 bd b2 f7 5e bd 76 22 d2 3c 27 ea 31 3d
       -0.054858092 -0.05443544 0.025651198 0.043436196
0000d0 27 63 79 bd 73 d4 27 bc 3a 84 a3 bd f1 bc b1 3d
       -0.060885575 -0.010243523 -0.079842046 0.08678616
0000e0 76 aa 9b bc df c5 c9 bc cb a9 93 bb ad d4 a3 3d
       -0.01900218 -0.024630485 -0.004506325 0.07999549
0000f0 a6 a8 15 ba 14 f4 8d 3c 4b 1f e9 3c 61 68 d8 3c
       -0.00057090295 0.0173283 0.028457304 0.02641696
000100 56 7f bf bd d6 1f 6f bd c4 5c c3 ba be f6 4e 3d
       -0.09350459 -0.05837997 -0.0014904966 0.05052828
000110 20 ce 0b 3d f5 ad 8a 3d 43 0e e9 bd 24 98 e6 3c
       0.034132123 0.06771461 -0.11379673 0.028148718
000120 ad b8 20 3b 8b b2 47 3d 66 6c b9 bd 41 3f 6c 3d
       0.0024524138 0.048754256 -0.090538785 0.05767751
000130 7a 02 96 3d c0 c0 ad bb 82 b7 71 3d bc a6 92 bd
       0.07324691 -0.0053025186 0.059012897 -0.07160708
000140 4d 25 c5 3b 62 27 1e bd 14 0d 84 bd 7f 5d c5 bd
       0.0060164095 -0.038611777 -0.06447807 -0.096369736
000150 a7 a3 41 3d 64 98 49 bd b3 2a 42 bd 8b 34 6a bd
       0.04727521 -0.049217597 -0.047404002 -0.057179015
000160 c5 10 c2 3c cc a7 96 3c 68 4c 69 3d 26 1d 17 3d
       0.023689637 0.018390559 0.056957632 0.036893032
000170 19 1c dc 3c 0a 0d a0 3c 0a 4b fa bc 13 5b 44 bd
       0.026868867 0.019537468 -0.03055336 -0.047938418
000180 2f 10 d6 bc b5 38 87 3d b0 14 42 3c c2 98 90 3c
       -0.026130764 0.06602613 0.011845753 0.017650966
000190 5d 18 99 3d ee f3 ad bd ff f0 28 3d af 3f 5a 3c
       0.0747535 -0.084937915 0.041245457 0.013320847
0001a0 8e c4 a5 bd fb 4d 2f 3c e8 66 3a 3d 80 af 3f 3d
       -0.080941305 0.010699744 0.045508295 0.04679823
0001b0 bf b2 e5 bc b5 e7 48 3d 44 f0 57 3d c1 54 a3 3d
       -0.028039334 0.049049098 0.05271937 0.0797515
0001c0 9b a9 67 3c fa 1a 9b b9 a3 e1 0f 3d ab 40 95 bc
       0.014139558 -0.00029584003 0.035127293 -0.018219313
0001d0 97 18 77 3b 0b 80 a2 bd e2 09 0b bd 78 86 9a 3d
       0.0037703866 -0.079345785 -0.03394497 0.07545179
0001e0 5e ec e8 3c 2d 51 68 3b 2e 23 6b bd 31 c9 31 bd
       0.028433021 0.0035448775 -0.057406597 -0.04340476
0001f0 3a 3e ae 3d d4 14 07 3d fa f4 db 3c c7 72 92 bd
       0.085079625 0.032978848 0.026850212 -0.07150798
000200 7c 3e ac 3d ad 66 a8 bc 5c 09 5a 3d 0b 36 9c bd
       0.084103554 -0.020556772 0.053231582 -0.076274954
000210 16 bb 2e bd 31 4c 01 bd 9e 22 e9 bc 1e 52 96 3d
       -0.042658888 -0.031566802 -0.02845889 0.07339881
000220 b1 50 b1 bc a6 59 17 bc d2 f7 8e 3d 7b 3c da bc
       -0.021644922 -0.009237682 0.06980862 -0.026640167
000230 05 f6 4a bb 5b 42 59 bd eb 93 48 3d f0 00 49 bd
       -0.0030969393 -0.053041797 0.04896919 -0.04907316
000240 a8 79 ac bc 10 b3 cc bd e5 3b 74 3d 3b e2 0c bd
       -0.021054104 -0.09995091 0.059627432 -0.034395438
000250 24 65 bb bc 52 87 88 bd e5 81 74 3d 23 d6 51 3d
       -0.022875376 -0.06666435 0.05969419 0.051229607
000260 38 c6 15 bd 1e cf 00 be a7 53 f6 3c 7a 43 9a bd
       -0.03656599 -0.12579009 0.030069185 -0.075324014
000270 3b ee b5 bb da 9c 6c 3d 33 d1 18 3d ff 65 ad bc
       -0.005552081 0.057766773 0.037308883 -0.0211668
000280 08 c4 92 3d 55 72 a5 3b d1 a2 6a 3b a9 89 9e bd
       0.07166296 0.00504903 0.0035802613 -0.077411
000290 59 33 af bd 55 c7 da 3c 08 5d 01 bd 92 50 62 bd
       -0.08554716 0.026706377 -0.031582862 -0.05525262
0002a0 b1 91 5e 3a 26 ff 0f 3c f8 3f 77 bd c1 02 a2 bd
       0.00084903376 0.0087888595 -0.06036374 -0.079106815
0002b0 73 99 80 3d c7 46 ac 3d db 47 84 bd bb 34 5c bd
       0.06279268 0.08411937 -0.06459018 -0.053761225
0002c0 95 2e ce 3d d3 b7 f4 3c 9b 03 81 bc 8f ec 8e 3c
       0.100674786 0.02987281 -0.01574879 0.017446784
0002d0 c7 ae 93 bd 83 7e e5 3c 3d f4 b9 3a bc b1 83 3c
       -0.072110705 0.028014427 0.0014187169 0.016075961
0002e0 59 0c ee 3c aa 19 13 3d e1 28 c2 3d 87 91 8b bd
       0.029058622 0.035913147 0.09480453 -0.068148665
0002f0 35 d2 8a bd 36 84 fb 3b d3 ca 83 3d a3 15 73 bd
       -0.06778375 0.007675673 0.0643517 -0.059346806
000300 b8 a0 a3 3c 23 e4 a5 bd 79 53 4b 3b 01 f7 68 bc
       0.019974098 -0.08100154 0.0031025095 -0.014219047
000310 25 02 41 bc 1a 1d 6e bb 3c 48 e2 3c 5f 56 17 bd
       -0.011780296 -0.0036333264 0.027622335 -0.036947604
000320 6b b6 c0 3d 27 83 94 3c 8b f9 4d 3d e5 db 98 3d
       0.094097935 0.018128945 0.05028681 0.074638166
000330 36 8b 77 3d c8 9d 56 ba 0d bd d6 3c 0b a0 22 bd
       0.060435496 -0.00081869634 0.026213193 -0.03970341
000340 9e 8f a2 3d d2 30 3b bd 1b 60 8d bc 13 d1 7e bc
       0.07937549 -0.045700856 -0.01725774 -0.015552777
000350 d2 a9 00 3d e8 eb 2a bd f3 12 31 3d 83 69 7f 3d
       0.031411953 -0.041728884 0.043230962 0.062356483
000360 8a 97 8c bd d8 0e 87 3d 55 36 dd 3c 54 25 11 bc
       -0.06864841 0.06594628 0.027003447 -0.008858997
000370 80 75 57 bc 9c 05 35 bc 86 fc a4 3d 05 24 97 3d
       -0.013150573 -0.011048701 0.080559775 0.07379917
000380 2f d7 3f 3d 66 0c f0 bc fd 07 97 bd ba 11 08 bc
       0.046836074 -0.029302787 -0.073745705 -0.008305008
000390 d1 98 00 3d 48 a4 2a bd a0 75 ad 3c 1c 50 ab 3d
       0.031395737 -0.041660577 0.021174252 0.08364889
0003a0 a3 4e 57 bd de 7a 6c 3d f5 ea 07 bd 9a 6d ad 3c
       -0.05256523 0.057734363 -0.033183057 0.021170426
0003b0 89 21 9a 3d 85 c8 45 bc 41 cc 4f 3d c1 93 b6 3c
       0.075259276 -0.012071733 0.0507319 0.022287251
0003c0 d2 ac 14 3d 74 7d 95 3d 4b be aa 3d 83 4a 4a 3d
       0.036297627 0.07299319 0.08337077 0.049387466
0003d0 58 86 92 bd 95 7c 24 3d 29 d9 c1 bd f4 48 9d bb
       -0.0715453 0.040157873 -0.09465248 -0.0047999565
0003e0 6e a1 c2 bc 58 2a 9c bd e0 9f 9e bd bc fe f7 38
       -0.023758616 -0.07625264 -0.077453375 0.00011825326
0003f0 7f 77 14 3b 7e 27 a7 bb 4e a3 c3 ba 6a 7e c7 3d
       0.0022654233 -0.0051011434 -0.0014925988 0.097409084

embedding_net.fc2.bias f4 [50]
000000 63 1e d1 bd 7b d9 95 3d 88 13 7e 3c 4c 3a df bc
       -0.10210874 0.07316872 0.015507586 -0.027249478
000010 ae a2 6d 3d c5 f4 b2 bd e1 ea 8f 3d 30 54 58 bc
       0.05801647 -0.08738092 0.070272215 -0.013203666
000020 73 4c c7 bd 17 cd a2 3d 64 ad a0 bd 31 25 ae bd
       -0.097313784 0.07949274 -0.07845572 -0.085031874
000030 e2 d2 cc bd 0a fb 44 bd 58 e7 29 bd e0 a7 3f bb
       -0.1000116 -0.048090972 -0.041480392 -0.0029244348
000040 2c de e3 bc 9d 1f bb 3d 31 cc d6 3d e0 0a e4 bc
       -0.0278159 0.09136889 0.10488165 -0.027837217
000050 fb 02 e5 bd 28 e7 66 3c fa 70 e5 bd 7a d2 2e 3d
       -0.11182209 0.014093198 -0.11203189 0.042681195
000060 44 85 0f bd 65 dc a3 bd 3c 71 8f 3c 9f b5 c7 3d
       -0.0350392 -0.08001021 0.017510049 0.09751438
000070 08 82 2f 3c 24 5f 8c bd 05 ef 9c 3d c1 23 d0 3a
       0.010712154 -0.06854084 0.07662777 0.0015879796
000080 86 a7 44 3d 60 86 b4 bc 71 ec c9 3d 43 30 d7 3d
       0.048011325 -0.022036731 0.09859551 0.10507252
000090 a0 76 68 3b 9c d6 15 bd 08 c8 1d bc 35 74 a4 3d
       0.0035471097 -0.03658162 -0.009630211 0.08029977
0000a0 75 d3 7e bd 90 8d d6 bc 74 6c c2 bc 0c 8f d0 bd
       -0.06221338 -0.02619055 -0.023733355 -0.10183534
0000b0 32 49 22 3d c8 8d 48 bd e0 e9 3f bb a8 0b e4 bd
       0.039620586 -0.048963338 -0.0029283687 -0.11135036
0000c0 3a f5 30 3d 52 92 b7 bd
       0.043202616 -0.08963455
