runs/TripletNet_0918c/checkpoint.pth.tar (torch_old, 181540 bytes, 8 tensors)

embedding_net.conv1.weight f4 [50, 128, 3, 1]
0	0x3cf9a30f	0.03047326
1	0xbc73c822	-0.014879258
2	0xbbcc1a00	-0.0062286854
3	0x3cfded67	0.030996991
4	0xbd2bb376	-0.041919194
5	0x3d17c5ac	0.03705375
6	0xbc2aceb7	-0.010425261
7	0x3cd47068	0.025932506
8	0x3be580c4	0.0070038754
9	0xbbcad5ae	-0.0061900234
10	0x3c68edbd	0.0142168375
11	0x3b290f56	0.0025796494
12	0x3c993534	0.018702127
13	0xbca27117	-0.019829316
14	0xbb700132	-0.0036621806
15	0xbb945bf6	-0.004527564
16	0x3bf46891	0.0074587543
17	0xb933dc54	-0.00017152849
18	0x3d36e37f	0.04465055
19	0x3c827379	0.015924202
20	0xbc9b694f	-0.018971113
21	0xbcfbfd21	-0.03076035
22	0xbc0b3338	-0.008496098
23	0xbcb3e01d	-0.021957451
24	0xbc859067	-0.016304208
25	0x3b242de2	0.0025051762
26	0x3cf9c0e4	0.030487485
27	0x3ce3bed4	0.027800955
28	0xbd4c0a39	-0.049814437
29	0x3d01e4d4	0.031712368
30	0x3c6a2544	0.014291111
31	0x3d4667d9	0.04843888
32	0x3d0a20af	0.033722576
33	0xbd3e705c	-0.046493873
34	0xbd46b823	-0.04851545
35	0xbcc994f4	-0.02460716
36	0x3d3782f4	0.04480262
37	0xbc0b414d	-0.008499456
38	0x3cb2f960	0.021847427
39	0xbcc217a9	-0.023692923
40	0x3d4d356c	0.050099775
41	0xbcb0a2b6	-0.021561962
42	0x3d1cd4ba	0.03828881
43	0x3a2497f1	0.00062787445
44	0xbcdc08be	-0.026859637
45	0x3cd6fde1	0.026244106
46	0xbcddb6b8	-0.027064666
47	0x3c765d0f	0.015036835
48	0xbc7139f9	-0.014723294
49	0xbbb6a825	-0.0055742436
50	0xbd48e032	-0.049041934
51	0xbcc74cfd	-0.024328703
52	0x3ce2da27	0.027691914
53	0xbc4b433b	-0.012406166
54	0x3d5067b0	0.050880134
55	0x3d27bf50	0.040953934
56	0xbb19dd9d	-0.002347804
57	0xbd0b6dde	-0.034040324
58	0x3cfed0e8	0.031105474
59	0x3c81fe43	0.015868312
60	0xbd06f12b	-0.03294484
61	0x3d07f527	0.03319278
62	0x3cfe2519	0.031023549
63	0x3d39b16b	0.045335215
64	0xbce9c9ef	-0.028538672
65	0xbc08ba72	-0.008345233
66	0xba78147e	-0.0009463503
67	0x3bf59bea	0.007495393
68	0xbd1e7f12	-0.038695402
69	0xbd144f28	-0.0362083
70	0x3ce37656	0.027766388
71	0xbc441761	-0.011968465
72	0x3ccc9324	0.024972506
73	0x3b424076	0.0029640472
74	0x3c89b380	0.016809225
75	0x3c392865	0.011301135
76	0x3c98c613	0.018649137
77	0x3ccfed78	0.025381789
78	0xbd4197e0	-0.04726398
79	0x3cd26c48	0.025686398
80	0xbd12fb9b	-0.03588448
81	0xbd1d7140	-0.03843808
82	0x3b4fac33	0.0031688332
83	0xbc0d6d48	-0.008632012
84	0x3cf6a331	0.030107113
85	0xbcf0fe2d	-0.029418075
86	0xbd396839	-0.04526541
87	0x3d183591	0.03716046
88	0xbbf73814	-0.007544527
89	0x3ceb4a46	0.02872194
90	0x3c86a11e	0.016434249
91	0xbd1c9d66	-0.038236044
92	0x3c284d53	0.010272342
93	0x3c4973ab	0.012295644
94	0xbd0bd14e	-0.034135155
95	0xbcc63852	-0.024196777
96	0x3c8f8ed1	0.017524155
97	0x3c1766ba	0.0092408005
98	0xbcb1659b	-0.021654895
99	0xbc7becba	-0.015376264
100	0x3d3fabf4	0.046794847
101	0xbc1a15d6	-0.00940462
102	0x3cec6c2d	0.028860176
103	0x3cb5a4fa	0.022173394
104	0xbd06fddd	-0.032956947
105	0xbd31df6b	-0.04342596
106	0x3d488270	0.04895252
107	0x3b2c0dac	0.0026253266
108	0x3d0f0fc9	0.034927163
109	0x3c2c2008	0.010505684
110	0x3c85a758	0.016315147
111	0x3d1d23d8	0.03836426
112	0x3d472dcc	0.04862766
113	0xbd09ca17	-0.033639994
114	0x3be44ef7	0.006967421
115	0x3d1e7011	0.038681094
116	0x3d19b10b	0.037522357
117	0x3d02805e	0.0318607
118	0xbd16a5e1	-0.03677929
119	0xbd15f4fe	-0.036610596
120	0xbcfc06c9	-0.030764954
121	0x3bd61ccf	0.006534196
122	0x3d50bb0c	0.05095963
123	0xbd033a87	-0.032038238
124	0x3ce04bbb	0.027379861
125	0xbce69d54	-0.028151192
126	0xbd43d36f	-0.04780906
127	0xbc2eed34	-0.010676671
128	0x3cf2487d	0.02957558
129	0x3d43bb3d	0.047785986
130	0xbd001358	-0.031268448
131	0x3c3c9c07	0.011511809
132	0x3d3523ab	0.04422347
133	0x3d0b59a7	0.034021046
134	0x3d02e8db	0.03196035
135	0x3d173617	0.03691682
136	0x3d07493e	0.033028834
137	0x3c61dc0e	0.013785375
138	0xbd0e6a79	-0.03476951
139	0xbd2ef266	-0.042711638
140	0xbcbe68bc	-0.0232433
141	0xbbafb75e	-0.0053624352
142	0xbcfa76b6	-0.030574184
143	0x3c9d5e81	0.019210102
144	0x3c84aee4	0.016196676
145	0xbc366ec2	-0.011134805
146	0x3ca393fa	0.019968022
147	0x3c8e7bd3	0.017393028
148	0x3d03011b	0.031983476
149	0x3d0f7e8f	0.035032805
150	0xbc8d3f02	-0.017241959
151	0x3d4c52b1	0.04988355
152	0xbbc13e23	-0.0058973
153	0xbae91ac3	-0.0017784465
154	0xbd454732	-0.0481636
155	0xbd068ded	-0.032850195
156	0xbcf04ed3	-0.029334461
157	0xbcae7758	-0.021297142
158	0x3d16deff	0.03683376
159	0xbc84836c	-0.016175948
160	0xbd198eb4	-0.037489608
161	0x3ca6b376	0.020349246
162	0x3c8b1830	0.016979307
163	0x3d0a3127	0.03373828
164	0xbcd5004d	-0.02600112
165	0x3c3b35e7	0.011426426
166	0xbc951647	-0.0181991
167	0xbc37529d	-0.01118913
168	0xbd220abd	-0.039561022
169	0xbcb49773	-0.022044873
170	0xbc6ef03b	-0.014583643
171	0x3cb5dfc3	0.022201424
172	0x3c1ed9cb	0.009695481
173	0x3c53ac69	0.012919524
174	0x3d54fee5	0.0520009
175	0x3d4eda9a	0.050501443
176	0x3d0f598e	0.034997515
177	0x3ae810f8	0.0017705252
178	0xbd103f05	-0.03521635
179	0x3d22e3f3	0.03976817
180	0xbc45b635	-0.012067367
181	0xbb631ac1	-0.0034653398
182	0xbd32c6fb	-0.043646794
183	0xbc2af467	-0.010434247
184	0xbd085825	-0.033287186
185	0x3d3e277d	0.046424378
186	0xbd37b385	-0.044848938
187	0xbd266579	-0.040624116
188	0xbb3e99d9	-0.00290834
189	0xbcc47763	-0.02398271
190	0x3cb0e14a	0.021591801
191	0xbc8910b2	-0.016731594
192	0xbc99b97a	-0.0187652
193	0x3bfb83b6	0.0076756133
194	0x3d283eb7	0.041075435
195	0xbd13937b	-0.03602932
196	0x3cc23798	0.02370815
197	0x3d048d66	0.03236141
198	0x3d4c51ad	0.04988258
199	0xbd129cbe	-0.035794012
200	0x3c486e13	0.012233275
201	0xbd248a64	-0.040171042
202	0x3d275382	0.040851124
203	0xbcbd03f1	-0.023073168
204	0x3cf9af24	0.030479021
205	0x3aa23884	0.0012376462
206	0xbb93d4cc	-0.0045114513
207	0xb93ec8e4	-0.0001819465
208	0x3c0619c2	0.008184852
209	0x3cb30e60	0.02185744
210	0x3c086bbd	0.008326468
211	0x3c81ca12	0.015843425
212	0xbd3b93bf	-0.0457952
213	0x3d1d3954	0.03838475
214	0x3d3d9435	0.04628392
215	0x3d31f812	0.04344947
216	0x3d192329	0.037387047
217	0xbd15b3d6	-0.036548458
218	0xbc9ba294	-0.018998422
219	0x3d390099	0.045166586
220	0xbd1d6a8f	-0.0384317
221	0x3d3c4a37	0.045969214
222	0xbd1c3315	-0.038134653
223	0xbd0e2c28	-0.03471008
224	0x3ccb7cb0	0.02483973
225	0xbd097423	-0.033558022
226	0xbc23f99f	-0.010008245
227	0x3d1764bd	0.036961306
228	0x3d266b7b	0.040629845
229	0x3d473bde	0.04864108
230	0xbc2ee405	-0.010674481
231	0xbd27d841	-0.04097772
232	0x3d493bdc	0.049129352
233	0xbc43728c	-0.011929166
234	0xbca5d0ae	-0.020241108
235	0x3c55f335	0.013058473
236	0xbd0dc920	-0.034615636
237	0x3d0de2e7	0.03464022
238	0x3d0ae0b8	0.033905715
239	0xbd1bd0db	-0.038040977
240	0xbd337631	-0.043813888
241	0xbc62cce7	-0.013842798
242	0x3bc1c370	0.0059131905
243	0xba4b5701	-0.00077568
244	0xbce38b8d	-0.027776504
245	0xbb3ba05c	-0.0028629517
246	0xbd3e0b5e	-0.04639756
247	0xbd19c4c7	-0.037541177
248	0xbd1fa4e7	-0.038975623
249	0x3d32407f	0.04351854
250	0x3d3870b9	0.045029376
251	0xbc8e3343	-0.017358428
252	0x3c4c5b37	0.012472919
253	0x3cf9052d	0.030397976
254	0x3c3793d0	0.011204675
255	0xbcc0afb3	-0.02352128

embedding_net.conv1.bias f4 [50]
0	0xbc27e70f	-0.01024796
1	0x3caf513c	0.02140104
2	0xbd01e718	-0.03171453
3	0x3c9f427b	0.01944088
4	0xbc7e9c06	-0.015540129
5	0xbd30e1e0	-0.04318416
6	0x3ce333d8	0.027734682
7	0x3c23e039	0.010002189
8	0x3bf01b11	0.0073274453
9	0xbd37357b	-0.044728737
10	0x3cff3d37	0.03115712
11	0xbd1ee679	-0.038794015
12	0xbcd3a29d	-0.025834376
13	0x3c1f2e6c	0.009715658
14	0x3d195331	0.037432853
15	0xbd3b83b6	-0.045779906
16	0xbcf86e9e	-0.030326184
17	0x3cde8251	0.02716175
18	0xbd1c0ae9	-0.038096342
19	0xbd191f0d	-0.037383128
20	0xbb916c79	-0.00443798
21	0x3c785425	0.01515678
22	0xbcb7e484	-0.022447832
23	0x3c2fc53e	0.010728179
24	0x3d452ac7	0.0481365
25	0xbd095220	-0.033525586
26	0x3bb21383	0.005434455
27	0xbd2fbc51	-0.042904202
28	0x3d0ca2ac	0.034334823
29	0xbcccaac5	-0.024983773
30	0x3ac67b3f	0.0015142931
31	0x3d0c66f4	0.03427787
32	0xbc7b03ec	-0.015320759
33	0xbc670fc1	-0.014102877
34	0xbba4fe43	-0.005035193
35	0x3c3ce9b1	0.011530326
36	0x3d2652d2	0.040606327
37	0xbd329372	-0.043597646
38	0x3cac0e37	0.021002872
39	0x3c88f115	0.01671652
40	0x3ce5d25d	0.02805441
41	0xbc992d5e	-0.01869839
42	0x3cb1ce64	0.02170486
43	0xbd2cb755	-0.042167027
44	0xbcbe4d3d	-0.02323019
45	0x3cd246ba	0.02566849
46	0xbd4938f2	-0.049126573
47	0xbd38f0b6	-0.045151435
48	0x3d45c4b6	0.0482833
49	0xbc54c9cb	-0.012987564

embedding_net.conv2.weight f4 [100, 50, 3, 1]
0	0xbd05d9ac	-0.03267829
1	0xbcd3b8e8	-0.025845006
2	0xbd4b6819	-0.049659822
3	0x3d09d52c	0.033650562
4	0x3d05365e	0.03252255
5	0xbcf9c696	-0.030490201
6	0xbda058b6	-0.0782942
7	0xbd65a727	-0.056067612
8	0xbe0ebc35	-0.13938983
9	0xbcb5f182	-0.022209886
10	0xbce9cc0d	-0.028539682
11	0xbe36c470	-0.17848372
12	0xbd9325e4	-0.071849614
13	0x3ce0764d	0.02740016
14	0x3d341b74	0.043971494
15	0x3d349a57	0.044092502
16	0xbd19ad89	-0.03751901
17	0xbb967160	-0.004591152
18	0xbad15a81	-0.0015972407
19	0xbe45b49d	-0.1930718
20	0xbe294826	-0.16531429
21	0xbb9e74eb	-0.004835715
22	0x3ae9b63d	0.00178308
23	0xbdd95107	-0.10611158
24	0xbbb72b71	-0.0055898954
25	0x3998e298	0.00029160525
26	0xbdef13c5	-0.116736926
27	0x3d7c4b57	0.061595287
28	0x3caa84c2	0.020815257
29	0x3c7dc676	0.015489211
30	0xbd2adf99	-0.041717146
31	0x3d448fb2	0.0479886
32	0xbda22c2d	-0.07918582
33	0xbc5937df	-0.01325795
34	0xbe09d419	-0.13459815
35	0xbdd3e2dd	-0.10346005
36	0xbd27c691	-0.040960852
37	0x3b48b6e9	0.00306266
38	0x3d233e56	0.03985437
39	0xbd73eeb1	-0.059553806
40	0x3c95a462	0.01826686
41	0x3b1a12cd	0.0023509741
42	0xbdd5d829	-0.1044162
43	0xbdafcc7b	-0.085839234
44	0xbdae2917	-0.08503931
45	0xbd617ffd	-0.0550537
46	0x3cc99050	0.024604946
47	0xbdd908be	-0.105973706
48	0xbc3c80df	-0.011505335
49	0xbd44d82b	-0.048057716
50	0xbd962b99	-0.07332534
51	0xbd7fb084	-0.062424198
52	0xbd555290	-0.05208069
53	0xbdbb5074	-0.091462046
54	0xbde1f3c9	-0.110328265
55	0xbdb18c68	-0.086693585
56	0xbe1af734	-0.15133363
57	0x3d36c1b1	0.044618312
58	0xbd81d985	-0.06340317
59	0xbcc1b046	-0.023643624
60	0x3c890350	0.016725212
61	0x3d0d503d	0.03450035
62	0xbd6ea004	-0.05825807
63	0xbd3f9b88	-0.046779186
64	0x3d74b494	0.059742525
65	0xbd9bf633	-0.07615318
66	0xbdc80081	-0.09765721
67	0xbdcb58bc	-0.09929034
68	0xbdadc3e1	-0.084846266
69	0x3d98b498	0.074563205
70	0x3d9895b1	0.07450426
71	0x3cedc9b1	0.029026838
72	0x3c4d07d9	0.012514078
73	0xbe1cc561	-0.15309669
74	0xbe4f1142	-0.20221427
75	0xbd4a09d9	-0.049325798
76	0xbd95e93d	-0.07319877
77	0xbde442cf	-0.11145555
78	0xbd4895ff	-0.048971172
79	0xbde9c50e	-0.11414538
80	0xbe2762ce	-0.16346285
81	0xbdd191e0	-0.102329016
82	0xbe66518b	-0.22492044
83	0xbe27f717	-0.16402851
84	0xbd1a1912	-0.037621565
85	0x3d822b57	0.06355923
86	0xbd678954	-0.05652745
87	0xbd2b0236	-0.041750155
88	0xbd9dcadc	-0.07704708
89	0xbdc1a528	-0.09455329
90	0x3c83d51d	0.016092831
91	0xbe04cccc	-0.12968749
92	0xbce9a536	-0.028521162
93	0xbcdb0271	-0.026734563
94	0xbd9de884	-0.077103645
95	0xbd75efcc	-0.06004314
96	0xbe0ce08b	-0.13757531
97	0xbe26a90a	-0.16275421
98	0xbe9555be	-0.2916698
99	0xbda3657c	-0.07978341
100	0x3bcbd432	0.006220364
101	0xbdf1f079	-0.11813445
102	0x3cf5092c	0.0299116
103	0xbad2b49d	-0.0016075555
104	0xbd9b742c	-0.075905174
105	0xbd67818b	-0.056520026
106	0xbdecbea5	-0.115598
107	0xbd331970	-0.04372543
108	0xbdd96565	-0.106150426
109	0xbdf72ecd	-0.120694734
110	0xbe18d773	-0.14925937
111	0xbd8eeda5	-0.06978921
112	0xbdcce8d7	-0.10005348
113	0xbd455ed1	-0.048186127
114	0xbc314ecc	-0.010822009
115	0xbdb66ada	-0.08907099
116	0xbcf4f3a5	-0.029901335
117	0xbd1408d0	-0.036141217
118	0xbbf738bc	-0.007544605
119	0x3cf6d4ee	0.03013083
120	0xbb8bf2f8	-0.0042709075
121	0xbdfbd7d0	-0.12297022
122	0xbe6e9042	-0.23297217
123	0xbdace68e	-0.08442412
124	0xbcbca3ca	-0.02302732
125	0xbdaa8c27	-0.08327513
126	0xbc984f11	-0.01859239
127	0xbd354e6f	-0.044264253
128	0xbdcabb72	-0.098990336
129	0x3c72492e	0.014787955
130	0xbc43d17a	-0.011951799
131	0xbd906982	-0.07051374
132	0x3cdcaf5f	0.026939092
133	0x3d32b397	0.0436283
134	0xbd37f383	-0.044909965
135	0xbd2e0c8e	-0.04249244
136	0xbd5de0e6	-0.054169558
137	0xbe021c50	-0.12706113
138	0x3c7a5751	0.015279607
139	0xbc622e62	-0.013805004
140	0x3b487ed0	0.0030593164
141	0xbd3abb0e	-0.045588546
142	0xbd38ed3a	-0.045148112
143	0xbe0b3c8b	-0.13597314
144	0xbd9f9783	-0.077925704
145	0xbcbd3871	-0.023098202
146	0xbdf2d769	-0.118574925
147	0x3b2f788b	0.002677473
148	0xbd9e2183	-0.077212356
149	0xbda14dab	-0.07876142
150	0xbc1489f5	-0.009066095
151	0x3cdf9548	0.027292863
152	0xbd010020	-0.03149426
153	0xbd3eb830	-0.046562374
154	0x3c8a0e3b	0.016852489
155	0xbc168ff6	-0.009189596
156	0x3d8a74e4	0.06760576
157	0xbc303202	-0.01075411
158	0x3c139440	0.0090075135
159	0xbd571e61	-0.052519206
160	0x3a8f52ae	0.0010934675
161	0x3aee8dbf	0.0018200203
162	0xbe81d2d7	-0.2535617
163	0xbebdd59e	-0.3707704
164	0xbe057aeb	-0.1303517
165	0x3d13f579	0.036122773
166	0x3d36f478	0.044666737
167	0xbc243c2e	-0.010024114
168	0x3e366d0f	0.1781504
169	0x3db10333	0.08643188
170	0xbd23d737	-0.040000167
171	0x3dde141c	0.10843679
172	0x3ab4434f	0.001375297
173	0x3d427c81	0.047482017
174	0xc0176cbe	-2.366012
175	0xbff08637	-1.8790959
176	0xbf8bced1	-1.092249
177	0xbc8f0b5f	-0.017461477
178	0xbcda16f6	-0.026622277
179	0xbd3288c7	-0.043587472
180	0x3d33bf4f	0.043883618
181	0x3cb33a85	0.02187849
182	0x3d55d09e	0.052200906
183	0xbce1ffec	-0.027587853
184	0xbbcbcb25	-0.006219285
185	0xbd3aedb7	-0.04563686
186	0x3d9f1412	0.077675
187	0x3d0537f4	0.032524064
188	0x3c4b0892	0.01239218
189	0x3d98c1b5	0.07458822
190	0xbd5770a2	-0.05259765
191	0x3d9686e5	0.07349948
192	0xbd2abc08	-0.041683227
193	0x3c312183	0.0108112125
194	0xba8467fc	-0.001010179
195	0x3da18db8	0.07888359
196	0xbc91f220	-0.01781565
197	0x3b4a2643	0.003084556
198	0x3dce3dab	0.10070356
199	0x3d0a5094	0.03376825
200	0xbd8d1f94	-0.06890789
201	0xbe1b87e5	-0.15188558
202	0xbdc0ccea	-0.09414084
203	0xbd89e1c6	-0.06732516
204	0x3d2f7a87	0.04284146
205	0x3d1f7c26	0.038936757
206	0xbd92cfd3	-0.071685456
207	0xbbebd74a	-0.0071972953
208	0xbd52be07	-0.051450755
209	0xbd4e562b	-0.050375145
210	0x3b072eca	0.0020627254
211	0xbd606934	-0.05478783
212	0x3d7f840b	0.062381785
213	0x3c9a39b3	0.018826341
214	0xbd81b6d2	-0.06333698
215	0xbd48aba0	-0.0489918
216	0x3d8ba210	0.0681802
217	0xbd6ef0ff	-0.0583353
218	0xbcce4724	-0.025180407
219	0xbd192fae	-0.037398987
220	0x3d882794	0.06648174
221	0x3c8f537f	0.017495869
222	0xbcb5f053	-0.022209322
223	0x38ebaf03	0.00011238272
224	0xbd9256b4	-0.071454436
225	0x3c685306	0.014179951
226	0x3d398324	0.04529108
227	0xbd930b30	-0.07179868
228	0x3dae0316	0.08496682
229	0x3cada1d0	0.021195322
230	0xbca5a47d	-0.020220036
231	0x3e204521	0.1565137
232	0xbce13456	-0.027490776
233	0xbe1b8fad	-0.15191527
234	0xbd2108e1	-0.03931511
235	0xbd1c230c	-0.03811936
236	0xb86e2b84	-5.678415e-05
237	0xbd8863c7	-0.06659656
238	0xbbe9da4d	-0.007136619
239	0x3c905eb7	0.017623289
240	0x3da64aa6	0.08119707
241	0x3d3c6162	0.04599131
242	0x3cfe4439	0.03103839
243	0xbe0d7277	-0.13813196
244	0xbd8125ee	-0.06306063
245	0x3c1e5aee	0.009665234
246	0x3db2912c	0.087190956
247	0x3d18aa0d	0.037271548
248	0xbd7b6e25	-0.06138434
249	0x3d318022	0.043335088
250	0xbd29d6e1	-0.04146469
251	0xbc693b8f	-0.014235391
252	0xbb9a6deb	-0.0047128103
253	0xbd7730e0	-0.060349345
254	0xbd5cc45a	-0.053898193
255	0x3d5f960d	0.05458646

embedding_net.conv2.bias f4 [100]
0	0x3c045958	0.008077942
1	0xbd90df7e	-0.07073878
2	0x3ce9479f	0.028476534
3	0xbd019168	-0.03163281
4	0xbd9c0377	-0.07617848
5	0x3c05f6fe	0.008176563
6	0x3cc58ecd	0.024115944
7	0x3c0a1dde	0.008429972
8	0xbc86a993	-0.016438281
9	0x3d55edfb	0.05222891
10	0x3d0bfd49	0.0341771
11	0xbd83bd34	-0.06432572
12	0x3d6c32e9	0.05766574
13	0xbd8377df	-0.06419348
14	0x3d8fb900	0.07017708
15	0xbda342df	-0.07971739
16	0x3d6d8b1c	0.057993993
17	0x3d1bd4aa	0.03804461
18	0xbd7ef3d6	-0.06224426
19	0x3c8d522e	0.0172511
20	0x3d5070e5	0.050888915
21	0xbd1060fa	-0.035248734
22	0x3d9c2ea2	0.07626082
23	0x3d081e36	0.033231936
24	0xbb16811e	-0.0022965143
25	0x3d302c92	0.043011256
26	0x3ccb9ce7	0.02485509
27	0x3da79e72	0.08184518
28	0xbbab1443	-0.0052209212
29	0xbd9068cc	-0.070512384
30	0xbd7c4f2f	-0.061598953
31	0x3c32802f	0.010894819
32	0x3d38fc1d	0.04516231
33	0xbd909ac2	-0.07060768
34	0xbb2d2ab3	-0.0026423156
35	0x3d0d02f5	0.03442665
36	0xbc8a9888	-0.016918436
37	0xbd22652a	-0.03964726
38	0x3d0358c4	0.032067075
39	0x3caecffd	0.02133941
40	0x3d5b6c9c	0.053570375
41	0xbd708c63	-0.058727633
42	0xbc171292	-0.009220736
43	0xbd89b99c	-0.06724855
44	0xbcc6ed46	-0.024283063
45	0x3c93f632	0.018061731
46	0xbc89f2da	-0.016839433
47	0x3d196175	0.037446458
48	0x3d5e8f69	0.054335985
49	0xbda5f0a3	-0.081025384
50	0xbd67b385	-0.056567688
51	0xbd9bcbbd	-0.07607219
52	0xbd5e08e3	-0.054207694
53	0x3c4b077c	0.012391921
54	0xbd169281	-0.03676081
55	0xbcdad8e7	-0.026714755
56	0xbc5d0169	-0.013489106
57	0xbd685b38	-0.056727618
58	0x3d90416f	0.070437305
59	0x3d5cc21b	0.05389605
60	0xba90c3ff	-0.001104474
61	0x3ca04efd	0.019568915
62	0x3d558c44	0.05213572
63	0x3d8ebec9	0.06969983
64	0xbc450775	-0.012025704
65	0xbd4f96d6	-0.050680958
66	0x3d6a325a	0.057176925
67	0xbd390030	-0.045166194
68	0x3d5af61c	0.053457364
69	0xbd731bd3	-0.059352707
70	0xbcd9872e	-0.026553717
71	0x3c57377e	0.013135789
72	0xbd5e9df7	-0.054349866
73	0x3d21c69e	0.039496057
74	0x3adab35a	0.0016685531
75	0x3caa58da	0.02079432
76	0x3d6accc4	0.057324186
77	0x3d44febb	0.048094492
78	0xbd85af4e	-0.06527577
79	0xbd29b567	-0.041432764
80	0x3c5d6d2c	0.013514798
81	0xbcdba0a3	-0.026809996
82	0x3d95b50f	0.07309925
83	0x3d98b364	0.07456091
84	0xbb9797c2	-0.0046262452
85	0xbd7e8815	-0.062141497
86	0xbda33e04	-0.07970813
87	0xbd4e8b99	-0.0504261
88	0xbd9094eb	-0.07059654
89	0x3d82f970	0.06395233
90	0xbd1ab1cb	-0.037767213
91	0xbd5d64c9	-0.054051194
92	0x3d92f890	0.07176316
93	0xbd958f1f	-0.07302689
94	0x3d7c280a	0.06156162
95	0xbc61b715	-0.01377656
96	0xbc5eea39	-0.013605648
97	0x3d3aa9ac	0.045571968
98	0x3d3ba3e0	0.04581058
99	0xbd097a99	-0.033564184

embedding_net.fc1.weight f4 [70, 100]
0	0xbda714f6	-0.08158295
1	0xbdd4ca98	-0.10390204
2	0xbd6a842a	-0.057254948
3	0xbd3d6f09	-0.04624847
4	0xbe1c4cd6	-0.15263686
5	0xbd96e9b5	-0.07368795
6	0xbe0bd0a4	-0.13653809
7	0xbdbb23aa	-0.09137662
8	0x3b39668e	0.0028289887
9	0xbd4eb8eb	-0.05046932
10	0xbdb2d495	-0.08731953
11	0xbde7baa8	-0.11314899
12	0xbe231018	-0.15924108
13	0xbde365ae	-0.11103378
14	0x3a3de7f9	0.00072443445
15	0xbd348110	-0.044068396
16	0xbd8a02b1	-0.067387946
17	0xbe34410d	-0.1760294
18	0xbd9527d2	-0.07282986
19	0xbc3cd61e	-0.011525659
20	0xbdec2880	-0.11531162
21	0xbe1f06ba	-0.1552991
22	0xbda0fa6d	-0.07860265
23	0xbdc9125f	-0.09817957
24	0xbcc34808	-0.023838058
25	0xbe2f3979	-0.17111768
26	0x39d1e5f4	0.00040034915
27	0xbe21bc68	-0.15794528
28	0xbc906bfe	-0.01762962
29	0xbbc1a195	-0.0059091547
30	0xbdc2ac1b	-0.09505483
31	0xbd08af47	-0.033370283
32	0xbd380fb6	-0.044936858
33	0xbdf522f1	-0.11969555
34	0xbcfeb541	-0.031092288
35	0x3b6039ca	0.0034214132
36	0xbe099f16	-0.13439593
37	0xbdc30b68	-0.0952366
38	0xbe163a6c	-0.14670724
39	0xbc591db1	-0.013251708
40	0xbe1843ae	-0.14869568
41	0xbe302c3d	-0.17204376
42	0xbe1dc02f	-0.15405343
43	0xbe042729	-0.12905563
44	0xbcca58e2	-0.024700586
45	0xbddb7fbe	-0.10717724
46	0xbb3f5df4	-0.0029200288
47	0xbd801c13	-0.06255355
48	0xbde794e6	-0.11307697
49	0xbd32f0d5	-0.043686707
50	0x3c3dd4a8	0.011586346
51	0xbe12eb3b	-0.14347546
52	0x3c980e9a	0.01856165
53	0xbbc624c2	-0.0060468623
54	0xbd6021bf	-0.054719683
55	0xbcd0a9cb	-0.025471589
56	0xbb4d8882	-0.0031361883
57	0xbc79579b	-0.015218641
58	0xbdd7bd58	-0.10534161
59	0xbe1ac6b6	-0.15114865
60	0xbe1d04f2	-0.15333918
61	0xbdf2ac2c	-0.118492454
62	0xbde21e37	-0.11040919
63	0xbe05e228	-0.13074553
64	0xbd5e352d	-0.05424993
65	0xbd39cba2	-0.045360215
66	0x3c3db7ef	0.011579498
67	0x3badd8ee	0.005305401
68	0xbcb8b86a	-0.022548873
69	0x3bd7b643	0.0065830066
70	0xbde017a9	-0.10942013
71	0xbde4e0f3	-0.11175718
72	0xbd93c911	-0.07216085
73	0xbdc21a0a	-0.09477623
74	0xbcc187b6	-0.023624282
75	0xbdca19d0	-0.098682046
76	0xbd7ea957	-0.062173214
77	0x3d063117	0.03276166
78	0xbd5e673c	-0.05429767
79	0xbc78d5b0	-0.015187666
80	0xbd4d62e6	-0.050143145
81	0xbd02175a	-0.03176055
82	0xbc769afd	-0.0150516005
83	0xbdac2848	-0.084061205
84	0xbd90ea6e	-0.07075964
85	0xbd404e26	-0.04694953
86	0xbb0e7e57	-0.0021742785
87	0xbbec2e7f	-0.007207691
88	0xbd838286	-0.0642138
89	0xbd1416fe	-0.03615474
90	0xbda76a34	-0.081745535
91	0xbdf06903	-0.117387794
92	0x3cd57b2e	0.026059713
93	0xbe07108c	-0.13189906
94	0xbd2851b9	-0.04109356
95	0xbda466f3	-0.080274485
96	0xbd3bfe9a	-0.045897104
97	0xbe0eff55	-0.13964589
98	0xbd86f407	-0.06589513
99	0xbdef0575	-0.11670963
100	0xbd945532	-0.07242812
101	0xbc993e34	-0.018706419
102	0xbe23f95b	-0.1601309
103	0x3bc99928	0.006152291
104	0xb932d17a	-0.00017053439
105	0xbde5d377	-0.11221974
106	0xbd758f95	-0.059951384
107	0xbd2ac610	-0.041692793
108	0xbd20aed3	-0.039229225
109	0xbd892073	-0.06695642
110	0xbc2a2028	-0.010383643
111	0xbcff0672	-0.031131003
112	0xbd8bf014	-0.06832901
113	0xbca5b637	-0.020228488
114	0xbcfd59fc	-0.030926697
115	0xbe12a50b	-0.14320771
116	0xbd856c85	-0.06514839
117	0xbdeb1e7a	-0.11480422
118	0xbd724eba	-0.05915711
119	0xbdadd28d	-0.08487425
120	0xbd62d4a5	-0.055378575
121	0xbde47df9	-0.1115684
122	0xbd30fd10	-0.04321009
123	0xbdccde1f	-0.10003304
124	0xbd582631	-0.052770797
125	0xbe057e7a	-0.13036528
126	0xbd5efe2e	-0.054441623
127	0xbd890688	-0.06690699
128	0xbd27e0e8	-0.04098597
129	0xbc37a831	-0.011209534
130	0x3a028890	0.0004979456
131	0xbc92696c	-0.017872535
132	0xbd4019e2	-0.046899684
133	0xbdb4a56d	-0.08820615
134	0xbd9d9127	-0.07693701
135	0xbde10c01	-0.10988618
136	0xbe2da3fc	-0.16957086
137	0xbe64c421	-0.22340442
138	0xbeb0bfbe	-0.34521288
139	0xbe31a754	-0.17348987
140	0xbdf7caab	-0.12099203
141	0xbdc40398	-0.09570998
142	0xbdadb103	-0.08481028
143	0xbe1a126a	-0.15046087
144	0xbd8929d4	-0.06697431
145	0xbe0a48b2	-0.13504294
146	0xbdd0712b	-0.10177835
147	0xbd0d0228	-0.034425884
148	0xbb38461e	-0.0028117965
149	0xba9a0925	-0.0011751993
150	0xbb3ae5e6	-0.0028518378
151	0xbe139c7e	-0.14415166
152	0xbbdc32b0	-0.0067199096
153	0xbc8c16cd	-0.017100716
154	0xbdba295f	-0.09089922
155	0xbd713661	-0.05888975
156	0xbbf79b6f	-0.007556371
157	0xbc03272e	-0.008004947
158	0xbdcdc8e4	-0.100480825
159	0xbd26e00b	-0.040741008
160	0xbca4daa3	-0.020123785
161	0xbdc824e8	-0.09772664
162	0xbe160cfe	-0.14653394
163	0xbcf7c428	-0.030244902
164	0xbd87029a	-0.06592293
165	0xbbdd556d	-0.0067545683
166	0xbd4bf33f	-0.049792524
167	0xbcc8e87f	-0.024524925
168	0xbdb23ca1	-0.0870297
169	0xbd7a82dd	-0.061159957
170	0xbdae1f39	-0.08502049
171	0xbda48a31	-0.080341704
172	0xbd9a064e	-0.07520734
173	0xbdcadf22	-0.099058405
174	0xbb116756	-0.0022186837
175	0xbd2738b6	-0.04082557
176	0xbd42031f	-0.047366258
177	0xbdadede8	-0.08492643
178	0xbc1741ad	-0.009231967
179	0xbd291384	-0.041278377
180	0xbbad6fa7	-0.005292851
181	0xbdd2c7f9	-0.10292048
182	0xbc812dbe	-0.015768882
183	0xbdd5a65e	-0.10432123
184	0x3c11229e	0.008858351
185	0xbd43b668	-0.047781378
186	0xbd332895	-0.043739874
187	0xbe2f635d	-0.17127748
188	0xbe54157f	-0.20711325
189	0xbe6af1b5	-0.22943766
190	0xbafbed63	-0.0019220527
191	0xbd6c4229	-0.057680283
192	0xbdb4ebd7	-0.088340454
193	0xbdc81d7f	-0.09771251
194	0xbdaf58cb	-0.08561858
195	0xbcf8c17e	-0.030365702
196	0xbd8747a8	-0.06605464
197	0x3c99836e	0.018739428
198	0xbd950b4a	-0.07277544
199	0xbc106f96	-0.008815667
200	0xbd986e98	-0.07442969
201	0xbce7e28e	-0.028306272
202	0xbbee75ac	-0.007277211
203	0xbdf7b440	-0.12094927
204	0xbe4c45ea	-0.19948545
205	0xbd84ffcf	-0.06494104
206	0xbd0f290c	-0.034951255
207	0xbe040868	-0.12893832
208	0xbc82e9b0	-0.015980572
209	0xbd9e83c1	-0.07739974
210	0xbcf67354	-0.03008429
211	0xbdf874f5	-0.12131683
212	0xbdaa7be1	-0.08324409
213	0xbccf918d	-0.025337959
214	0xbd929d70	-0.07158935
215	0xbe1b9c1b	-0.15196268
216	0xbe0bbde9	-0.13646664
217	0xbe012868	-0.1261307
218	0xbe1e5bda	-0.15464726
219	0xbddf56d6	-0.109052345
220	0xbbd57188	-0.006513778
221	0xbdcbe45f	-0.09955668
222	0xbd277a7e	-0.040888302
223	0xbd0cf833	-0.03441639
224	0xbcb5c679	-0.022189366
225	0xbd598010	-0.053100646
226	0xbdc43c9e	-0.09581874
227	0xbace19d4	-0.001572425
228	0xbd91c989	-0.07118518
229	0xbdc3945c	-0.09549782
230	0xba203484	-0.0006111341
231	0xbda116c2	-0.07865669
232	0xbd4dfa6f	-0.05028766
233	0xbd9cb645	-0.07651953
234	0xbdcad5c5	-0.099040546
235	0xbd893f5d	-0.06701539
236	0xbcfd66a0	-0.030932724
237	0xbb9fb62e	-0.0048740124
238	0xbdb7df93	-0.0897819
239	0xbd7c8f96	-0.06166037
240	0xbe255096	-0.16144022
241	0xbe2075bb	-0.1566991
242	0xbd7c65c2	-0.06162048
243	0xbe0d87ba	-0.13821307
244	0xbd810269	-0.06299288
245	0xbe17986d	-0.1480424
246	0xbe98a33d	-0.2981204
247	0xbe2959bf	-0.16538142
248	0xbe05b474	-0.13057119
249	0xbda4ef2b	-0.0805343
250	0xbd764cf7	-0.060131993
251	0xbe255c22	-0.16148427
252	0xbc041ee9	-0.00806401
253	0xbd8cc14e	-0.068728074
254	0xbdbf41b4	-0.09338704
255	0xbdd302af	-0.10303246

embedding_net.fc1.bias f4 [70]
0	0xbdb0d958	-0.08635205
1	0xbb536c55	-0.0032260616
2	0xbd8317e5	-0.06401042
3	0xbd00f597	-0.031484213
4	0xbc1c4a6c	-0.009539228
5	0xbb1ad6ed	-0.002362664
6	0xbc2c41fa	-0.010513777
7	0xbdd0142c	-0.101600975
8	0xbbc38bca	-0.005967592
9	0xbc216680	-0.009851098
10	0xbd35972e	-0.04433363
11	0xbbf82c62	-0.00757365
12	0xbd06e126	-0.032929562
13	0xbd3377d3	-0.043815445
14	0xbc2aa464	-0.01041517
15	0xbd4f5d1c	-0.050625905
16	0xbdb60d83	-0.08889296
17	0xbc008a48	-0.007845469
18	0xbc154214	-0.0091099925
19	0xbd501869	-0.05080453
20	0xbcfa3783	-0.030544048
21	0xbb4a1d08	-0.0030840058
22	0xbdb69f66	-0.089171216
23	0xbd1ff320	-0.03905022
24	0xbdbd87b5	-0.092544
25	0xbdbe00ce	-0.09277497
26	0xbbe05066	-0.0068455217
27	0xbc2c51e6	-0.010517573
28	0xbcf2aad4	-0.029622473
29	0xbc122242	-0.0089193005
30	0xbd4b5afc	-0.049647316
31	0xbbb2e0be	-0.0054589203
32	0xbdc959c2	-0.09831573
33	0xbd3d3466	-0.04619255
34	0xbb9dea72	-0.004819208
35	0xbda7b7f6	-0.08189385
36	0xbbe67ff7	-0.0070342976
37	0xbbe728de	-0.0070544323
38	0xbb97fc7c	-0.004638253
39	0xbc0b3daa	-0.008498589
40	0xbbebd818	-0.0071973912
41	0xbad3c6cf	-0.0016157272
42	0xbc453aca	-0.012037942
43	0xbd195544	-0.03743483
44	0xbd001e70	-0.031279027
45	0xbc203d85	-0.009780292
46	0xbd803347	-0.062597804
47	0xbd3263a1	-0.043552045
48	0xbd277a92	-0.040888377
49	0xbc14ed81	-0.0090898285
50	0xbd82ac1e	-0.06380485
51	0xbd04d023	-0.032425057
52	0xbbc976b2	-0.006148183
53	0xbc43d799	-0.011953258
54	0xbb97756d	-0.0046221525
55	0xbc317e9b	-0.010833408
56	0xbda30b4d	-0.0796114
57	0xbba1703c	-0.0049267095
58	0xbbc0dfe1	-0.0058860634
59	0xbd7292a3	-0.059221875
60	0xbd565680	-0.052328587
61	0xbcde7587	-0.02715565
62	0xbd394f53	-0.045241665
63	0xbc169b20	-0.009192258
64	0xbbf20233	-0.007385516
65	0xbc15a00c	-0.009132396
66	0xbbafd00d	-0.0053653778
67	0xbcc95eb1	-0.024581285
68	0xbdc2676b	-0.09492382
69	0xbdb1a50d	-0.08674059

embedding_net.fc2.weight f4 [50, 70]
0	0x3d0cd9a5	0.03438725
1	0xbd26b8a6	-0.04070344
2	0x3d233ab7	0.039850917
3	0x3cfc5c1e	0.030805644
4	0x3ce55b24	0.02799756
5	0x3b7cb63f	0.0038560776
6	0x3c116123	0.008873257
7	0x3a5085c6	0.0007954504
8	0x3d118547	0.035527494
9	0x3c8ba471	0.017046185
10	0x3cec513c	0.02884733
11	0x3cf8dfd4	0.030380167
12	0xbd08eea8	-0.033430725
13	0xbc6c8cfe	-0.014437912
14	0xbc587bd3	-0.013213116
15	0xbc60f2f0	-0.013729796
16	0x3c5e8a13	0.013582724
17	0xb9fd98ee	-0.00048369862
18	0x3986ef6c	0.00025736855
19	0xbc9ae3b5	-0.018907407
20	0x3d06101a	0.0327302
21	0x3d09fac7	0.033686426
22	0x3be1c131	0.0068894853
23	0x3d0ce498	0.03439769
24	0x3c07986b	0.008276085
25	0x3d1bc8f4	0.03803344
26	0x3d2d0e8b	0.042250197
27	0x3d47e82b	0.048805397
28	0x3d30e298	0.043184847
29	0x3c4f7cdc	0.012664046
30	0x3c940bf6	0.01807211
31	0x3c801112	0.01563314
32	0xbcc81d37	-0.024427993
33	0x3b92f3ba	0.004484621
34	0xbd06ac17	-0.03287896
35	0x3cafe9a6	0.021473717
36	0x3d370865	0.04468574
37	0x3cf5467e	0.02994084
38	0x3d246293	0.04013307
39	0xbba79fc8	-0.005115483
40	0xbc05d339	-0.008168035
41	0x3ca3c874	0.019993044
42	0x3bb55046	0.005533251
43	0xbc98c040	-0.01864636
44	0x3cc68874	0.024234988
45	0xbd578ef9	-0.052626584
46	0x3cdecd62	0.027197544
47	0xbc8ee5a7	-0.017443491
48	0x3da67ad2	0.08128895
49	0x3a0a3c79	0.00052732934
50	0xbc6e5a59	-0.014547908
51	0xbcf9a731	-0.03047523
52	0x3c0d8893	0.008638519
53	0x3d54e584	0.051976696
54	0x3cc7bd92	0.024382386
55	0x3c8d3322	0.017236296
56	0x3ccb91b7	0.024849756
57	0xbcc63adc	-0.024197988
58	0x3bcb4ab2	0.0062039727
59	0xbce803f6	-0.028322201
60	0xbbf4806c	-0.007461598
61	0x3b2b3fe4	0.002613061
62	0xbc6507d9	-0.013978922
63	0xbb6feea5	-0.003661075
64	0x3db18f63	0.08669927
65	0x3dfa348e	0.12217055
66	0x3d758aa8	0.059946686
67	0x3b9adf49	0.0047263247
68	0x3cfed285	0.031106243
69	0xbcc66cab	-0.024221739
70	0xbd051e98	-0.03249988
71	0x3d4d82fb	0.05017374
72	0x3d630964	0.055428877
73	0xbd346343	-0.044039976
74	0x3aada703	0.0013248626
75	0xbca35c5d	-0.019941503
76	0xba8b3b5c	-0.0010622549
77	0x3c969658	0.018382236
78	0xbc85fa5e	-0.016354736
79	0x3c882282	0.016618017
80	0x3c6433a3	0.013928327
81	0x3d343f1e	0.044005506
82	0xbd87dc2c	-0.06633791
83	0xbbff8057	-0.0077972817
84	0xbca6ccbf	-0.020361302
85	0xbd509f36	-0.050933085
86	0xbc86b0c1	-0.016441705
87	0xbcaffee8	-0.021483853
88	0x3c2c469b	0.0105148805
89	0x3d29b138	0.041428775
90	0x3c9b2af3	0.018941378
91	0x3d419d54	0.04726918
92	0xbc857c5e	-0.016294654
93	0x3b2ad64a	0.0026067668
94	0x3b839ccc	0.0040164944
95	0x3d8d9e32	0.06914939
96	0xbd6936bb	-0.05693696
97	0xbd6e8a3e	-0.058237307
98	0x3cc992e1	0.02460617
99	0xbd37fa3d	-0.04491638
100	0x3d9faa9e	0.077962145
101	0x3c01ff04	0.007934336
102	0xbbde194d	-0.0067779184
103	0x3a10a644	0.00055179396
104	0x3ce1dcd8	0.027571127
105	0xbd0b0b5b	-0.033946376
106	0x3d25fe71	0.040525857
107	0x3d3df112	0.04637248
108	0xbc9ffd0c	-0.019529842
109	0x3d262813	0.04056556
110	0xbd01c2b9	-0.031679843
111	0xbd2d365f	-0.04228818
112	0xbc2dcfbc	-0.01060861
113	0xbd02d5fa	-0.031942345
114	0xbd682ee9	-0.056685362
115	0xbd167a50	-0.03673774
116	0xbce8bee6	-0.02841134
117	0x3d21faee	0.039545946
118	0x3ca17ae4	0.01971192
119	0x3c9104d1	0.017702492
120	0x3d22f3c3	0.03978325
121	0x3c58239d	0.013192085
122	0x3b472cc1	0.0030391666
123	0x3d119527	0.035542633
124	0xbd370675	-0.044683892
125	0xbd82cbb1	-0.06386507
126	0xbd1461fd	-0.03622626
127	0x3c5044ba	0.012711698
128	0x3c55aa4e	0.013041092
129	0x3ceb874a	0.028751034
130	0x3c02d69a	0.007985735
131	0xbdb97383	-0.09055235
132	0xbd755074	-0.05989118
133	0x3c717ac5	0.014738743
134	0x3ccdfc4d	0.02514472
135	0x3eaca5d0	0.33720255
136	0x3cc379e8	0.02386184
137	0x3d2ade39	0.041715834
138	0xbd012a58	-0.031534523
139	0x3bbb2a70	0.005711846
140	0xbd41dc66	-0.04732933
141	0xbb143e86	-0.0022620275
142	0x3c856e7e	0.016288038
143	0xbd0cac52	-0.034344025
144	0x3d0754fb	0.033040028
145	0xbbd8cd4a	-0.0066162692
146	0xbd58f4f8	-0.052967995
147	0xbcf288b1	-0.029606195
148	0x3cc96128	0.02458246
149	0xbba44b8c	-0.0050138887
150	0x3c7f2764	0.015573356
151	0xbad81053	-0.0016484357
152	0xbd5e3f73	-0.05425973
153	0xbc14f056	-0.009090504
154	0x3c3eefb1	0.011653827
155	0x3c4d8a1b	0.012545134
156	0x3d139249	0.03602818
157	0x3c11837e	0.008881448
158	0x3c9c2bdc	0.019063883
159	0x3d110385	0.035403747
160	0xbd3a4324	-0.045474187
161	0xbd088a9c	-0.033335313
162	0x3cffbcab	0.031217894
163	0xbd52ed6a	-0.051495947
164	0xbd154bf3	-0.036449384
165	0x3a4a753e	0.0007723159
166	0x3daf8927	0.085710816
167	0xbd8fc465	-0.07019881
168	0xbba3da68	-0.0050004013
169	0xbce9e2bb	-0.028550496
170	0x3c212fb0	0.00983803
171	0xbd0936da	-0.033499576
172	0x3d007996	0.031365953
173	0xbc039385	-0.008030777
174	0x3cbc9aec	0.023023091
175	0x3cdd8dbc	0.027045123
176	0x3d5f1336	0.05446168
177	0xbd8007d6	-0.062514946
178	0x3c8c6d8e	0.017142083
179	0x3d06f3c6	0.032947324
180	0xbcb31bdf	-0.021863876
181	0x3c4eaf6a	0.012615064
182	0xbd240a2f	-0.040048774
183	0x3cc66416	0.024217647
184	0x3d3e49d1	0.046457116
185	0xbd777e16	-0.06042298
186	0x3b1e7db7	0.0024183819
187	0xbd22702f	-0.039657768
188	0xbd20d873	-0.039268922
189	0xbd1e7d03	-0.03869344
190	0x3ce68d9a	0.028143693
191	0x3c3e0e9b	0.011600162
192	0xbc67a47a	-0.014138335
193	0xbd8f47c1	-0.06996108
194	0xbd65a7c2	-0.05606819
195	0x3d8642e1	0.06555725
196	0x3d33c2d2	0.043886967
197	0xbc738e97	-0.014865539
198	0x3c93ac74	0.018026568
199	0x3cd9133e	0.026498433
200	0xbd18f195	-0.037339766
201	0x3e06306e	0.13104412
202	0xbd03ba6f	-0.03216022
203	0x3d02a0cd	0.031891633
204	0xbd83486b	-0.06410297
205	0x3ed409e7	0.41413805
206	0x3b950a20	0.004548326
207	0xbc900567	-0.017580701
208	0xbbedd843	-0.0072584464
209	0x3cec2df1	0.0288305
210	0xbd64b472	-0.05583615
211	0xbd61d68a	-0.05513624
212	0x3cda53ff	0.02665138
213	0xbcd6ec41	-0.026235702
214	0x3c874d51	0.01651636
215	0xbc2a591a	-0.01039722
216	0xbce1157f	-0.02747607
217	0x3cbc4270	0.022980899
218	0xbc9ad3a3	-0.018899744
219	0x3c3e0475	0.011597742
220	0xbc6c6c83	-0.014430168
221	0x3ce68091	0.028137477
222	0xbd3951d7	-0.045244064
223	0x3c37c7cc	0.011217069
224	0xbd89b0a3	-0.06723144
225	0xbc82295b	-0.01588886
226	0xbd9d52b1	-0.07681788
227	0xbc2e7261	-0.010647387
228	0xbbc64a2b	-0.006051322
229	0x3c46474a	0.012101958
230	0xbac80ea2	-0.001526315
231	0x3ce16146	0.027512204
232	0x3d066508	0.032811195
233	0x3a8cb0c5	0.0010733834
234	0xbc694813	-0.014238375
235	0xbc227f69	-0.009918072
236	0x3cec69f1	0.02885911
237	0xbd526fd8	-0.051376194
238	0x3ac310fc	0.0014882381
239	0x3d130938	0.035897464
240	0xb9c57bea	-0.0003766709
241	0x3c3b27c4	0.011423055
242	0xbbd3d9ce	-0.0064651733
243	0x3c12062b	0.008912603
244	0xbbb79929	-0.005602975
245	0x3d12296b	0.03568403
246	0xbb52c20d	-0.003215912
247	0x3c65d334	0.0140274055
248	0xbd4dac2c	-0.050213024
249	0x3b3d6b53	0.0028903082
250	0xbcf181dd	-0.029480869
251	0x3bbef46f	0.0058274786
252	0x3d222f74	0.039596036
253	0x3b7ef608	0.003890397
254	0xbc9a25dd	-0.018816883
255	0xbd4ff3d1	-0.05076963

embedding_net.fc2.bias f4 [50]
0	0xbd6cbb47	-0.05779579
1	0xbd893dbf	-0.0670123
2	0xbca44768	-0.02005358
3	0x3c386e78	0.011256807
4	0x3d81b9dd	0.06334279
5	0x3dd4a063	0.10382154
6	0x3cbd941c	0.023141913
7	0xbd09f944	-0.033684984
8	0x3dacd8a9	0.08439762
9	0xbd577e10	-0.052610457
10	0xbd499b8e	-0.049220614
11	0x3db51ec1	0.088437565
12	0xbdbcbf50	-0.092161775
13	0x3db8dc37	0.09026378
14	0x3cc99564	0.024607368
15	0x3d6da176	0.05801531
16	0x3ca0f314	0.019647159
17	0x3d8dff13	0.06933417
18	0x3ca28e3c	0.019843213
19	0x3d229a06	0.03969767
20	0x3c371618	0.011174701
21	0xbd988b58	-0.07448453
22	0xbd2d17ae	-0.04225891
23	0x3dddc957	0.10829418
24	0xbc0ccc48	-0.008593626
25	0x3d6ff436	0.058582507
26	0xbd74403c	-0.05963157
27	0x3da2647f	0.07929324
28	0x3dd24f27	0.10269003
29	0xbd25dec8	-0.040495664
30	0xbcbb4f04	-0.022864826
31	0xbd9f28f8	-0.07771486
32	0x3dbf4671	0.093396075
33	0x3ce89154	0.02838961
34	0x3cf0108c	0.029304765
35	0xbd7ae107	-0.06124976
36	0xbce58608	-0.028018013
37	0xbb3c7401	-0.0028755667
38	0x3d501fee	0.0508117
39	0x3bde7f3b	0.0067900694
40	0x3dc2cdaf	0.09511887
41	0xbd228cde	-0.039685123
42	0xbdd160fa	-0.10223575
43	0x3dc8520b	0.097812735
44	0xbdd441dd	-0.10364125
45	0xbd910a92	-0.07082094
46	0x3d4b1506	0.049580596
47	0xbd701ac1	-0.058619265
48	0xbdc86c5d	-0.09786294
49	0xbd04615a	-0.032319404
