runs/TripletNet_0918c/model_best.pth.tar (torch_old, 181540 bytes, 8 tensors)

embedding_net.conv1.weight f4 [50, 128, 3, 1]
00000000: ab44 e43c f0f6 92bc a9ff 1abc 3290 e93c
00000010: 2b5f 36bd fb7f 0d3d 713c 2dbc ec4c d33c
00000020: c1d7 e13b 510e cbbb abbf 683c 9370 283b
00000030: 462e 993c 9c76 a2bc 1838 70bb 11c8 94bb
00000040: 2226 f43b be68 3ab9 f2c2 363d 2932 823c
00000050: 5baa 9bbc 4009 fcbc 314d 0bbc d0ee b3bc
00000060: e48b 85bc b372 243b 35c6 f93c 9ead e33c
00000070: ca10 4cbd 5ddf 013d 2b08 6a3c 0a61 463d
00000080: 1719 0a3d a571 3ebd 05b9 46bd c596 c9bc
00000090: 7a7d 373d ef55 0bbc 8df1 b23c 6824 c2bc
000000a0: ef2f 4d3d 2db1 b0bc 20d4 1c3d a54f 243a
000000b0: 310c dcbc 6301 d73c 28b3 ddbc b764 763c
000000c0: 5530 71bc 1c95 b6bb 5add 48bd 2948 c7bc
000000d0: aede e23c 343d 4bbc ed66 503d 1fc2 273d
000000e0: cfe9 19bb 636e 0bbd 7ad1 fe3c 67fe 813c
000000f0: e6f3 06bd baf3 073d 1821 fe3c eb9f 393d
00000100: b4ec e9bc bbff 08bc ad55 7cba 7724 f53b
00000110: 418b 1ebd 9750 14bd 1074 e33c ee1a 44bc
00000120: 0695 cc3c d786 423b 57bb 893c 2d2c 393c
00000130: 4bcc 983c daee cf3c 4b97 41bd 436f d23c
00000140: 9bfb 12bd b381 1dbd f2a2 4e3b c0b6 0dbc
00000150: 1961 f63c 9c42 f1bc 0b89 39bd 0435 183d
00000160: 7b3d f7bb 2e45 eb3c 83a0 863c 459e 1cbd
00000170: 0c47 283c 9660 493c 54d5 0bbd 6540 c6bc
00000180: cc58 8f3c 7eff 163c b39f b1bc a62d 7cbc
00000190: 109d 3f3d db49 1abc 8959 ec3c 458d b53c
000001a0: b611 07bd 46da 31bd 6486 483d fc39 2c3b
000001b0: b116 0f3d ce2a 2c3c 4aae 853c f7e2 1c3d
000001c0: 2ff2 463d 3d0d 0abd 5584 df3b cae9 1d3d
000001d0: e331 193d 086c 023d 61b5 16bd 4202 16bd
000001e0: 123a fcbc 4347 d53b 53a7 503d 2b67 03bd
000001f0: 05fb df3c 78f8 e6bc b202 44bd f78c 2fbc
00000200: 86e2 f13c 7993 433d c427 00bd 53ea 3b3c
00000210: fc07 353d f041 0b3d bac8 023d 4eeb 163d
00000220: 3f05 073d 70d5 603c 5d71 0ebd edf8 2ebd
00000230: 3b61 bebc f6be b2bb be8b fbbc 148d 9c3c
00000240: 9bc4 833c d76d 38bc b695 a23c 14a2 8d3c
00000250: d986 023d d01a 0f3d 90ff 8cbc 2d6e 4c3d
00000260: 53c7 c0bb d7da e2ba 1f23 45bd 5d7f 06bd
00000270: aaa2 f0bc 62f1 aebc 7aab 163d a61e 85bc
00000280: b2e0 19bd 6be7 a53c 09ea 8a3c 9216 0a3d
00000290: 57e3 d4bc 51aa 3a3c 3453 95bc 5c86 37bc
000002a0: 4420 22bd 9fba b5bc 4deb 70bc 6687 b53c
000002b0: 0ac2 1d3c 7875 523c 96c8 523d 73b7 4c3d
000002c0: eb16 0d3d a6cf d33a 4ffb 10bd 746e 223d
000002d0: c0f4 4bbc 65f4 7bbb 64ca 33bd 41b3 29bc
000002e0: 1601 08bd e073 3e3d 8bf2 36bd 32b9 25bd
000002f0: 3a52 35bb 97b0 c4bc f7f5 af3c 89e5 8abc
00000300: 53f1 9cbc d368 ef3b 617b 263d 0c8f 14bd
00000310: 8b2c c13c 7b55 043d da08 4c3d 4fa9 12bd
00000320: 70be 483c 75ca 23bd 7e34 283d 5129 bbbc
00000330: 5514 fa3c f962 a53a 1996 92bb 4780 043a
00000340: 8f1c 123c 5603 b93c 9252 0a3c 95fd 823c
00000350: 770f 3bbd 6f4f 1d3d 9358 3d3d 17f4 313d
00000360: 64b9 173d 16a7 16bd 4e58 9cbc 617a 363d
00000370: 0513 1fbd bc7e 3b3d ede8 1cbd 3c51 0fbd
00000380: bbe6 ca3c e332 0cbd d679 2fbc e220 153d
00000390: 968e 293d d219 4a3d 2e8d 21bc d48d 25bd
000003a0: 9577 4b3d 8789 3bbc 2469 aabc e1b8 523c
000003b0: adb5 0cbd 972e 0a3d a70f 083d 08b2 1cbd
000003c0: 9ef6 35bd 9bbc 75bc d238 8e3b 6f85 5aba
000003d0: cc3f e3bc 5fa6 32bb 31e4 3cbd a7fd 18bd
000003e0: b8b5 1ebd 5e70 353d fd79 3a3d 9a04 90bc
000003f0: d96a 0d3c 53a5 e43c 6063 173c 9613 c5bc
0.027864775 -0.017940015 -0.009460368 0.02851114 -0.044524353 0.03454588 -0.010573492 0.025793515
0.006892175 -0.006196775 0.014205853 0.0025701865 0.018698823 -0.019831948 -0.0036654528 -0.0045404513
0.007450835 -0.00017777362 0.044619508 0.015893059 -0.01900213 -0.03076613 -0.008502291 -0.02196446
-0.016302057 0.002509278 0.03049002 0.027792748 -0.0498207 0.031707156 0.014284174 0.048432387
0.033715334 -0.0464951 -0.048516292 -0.024608025 0.0447974 -0.008504375 0.021843696 -0.023699
0.05009454 -0.021568859 0.038288236 0.00062679715 -0.026861282 0.026245778 -0.027062967 0.015038661
-0.014720996 -0.0055719744 -0.049039222 -0.0243264 0.027694073 -0.012404729 0.050879408 0.040956613
-0.0023485308 -0.03404082 0.031105746 0.015868379 -0.032947443 0.03319142 0.03102164 0.045318525
-0.028555252 -0.008361752 -0.0009625804 0.0074811536 -0.03870702 -0.03620967 0.027765304 -0.011969311
0.024973404 0.0029682422 0.016812963 0.011302036 0.018652102 0.025382448 -0.047263425 0.02568782
-0.03588448 -0.03845377 0.0031530228 -0.008649528 0.030075597 -0.029450707 -0.04529671 0.037159935
-0.007545171 0.02871951 0.01643396 -0.038236875 0.010270845 0.012291094 -0.034138992 -0.024200628
0.017498396 0.0092161875 -0.021682596 -0.015391743 0.046780646 -0.009417023 0.028851287 0.02216209
-0.032975875 -0.043421052 0.04895629 0.0026279679 0.03493375 0.010508252 0.016318459 0.038302388
0.048570808 -0.03370403 0.006821195 0.038553037 0.03740109 0.031841308 -0.03679407 -0.036623247
-0.030789409 0.006508739 0.050940823 -0.03208081 0.027341375 -0.028194651 -0.047854133 -0.010714761
0.02952696 0.047748063 -0.031287923 0.0114694415 0.044197068 0.03399843 0.03192971 0.036845498
0.032963987 0.013722762 -0.03477608 -0.042717863 -0.023239722 -0.005454893 -0.030706283 0.01911024
0.01608496 -0.011256657 0.019846778 0.017289199 0.031866882 0.03493768 -0.017211705 0.04990976
-0.0058831363 -0.0017307651 -0.048129197 -0.032836307 -0.02937444 -0.021355335 0.036784627 -0.016249966
-0.0375678 0.02025195 0.0169573 0.03371293 -0.02598731 0.011393146 -0.01822815 -0.011201467
-0.039581552 -0.022183714 -0.014704538 0.02215929 0.009628782 0.01284539 0.051460825 0.04997964
0.034445684 0.0016159907 -0.035395917 0.039656118 -0.01244849 -0.003844523 -0.043894187 -0.010357679
-0.03320416 0.046497226 -0.0446649 -0.04045982 -0.002766742 -0.024009986 0.02147959 -0.016955154
-0.019158041 0.007306197 0.040645007 -0.036269233 0.02358081 0.032308083 0.04981313 -0.035805997
0.012252435 -0.039988 0.041065685 -0.02284685 0.030527273 0.0012617997 -0.0044734594 0.0005054515
0.008917942 0.022584599 0.008442538 0.015990058 -0.045669045 0.038405832 0.04622705 0.043445673
0.037042037 -0.03678044 -0.019085076 0.044550303 -0.038836498 0.04577516 -0.038308073 -0.03498958
0.024768224 -0.034228217 -0.0107102 0.036408313 0.041395746 0.04934103 -0.00986032 -0.04041846
0.04967459 -0.011446363 -0.020802088 0.012861461 -0.034352947 0.033735838 0.033218052 -0.03825572
-0.044424646 -0.01499858 0.0043402696 -0.0008335923 -0.027740382 -0.002725981 -0.046116058 -0.037351277
-0.03874752 0.044296615 0.045526493 -0.01758032 0.0086314315 0.027910864 0.009240001 -0.02405719

embedding_net.conv1.bias f4 [50]
00000000: e8e8 27bc 9554 af3c 28e8 01bd 3b44 9f3c
00000010: e740 7fbc c5d9 30bd 5634 e33c 7dde 233c
00000020: a41c f03b 5231 37bd 3d3e ff3c 10b4 1ebd
00000030: a0bd d3bc 731a 1f3c 2d52 193d 7583 3bbd
00000040: 83b7 f8bc fcc0 de3c c409 1cbd d810 19bd
00000050: 419e 91bb 7439 783c 05e7 b7bc 20cc 2f3c
00000060: 6229 453d 1551 09bd 3f6a b23b 5dbd 2fbd
00000070: 9eab 0c3d 2983 cbbc 2a4f c73a 7d1b 0d3d
00000080: a008 7bbc d10f 67bc 1086 a4bb f0e8 3c3c
00000090: 7653 263d a9b7 32bd 0a89 ac3c d7fe 883c
000000a0: 33d0 e53c 692f 99bc 44cd b13c 7dac 2cbd
000000b0: de12 bebc 1f45 d23c f53a 49bd b5eb 38bd
000000c0: 43e0 453d 66ec 54bc
-0.0102484 0.021402637 -0.031715542 0.019441715 -0.015579439 -0.04317643 0.027734917 0.010001776
0.007327633 -0.04472477 0.031157607 -0.03874594 -0.025847256 0.009710896 0.037431885 -0.045779664
-0.030360943 0.027191631 -0.03809525 -0.03736958 -0.004443914 0.015150417 -0.022449026 0.01072982
0.04813517 -0.03352459 0.0054447944 -0.0429052 0.034343354 -0.024842815 0.0015206088 0.034450043
-0.015321881 -0.014102892 -0.0050208643 0.011530146 0.04060694 -0.043632183 0.021061439 0.01672308
0.028053379 -0.018699365 0.021704324 -0.042156685 -0.023202356 0.025667725 -0.04912849 -0.045146663
0.048309576 -0.012995815

embedding_net.conv2.weight f4 [100, 50, 3, 1]
00000000: acd9 05bd e8b8 d3bc 1968 4bbd 2cd5 093d
00000010: 5e36 053d 96c6 f9bc b658 a0bd 27a7 65bd
00000020: 35bc 0ebe 82f1 b5bc 0dcc e9bc 70c4 36be
00000030: e425 93bd ae53 e03c 642b 343d 579a 343d
00000040: 89ad 19bd 6071 96bb 815a d1ba 9db4 45be
00000050: 2648 29be eb74 9ebb 3db6 e93a 0751 d9bd
00000060: 712b b7bb 98e2 9839 c513 efbd 574b 7c3d
00000070: c284 aa3c 76c6 7d3c 99df 2abd b28f 443d
00000080: 2d2c a2bd df37 59bc 19d4 09be dde2 d3bd
00000090: 91c6 27bd e9b6 483b 563e 233d b1ee 73bd
000000a0: 62a4 953c cd12 1a3b 29d8 d5bd 7bcc afbd
000000b0: 1729 aebd fd7f 61bd 5090 c93c be08 d9bd
000000c0: 2cb0 3dbc 05e2 44bd 5d2b 96bd 03b0 7fbd
000000d0: 9052 55bd 7650 bbbd c9f3 e1bd 688c b1bd
000000e0: 34f7 1abe b1c1 363d 85d9 81bd c7b2 c1bc
000000f0: 5738 893c 094d 0d3d 9ea8 6ebd 889b 3fbd
00000100: 94b4 743d 33f6 9bbd 8100 c8bd bc58 cbbd
00000110: e1c3 adbd 98b4 983d 539a 983d 45ca ed3c
00000120: d907 4d3c 61c5 1cbe 4211 4fbe d909 4abd
00000130: 3de9 95bd cf42 e4bd ff95 48bd 0ec5 e9bd
00000140: ce62 27be e091 d1bd 8b51 66be 17f7 27be
00000150: 1219 1abd 572b 823d 5489 67bd 3602 2bbd
00000160: dcca 9dbd 28a5 c1bd 38cd 7d3c dccc 04be
00000170: 36a5 e9bc dc07 dcbc 1ee9 9dbd 6df1 75bd
00000180: 8be0 0cbe 0aa9 26be be55 95be 7c65 a3bd
00000190: 32d4 cb3b 79f0 f1bd 9573 dd3c 68ba d2ba
000001a0: 2c74 9bbd 8b81 67bd a5be ecbd 7019 33bd
000001b0: 6565 d9bd cd2e f7bd 73d7 18be a5ed 8ebd
000001c0: d7e8 ccbd d15e 45bd cc4e 31bc da6a b6bd
000001d0: a5f3 f4bc d008 14bd 36ed f4bb 0427 ec3c
000001e0: f8f2 8bbb d0d7 fbbd 4290 6ebe 8ee6 acbd
000001f0: caa3 bcbc 278c aabd 114f 98bc 6f4e 35bd
00000200: 72bb cabd 2e49 723c 7cd1 43bc 8269 90bd
00000210: be91 dc3c cbac 323d 73fd 37bd 8e0c 2ebd
00000220: e6e0 5dbd 501c 02be 5157 7a3c 622e 62bc
00000230: d07e 483b 0ebb 3abd 3aed 38bd 8b3c 0bbe
00000240: 6997 9fbd 222a bdbc 69d7 f2bd 8b78 2f3b
00000250: 8321 9ebd ab4d a1bd c386 14bc f396 df3c
00000260: 2000 01bd 98be 3ebd 3b0e 8a3c f68f 16bc
00000270: e474 8a3d 0232 30bc 4094 133c 611e 57bd
00000280: ae52 8f3a bf8d ee3a acde 81be 49da bdbe
00000290: 12a0 05be 79f5 133d 78f4 363d 2e3c 24bc
000002a0: 056d 363e 3303 b13d 37d7 23bd 1c14 de3d
000002b0: 4f43 b43a 817c 423d be6c 17c0 3786 f0bf
000002c0: d1ce 8bbf 5f0b 8fbc dc16 dabc c788 32bd
000002d0: 4fbf 333d 853a b33c 9ed0 553d 1d32 e2bc
000002e0: 25cb cbbb 26de 3abd 1214 9f3d f437 053d
000002f0: 9208 4b3c b5c1 983d a270 57bd e586 963d
00000300: 08bc 2abd 8321 313c fc67 84ba 988d a13d
00000310: 20f2 91bc 4326 4a3b 4248 c63d 5e66 f63c
00000320: 9337 93bd 0612 1cbe 7361 c1bd cd31 8bbd
00000330: 877a 2f3d 267c 1f3d d3cf 92bd 9f4b f3bb
00000340: 4826 53bd 2b56 4ebd 1a11 053b b4d6 60bd
00000350: cb71 7f3d b339 9a3c d2b6 81bd a0ab 48bd
00000360: 10a2 8b3d fff0 6ebd 2447 cebc ae2f 19bd
00000370: ce26 883d 2c53 8f3c 53f0 b5bc 03af eb38
00000380: b456 92bd 43dd 663c 4d72 393d 300b 93bd
00000390: a10c ae3d b400 ad3c 7da4 a5bc 2145 203e
000003a0: 5634 e1bc ad8f 1bbe 7208 21bd 0c22 1cbd
000003b0: 3c6a 57b8 a45e 88bd a971 e9bb 288b 903c
000003c0: d800 a63d f661 3c3d 7f41 fe3c 050e 0ebe
000003d0: bb9b 81bd a20b 343c 2c91 b23d 0daa 183d
000003e0: 256e 7bbd 2280 313d e1d6 29bd 8f3b 69bc
000003f0: 9c48 b1bb 2d74 77bd 5ac4 5cbd 0d96 5f3d
-0.03267829 -0.025845006 -0.049659822 0.033650562 0.03252255 -0.030490201 -0.0782942 -0.056067612
-0.13938983 -0.022209886 -0.028539682 -0.17848372 -0.071849614 0.027383652 0.043986693 0.044092502
-0.03751901 -0.004591152 -0.0015972407 -0.1930718 -0.16531429 -0.004835715 0.00178308 -0.10611158
-0.0055898954 0.00029160525 -0.116736926 0.061595287 0.020815257 0.015489211 -0.041717146 0.0479886
-0.07918582 -0.01325795 -0.13459815 -0.10346005 -0.040960852 0.00306266 0.03985437 -0.059553806
0.01826686 0.0023509741 -0.1044162 -0.085839234 -0.08503931 -0.0550537 0.024604946 -0.105973706
-0.011577647 -0.04806711 -0.0733249 -0.062423717 -0.05208069 -0.09146206 -0.110328265 -0.086693585
-0.15133363 0.044618312 -0.06340317 -0.023644818 0.016750498 0.034497295 -0.058266275 -0.046779186
0.059742525 -0.07615318 -0.09765721 -0.09929034 -0.084846266 0.074563205 0.0745131 0.029027114
0.012514078 -0.15309669 -0.20221427 -0.049325798 -0.07319877 -0.11145555 -0.048971172 -0.11414538
-0.16346285 -0.102329016 -0.22492044 -0.16402851 -0.037621565 0.06355923 -0.05652745 -0.041750155
-0.07704708 -0.09455329 0.0154908225 -0.12968773 -0.028521162 -0.026859216 -0.07710479 -0.060044695
-0.13757531 -0.16275421 -0.2916698 -0.07978341 0.006220364 -0.11813445 0.027032653 -0.0016077282
-0.075905174 -0.056520026 -0.115598 -0.04372543 -0.106150426 -0.120694734 -0.14925937 -0.06978921
-0.10005348 -0.048186127 -0.010822009 -0.08907099 -0.029901335 -0.036141217 -0.007474567 0.028827198
-0.0042709075 -0.12297022 -0.23297217 -0.08442412 -0.02302732 -0.08327513 -0.01859239 -0.044264253
-0.098990336 0.014787955 -0.0119518 -0.07051374 0.026924964 0.04362182 -0.044919442 -0.04249244
-0.054169558 -0.12706113 0.015279607 -0.013805004 0.0030593164 -0.045588546 -0.045148112 -0.13597314
-0.07792551 -0.02309138 -0.118574925 0.002677473 -0.077212356 -0.07876142 -0.009065333 0.027293658
-0.03149426 -0.046568483 0.016852489 -0.009189596 0.06760576 -0.01075411 0.0090075135 -0.052519206
0.0010934675 0.0018200203 -0.25365198 -0.370806 -0.13049343 0.036122773 0.044666737 -0.010024114
0.17815025 0.08643188 -0.040000167 0.10843679 0.001375297 0.047482017 -2.366012 -1.8790959
-1.092249 -0.017461477 -0.026622228 -0.043587472 0.043883618 0.02187849 0.052200906 -0.027611786
-0.006219285 -0.045622014 0.077675 0.032524064 0.01239218 0.07458822 -0.05259765 0.07349948
-0.041683227 0.0108112125 -0.001010179 0.07888335 -0.01781565 0.003084556 0.09681751 0.03007811
-0.07188334 -0.1524125 -0.09442415 -0.06796608 0.04284146 0.038936757 -0.071685456 -0.007424786
-0.05155018 -0.050375145 0.0020304383 -0.054892257 0.06236438 0.018826341 -0.06333698 -0.0489918
0.0681802 -0.0583353 -0.025180407 -0.037398987 0.066480264 0.017495714 -0.022209322 0.00011238272
-0.071454436 0.014090839 0.04527502 -0.07179868 0.084985025 0.0211185 -0.020220036 0.1565137
-0.027490776 -0.15191527 -0.039314695 -0.038118407 -5.1358933e-05 -0.06658676 -0.007124145 0.01764448
0.0810563 0.04599186 0.03103709 -0.13872536 -0.06328531 0.010989102 0.087190956 0.037271548
-0.06138434 0.043335088 -0.04146469 -0.014235391 -0.005410267 -0.06041353 -0.053898193 0.05458646

embedding_net.conv2.bias f4 [100]
00000000: f185 a33b 3110 91bd 3a2e d53c 4795 00bd
00000010: 18de 9bbd 5fb5 d53b 74dc be3c 2719 d73b
00000020: 81cb 86bc af20 543d 2fd9 073d 3787 83bd
00000030: d8d7 6c3d ac74 83bd 00b9 8f3d c83b a3bd
00000040: f1e8 6b3d 117c 183d 6602 7fbd 0f7e 7d3c
00000050: e695 4a3d f7f5 0fbd 9ce6 9a3d b0de 053d
00000060: aad7 0abb 9586 2e3d b243 c23c cda6 a53d
00000070: 673e a5bb 90c9 90bd a338 7cbd 5ebe 1e3c
00000080: 6209 373d e870 90bd 74a4 1fbb 8c6b 0c3d
00000090: e9a0 8abc 9c90 22bd 6c08 013d 2bef a73c
000000a0: 8c39 593d 0269 70bd ede4 15bc 70a7 89bd
000000b0: b478 c7bc 389a 723c 4f21 87bc f5d5 0f3d
000000c0: 02c4 5b3d de16 a6bd 2490 67bd 33d2 9abd
000000d0: 1bda 5dbd 3fad 493c 68a5 16bd 339f d9bc
000000e0: 34fa 5bbc ea5c 68bd d7a8 8e3d a93f 5b3d
000000f0: 3984 87ba 46b4 9b3c 7c66 543d e7ee 8e3d
00000100: 8690 44bc 45cb 4ebd 2742 6a3d cedc 38bd
00000110: 37be 583d 42b0 72bd 0196 dabc 9707 df3b
00000120: 7c31 62bd b4a5 103d 5ab3 da3a aae4 a93c
00000130: ab9d 683d 4d7c 423d cfaf 85bd 9c5c 29bd
00000140: d186 423c 2930 d9bc 4c7e 953d 9a25 983d
00000150: 8b95 93bb 6969 7ebd 3c33 a3bd 7fab 4ebd
00000160: eb94 90bd 6854 803d eba4 1dbd 902f 5dbd
00000170: 4ef0 923d 7b93 95bd 1897 7b3d 8ee1 5dbc
00000180: a6c1 5dbc 3043 393d 02dc 393d 828c 08bd
0.0049903323 -0.070831664 0.02602302 -0.031392362 -0.076107204 0.0065218653 0.02329848 0.0065642777
-0.01645446 0.051788982 0.033166107 -0.064222746 0.057823032 -0.06418738 0.07017708 -0.07970387
0.057595197 0.037227694 -0.062258147 0.015471949 0.04945936 -0.03514668 0.075635165 0.032683074
-0.0021185675 0.042608816 0.02371392 0.08088455 -0.0050428393 -0.07069695 -0.06157745 0.009688942
0.044686683 -0.07052785 -0.0024359496 0.034282252 -0.016922431 -0.03968869 0.031502172 0.020499786
0.053033397 -0.058693893 -0.009148818 -0.06721389 -0.024349548 0.014807276 -0.016495375 0.035116155
0.053653724 -0.0810983 -0.056533948 -0.075596236 -0.05416308 0.0123093715 -0.036778837 -0.02656517
-0.013426352 -0.056729235 0.069657974 0.053527508 -0.0010339088 0.01900686 0.05185555 0.06979161
-0.011997348 -0.05048682 0.057191994 -0.04513245 0.052915778 -0.059250124 -0.026682856 0.0068063247
-0.055222973 0.035314277 0.0016685531 0.020738918 0.05679099 0.047481824 -0.065276735 -0.041348085
0.011872963 -0.026512222 0.0729948 0.07429047 -0.004503911 -0.062112246 -0.079687566 -0.05045652
-0.07059654 0.06266099 -0.038487356 -0.054000437 0.07174741 -0.0730352 0.06142339 -0.013542546
-0.013534939 0.04523009 0.04537583 -0.033337124

embedding_net.fc1.weight f4 [70, 100]
00000000: 9714 a7bd 1fc9 d4bd c281 6abd 2e5b 3dbd
00000010: 924c 1cbe e9e9 96bd 95d0 0bbe 56cd babd
00000020: 69ac 613b 2afe 4dbd 9bbe b2bd a8ba e7bd
00000030: 1810 23be ae65 e3bd 238b 3e3a 1181 34bd
00000040: 9202 8abd fe40 34be b327 95bd a012 3bbc
00000050: 9219 ecbd b405 1fbe 71fa a0bd 5f12 c9bd
00000060: 5129 c3bc 882e 2fbe 2680 cb3b 80bc 21be
00000070: b266 90bc ba9f bebb 74a3 c2bd 7760 08bd
00000080: aaff 37bd ea22 f5bd 11b5 febc 3236 9c3b
00000090: eb9e 09be 6303 c3bd 6c3a 16be 0704 59bc
000000a0: ad43 18be 3b2c 30be aebf 1dbe 1427 04be
000000b0: b749 cabc 5d7f dbbd 8bb7 2ebb ccac 7fbd
000000c0: ce94 e7bd c8f0 2fbd de12 8b3c 02e8 12be
000000d0: b1c4 a63c 6463 b1bb 7b43 5fbd d46a cfbc
000000e0: 4e5a 4f3a bd6a 78bc 58bd d7bd aac6 1abe
000000f0: f604 1dbe aaaa f2bd 371e e2bd a3e1 05be
00000100: 8c2d 5ebd 8483 39bd 31b9 8e3c 9169 463c
00000110: 52c0 b4bc a4e8 023c 3c12 e0bd 40df e4bd
00000120: 96bb 93bd af18 c2bd 827b c1bc 6019 cabd
00000130: 9b70 78bd 37a6 483d 5777 5bbd 55b6 75bc
00000140: da61 4dbd 9c15 02bd 272f 5cbc 5f27 acbd
00000150: 7ce0 90bd bc46 40bd 9d2f 0bbb 24bb eabb
00000160: 9b7d 83bd 3cb8 13bd 7064 a7bd dc4a f0bd
00000170: 23e6 0d3d 6d10 07be 7c05 28bd ef1a a4bd
00000180: d2fc 3bbd 4cff 0ebe 0aed 86bd 6e05 efbd
00000190: a144 94bd 78d7 98bc dcf4 23be 41c3 423c
000001a0: 3b95 663b 49a7 e5bd 893f 75bd bdd4 2abd
000001b0: 43a5 20bd e120 89bd b68a 29bc 1bcf febc
000001c0: afea 8bbd bd24 a7bc 7599 fdbc faa4 12be
000001d0: b56e 85bd 911e ebbd 8a58 72bd 27bc adbd
000001e0: 70f1 62bd 9c7a e4bd a305 31bd 6cdd ccbd
000001f0: 1823 58bd 1b7e 05be 5d0b 5fbd d2ff 88bd
00000200: 8fc7 26bd b36a 3cbc 49f1 e0b8 51f7 92bc
00000210: 0a0e 40bd eca6 b4bd ce8f 9dbd bf0c e1bd
00000220: 07a4 2dbe f5c4 64be f1bf b0be d8a7 31be
00000230: d3cc f7bd 6304 c4bd ebb5 adbd 9712 1abe
00000240: 2b33 89bd f348 0abe 2171 d0bd 001e 0dbd
00000250: a6c8 c0ba ee0c a1ba 8eae 0ebb 3396 13be
00000260: 8cb9 dcbb d3f5 8bbc de2a babd 0f1c 71bd
00000270: 2cab fdbb d784 05bc acc8 cdbd 95de 26bd
00000280: 442a a5bc 2126 c8bd f80c 16be 60f0 f7bc
00000290: a7e2 86bd cbb5 ddbb e80a 4cbd 3700 c9bc
000002a0: 2d1d b2bd b984 7abd f911 aebd f37c a4bd
000002b0: d4dc 99bd 9add cabd 0b4a d239 5a2d 27bd
000002c0: c902 42bd 9eeb adbd 42b2 11bc 4207 29bd
000002d0: 3eec 96bb fdc4 d2bd 0f1c 81bc caa5 d5bd
000002e0: d376 2b3c a9b1 43bd 8121 33bd 2563 2fbe
000002f0: bf15 54be 96f0 6abe a77b daba d73e 6cbd
00000300: 65ea b4bd c81d c8bd 7a5b afbd 1785 f8bc
00000310: de31 87bd 4e9b 1b3d 9cb2 93bd 9282 0dbc
00000320: 586c 98bd accf e7bc 1663 eebb 5fb4 f7bd
00000330: b844 4cbe fcf7 84bd 5329 0fbd a708 04be
00000340: b0e9 82bc de81 9ebd 4e73 f6bc f574 f8bd
00000350: e17b aabd 924f cfbc 639d 92bd e19b 1bbe
00000360: e6bd 0bbe 6528 01be d75b 1ebe a14b dfbd
00000370: f437 d4bb ece3 cbbd 7e7a 27bd 25ee 0cbd
00000380: 68db b1bc 1080 59bd 1930 c4bd e054 c3ba
00000390: 6dc9 91bd 4094 c3bd 8faf 20ba c216 a1bd
000003a0: c8f9 4dbd 29b6 9cbd 62d5 cabd 5d3f 89bd
000003b0: 7865 fdbc 6623 9fbb 42dd b7bd 988f 7cbd
000003c0: 9650 25be 8475 20be 5062 7cbd ba87 0dbe
000003d0: 6902 81bd 6398 17be 3da3 98be 6359 29be
000003e0: 3db4 05be 68e4 a4bd 6a49 76bd 3b5c 25be
000003f0: 0511 04bc 7ac0 8cbd b141 bfbd 7802 d3bd
-0.08158224 -0.10389923 -0.057252653 -0.046229534 -0.15263584 -0.073688336 -0.13653786 -0.09121196
0.003443504 -0.050291218 -0.08727761 -0.11314899 -0.15924108 -0.11103378 0.0007268658 -0.0440684
-0.067387715 -0.17602918 -0.07282963 -0.011418015 -0.11528315 -0.1552952 -0.07860268 -0.09817957
-0.023823412 -0.17107594 0.006210345 -0.15794563 -0.017627094 -0.0058173807 -0.095038325 -0.03329512
-0.044921555 -0.1196955 -0.031092199 0.004767203 -0.13439529 -0.0952213 -0.14670724 -0.013245589
-0.14869566 -0.17204373 -0.15405151 -0.12905532 -0.024693353 -0.10717652 -0.0026659693 -0.06242065
-0.11307679 -0.042954236 0.01697677 -0.14346316 0.020357462 -0.0054134596 -0.054507714 -0.025319494
0.000790988 -0.015162167 -0.10534161 -0.15114847 -0.15333924 -0.11848958 -0.11040919 -0.13074355
-0.054242656 -0.04529144 0.01742229 0.01211013 -0.022064362 0.007990036 -0.10940978 -0.11175394
-0.072135136 -0.09477364 -0.023618463 -0.09868121 -0.060654264 0.04898664 -0.05358061 -0.014997085
-0.050142147 -0.03175889 -0.013438976 -0.08405947 -0.07074067 -0.046942458 -0.0021238097 -0.007163422
-0.06420442 -0.03606437 -0.08173454 -0.11733028 0.034643304 -0.1318986 -0.041020855 -0.0801295
-0.045895405 -0.13964576 -0.0658818 -0.116709575 -0.072396524 -0.018657431 -0.16011375 0.0118873725
0.0035184163 -0.11213548 -0.059875045 -0.04170679 -0.039220106 -0.06695724 -0.010348013 -0.031104615
-0.06831872 -0.02040326 -0.030956963 -0.14320746 -0.06515256 -0.114804395 -0.05916647 -0.08483153
-0.055406034 -0.111561984 -0.043218266 -0.1000317 -0.052767843 -0.13036387 -0.054454196 -0.06689419
-0.040717658 -0.011500048 -0.00010726095 -0.017940195 -0.04688839 -0.088209 -0.07693444 -0.10988759
-0.16957103 -0.22340758 -0.3452144 -0.17349184 -0.12099614 -0.09571149 -0.08481964 -0.15046154
-0.06699213 -0.1350439 -0.101778276 -0.03445244 -0.0014708235 -0.0012287179 -0.0021771523 -0.14412765
-0.006735986 -0.017084992 -0.090902075 -0.05886465 -0.0077413525 -0.008149347 -0.10048041 -0.040739615
-0.020161755 -0.097728975 -0.14653385 -0.030265987 -0.06586199 -0.006766056 -0.04981509 -0.024536235
-0.08696971 -0.06116173 -0.08499522 -0.08031645 -0.07512823 -0.099055484 0.00040109488 -0.040814735
-0.047365937 -0.08492206 -0.008892598 -0.041266687 -0.004605799 -0.10291479 -0.01576045 -0.104320124
0.010465342 -0.04777685 -0.043733124 -0.17127664 -0.2071142 -0.22943339 -0.0016668931 -0.057677116
-0.0883377 -0.09771305 -0.0856237 -0.0303369 -0.06601308 0.037989907 -0.072118014 -0.008637087
-0.0744254 -0.028297268 -0.0072749956 -0.1209495 -0.19948089 -0.06492612 -0.03495152 -0.12893926
-0.015980572 -0.07739614 -0.030084278 -0.12131683 -0.08324409 -0.025306497 -0.071589254 -0.15196182
-0.1364666 -0.12613066 -0.15464722 -0.10903097 -0.0064763967 -0.09955582 -0.040888302 -0.0344068
-0.021711066 -0.053100646 -0.095794864 -0.0014902614 -0.07118497 -0.09549761 -0.0006129676 -0.07865669
-0.050287038 -0.07651932 -0.09903981 -0.06701539 -0.030932173 -0.0048565147 -0.089777485 -0.06166038
-0.16144022 -0.15669829 -0.061617196 -0.13821307 -0.06299288 -0.14804225 -0.2981204 -0.16538005
-0.13057037 -0.080513775 -0.060128607 -0.16148464 -0.008060698 -0.068726495 -0.093387015 -0.10303205

embedding_net.fc1.bias f4 [70]
00000000: 8612 abbd cac5 bb3d 4354 7dbd b1eb dcbc
00000010: b0b1 3f3c e478 873d 38c2 883d 2f96 ccbd
00000020: c096 b73d 2dfe a9bb df0b 31bd a919 e43c
00000030: 28c1 01bd 4a64 0fbd 03a3 683d e9fb 34bd
00000040: afc4 b3bd b69f b13d 226b a93d c438 45bd
00000050: f87c eebc 700e a93d 440d afbd 4786 05bd
00000060: 6fa8 bcbd f36b b7bd f741 b63d 9c23 8f3c
00000070: 93d0 e8bc 72ec 953d 7282 40bd 68e5 b43d
00000080: b673 c4bd 0e6c 37bd c0ae 613d 7d4e a2bd
00000090: 96aa b83d 87d0 9e3d 3bdd be3c 4122 7a3c
000000a0: 4019 913d f02b 363d 480d a73c 2030 05bd
000000b0: 8ba6 f5bc e3d1 573d 6775 7dbd 2962 25bd
000000c0: 040f 1fbd 5bce 903c 02f1 7cbd eda1 dbbc
000000d0: b298 853b f9ac 963d 4878 5f3b 7af5 8b3d
000000e0: 2051 9dbd fcc5 893d dec6 a63d 9c9d 6dbd
000000f0: b921 53bd dc52 b2bc 60e0 2bbd 377c 963c
00000100: 14f6 433a 1b83 383c a7d8 903d 4163 88bc
00000110: 93c6 babd c021 afbd
-0.083531424 0.09168585 -0.061847936 -0.026967855 0.011700079 0.06614855 0.06677669 -0.09989583
0.089643 -0.005187771 -0.04322421 0.027844267 -0.03167835 -0.035007752 0.056796085 -0.044185553
-0.08777749 0.086730406 0.08272387 -0.04814984 -0.029112324 0.08254707 -0.08547452 -0.03259876
-0.09211814 -0.089561366 0.088993005 0.017473035 -0.028419768 0.07320489 -0.046999402 0.08832818
-0.095923826 -0.044780783 0.055098295 -0.07925127 0.09016912 0.07754617 0.02329885 0.015266956
0.07084894 0.044475496 0.020392075 -0.0325166 -0.02998664 0.052690398 -0.06187954 -0.040376816
-0.03883268 0.017676523 -0.06175328 -0.02681061 0.0040770406 0.07357211 0.0034098793 0.0683393
-0.07681489 0.06727216 0.081434 -0.058011636 -0.051545832 -0.021768026 -0.041962028 0.018369777
0.0007475328 0.011261727 0.07072573 -0.01664889 -0.09119906 -0.08551359

embedding_net.fc2.weight f4 [50, 70]
00000000: 819b 0e3d be5a 0ebd 1c75 253d 625c 023d
00000010: ce57 ec3c 59f4 0b3c 5bfc 6c3c 426f 833a
00000020: e003 293d 563d 933c 44a6 ee3c 1d89 0f3d
00000030: b31a 09bd d087 95bc 0df9 10bc b712 62bc
00000040: 02b7 613c 3b3c b73b 5191 d33b f0d1 9cbc
00000050: 5570 073d 535f 2a3d c2e3 e83b 4845 123d
00000060: 7e78 0a3c 9519 1f3d 136d 4c3d 4e39 4c3d
00000070: 4d3b 313d 7513 a63c b683 9c3c 0caf b13c
00000080: 4c5a c7bc fffd b03b a27d eabc 14b0 b53c
00000090: baa0 543d 7678 163d ee23 2d3d cb19 9ebb
000000a0: 0251 8ebb a55b be3c 4c4d d03b 6423 9abc
000000b0: 8a3a c63c 30e5 4cbd fc96 e03c f32e 8fbc
000000c0: f080 a93d ae46 e43a d182 72bc 0474 01bd
000000d0: 9d14 123c 9536 693d 382d c93c ac91 b33c
000000e0: 6a9a ce3c 6e66 a1bc 83e8 3d3c 21a0 e9bc
000000f0: b9ee 00bc e0e6 203b 0b4f 65bc 9903 40bb
00000100: 90ca b33d 896e fb3d d2f7 853d 682f a03b
00000110: 3241 023d 83de c7bc 49fd 06bd ea57 573d
00000120: 7c8d 643d fe8a 39bd 13cf b13a 8a19 99bc
00000130: 044e 5a3a 94b1 9a3c 3e8a 85bc 4080 8f3c
00000140: e664 663c 480f 443d 1ea0 88bd 6e6c 3abc
00000150: ffc2 a5bc ab65 58bd 06f1 84bc 4b3c a4bc
00000160: 55ae 453c 914e 2c3d 7695 9b3c 28af 513d
00000170: a68d 8bbc 274a 1c3b 790d 803b 3b76 8e3d
00000180: 39a5 6bbd 7b5a 71bd d759 c93c 6843 41bd
00000190: 0bca a43d 5924 453c 1303 e6bb f429 0e3a
000001a0: f050 e43c fddd 0ebd 196b 323d 64b6 493d
000001b0: 5e3e a1bc 16e7 263d f49c f6bc 83f2 2abd
000001c0: f288 33bc ddb9 06bd 0a1f 69bd 1ad6 12bd
000001d0: 1d87 eabc ebc3 223d cad4 a53c 1162 903c
000001e0: 43d6 243d 60c5 693c 5c19 4d3b 8c8f 1a3d
000001f0: d76f 38bd 116a 85bd 1275 15bd b9ad 823c
00000200: db8a 803c 0b11 ec3c 74c4 083c 6ad5 b9bd
00000210: 1b58 77bd 8e0e 793c 2ecd cf3c f4da ac3e
00000220: 8520 d43c 990b 313d e77e 03bd 4410 bb3b
00000230: 2117 44bd 54d7 8bbb 36a2 863c a60d 11bd
00000240: 173b 0a3d d8e1 0abc a4e5 6fbd 75d6 f6bc
00000250: ed7e d73c 0cc9 babb c61c 7f3c 073e 20bb
00000260: 68db 5ebd 4a34 57bc a265 323c aa44 543c
00000270: d11d 143d 445a b43b 9085 b83c 6ba5 123d
00000280: 8900 3bbd 61d8 1bbd 2dbf 023d 4c00 59bd
00000290: 6e00 16bd 26d0 823a ec52 ba3d abda 91bd
000002a0: 9851 a3bb 406c 01bd 2c76 223c 2844 36bd
000002b0: 97de 023d cccb 1cbc 570c be3c ac22 e03c
000002c0: 7e92 6b3d 1f5b 87bd 69c4 893c 91f9 083d
000002d0: 5814 bebc e972 3d3c c01f 2abd bc3d c83c
000002e0: 18a8 3f3d be3e 81bd d6fa 1f3b b861 24bd
000002f0: 27d1 23bd 0c32 26bd 38c9 e93c 3459 443c
00000300: bbdc 68bc f835 97bd a651 68bd 4966 873d
00000310: 5801 353d c02b 97bc 4d1d a53c 5c5d d93c
00000320: 936b 1ebd 7a9a 063e 1c87 05bd 4461 033d
00000330: d7ee 83bd 1230 d43e 46ca 3a3b 5f8f 9abc
00000340: c2fd eebb bb09 ed3c a56b 66bd e31e 73bd
00000350: d88e dc3c bb47 dbbc 20b1 893c 754e 4cbc
00000360: 9296 eebc 1ca4 c13c 643a aebc 194a 433c
00000370: 3e04 6ebc a541 f33c cb8c 39bd 45be 7a3c
00000380: a123 8ebd 1389 83bc 08c7 9dbd caf8 4dbc
00000390: e171 05bc dc3d 4a3c 0da9 c7ba 3b7a d63c
000003a0: 5f7c 0a3d 033e 893a 34ec 69bc 83d4 23bc
000003b0: 2728 e03c 6983 55bd d2b1 c23a 5834 133d
000003c0: 7d17 91b9 8017 213c 3602 d3bb 0eae 2f3c
000003d0: 472a f1bb 5bd5 153d a1e5 bcbb 7b4d 333c
000003e0: ef08 51bd 1e08 313b e70a 05bd bb9a 9c3b
000003f0: f627 273d d3d5 783b 31e4 9abc 0186 57bd
0.03481627 -0.034754507 0.040394887 0.031826384 0.028850462 0.008542144 0.014464463 0.0010027664
0.04126346 0.017973583 0.029132016 0.03504287 -0.033472728 -0.018253237 -0.008848441 -0.013798407
0.013776543 0.005591897 0.006456532 -0.019143075 0.033066113 0.041594815 0.007107229 0.035710603
0.008451579 0.038842756 0.04990871 0.049859338 0.043269444 0.02027295 0.019105773 0.021689914
-0.02433505 0.0054013724 -0.02862436 0.022178687 0.051911093 0.036735974 0.042270593 -0.004824852
-0.004343153 0.023237059 0.0063568708 -0.018815704 0.024197835 -0.050023258 0.027415745 -0.017478442
0.08276546 0.0017416084 -0.014801697 -0.03160478 0.008916047 0.05693682 0.024557695 0.021920048
0.025220115 -0.019702163 0.01159108 -0.028518738 -0.007869416 0.0024551675 -0.013995896 -0.002929902
0.0877887 0.12276942 0.065414086 0.0048884638 0.031800456 -0.024398094 -0.032956395 0.052574076
0.055798993 -0.04529857 0.0013565741 -0.018688936 0.0008327665 0.018883504 -0.01630127 0.017517209
0.014062142 0.047866136 -0.06671165 -0.011378391 -0.020234583 -0.052831333 -0.01622821 -0.020048281
0.01206549 0.042067114 0.018992167 0.051192433 -0.017035317 0.002384791 0.003907856 0.069561444
-0.057530615 -0.05892418 0.024578972 -0.047183424 0.08046349 0.012032592 -0.0070194094 0.00054231216
0.027870625 -0.034879673 0.043559168 0.049246207 -0.01968306 0.040747724 -0.030104138 -0.041735183
-0.010957943 -0.032892097 -0.056914367 -0.035848714 -0.02862888 0.039737623 0.020243067 0.017624887
0.0402434 0.014268249 0.0031295633 0.037734553 -0.045028534 -0.06514371 -0.0364886 0.015951978
0.015691211 0.02881672 0.008347619 -0.090739086 -0.06038676 0.015201224 0.025366392 0.33760798
0.025894413 0.04322395 -0.032103445 0.005708726 -0.04787362 -0.0042676125 0.01643477 -0.035413407
0.03374776 -0.008476697 -0.05856861 -0.030131558 0.02630564 -0.005700236 0.015570825 -0.0024451034
-0.05440846 -0.013135025 0.010888489 0.012955824 0.036161248 0.0055039246 0.022524625 0.035802286
-0.045654807 -0.038048152 0.0319206 -0.0529788 -0.036621504 0.0009980246 0.09097847 -0.07121786
-0.004984092 -0.031597376 0.00991587 -0.044498593 0.03195056 -0.009570073 0.023199243 0.027360283
0.057512753 -0.06609177 0.016817288 0.03344113 -0.02320306 0.011563041 -0.041534185 0.0244435
0.046791166 -0.06310795 0.0024410984 -0.040132254 -0.039994385 -0.040575072 0.028538331 0.011984158
-0.0142127825 -0.073833406 -0.05671849 0.06611306 0.044190735 -0.018453479 0.020155573 0.026533775
-0.03867681 0.13144866 -0.032599553 0.03207518 -0.064420395 0.41442925 0.0028501912 -0.018867193
-0.007293434 0.028935304 -0.056255 -0.059355628 0.026923582 -0.026767602 0.016808093 -0.0124698775
-0.029124532 0.023637824 -0.021268077 0.011919522 -0.014527379 0.029694388 -0.045300286 0.015304153
-0.069403894 -0.016056573 -0.07703978 -0.012571523 -0.008144827 0.01234385 -0.0015232876 0.02618133
0.033810016 0.0010470751 -0.014277507 -0.009999397 0.027362896 -0.052127276 0.001485402 0.03593859
-0.00027674055 0.009832263 -0.0064394725 0.01072265 -0.007359776 0.036580425 -0.0057646786 0.010943766
-0.05103391 0.0027012895 -0.0324811 0.0047791875 0.040809594 0.0037969246 -0.018907638 -0.05261803

embedding_net.fc2.bias f4 [50]
00000000: 47bb 6cbd bf3d 89bd 6847 a4bc 786e 383c
00000010: ddb9 813d 63a0 d43d 1c94 bd3c 44f9 09bd
00000020: a9d8 ac3d 107e 57bd 8e9b 49bd c11e b53d
00000030: 50bf bcbd 37dc b83d 6495 c93c 76a1 6d3d
00000040: 14f3 a03c 13ff 8d3d 3c8e a23c 069a 223d
00000050: 1816 373c 588b 98bd ae17 2dbd 57c9 dd3d
00000060: 48cc 0cbc 36f4 6f3d 3c40 74bd 7f64 a23d
00000070: 274f d23d c8de 25bd 044f bbbc f828 9fbd
00000080: 7146 bf3d 5491 e83c 8c10 f03c 07e1 7abd
00000090: 0886 e5bc 0074 3cbb ee1f 503d 307f de3b
000000a0: afcd c23d de8c 22bd fa60 d1bd 0b52 c83d
000000b0: dd41 d4bd 920a 91bd 0615 4b3d c11a 70bd
000000c0: 5d6c c8bd 5a61 04bd
-0.05779579 -0.0670123 -0.02005358 0.011256807 0.06334279 0.10382154 0.023141913 -0.033684984
0.08439762 -0.052610457 -0.049220614 0.088437565 -0.092161775 0.09026378 0.024607368 0.05801531
0.019647159 0.06933417 0.019843213 0.03969767 0.011174701 -0.07448453 -0.04225891 0.10829418
-0.008593626 0.058582507 -0.05963157 0.07929324 0.10269003 -0.040495664 -0.022864826 -0.07771486
0.093396075 0.02838961 0.029304765 -0.06124976 -0.028018013 -0.0028755665 0.0508117 0.0067900643
0.09511887 -0.039685123 -0.10223575 0.097812735 -0.10364125 -0.07082094 0.049580596 -0.058619265
-0.09786294 -0.032319404
