runs/TripletNet_0918b/checkpoint.pth.tar (torch_old, 59287 bytes, 8 tensors)

embedding_net.conv1.weight f4 [20, 12, 3]
0	0x3dbe7c25	0.093010224
1	0xbd87add4	-0.06624952
2	0xbcd12687	-0.025531067
3	0x3d9e15c4	0.07718995
4	0xbe21c2af	-0.15796922
5	0x3dc8b454	0.0980002
6	0xbd0d4837	-0.034492698
7	0x3dac753b	0.084207974
8	0x3cb474ed	0.02202841
9	0xbcb32c47	-0.021871699
10	0x3d372f23	0.044722687
11	0x3be2a84b	0.0069170347
12	0x3d86e20d	0.065860845
13	0xbd75664c	-0.05991201
14	0xbbe97370	-0.007124357
15	0xbcbc842b	-0.023012241
16	0x3c849706	0.016185295
17	0xbc0b4120	-0.008499414
18	0x3e10f01c	0.14154094
19	0x3d43cefd	0.04780482
20	0xbd8711a5	-0.06595162
21	0xbdd0030d	-0.10156832
22	0xbcec9b0d	-0.028882528
23	0xbd969014	-0.073516995
24	0xbd8bdd3c	-0.068293065
25	0xbc06149b	-0.008183624
26	0x3da6da1a	0.08147068
27	0x3dad4fee	0.08462511
28	0xbe2d7c4b	-0.16941945
29	0x3dc574c5	0.09641413
30	0x3d002771	0.031287614
31	0x3e113595	0.14180596
32	0x3dbf768b	0.09348782
33	0xbe1c04c8	-0.15236199
34	0xbe23084d	-0.15921135
35	0xbda66500	-0.08124733
36	0x3e1aa0ee	0.15100452
37	0xbcc6b18d	-0.024254585
38	0x3d9b76f9	0.075910516
39	0xbd945351	-0.07242454
40	0x3e2ba500	0.16762161
41	0xbd86d9f1	-0.06584538
42	0x3df6ac9a	0.1204464
43	0xbb12fef4	-0.0022429796
44	0xbdb9f86d	-0.090805866
45	0x3db51c30	0.08843267
46	0xbda9e749	-0.08296067
47	0x3d69539a	0.056964494
48	0xbd2c6798	-0.042090982
49	0xbc422cd7	-0.011851511
50	0xbe1d3182	-0.15350917
51	0xbd9e4869	-0.07728655
52	0x3dbdb419	0.092628665
53	0xbd186a38	-0.037210673
54	0x3e1e6b27	0.15470563
55	0x3df85a7f	0.12126636
56	0xbc98a517	-0.018633408
57	0xbdf32e08	-0.11874014
58	0x3db53e86	0.08849816
59	0x3d13c1c0	0.036073446
60	0xbdeb5b68	-0.11492044
61	0x3dc80c74	0.09768
62	0x3db6e1a3	0.089297555
63	0x3e1e5ae1	0.15464355
64	0xbdb072e6	-0.08615665
65	0xbca022b0	-0.01954779
66	0x3c9ea801	0.01936722
67	0x3d4f8689	0.050665412
68	0xbdc76e77	-0.09737866
69	0xbde87953	-0.11351266
70	0x3dc3fa76	0.09569256
71	0xbd09a56a	-0.033605017
72	0x3d85e8c8	0.0653854
73	0xbbbea200	-0.0058176517
74	0x3d25656c	0.040379927
75	0x3cc62680	0.02418828
76	0x3d451b4f	0.048121747
77	0x3d906d3b	0.07052084
78	0xbe206942	-0.15665153
79	0x3da7ce2c	0.08193621
80	0xbdf43559	-0.11924238
81	0xbe02143e	-0.12703034
82	0x3c145b5a	0.009054983
83	0xbcf4feef	-0.029906718
84	0x3dc46438	0.09589428
85	0xbdc9592b	-0.098314606
86	0xbe19bc8d	-0.15013333
87	0x3dd4115d	0.10354874
88	0xbd28813e	-0.04113888
89	0x3d9f8a32	0.077900305
90	0x3d4773e7	0.048694517
91	0xbe046832	-0.12930372
92	0x3cf17258	0.029473469
93	0x3d104b22	0.035227902
94	0xbdec549b	-0.11539575
95	0xbda88ea9	-0.08230335
96	0x3d2ae79c	0.041724786
97	0x3c80a48c	0.015703462
98	0xbdac0f52	-0.084013596
99	0xbd6365cd	-0.055517007
100	0x3e176b94	0.14787132
101	0xbd10d3ab	-0.035358112
102	0x3daa8024	0.08325222
103	0x3d7d203d	0.061798323
104	0xbdf157ae	-0.11784302
105	0xbe168bb4	-0.1470173
106	0x3e1e576a	0.15463033
107	0x3b5ef2bc	0.0034019193
108	0x3dcc0375	0.09961597
109	0x3ca2d7c3	0.019878274
110	0x3d1e449f	0.03863966
111	0x3de78471	0.11304558
112	0x3e165dbc	0.14684194
113	0xbdf7909b	-0.12088128
114	0x3c8e6ef1	0.017386885
115	0x3df95322	0.121740595
116	0x3df3436d	0.11878095
117	0x3dc6a0dd	0.09698651
118	0xbe003ffa	-0.12524405
119	0xbdfd04af	-0.12354409
120	0xbdd2d3a5	-0.10294274
121	0x3c9f5a33	0.01945219
122	0x3e2906e3	0.16506533
123	0xbde51520	-0.1118567
124	0x3daa2d90	0.083094716
125	0xbdc73493	-0.097268246
126	0xbe238619	-0.15969123
127	0xbd1bf480	-0.03807497
128	0x3dbf7f4a	0.0935045
129	0x3e16d791	0.1473067
130	0xbde0b83e	-0.109726414
131	0x3cfc054a	0.03076424
132	0x3df2bd4d	0.118525125
133	0x3dae748d	0.08518324
134	0x3da2d3fa	0.079505876
135	0x3de9682e	0.11396824
136	0x3dcfba0e	0.10142909
137	0x3d2119b4	0.039331153
138	0xbdef2ff7	-0.116790704
139	0xbe10ff03	-0.14159779
140	0xbd9de5d5	-0.077098526
141	0xbcba8396	-0.022767823
142	0xbdd7877d	-0.10523889
143	0x3d6e8c8b	0.0582395
144	0x3d495fba	0.049163558
145	0xbd20e3c7	-0.039279725
146	0x3d80fb6e	0.062979564
147	0x3d47e355	0.048800785
148	0x3dc6e97b	0.097125016
149	0x3ddd4f4c	0.1080614
150	0xbd783c37	-0.0606043
151	0x3e22ca23	0.15897422
152	0xbcbd8783	-0.023135906
153	0xbb06b4b1	-0.0020554478
154	0xbe1d0845	-0.15335186
155	0xbdd369dd	-0.10322926
156	0xbdbcb591	-0.092143185
157	0xbd877d63	-0.066157125
158	0x3dfd47a7	0.12367182
159	0xbd40d06c	-0.047073767
160	0xbdef39a0	-0.11680913
161	0x3d928765	0.07154731
162	0x3d6a999a	0.057275392
163	0x3de59aef	0.11211192
164	0xbda88d1e	-0.08230041
165	0x3d411dab	0.047147434
166	0xbd4948e5	-0.049141783
167	0xbcd4428f	-0.025910644
168	0xbe02ee43	-0.12786202
169	0xbd907b89	-0.070548125
170	0xbd39cc77	-0.04536101
171	0x3d7d8db0	0.0619027
172	0x3caef4df	0.021356998
173	0x3d0562d0	0.032564938
174	0x3e173fe3	0.14770465
175	0x3e125ac6	0.1429244
176	0x3dc29fcd	0.09503136
177	0x3c1ca04a	0.0095597
178	0xbde2fd99	-0.11083526
179	0x3e0a2aa2	0.13492826
180	0xbd41a784	-0.047278896
181	0xbc9a19e5	-0.018811176
182	0xbe181c00	-0.14854431
183	0xbd114297	-0.035463896
184	0xbde20ab7	-0.110372
185	0x3e18f57d	0.14937396
186	0xbe12f00a	-0.1434938
187	0xbe047eae	-0.1293895
188	0xbba4ea34	-0.005032802
189	0xbdbf8881	-0.09352208
190	0x3d665da6	0.056241654
191	0xbd89ded2	-0.06731953
192	0xbda59102	-0.08084299
193	0x3bce9f95	0.0063056448
194	0x3df030ca	0.11728056
195	0xbe043fd4	-0.12914973
196	0x3d82d370	0.06387985
197	0x3dbb4af1	0.09145153
198	0x3e1fdc47	0.15611373
199	0xbdfdc2af	-0.123906486
200	0x3d083b96	0.03325995
201	0xbe061f26	-0.1309782
202	0x3e09f60b	0.13472764
203	0xbd91da9b	-0.07121774
204	0x3daadbd1	0.08342708
205	0xbc43b2a3	-0.011944446
206	0xbced6829	-0.028980331
207	0xbbe0a972	-0.006856137
208	0x3cdd600c	0.027023338
209	0x3d9feb77	0.07808583
210	0x3cce5ef3	0.02519176
211	0x3d4b8a36	0.049692355
212	0xbe18effc	-0.14935297
213	0x3ddc69f6	0.10762398
214	0x3e067430	0.1313026
215	0x3dfe6224	0.124210626
216	0x3dec0646	0.11524634
217	0xbe0257ad	-0.12728758
218	0xbd8ad0a8	-0.06778079
219	0x3e0d3c00	0.1379242
220	0xbe0ae17e	-0.13562581
221	0x3e1266a0	0.14296961
222	0xbe0a01d0	-0.13477254
223	0xbdf8a2cc	-0.12140426
224	0x3d9ea607	0.07746511
225	0xbe026d5d	-0.12737031
226	0xbd424610	-0.047430098
227	0x3de2b0ac	0.11068854
228	0x3dec3266	0.1153305
229	0x3e0f90e0	0.14020109
230	0xbd502751	-0.050818745
231	0xbe175368	-0.1477791
232	0x3e14ef80	0.14544487
233	0xbd5a8910	-0.05335337
234	0xbd999186	-0.074984595
235	0x3d0cefe9	0.034408484
236	0xbdfa2bfe	-0.12215422
237	0x3dc67347	0.09689956
238	0x3dbcfd38	0.09227985
239	0xbe12c4b9	-0.14332856
240	0xbe1142fe	-0.14185712
241	0xbca1f924	-0.01977212
242	0x3d84ea84	0.06490043
243	0xbbc6634c	-0.0060543176
244	0xbdb00bf2	-0.085960284
245	0x3b1658da	0.0022941143
246	0xbe24112e	-0.16022179
247	0xbdf89690	-0.121380925
248	0xbdea9c09	-0.114555426
249	0x3dff33e2	0.12461068
250	0x3e09c932	0.13455656
251	0xbd8c5457	-0.06852024
252	0xbb94a081	-0.004535735
253	0x3d7addf0	0.061246812
254	0x3bdf1826	0.0068082986
255	0xbdb456a8	-0.08805591

embedding_net.conv1.bias f4 [20]
0	0x3dd2648b	0.10273083
1	0x3e01cd21	0.12675907
2	0xba8c5465	-0.0010706304
3	0xbe34c238	-0.17652214
4	0x3d9b5491	0.07584489
5	0x3da9076a	0.08253367
6	0x3c106a0a	0.008814344
7	0xbde67454	-0.112526566
8	0x3c2d8428	0.010590591
9	0xbda1da0c	-0.07902917
10	0x3e16aaaa	0.1471354
11	0x3e20976c	0.15682763
12	0xbd89d26f	-0.0672959
13	0xbdc1f5ed	-0.09470735
14	0x3dc2fed7	0.09521263
15	0x3de35171	0.11099518
16	0x3d9f81b4	0.07788411
17	0xbdc2d8eb	-0.0951403
18	0x3cc27f1e	0.023742255
19	0xbd92815a	-0.07153578

embedding_net.conv2.weight f4 [50, 20, 3]
0	0xbdec5a54	-0.11540666
1	0xbdbc0081	-0.091797836
2	0x3d583cbb	0.052792292
3	0x3d1f2bd9	0.038860176
4	0xbdfacdc7	-0.1224628
5	0x3d84cf72	0.064848796
6	0x3dc123b0	0.09430635
7	0x3dbf354b	0.09336337
8	0x3d8c4874	0.06849757
9	0xbccf5aa2	-0.025311772
10	0x3da5c68b	0.0809451
11	0x3dc49897	0.09599417
12	0x3d8308aa	0.06398137
13	0xbdc36a7a	-0.09541793
14	0xbd440b81	-0.047862533
15	0x3dca3728	0.098738015
16	0x3dc28ae6	0.09499149
17	0x3da144bb	0.078744374
18	0xbd5e874f	-0.05432826
19	0xbcd5428f	-0.026032714
20	0xbdc63d99	-0.096797176
21	0xbd969cb4	-0.073541075
22	0x3dcb0346	0.09912734
23	0xbdd8ffc5	-0.10595659
24	0xbd03344b	-0.032032292
25	0x3ce06ecb	0.02739658
26	0xbd9ead92	-0.0774795
27	0x3cf66615	0.030077973
28	0xbca8e21d	-0.020615632
29	0x3d539f06	0.05166533
30	0xbdd4bd2b	-0.103876434
31	0x3c5ecaf9	0.013598197
32	0xbdf8fc26	-0.121574685
33	0x3d8cade2	0.06869103
34	0x3de93f53	0.11389031
35	0xbd67f6d8	-0.056631893
36	0x3c99492b	0.018711647
37	0xbd88401e	-0.066528544
38	0xbda90fb7	-0.082549505
39	0xbd86df8e	-0.065856084
40	0xbd7dbd4d	-0.06194811
41	0x3cc66266	0.024216842
42	0xbc715ddf	-0.014731853
43	0x3c14994b	0.009069751
44	0xbdcab050	-0.0989691
45	0xbda64e29	-0.081203766
46	0xbde51874	-0.11186305
47	0xbdbe7126	-0.09298925
48	0x3dc7d8f0	0.097581744
49	0x3d1cb031	0.038253967
50	0xbe0701e1	-0.1318431
51	0xbcc995c8	-0.024607554
52	0x3c011d5b	0.007880534
53	0x3d87f27e	0.066380486
54	0x3df5338b	0.11972722
55	0x3cff7123	0.031181877
56	0x3dba3366	0.09091835
57	0xbd3c134f	-0.04591685
58	0xbb89d34e	-0.0042060977
59	0xbd9f9897	-0.07792776
60	0x3c9631d3	0.018334305
61	0x3ddf1ea7	0.10894518
62	0x3d9170d7	0.071016006
63	0x3ddf9773	0.109175585
64	0xbd9b7b87	-0.0759192
65	0xbd021581	-0.03175879
66	0x3ca9a3cb	0.020707985
67	0x3dc89b59	0.09795255
68	0xbdfe2308	-0.124090254
69	0xbd884d08	-0.066553175
70	0x3c73c8dc	0.014879432
71	0xbd9ff2ce	-0.07809983
72	0x3cfc2cf9	0.030783163
73	0xbcbf3bea	-0.023343999
74	0xbd40c7fd	-0.047065724
75	0x3d3d81cb	0.04626636
76	0x3d8cf8d8	0.06883401
77	0x3dd20ae4	0.102559835
78	0x3d62450c	0.05524163
79	0xbbf2f1ca	-0.0074140774
80	0x3dcfbd89	0.10143573
81	0x3dcd544b	0.10025843
82	0xbd887245	-0.0666242
83	0x3d694844	0.056953683
84	0x3c612d92	0.013743775
85	0xbd683676	-0.056692563
86	0xbd00bb07	-0.031428363
87	0xbd0a1897	-0.033714857
88	0xbdbd97e0	-0.092574835
89	0xbd2af9ff	-0.04174232
90	0x3cb68ee1	0.022284927
91	0x3d984eb4	0.074368864
92	0xbc25089e	-0.010072855
93	0xbe0b7319	-0.13618125
94	0x3d66067b	0.056158524
95	0xbd4f2a29	-0.050577316
96	0x3dde4065	0.10852126
97	0xbe051255	-0.12995274
98	0xbd0cc80a	-0.03437046
99	0x3dc8b862	0.09800793
100	0x3d5df096	0.05418452
101	0xbd869c28	-0.06572753
102	0xbde6337c	-0.112402886
103	0xbb0b0f23	-0.002121874
104	0x3d48482b	0.04889695
105	0xbddd4f90	-0.10806191
106	0xbddf7f29	-0.10912926
107	0xbb3b24b2	-0.0028555808
108	0xbd64ba2e	-0.055841617
109	0x3d62ef71	0.05540413
110	0xbe1ab76a	-0.1510903
111	0xbd0e8bdd	-0.034801353
112	0xbde5b462	-0.11216046
113	0xbcfe8ba9	-0.031072455
114	0xbd896373	-0.067084216
115	0x3d218539	0.03943369
116	0xbddfc304	-0.10925868
117	0xbdd0c5e3	-0.10193994
118	0xbd96cd6b	-0.07363399
119	0xbde85bd1	-0.113456376
120	0x3d88abb7	0.06673377
121	0xbd089d3a	-0.033353068
122	0xbdae9167	-0.08523827
123	0x3dae7022	0.085174814
124	0xbd0e167e	-0.03468942
125	0x3d76aedb	0.06022535
126	0xbd2e77d9	-0.042594764
127	0xbde1f007	-0.1103211
128	0x3cd55b59	0.026044535
129	0x3da45106	0.080232665
130	0xbe00fbc3	-0.1259604
131	0x3c574521	0.01313904
132	0x3b59826c	0.003318931
133	0xbc0425a3	-0.008065614
134	0xbcc6ba98	-0.024258897
135	0xbd361d50	-0.04446155
136	0xbdd6e228	-0.10492355
137	0x3c84eea8	0.016227081
138	0xbdb189f7	-0.08668893
139	0xbdda6d0d	-0.10665331
140	0xbd2a3e26	-0.041563176
141	0xbdbc0744	-0.09181073
142	0x3d0fe397	0.035129156
143	0x3db249be	0.087054715
144	0x3dc949cc	0.09828529
145	0xbda7ef6c	-0.08199963
146	0x3d8c2227	0.068424515
147	0x3da79f7e	0.081847176
148	0xbc0c8018	-0.008575462
149	0x3d3c316d	0.045945574
150	0x3d7c2341	0.06155706
151	0x3db18eba	0.08669801
152	0x3d6ecc39	0.05830023
153	0x3d592ada	0.053019382
154	0xbd4c9053	-0.049942326
155	0xbd95c1bf	-0.07312345
156	0xbd88fdd9	-0.066890426
157	0x3dcc560f	0.09977352
158	0xbd1d3ec3	-0.038389932
159	0x3b95ba04	0.004569294
160	0xbdf6a2ab	-0.12042745
161	0xbbc39c3e	-0.0059695533
162	0xbd1935c3	-0.037404787
163	0xbdac7b7e	-0.08421992
164	0x3dcb0e1e	0.09914802
165	0xbdd6a310	-0.104803205
166	0xbc9aafe8	-0.018882707
167	0xbc22cbaf	-0.009936257
168	0xbe077ea0	-0.13231897
169	0x3d792c40	0.060833216
170	0xbd70695f	-0.05869424
171	0x3d1fc78a	0.039008655
172	0x3d550533	0.05200691
173	0x3dc0babb	0.09410616
174	0x3cec511b	0.028847268
175	0x3dbfd180	0.09366131
176	0x3dedaf74	0.11605731
177	0x3cd19072	0.025581572
178	0xbcd782fa	-0.026307572
179	0xbd10c59a	-0.035344698
180	0x3c907a1b	0.01763635
181	0x3d35afc8	0.04435709
182	0xbdfce108	-0.12347609
183	0x3db9be21	0.09069467
184	0x3c702635	0.014657547
185	0xbdffb852	-0.12486328
186	0x3d25ac56	0.040447555
187	0x3da64fb7	0.08120673
188	0x3d4389c7	0.047738817
189	0x3dd849c7	0.10560947
190	0x3b369c5b	0.0027864191
191	0xbddb7b6b	-0.107168995
192	0xbbc8e5b3	-0.006130898
193	0x3db7c6cd	0.08973465
194	0xbd8556c4	-0.0651069
195	0x3d574765	0.05255832
196	0x3ce42939	0.027851688
197	0xbcb5ef6c	-0.022208892
198	0x3a7da4fe	0.000967577
199	0x3d60116b	0.05470411
200	0xbdb579ff	-0.088611595
201	0x3da41313	0.080114506
202	0x3db0836e	0.08618818
203	0x3d91ef3a	0.07125707
204	0x3e035d65	0.12828596
205	0xbbc9ac2c	-0.0061545577
206	0xbdbbd545	-0.09171537
207	0x3ba06477	0.004894789
208	0xbd1b108c	-0.037857577
209	0x3d3905c2	0.045171507
210	0x3dd63e9b	0.1046116
211	0xbd97324a	-0.07382639
212	0x3b39c961	0.002834879
213	0x3dfd67b3	0.12373295
214	0xbdd76859	-0.105179496
215	0xbcc62827	-0.024189068
216	0x3df561a8	0.11981517
217	0x3dae5698	0.0851261
218	0x3d08b58e	0.03337627
219	0xbd64d090	-0.055862963
220	0xbc4a98af	-0.012365504
221	0xbdedd237	-0.11612361
222	0xbdf90850	-0.121597886
223	0xbdf7bd64	-0.1209667
224	0x3dfdeefc	0.12399098
225	0x3dd10403	0.10205843
226	0x3d519da4	0.05117573
227	0xbd04f94e	-0.032464318
228	0x3dd13121	0.10214449
229	0xbd29f689	-0.04149488
230	0x3dab57dd	0.08366368
231	0xbc0b6e0b	-0.008510123
232	0xbd824d59	-0.06362409
233	0xbd1d122e	-0.038347416
234	0xbce26401	-0.027635576
235	0xbdf227d5	-0.118240036
236	0x3d1d7081	0.03843737
237	0xbd2258ea	-0.039635576
238	0x3d708697	0.058722105
239	0x3da7413d	0.0816674
240	0xbcdb406e	-0.02676412
241	0x3d67f091	0.056625906
242	0x3ca1644b	0.019701144
243	0x3d9b29e5	0.0757635
244	0xbdbe7adb	-0.093007766
245	0xbcabfa0c	-0.020993255
246	0xbd4646d9	-0.04840741
247	0x3ddc858e	0.10767661
248	0xbdf7723e	-0.12082337
249	0xbd9d2ef4	-0.07674971
250	0x3c2ae66b	0.0104309125
251	0x3de27440	0.11057329
252	0x3daa265d	0.083080985
253	0xbdfb2c52	-0.12264313
254	0xbdbc6dae	-0.09200607
255	0x3df2a5ca	0.11848028

embedding_net.conv2.bias f4 [50]
0	0xbd9991b0	-0.07498491
1	0xba76d180	-0.0009415373
2	0xbda96bcf	-0.08272516
3	0xbdd5baf2	-0.104360476
4	0x3bf98324	0.00761451
5	0xbdd7b30d	-0.10532198
6	0x3cd22704	0.02565337
7	0xbcb53a14	-0.02212242
8	0xbdf59dd1	-0.11992992
9	0xbd8e6c55	-0.069542564
10	0xbc93580a	-0.017986316
11	0x3ba44923	0.0050136014
12	0xbcd6c1fc	-0.026215546
13	0xbc326ab6	-0.0108897
14	0xbda1c0ea	-0.078981236
15	0xbce9ae6e	-0.028525557
16	0xbc164fe9	-0.0091743255
17	0xbdacf848	-0.084457934
18	0xbd385ea8	-0.045012146
19	0x3d6ca887	0.057777908
20	0xbca168da	-0.019703317
21	0xbcdf6078	-0.02726768
22	0x3d06256a	0.032750525
23	0xbdad636f	-0.08466231
24	0xbd2f03b6	-0.04272815
25	0xbdc276f0	-0.09495342
26	0xbd82034a	-0.063482836
27	0x3c7b1379	0.015324467
28	0x3d45ec0c	0.048320815
29	0xbdfb34b6	-0.12265913
30	0x3ca6bf08	0.020354763
31	0xbd52e415	-0.051487047
32	0xbd57a55e	-0.05264794
33	0xbcd10734	-0.02551613
34	0xbda7716c	-0.081759304
35	0x3c7f0543	0.015565219
36	0xbda3e4e5	-0.080026425
37	0xbd5ab380	-0.05339384
38	0xbda1857f	-0.078867905
39	0x3befd81f	0.007319465
40	0xbb9ef30c	-0.004850751
41	0xbd8b97d0	-0.06816065
42	0xbd9db8d0	-0.07701266
43	0x3c394a50	0.011309221
44	0x3b991d50	0.004672684
45	0x3cce5148	0.025185242
46	0xbdf40d57	-0.11916607
47	0xbb83c442	-0.0040211985
48	0xbdeee5ab	-0.116648994
49	0xbd4f9bc9	-0.050685678

embedding_net.fc1.weight f4 [70, 100]
0	0xbc0f7f8e	-0.008758439
1	0xbdbb3268	-0.091404736
2	0x3d6618da	0.056176044
3	0xbd968148	-0.07348877
4	0x3c928b2b	0.017888626
5	0xbd534293	-0.051577162
6	0x3d3bea11	0.04587752
7	0x3cd2a0b3	0.025711393
8	0x3d34a644	0.044103876
9	0xbc3550b4	-0.011066604
10	0xbd3bf9e5	-0.045892615
11	0xbd2304d8	-0.03979954
12	0x3d901e0e	0.070369825
13	0x3cb43a8e	0.022000577
14	0xbd3da77b	-0.0463023
15	0xbd536bab	-0.051616352
16	0xbcc39359	-0.023873972
17	0xbd2019e4	-0.03908719
18	0xbd1f4241	-0.038881544
19	0x3db9da4a	0.090748385
20	0xbd5d4f75	-0.054030854
21	0x3dc4a575	0.09601871
22	0x3da18128	0.07885963
23	0xbd7b0adf	-0.061289664
24	0x3d2d3a45	0.0422919
25	0xbdbcaffa	-0.09213252
26	0x3c0a91d2	0.008457618
27	0xbd887d31	-0.06664503
28	0xbd85f854	-0.065415055
29	0x3ce8899e	0.028385933
30	0x3d280866	0.041023634
31	0xbcd95b62	-0.026532833
32	0xbc5fd2c7	-0.013661093
33	0x3d0cc36d	0.03436606
34	0xbdc59529	-0.09647591
35	0x3b20ee7f	0.0024556217
36	0xbdc72439	-0.09723706
37	0xbd0f40db	-0.03497396
38	0x3dac544f	0.08414518
39	0xbd18594a	-0.037194528
40	0xbd3b26c6	-0.045691274
41	0xbdc09e8f	-0.09405243
42	0x3dc11ee3	0.09429719
43	0x3d0d34c5	0.034474153
44	0xbd9f9d0f	-0.077936284
45	0xbcc77bc1	-0.024351003
46	0x3da1e940	0.07905817
47	0xbdc61a0f	-0.09672939
48	0x3c039290	0.008030549
49	0xbd980250	-0.07422316
50	0xbd9c3236	-0.076267645
51	0xbcb5238d	-0.022111678
52	0x3d1c23a1	0.038119916
53	0xbdcb8a5a	-0.09938498
54	0xbd647689	-0.055777106
55	0xbda50758	-0.08058041
56	0xbcac41e9	-0.021027522
57	0xbd4090ff	-0.04701328
58	0x3d596782	0.05307723
59	0xba18277b	-0.0005804223
60	0xbc591ca5	-0.013251458
61	0xbdb3b18c	-0.08774099
62	0x3b263a72	0.0025364426
63	0xbdc6fb8d	-0.09715948
64	0xbdb82ba6	-0.089927
65	0x3d229d80	0.039700985
66	0xbdcc724e	-0.099827394
67	0x3b7dcc55	0.0038726528
68	0x3cbb0440	0.022829175
69	0xbbdd3f1d	-0.0067519085
70	0x3d86ea5f	0.065876715
71	0xbcbdb2b6	-0.023156505
72	0x3d8bc350	0.06824362
73	0xbd6b4108	-0.057435066
74	0xbda3bb16	-0.07994668
75	0xbd886c1d	-0.06661246
76	0x3d57ee2b	0.05271737
77	0x3bf9564f	0.0076091657
78	0xbc612905	-0.01374269
79	0xbc42e299	-0.011894845
80	0xbd2930ed	-0.041306425
81	0x3c8fb95f	0.017544447
82	0xbc045ef5	-0.00807928
83	0xbc3be933	-0.011469173
84	0xbd33efc0	-0.043929815
85	0xbd8809db	-0.06642505
86	0x3c33995e	0.010961859
87	0x3b4ab5ee	0.0030931192
88	0xbdb8ab4e	-0.09017049
89	0x3da7e849	0.08198602
90	0x3d20a168	0.03921643
91	0x3d602e86	0.05473187
92	0x3cc2eabf	0.023793576
93	0xbcf79ff0	-0.030227631
94	0x3cfd42d8	0.030915663
95	0x3d31446f	0.043278154
96	0x3d11c477	0.035587754
97	0xbd0d3a77	-0.034479585
98	0xbd5f359c	-0.054494485
99	0xbb9e78a9	-0.004836161
100	0x3da17fdf	0.078857176
101	0xbd5fe4ff	-0.054661747
102	0xbd248ba0	-0.04017222
103	0xbd4a9258	-0.04945597
104	0xbdab5fb1	-0.08367861
105	0x3d1dd23e	0.03853058
106	0xbc6c1f78	-0.0144118
107	0x3c1feed5	0.009761532
108	0x3dc76423	0.097358964
109	0x3c80e779	0.015735375
110	0x3d9f3d8a	0.077754095
111	0x3c82c7f7	0.015964491
112	0xbc311a16	-0.010809442
113	0x3d79676b	0.060889643
114	0x3cf97a24	0.030453749
115	0xbc40e4fe	-0.011773346
116	0x3b595af0	0.0033165775
117	0xbd4787f0	-0.048713624
118	0xbc03935c	-0.008030739
119	0x3d87c347	0.06629043
120	0x3dad6282	0.084660545
121	0x3dbc573e	0.091963276
122	0xbd958466	-0.073006436
123	0xbb2f5caa	-0.0026758113
124	0x3d238dd6	0.039930187
125	0x3d8ae798	0.06782454
126	0xbd6230df	-0.05522239
127	0xbda33fd4	-0.079711586
128	0x3d0ac65f	0.033880588
129	0xbd6bd6dd	-0.057577956
130	0x3dcc4118	0.09973353
131	0xbd802b15	-0.06258217
132	0x3d49a241	0.049227003
133	0xbcfc56a4	-0.030803032
134	0xbda85f92	-0.082213536
135	0xbdc7b26c	-0.09750828
136	0x3d314e6d	0.043287683
137	0xbcfba325	-0.030717442
138	0xbd8456ad	-0.064618446
139	0x3dc982da	0.09839411
140	0x3d6ef0ca	0.058335103
141	0x3d8618fa	0.06547733
142	0xbd38b74c	-0.04509668
143	0xbba907e9	-0.0051584137
144	0x3cb2e819	0.021839188
145	0xbc3f3499	-0.011670255
146	0x3d43ffc4	0.04785134
147	0xbcc8bcf6	-0.024504166
148	0xbcb83cc2	-0.02248991
149	0xbc2defa4	-0.010616217
150	0xbd21a0ff	-0.03946018
151	0xbd8cbe3e	-0.06872223
152	0xbc3a2c30	-0.011363074
153	0xbd134983	-0.035958778
154	0xbd01c9ea	-0.0316867
155	0xbd33e09b	-0.043915372
156	0x3d3cf736	0.046134196
157	0xbc8737ee	-0.016506162
158	0x3d9d6143	0.07684567
159	0x3cef2774	0.029193617
160	0xbd09210c	-0.03347878
161	0x3dcb2dc3	0.09920838
162	0xbd00bb78	-0.031428784
163	0xbdaceca7	-0.08443575
164	0x3d895af1	0.06706799
165	0xbd69c239	-0.05706999
166	0x3d8b83c9	0.068122454
167	0x3d9cd524	0.07657841
168	0xbd03e722	-0.032202847
169	0xbd228127	-0.03967395
170	0x3d0ec34f	0.03485423
171	0x3d4c485c	0.049873695
172	0x3d9fbe36	0.07799952
173	0x3cd101bf	0.025513528
174	0x3bfa8c1c	0.007646097
175	0x3db314ff	0.08744239
176	0x3cbcd2f2	0.023049805
177	0xbda6534e	-0.08121358
178	0xbcd70ae7	-0.026250316
179	0xbbc2a2a1	-0.005939797
180	0x3d0af708	0.033926994
181	0xbdc48c38	-0.09597057
182	0xbdcbb863	-0.09947278
183	0xbd69549d	-0.05696546
184	0x3c513d94	0.012771029
185	0x3d8add35	0.06780473
186	0xbdaac751	-0.08338798
187	0x3d28f85d	0.041252483
188	0x3ba5f975	0.005065138
189	0x3db45b94	0.0880653
190	0xbd655016	-0.05598458
191	0xbd0031ba	-0.031297423
192	0x3d040f9c	0.03224145
193	0xbdc3372d	-0.09532008
194	0x3d81d7df	0.06340002
195	0xbd27b79d	-0.04094659
196	0x3c9fbb31	0.01949844
197	0xbd7fa9ec	-0.06241791
198	0x3da3d139	0.079988904
199	0x3cf87112	0.030327354
200	0x3c4003f7	0.011719695
201	0xbd49057c	-0.049077496
202	0xbd95e733	-0.073194884
203	0x3bf70932	0.007538938
204	0xbd8e4c91	-0.06948198
205	0xbb984ca3	-0.0046478077
206	0x3db08c90	0.0862056
207	0x3cdf4557	0.027254744
208	0xbce65cae	-0.028120365
209	0xbd167cbc	-0.03674005
210	0x3d2676b3	0.040640544
211	0xbda53a02	-0.08067705
212	0xbda4d9f8	-0.08049387
213	0xbc0e43c2	-0.008683147
214	0x3d6dd35d	0.0580629
215	0xbd67c286	-0.056581996
216	0xbc7ba191	-0.015358345
217	0xbd3a14e3	-0.045430075
218	0x3d7b47ac	0.06134765
219	0xbd4a7581	-0.049428467
220	0xbc735efb	-0.014854188
221	0x3d3b92f5	0.045794446
222	0xbd2de6f0	-0.042456567
223	0x3dc1ed08	0.09469038
224	0xbd5f3d03	-0.054501545
225	0xbd108d11	-0.03529078
226	0x3bc4bfc7	0.006004307
227	0xbd4382c6	-0.047732137
228	0xbdc9d1ca	-0.09854467
229	0xbd9c64c0	-0.07636404
230	0xbdb9713f	-0.09054803
231	0x3db56dd1	0.088588364
232	0x3bc488f8	0.0059977733
233	0xbd4c71ae	-0.0499131
234	0x3d174c59	0.036938045
235	0x3ba1f392	0.004942366
236	0xbd4b6c33	-0.049663734
237	0x3d837fd3	0.06420865
238	0xbd86a68f	-0.06574737
239	0xbd91c643	-0.071178935
240	0x3d8bb64c	0.0682188
241	0x3d3eeee6	0.04661455
242	0x3d364691	0.04450089
243	0x3cfe80b3	0.031067228
244	0xbd338c31	-0.04383487
245	0xbdc95304	-0.09830287
246	0xba026d2b	-0.0004975374
247	0x3d52cafa	0.051463105
248	0x3d81adaa	0.06331952
249	0xbc9f04ea	-0.019411523
250	0xbd2f3560	-0.04277551
251	0xbb883ccd	-0.0041576386
252	0x3d9aeb34	0.07564393
253	0xbc010008	-0.007873543
254	0x3daeeb91	0.085410245
255	0xbd1c4e3c	-0.038160548

embedding_net.fc1.bias f4 [70]
0	0xbc926d14	-0.017874278
1	0xbd99effb	-0.07516476
2	0xbccaabf6	-0.0247402
3	0xbcb6027e	-0.022217985
4	0xbca50af3	-0.020146823
5	0xbdba5a64	-0.09099272
6	0xbca0c8bc	-0.019626968
7	0xbcca0492	-0.024660382
8	0xbcd15be1	-0.025556507
9	0xbdb62707	-0.088941626
10	0xbd06ea0b	-0.032938045
11	0xbce6e45b	-0.02818506
12	0xbd2d16cd	-0.042258073
13	0xbcd6a3fc	-0.02620124
14	0xbcc3de28	-0.023909643
15	0xbcca2618	-0.024676368
16	0xbda7d3d3	-0.08194699
17	0xbd957697	-0.0729801
18	0xbcfd805b	-0.030944994
19	0xbdc35d74	-0.09539309
20	0xbcbb2da6	-0.022848915
21	0xbca7559c	-0.020426564
22	0xbd4fa47f	-0.050693985
23	0xbcba2623	-0.022723263
24	0xbd543954	-0.051812485
25	0xbcc97ce4	-0.024595685
26	0xbdb06df5	-0.08614723
27	0xbce36e16	-0.027762454
28	0xbcc00149	-0.023438113
29	0xbd452487	-0.04813054
30	0xbcbaae54	-0.022788204
31	0xbcc43ad0	-0.023953825
32	0xbcf238f8	-0.02956818
33	0xbcb0b39f	-0.021570025
34	0xbd91f73f	-0.071272366
35	0xbd8f274c	-0.06989917
36	0xbcaa63ad	-0.020799482
37	0xbcd7a7b1	-0.026325079
38	0xbd94f9a8	-0.07274181
39	0xbccad5b5	-0.024760107
40	0xbd90c8f5	-0.070695795
41	0xbca05ca8	-0.019575432
42	0xbc95e379	-0.018296944
43	0xbca831f3	-0.02053163
44	0xbcab3cbb	-0.020902982
45	0xbd898f46	-0.0671678
46	0xbd9bcfb6	-0.07607977
47	0xbcf0295f	-0.029316602
48	0xbcb459ee	-0.022015538
49	0xbcb8e941	-0.022572162
50	0xbdad099a	-0.08449097
51	0xbcc00789	-0.023441093
52	0xbceefa70	-0.029172152
53	0xbca256c8	-0.019816771
54	0xbcd234ad	-0.025659883
55	0xbd0e1e5e	-0.03469693
56	0xbccfe65d	-0.0253784
57	0xbcbfafe6	-0.023399305
58	0xbd6669f3	-0.056253385
59	0xbcaaa6ed	-0.02083155
60	0xbd53809e	-0.05163633
61	0xbd1f4694	-0.038885668
62	0xbce8d933	-0.028423881
63	0xbd9ccf95	-0.07656781
64	0xbdc450ce	-0.09585725
65	0xbdb5e013	-0.088806294
66	0xbcbcd53a	-0.023050893
67	0xbcbd5b22	-0.023114745
68	0xbcbc2918	-0.022968814
69	0xbd7e913f	-0.062150236

embedding_net.fc2.weight f4 [50, 70]
0	0xbd668e4c	-0.05628805
1	0xbc732622	-0.014840635
2	0x3d1a08bc	0.037605986
3	0xbdca1053	-0.09866395
4	0xbd98ea1f	-0.0746653
5	0x3c0f0d54	0.008731205
6	0xbd833d6d	-0.064082004
7	0xbde4c733	-0.11170807
8	0x3dbfe838	0.09370464
9	0xbda452c0	-0.08023596
10	0x3d9cf73e	0.07664345
11	0xbd09b6d1	-0.033621613
12	0x3da88e7b	0.08230301
13	0xbd01a63c	-0.031652674
14	0xbd684afe	-0.056712143
15	0x3cd39055	0.025825659
16	0xbd886a24	-0.0666087
17	0xbd577fce	-0.05261212
18	0x3d2ac1d0	0.04168874
19	0x3c0667d3	0.008203465
20	0xbc1cde25	-0.009574448
21	0xbdc1d3cb	-0.094642244
22	0x3dcb18e0	0.09916854
23	0xbd3260dd	-0.043549407
24	0x3db07a22	0.08617045
25	0x3d2c4cfe	0.042065613
26	0xbd3d8316	-0.04626759
27	0xbdde5333	-0.10855713
28	0xbd18ef58	-0.03733763
29	0xbd808db8	-0.06277031
30	0x3cf69608	0.030100837
31	0xbd26ff78	-0.040770978
32	0xbdc9059e	-0.098155245
33	0x3de220d2	0.11041416
34	0xbd9da6b0	-0.07697809
35	0x3ca19317	0.019723458
36	0xbd8000b2	-0.062501326
37	0x3d445dd5	0.047941048
38	0xbd4d0702	-0.05005551
39	0xbdca3f37	-0.098753385
40	0x3dc9a8a3	0.09846618
41	0x3d610710	0.054938376
42	0x3c058b1d	0.008150843
43	0xbdcefb8a	-0.10106571
44	0x3b8bb2d9	0.0042632637
45	0xbd547d56	-0.051877342
46	0x3cb6797d	0.022274727
47	0xbd17b90d	-0.037041713
48	0xbd6d494a	-0.057931222
49	0x3de3df4d	0.111265756
50	0x3dbd288a	0.09236248
51	0xbc94cbe4	-0.018163629
52	0xbce11173	-0.02747414
53	0xbde79410	-0.113075376
54	0xbd919e56	-0.07110278
55	0xbd00091a	-0.03125868
56	0x3daef4ff	0.08542823
57	0xbcc3a82e	-0.023883905
58	0x3deeb9a5	0.11656503
59	0x3de39717	0.111128025
60	0xbbd4bff8	-0.006492611
61	0x3c9c8c67	0.019109918
62	0x3de4ffcb	0.11181601
63	0x3d6080a3	0.054810178
64	0x3d7b1c37	0.061306205
65	0x3bdbabbe	0.006703823
66	0x3cf79240	0.030221105
67	0x3dc77183	0.097384475
68	0x3db79bc8	0.0896526
69	0x3d9626a7	0.07331591
70	0xbdca27ea	-0.09870894
71	0x3dad56d7	0.08463829
72	0xbd9ffb21	-0.07811571
73	0xbdb45f96	-0.08807294
74	0x3cf34e28	0.029700354
75	0x3d1a3bf5	0.037654836
76	0x3d95fc41	0.07323504
77	0x3d8f1b58	0.06987637
78	0x3d99b060	0.07504344
79	0x3d245ba5	0.04012646
80	0x3d9e9ed5	0.077451386
81	0xbd88d118	-0.066805065
82	0xbdbf9d8e	-0.09356223
83	0x3cd98ca0	0.026556313
84	0xbd181095	-0.03712519
85	0x3cf90c16	0.03040127
86	0xbb3fc80f	-0.0029263531
87	0x3d9723b9	0.073798604
88	0xbda6d631	-0.081463225
89	0x3b476c76	0.0030429638
90	0xbd7b1e59	-0.06130824
91	0xbdb86b47	-0.090048365
92	0x3d39cfd2	0.04536421
93	0x3dd6360f	0.104595296
94	0xbcc86ccc	-0.02446594
95	0xbd6ff2e9	-0.058581267
96	0x3dde03d9	0.10840578
97	0x3d981c95	0.074273266
98	0xbd6c036a	-0.057620443
99	0xbd7ae56f	-0.06125396
100	0x3d2a5813	0.0415879
101	0xbdd62795	-0.104567684
102	0x3d225cbc	0.03963922
103	0x3ce72729	0.028216915
104	0xbca24349	-0.019807475
105	0xbd8b64c5	-0.0680633
106	0xbd3ecb35	-0.046580512
107	0xba2f8835	-0.00066960166
108	0x3da78af2	0.081807986
109	0xbc8e9cd5	-0.017408768
110	0xbdc86109	-0.09784133
111	0xbd9105ad	-0.07081161
112	0x3bef1aa9	0.0072968793
113	0x3cce8408	0.025209442
114	0xbc0866f8	-0.008325331
115	0x3c9c482c	0.019077383
116	0x3da18291	0.07886232
117	0xbd05922c	-0.032610103
118	0xbdb29a83	-0.08720877
119	0x3dbd2449	0.092354365
120	0x3c3d714c	0.011562657
121	0xbdbf4474	-0.09339228
122	0x3c862d7c	0.01637911
123	0x3c07ac67	0.00828085
124	0xbdca77d1	-0.098861344
125	0x3c78a475	0.015175928
126	0x3d58a799	0.05289421
127	0xbdd61966	-0.10454063
128	0x3d4e8b82	0.050426014
129	0xbd866ae1	-0.06563354
130	0xbc8299a2	-0.015942398
131	0x3df205c6	0.118175074
132	0xbd9dd73b	-0.077070676
133	0x3d05b5f7	0.03264424
134	0xbdc2806a	-0.09497149
135	0xbdaa187e	-0.08305453
136	0x3d882be6	0.06648998
137	0x3d0917ee	0.033470087
138	0xbdc9f3b1	-0.098609336
139	0x3d28b621	0.041189317
140	0xbdc451d5	-0.09585921
141	0x3ddc9bb0	0.107718825
142	0x3decd699	0.11564369
143	0x3d8b0a0b	0.06789025
144	0xba7f0f05	-0.0009729716
145	0xbde79039	-0.11306805
146	0x3d667051	0.056259457
147	0xbd7967b9	-0.060889933
148	0xbcdb0b4a	-0.026738781
149	0xbd9ddea7	-0.07708483
150	0x3aadff1f	0.0013274885
151	0x3d5f6da3	0.054547917
152	0x3ddc89c1	0.10768462
153	0x3c1be68d	0.009515417
154	0xbc10f396	-0.008847138
155	0x3d9a9b88	0.075491965
156	0x3df2c6e2	0.1185434
157	0xbd37734e	-0.044787697
158	0xbde53256	-0.111912414
159	0xbdb606bc	-0.08888003
160	0x3cbeb439	0.023279296
161	0xbdc77251	-0.09738601
162	0x3c91456d	0.0177333
163	0x3d9a04a4	0.075204164
164	0x3c968133	0.018372154
165	0x3d0e05cf	0.03467351
166	0xbdd317ee	-0.103072986
167	0x3d9c5fa5	0.0763543
168	0x3d674e9c	0.056471452
169	0xbd9dc07e	-0.077027306
170	0x3c61fd42	0.0137932915
171	0x3d5e18a8	0.054222733
172	0xbda3e5e7	-0.08002835
173	0x3aabe483	0.0013114366
174	0x3c1c7e1b	0.00955155
175	0x3d8d281f	0.06892418
176	0x3dc1f043	0.094696544
177	0xbba526b0	-0.0050400123
178	0xbadee661	-0.0017005914
179	0xbccd8729	-0.025088863
180	0x3b900415	0.004395018
181	0xbb6eff48	-0.0036468077
182	0x3d18eebd	0.037337054
183	0x3dba2aa8	0.09090167
184	0xbdd71f9c	-0.10504076
185	0x3d0badc8	0.034101278
186	0x3c0cd707	0.008596188
187	0x3db8dd1f	0.090265505
188	0xbcc8747a	-0.024469603
189	0x3b99319f	0.0046751047
190	0x3dd4a148	0.103823245
191	0xbd3cf55b	-0.046132427
192	0xbdc3297a	-0.095293954
193	0xbdda9d9d	-0.106745936
194	0xbd97f0bd	-0.07418964
195	0xbc0aedcb	-0.008479546
196	0xbde19627	-0.110149674
197	0xbd3cfbb5	-0.046138484
198	0x3c3e17fb	0.011602397
199	0x3dd496ba	0.10380311
200	0xbb1e129b	-0.0024119976
201	0x3db07f84	0.08618072
202	0x3d8e5b96	0.069510624
203	0xbd0fe582	-0.035130985
204	0x3d8bcfd8	0.068267524
205	0xbd39449c	-0.045231447
206	0x3c920793	0.017825877
207	0xbcbbf425	-0.022943566
208	0x3ccc21fb	0.024918547
209	0xbd1ee50c	-0.038792655
210	0x3d44cd33	0.048047256
211	0x3d5fc903	0.05463506
212	0xbbeddf8e	-0.007259316
213	0xbde05f8f	-0.10955726
214	0xbddaa4b5	-0.106759466
215	0xbd2a0fd6	-0.04151901
216	0xbd472883	-0.04862262
217	0x3ce2a0b7	0.027664525
218	0x3c8514e0	0.016245306
219	0xbc430c53	-0.011904794
220	0x3d041010	0.03224188
221	0x3c7d1b75	0.015448441
222	0x3dce50c0	0.100739956
223	0x3d222c51	0.039593045
224	0xbd803fad	-0.06262145
225	0xbdc4144b	-0.09574183
226	0xbd935e68	-0.07195741
227	0xbd8b7e77	-0.06811231
228	0x3d83246f	0.064034335
229	0xbc65c1f4	-0.014023293
230	0xbd8e9a59	-0.06963033
231	0xbdef44a9	-0.11683018
232	0xbbc25de4	-0.005931603
233	0xbd2af041	-0.04173303
234	0xbd8e7da9	-0.069575615
235	0x3d970eb3	0.073758505
236	0x3ce5238a	0.027971048
237	0xbcefeeb0	-0.02928862
238	0x3d19dd4f	0.037564572
239	0x3c976adf	0.018483577
240	0xbc1ec50b	-0.009690533
241	0xbc96ab41	-0.018392207
242	0x3d90ac91	0.070641644
243	0xbdc0f206	-0.09421162
244	0x3d4e487e	0.050362103
245	0xbdc0d8fb	-0.09416386
246	0xbdb70a84	-0.089375526
247	0xbd16d3bf	-0.03682303
248	0xbd167e80	-0.036741734
249	0xbda2cf83	-0.07949736
250	0xbda57dd9	-0.08080644
251	0x3d3ec294	0.046572283
252	0x3d01ddc3	0.03170563
253	0x3d8ccef3	0.0687541
254	0xbd82c2b0	-0.0638479
255	0xbdd7d78f	-0.105391614

embedding_net.fc2.bias f4 [50]
0	0x3d92b151	0.07162727
1	0xbc07fa90	-0.008299485
2	0xbd9c7569	-0.07639582
3	0x3cb6f674	0.022334315
4	0xb98ba723	-0.00026636673
5	0x3c8f229c	0.017472558
6	0x3dd3a965	0.10335044
7	0x3d6b119e	0.057389848
8	0x3de60999	0.11232299
9	0xbd2fab6e	-0.042888097
10	0x3d48c29a	0.04901371
11	0x3dac57c5	0.08415178
12	0xbd3bd350	-0.04585582
13	0xbdd2cbe4	-0.10292795
14	0x3d9a16f3	0.075239085
15	0xbdbb4ea7	-0.09145861
16	0xbced5a88	-0.028973833
17	0xbd575082	-0.052567013
18	0x3da5fe55	0.081051506
19	0x3dcb99a7	0.09941416
20	0x3d70942e	0.058735065
21	0xbca8607c	-0.02055382
22	0x3c133e48	0.008987017
23	0xbdbf79d4	-0.09349409
24	0xbc977994	-0.01849059
25	0x3db655cd	0.08903084
26	0x3db2d15f	0.087313406
27	0x3c310378	0.01080405
28	0x3d874505	0.06604961
29	0xbbd8b5e7	-0.0066134813
30	0x3c86542c	0.016397558
31	0xbdefe968	-0.117144406
32	0x3d433b86	0.047664188
33	0xbddfb23a	-0.10922666
34	0xbd8231f9	-0.06357188
35	0xbc7cd080	-0.01543057
36	0xbdc798f7	-0.097459726
37	0xbc681e48	-0.014167376
38	0x3b99a850	0.004689254
39	0x3d9a4c15	0.07534043
40	0xbdd4c67a	-0.10389419
41	0xbdc33f44	-0.09533551
42	0xbde51fed	-0.1118773
43	0x3da57459	0.08078832
44	0xbc85c4e8	-0.016329244
45	0x3cda8594	0.026675023
46	0xbdbc15ac	-0.09183821
47	0xbdae149a	-0.08500023
48	0xbaadde5d	-0.0013265122
49	0x3cbfebdc	0.023427896
