runs/TripletNet_0918b/model_best.pth.tar (torch_old, 59287 bytes, 8 tensors)

embedding_net.conv1.weight f4 [20, 12, 3]
00000000: 6810 ad3d 4637 99bd 3b0b 0abd 39cb 9a3d
00000010: 8f52 23be 52e6 c63d e3b4 0ebd ec48 ac3d
00000020: 6e17 b63c 65de c4bc d486 2d3d 84d2 863b
00000030: adcf 763d 8064 86bd c6da 52bc ffc9 b3bc
00000040: 97c0 8d3c f94b f2bb c765 123e ad51 493d
00000050: d5a9 84bd ceb4 d3bd 4385 fbbc b570 99bd
00000060: a13b 71bd 3cd5 0f3b 0ab7 be3d 3045 b43d
00000070: dd92 29be 5000 ce3d 28c5 0e3d 6d8b 153e
00000080: afaa c83d 16f9 1dbe 45cf 24be 2dc3 a9bd
00000090: 5b7a 153e 448e e8bc 5221 913d ad9b 9cbd
000000a0: 9f4e 283e 05a0 8ebd 5417 fd3d 527a 183a
000000b0: 7c40 b6bd d2e5 ae3d 4e7d b4bd 3525 4c3d
000000c0: dd9c 45bd 649b 96bc 102a 24be ab72 a3bd
000000d0: 4115 b83d f8a6 27bd 063f 273e 53c5 053e
000000e0: fb5e 2dbc fbec eabd 4ac1 c63d eae5 3f3d
000000f0: 4824 e4bd 7828 d53d a575 c63d 8f8e 173e
00000100: 5df2 bebd a2db ddbc 0d96 8d3b 684b 053d
00000110: 8059 f1bd 92ca f0bd 2239 bb3d 6b88 1cbd
00000120: ae0f 9c3d 6732 913b bd8c 4c3d abd0 013d
00000130: e695 633d 7c0a 9f3d 5611 1fbe effd a93d
00000140: 61df f1bd c5c6 01be c503 183c ac72 f0bc
00000150: 3ad3 c63d 6460 c7bd 09a3 18be ebec e73d
00000160: c20a 05bd 0b5c b03d 8e6a 523d 3714 02be
00000170: 4021 013d b1df 1b3d e1e3 e7bd 5be4 a4bd
00000180: a5f3 503d 7e44 c73c d2d9 9bbd da7c 50bd
00000190: 55e6 1b3e 71bc ffbc 802a b83d 0dc9 8b3d
000001a0: ad7c e4bd 577e 12be 0c8f 223e 3656 f63b
000001b0: 9aee e53d a787 053d 0c38 533d 15be fa3d
000001c0: 0dd9 1f3e a732 e6bd 8959 b43c 7bb5 003e
000001d0: 2204 fa3d ffc9 d13d 687a f8bd 52c4 f6bd
000001e0: 2cb8 ccbd 8774 b43c ef66 2b3e 0242 dabd
000001f0: 4fae b33d a3cd bebd d400 21be 7612 13bd
00000200: 14ba c33d c796 1d3e b86c d5bd 4db4 113d
00000210: 76e9 0d3e d588 d73d 3e69 ca3d 0cb8 f43d
00000220: 0a48 da3d aded 343d 9745 eabd ae68 0fbe
00000230: 8411 9cbd e5dc a0bc bf80 d1bd 38b5 793d
00000240: c926 513d e48c 1bbd df07 833d 60b0 583d
00000250: 8c87 ce3d f60b e43d 2b3e 70bd 9c91 243e
00000260: 28b9 aebc c30f bfbb cf34 21be 240b dcbd
00000270: 1d91 ccbd a252 97bd c786 ed3d 7785 5bbd
00000280: e640 fdbd e223 853d 4285 5e3d 4a05 df3d
00000290: 7cd2 aebd b9cc 1b3d f96c 70bd fc60 11bd
000002a0: 5c1f 07be 2da8 99bd 741d 4dbd f5b8 8d3d
000002b0: 3aad e83c 2fa8 203d cf68 233e 6c2c 1f3e
000002c0: 15b5 da3d 59b2 5e3b a1e8 efbd 6487 033e
000002d0: 12a4 2fbd 1173 6ebc 25e4 13be 3728 0cbd
000002e0: f010 dfbd af37 1b3e 8e18 13be cda4 04be
000002f0: 3939 aabb 2599 b8bd 3edb 733d f179 83bd
00000300: f8b3 9bbd fc97 413c f13d fc3d 700a f9bd
00000310: 9a6a 963d 7f63 d13d 3835 253e e388 f2bd
00000320: 1c90 1e3d 49c9 ffbd 84fe 0f3e be44 87bd
00000330: 320c c43d 548f 9039 f29c 8ebc 4dfb 90bb
00000340: ed36 f03c 5837 a33d f97c dd3c 2b73 513d
00000350: fcf0 18be cc25 fb3d 0f0f 163e 7863 0e3e
00000360: 1b0b fb3d dfa6 f7bd 95a5 7fbd 1d4a 153e
00000370: 8e2b 03be 7fb8 193e 7388 05be a83c efbd
00000380: 3e1e a83d b4b6 f4bd 5423 1cbd e80b f83d
00000390: 8e5f 0a3e e47e 243e a39d fcbc 4fa1 07be
000003a0: d9fe 243e c053 1dbd afef 8dbd b586 233d
000003b0: 4afe efbd 8db9 dd3d 5a1c d33d 01c0 08be
000003c0: 61a1 0cbe b28b 77bc 0a46 8e3d 83a3 8cbb
000003d0: ed21 acbd a7d2 8a3b 0653 20be 2f19 f1bd
000003e0: f634 e3bd 96b3 0d3e af9a 173e eaa2 63bd
000003f0: 1c2e 563b e0f2 8e3d e4ff 7b3c 6a5e afbd
0.08450395 -0.07481246 -0.033702116 0.07558293 -0.15949462 0.09711899 -0.034840476 0.08412346
0.022227969 -0.024031827 0.04236491 0.004114451 0.06025665 -0.065621376 -0.012869542 -0.021946905
0.017303748 -0.0073943106 0.14296637 0.049150158 -0.064777054 -0.1033722 -0.030703193 -0.074922
-0.058894757 0.0021947166 0.09312256 0.08802259 -0.1655993 0.10058653 0.03485599 0.14603968
0.0979818 -0.1542705 -0.16094692 -0.0828918 0.14597456 -0.02838815 0.070864335 -0.0764688
0.16436242 -0.06964115 0.12357965 0.0005816567 -0.08899018 0.085399285 -0.088129625 0.04984017
-0.0482453 -0.018384643 -0.1603167 -0.079808556 0.08988429 -0.04093072 0.16332635 0.13063554
-0.010581727 -0.11470982 0.09704836 0.046850123 -0.111397326 0.104081094 0.09690408 0.14800476
-0.09323571 -0.027082268 0.004320866 0.032542616 -0.11784649 -0.11757387 0.091417566 -0.038216036
0.07620178 0.0044310573 0.049938906 0.031693142 0.055562876 0.077656716 -0.15533957 0.08300387
-0.11810184 -0.12673481 0.0092782425 -0.029351555 0.09708257 -0.09735182 -0.14905943 0.113244854
-0.032480963 0.08611306 0.05137115 -0.12703024 0.03152585 0.038055126 -0.11322761 -0.08051368
0.051013608 0.024324652 -0.07609905 -0.050900318 0.15224583 -0.031217786 0.08992481 0.06825457
-0.111565925 -0.14306007 0.1587488 0.0075176014 0.1122715 0.03260007 0.051567122 0.122432865
0.15610142 -0.1124013 0.02201535 0.1256923 0.122078195 0.10243606 -0.12132722 -0.12049164
-0.099960655 0.02202822 0.16738485 -0.10657121 0.08773481 -0.09316566 -0.15722972 -0.035906278
0.09556976 0.15389548 -0.10421127 0.03557234 0.1385859 0.105241455 0.098833546 0.11949167
0.106582716 0.044171978 -0.114390545 -0.14004776 -0.07620528 -0.01963658 -0.102296345 0.06096384
0.05106238 -0.03797616 0.06397986 0.05290258 0.10084447 0.11135094 -0.058653038 0.1607117
-0.021328524 -0.0058307364 -0.15742801 -0.107443124 -0.09988616 -0.07388808 0.11597972 -0.05359408
-0.12365894 0.06500985 0.054326303 0.10889681 -0.085362405 0.038037036 -0.058697674 -0.035492882
-0.13195556 -0.0750278 -0.050076917 0.069200434 0.028402913 0.039222892 0.1595795 0.1554429
0.1067907 0.0033980815 -0.11714292 0.12844616 -0.04288108 -0.014553801 -0.14442499 -0.03421804
-0.108919024 0.1515796 -0.14364836 -0.12953492 -0.0051948098 -0.09013585 0.059535258 -0.06419743
-0.07602686 0.011816021 0.12316502 -0.12160194 0.073445514 0.102240555 0.16133583 -0.11842515
0.038711652 -0.12489564 0.14061934 -0.066049084 0.095726386 0.00027572608 -0.017408822 -0.0044244886
0.029323066 0.0796954 0.02703713 0.051135223 -0.14935678 0.122630686 0.14654182 0.13905132
0.122579776 -0.12092375 -0.06241377 0.14579053 -0.12809584 0.15011786 -0.13040332 -0.11681491
0.08208893 -0.1194891 -0.03811963 0.12111646 0.13513014 0.1606403 -0.030836886 -0.13245128
0.16112842 -0.03840995 -0.06930482 0.03992339 -0.11718424 0.10826407 0.10308142 -0.13354494
-0.13733436 -0.01510899 0.06946953 -0.004291953 -0.08404908 0.0042365375 -0.15656671 -0.117723815
-0.11094086 0.13838038 0.14805101 -0.05557529 0.0032681292 0.069799185 0.015380833 -0.0856293

embedding_net.conv1.bias f4 [20]
00000000: 39b3 d63d 978d d73d a423 bb3c 5704 1ebe
00000010: 28ab 953d 8854 da3d 1dd3 373d 03e3 a8bd
00000020: b7ef 283c 5538 8fbd 586b 143e 179b 213e
00000030: b5f1 0abd 6147 dbbd 8736 c93d 9705 ba3d
00000040: 8eda 933d 1748 f2bd 2c62 393d db62 92bd
0.10483403 0.10525053 0.022844143 -0.15431343 0.07308036 0.10660654 0.044879068 -0.08246424
0.010311059 -0.06993166 0.14494073 0.15781818 -0.033921916 -0.10706974 0.098248534 0.090830974
0.072194204 -0.11830156 0.04525964 -0.071477614

embedding_net.conv2.weight f4 [50, 20, 3]
00000000: 9135 eabd f127 babd 53ed 5c3d ca4f 3e3d
00000010: 22e0 ebbd e789 923d d479 c73d ca87 c53d
00000020: ad39 923d 866f adbc 7242 af3d 948b cd3d
00000030: eb07 893d 209a bebd 41db 39bd 06bc cf3d
00000040: b7f3 c73d c201 a73d aa08 5dbd f21c d2bc
00000050: 8e42 c5bd baa1 96bd 77fe ca3d f6f8 d8bd
00000060: 77cf 02bd 1783 e03c 6aab 9ebd e183 f63c
00000070: a37d a9bc 6e8a 533d fcf1 cdbd 6feb 863c
00000080: 0696 f3bd 969d 9f3d 5c46 fc3d f80d 45bd
00000090: 2018 9b3c 0e5a 88bd 4545 a9bd de68 86bd
000000a0: 0d99 7cbd 3fa5 c73c 30bb 71bc ea7e 143c
000000b0: bea3 cabd 2238 a6bd 5906 e5bd 4d35 bebd
000000c0: bd07 d73d ee78 383d ccc7 00be e0b2 b6bc
000000d0: bb8e 1e3c 77ad 8b3d 9a34 f53d 5173 ff3c
000000e0: af42 ba3d 0e18 3cbd da05 8abb ef97 9fbd
000000f0: d5fd ca3c a74f ea3d ac3e 9c3d 87c1 fd3d
00000100: 0b42 80bd 2cbd a4bc a13f c23c 4489 ce3d
00000110: 86e5 f8bd 157e 83bd 063a 913c b1a1 9abd
00000120: cfc1 303d 2a52 5abc 05a3 1abd 1cf0 873d
00000130: 9849 b73d e1af fb3d 935a 723d 815f 3abb
00000140: 7897 d93d 625d cf3d aa48 87bd ab4e 6b3d
00000150: dcb9 6e3c 4793 66bd a083 ffbc 6ba7 02bd
00000160: ad96 bbbd ecdd 26bd 2a67 1b3d ea2a b73d
00000170: 3cf7 973b ef9e 02be e074 863d a926 2abd
00000180: ea5d e63d 6949 02be cf52 04bd be08 cc3d
00000190: b8d2 623d 10bd 84bd 96eb e4bd b311 b8ba
000001a0: d92a 4c3d 2432 dcbd f80e debd 6415 07bb
000001b0: d184 0fbd 6b0d 993d b501 08be 4543 cbbc
000001c0: a1f9 d4bd 5732 babc 1ab7 88bd fdf2 223d
000001d0: 33fb debd 4a1e d0bd 1328 96bd 58b6 e7bd
000001e0: 326c 9b3d 731f c6bc baac 9dbd 1c6d b63d
000001f0: 1867 fbbc 661d 853d f93e 29bd 54c2 dfbd
00000200: 9e2d de3c fd81 a43d 20e2 00be c8d5 5a3c
00000210: 6a90 913c dd5f d93b ca8f 31bc 594e 2bbd
00000220: 9ae8 d0bd d45b 9d3c 127f b1bd 5d5f dabd
00000230: 3ef2 29bd 3cdf b8bd 7e29 193d 09ad b73d
00000240: 87e1 cb3d 8186 a5bd 8187 8e3d fd88 b43d
00000250: 00c0 12bb 41c9 513d e019 8c3d 285b c03d
00000260: f505 843d 7a85 5e3d 12a7 4abd 8c74 94bd
00000270: 5241 83bd 8019 d33d bedf 0dbd 376e 963b
00000280: 7699 f6bd a84f bdbb cbbe 16bd 1759 abbd
00000290: 0917 cc3d 5c01 d6bd fa2f 97bc 0701 17bc
000002a0: 63e6 fabd a289 933d ecba 41bd 392d 553d
000002b0: de0e 873d e513 dd3d d20f f93c 943e c33d
000002c0: d611 f13d 6993 d13c 9381 d7bc 2fc8 10bd
000002d0: fd7e 9f3c e0a2 393d e28c fbbd 6ea8 c23d
000002e0: 9b7e 983c 6c74 f9bd c816 273d f4c6 a63d
000002f0: 4307 443d 337d d83d e028 3d3b ef3e dbbd
00000300: f9aa 25bb 5d6b bc3d a438 82bd a87e 5d3d
00000310: 3f9f ec3c 8f2c b0bc 25ad 873a 930b 613d
00000320: 4dfb b4bd 0a58 a53d d953 b13d bdba 923d
00000330: 7fd5 033e 4840 bfbb 4917 bbbd 8328 ae3b
00000340: caf7 1abd 152c 393d b6f0 db3d ed99 93bd
00000350: 9ed8 8c3b bc04 003e 9159 d4bd b9c7 bbbc
00000360: 5359 fc3d 436a b43d ef24 123d 168e 63bd
00000370: 92ae 44bc 7127 edbd b7f4 f8bd 7bbc f7bd
00000380: e1ec fd3d ab1b d13d 42a7 513d 0fe6 04bd
00000390: 88f9 dc3d e4ad 17bd f380 b23d a4de bdbb
000003a0: 7105 7ebd fc4b 18bd dd33 e2bc 8d22 f2bd
000003b0: 4f9f 1d3d d940 21bd 4b83 723d 645e a83d
000003c0: 82d0 b3bc e8c1 7a3d 835b c83c 3454 ae3d
000003d0: e0a6 adbd 29c2 52bc d373 36bd 6497 e43d
000003e0: 304c f0bd f6d4 95bd 2b67 653c da92 e93d
000003f0: 58cc b13d 75d5 f7bd 8901 babd 3abb ff3d
-0.11435998 -0.090896495 0.053937268 0.04646281 -0.11517359 0.07155209 0.09740034 0.0964504
0.07139907 -0.021171343 0.08557595 0.10036388 0.06690963 -0.09306741 -0.045375112 0.101432845
0.09763282 0.08154632 -0.05396334 -0.025648568 -0.09631835 -0.07355066 0.099118166 -0.105943605
-0.031936135 0.027406259 -0.077475384 0.030092182 -0.020689791 0.05164569 -0.100559205 0.016469685
-0.11893849 0.07793729 0.123181075 -0.048109025 0.018932402 -0.066578016 -0.08265165 -0.065629706
-0.061669398 0.024370788 -0.014754102 0.009063462 -0.098945126 -0.08116175 -0.11182851 -0.0928751
0.10499523 0.045037203 -0.12576216 -0.022302091 0.009677584 0.06820195 0.119729236 0.031182917
0.0909475 -0.045921378 -0.0042121233 -0.07792651 0.02477924 0.11440974 0.07629141 0.12390428
-0.06262597 -0.020109735 0.023711981 0.10084775 -0.12153153 -0.064205326 0.017727863 -0.075503714
0.04315358 -0.0133252535 -0.037753124 0.06637594 0.08949584 0.122894056 0.05916841 -0.0028438272
0.106245935 0.10125233 -0.066056564 0.05744807 0.0145706795 -0.0562928 -0.031190693 -0.031897943
-0.091595985 -0.040738985 0.03794018 0.08943732 0.004637627 -0.12755941 0.06565261 -0.041540775
0.112483814 -0.12723316 -0.032305535 0.09962605 0.05537674 -0.06481373 -0.11177747 -0.0014043361
0.04984555 -0.10751751 -0.10842699 -0.0020612115 -0.035038773 0.074732624 -0.13281901 -0.02481235
-0.103991754 -0.022729082 -0.06675549 0.039782513 -0.10887756 -0.10162027 -0.07331862 -0.11314076
0.07588996 -0.024184918 -0.076989606 0.0890753 -0.030688807 0.06499748 -0.04131982 -0.10925737
0.027121361 0.08032606 -0.1258626 0.0133566335 0.017769057 0.0066337422 -0.010837505 -0.041822765
-0.10200615 0.019208826 -0.08666815 -0.1066272 -0.041490786 -0.090269536 0.037393086 0.08968551
0.09955125 -0.08082295 0.06959439 0.08815191 -0.0022392273 0.05121732 0.06840873 0.09392387
0.06446449 0.054326512 -0.049475737 -0.07248792 -0.06408943 0.10307598 -0.034637205 0.0045907754
-0.12040989 -0.005777318 -0.036803048 -0.08366602 0.09965331 -0.10449478 -0.018455494 -0.0092165535
-0.12250974 0.07203986 -0.047297403 0.05204508 0.065946326 0.1079481 0.030403052 0.0953342
0.1177098 0.025582986 -0.026306903 -0.03534716 0.019469732 0.045321345 -0.12282731 0.09504782
0.018615058 -0.12180409 0.04079321 0.08143416 0.047858488 0.10570755 0.0028863475 -0.10705363
-0.002527891 0.092001654 -0.063584596 0.054075867 0.028884528 -0.021505622 0.0010351284 0.05494268
-0.08836994 0.08073433 0.08658571 0.07164524 0.12874411 -0.0058365203 -0.09135301 0.005314888
-0.037833966 0.045208056 0.10739271 -0.072070934 0.0042982837 0.12501806 -0.10368646 -0.022922384
0.12321725 0.0880933 0.035679754 -0.055555426 -0.012004511 -0.115797885 -0.12156051 -0.12096497
0.12398697 0.10210355 0.0511849 -0.032445963 0.10789782 -0.03703107 0.08716001 -0.005794363
-0.062016908 -0.03718184 -0.027612621 -0.11822996 0.038482007 -0.039368484 0.059207242 0.082211286
-0.02195001 0.06122008 0.024457699 0.08512154 -0.084790945 -0.012863674 -0.044544052 0.11161688
-0.117332816 -0.0731601 0.014001648 0.11404963 0.086815536 -0.121012606 -0.09082324 0.124868825

embedding_net.conv2.bias f4 [50]
00000000: a274 59bd 3abc 8b3d 397f 4abd 7670 bcbd
00000010: 79ca 393d bc3f 88bd b8db 503d 1768 593c
00000020: b662 e6bd 85dc 80bd f322 943c be72 9f3b
00000030: eb85 013c 7375 02bc 1195 32bd 8f62 abbc
00000040: 6a4a 3a3d 1f06 54bd a548 32bd a9e7 da3d
00000050: d213 c53d 9efa 893d e051 c53d faa7 adbd
00000060: 4e5e 0ebd dfe1 c1bd 8cbc 6bbd d635 5d3d
00000070: 90db e03d 9e4d fbbd d42f a33d 9517 53bd
00000080: 4187 813d b273 5e3c b37d a7bd 6fd7 9d3d
00000090: e5e4 a3bd fa18 5bbd 8402 91bd 8fb1 203d
000000a0: bec8 073d d097 8bbd d0b8 9dbd c63b 9a3c
000000b0: 6ebd 073d c77c 743d abe3 d7bd 53f7 153d
000000c0: 19c6 eebd 8d1a 0bbd
-0.053089745 0.06823011 -0.049437735 -0.09201138 0.04535911 -0.06652781 0.05099079 0.013269446
-0.11249296 -0.06292061 0.018083071 0.0048659733 0.007905464 -0.007962572 -0.043599192 -0.02092102
0.045481123 -0.05176365 -0.04352631 0.10688717 0.09622921 0.067372546 0.09634757 -0.084793046
-0.034757905 -0.094669096 -0.05755286 0.05400642 0.10979378 -0.12270664 0.07968107 -0.05153616
0.06324626 0.013577389 -0.08178272 0.07707106 -0.080026425 -0.053490616 -0.07080558 0.039231833
0.033150427 -0.06816065 -0.07701266 0.01882733 0.03313964 0.05968931 -0.10541471 0.03661282
-0.11658878 -0.033960868

embedding_net.fc1.weight f4 [70, 100]
00000000: 69d2 03bc bb1e babd 4068 6d3d 319a 95bd
00000010: ebab 983c c6ef 4fbd 1893 433d 1ce2 e43c
00000020: 6b83 3c3d eb34 2abc f388 38bd bec6 1fbd
00000030: 96a0 933d ec11 be3c 2b6d 3bbd c237 50bd
00000040: b0de babc 60b4 1cbd f3a3 1abd be79 be3d
00000050: da66 58bd f301 ca3d 6d47 a83d 64d9 74bd
00000060: d5c7 333d 5f90 babd f745 213c 40ae 86bd
00000070: 7b4a 85bd b4dd f03c abf6 2d3d 1730 d3bc
00000080: 044e 51bc 9b43 103d bbce c4bd b417 6f3b
00000090: e661 c6bd 800d 0abd 0e25 b13d 29b7 13bd
000000a0: c2af 36bd 4ddd bfbd 6b3a c63d 71c2 113d
000000b0: 2490 9ebd 8cdc c0bc dda6 a43d f14f c5bd
000000c0: c6af 0e3c 4b49 97bd 57d9 9abd 3660 b0bc
000000d0: 89c9 203d 07ed cabd cf68 62bd a801 a4bd
000000e0: a34a a9bc ba76 3ebd 195c 5d3d aede 3a39
000000f0: 77ba 55bc 7100 b3bd ec49 3b3b 76a8 c6bd
00000100: 1ca2 b7bd b382 263d bc9d cbbd f5f4 973b
00000110: 67fc c33c 0b67 c6bb e616 893d df8a b5bc
00000120: b254 8e3d 6ea2 68bd 64a5 a2bd bcd6 86bd
00000130: b6ee 5d3d 7015 0f3c 8647 4dbc 2e3a 34bc
00000140: 1787 26bd 8551 a33c e8da d7bb 161d 2bbc
00000150: 67ba 2fbd 4358 86bd 6761 4e3c 6da1 b33b
00000160: a962 b5bd 327a b03d 70d8 353d f22a 773d
00000170: 0374 ea3c 0cf0 e0bc 38a4 0a3d 50cd 3b3d
00000180: 169c 1d3d a38b 06bd 460d 58bd 9a36 80bb
00000190: c0b9 a13d 6fa9 5fbd a672 24bd d96e 4abd
000001a0: 2a4c abbd 71ed 1d3d 466a 6bbc 2919 223c
000001b0: 45b1 c73d 889c 813c e48a 9f3d c428 843c
000001c0: f3ab 2ebc 0fbe 793d fd5e fa3c bba5 3fbc
000001d0: 8568 5f3b d12c 47bd 69ba 01bc c004 883d
000001e0: 77a1 ad3d de92 bc3d 6053 95bd 1561 2bbb
000001f0: 3540 243d ae1d 8b3d 29f6 61bd f41d a3bd
00000200: 3b06 0b3d 29a5 6bbd d16d cc3d d324 80bd
00000210: e3b5 493d e734 fcbc 4263 a8bd 24ac c7bd
00000220: 7eba 313d c94d fabc 5d0d 84bd bbcf c93d
00000230: 009e 6f3d b670 863d c955 38bd 6685 a5bb
00000240: 32eb b33c 63f9 3dbc f48c 443d 202c c8bc
00000250: dd81 b7bc 97a5 2cbc 4f57 21bd 509d 8cbd
00000260: 0c2b 39bc 8ef8 12bd d98f 01bd 6376 33bd
00000270: c56a 3d3d dddf 85bc 01b8 9d3d e5b7 ef3c
00000280: 98bf 08bd 5566 cb3d ed85 00bd 02ca acbd
00000290: 4784 893d d84d 69bd cba7 8b3d c3d8 9c3d
000002a0: d499 03bd d738 22bd 662e 0f3d 3097 4c3d
000002b0: e9e5 9f3d 3c9a d13c 6364 fb3b 3238 b33d
000002c0: d754 bd3c 333d a6bd faba d6bc 1404 c2bb
000002d0: 763f 0b3d 8c85 c4bd a4ba cbbd 384e 69bd
000002e0: 2886 513c ede3 8a3d b9c1 aabd 7701 293d
000002f0: 9eba a53b 6f69 b43d b835 65bd 9424 00bd
00000300: 4241 043d 112d c3bd d4d7 813d f3b2 27bd
00000310: c2ed 9f3c 1ea8 7fbd 0fea a33d d52c f93c
00000320: 3f71 463c 6775 47bd 4d53 95bd 24f8 ff3b
00000330: 9675 8dbd 38c1 8fbb 4ae1 b13d 0c8b e43c
00000340: 6dcb e2bc 4104 15bd 4d3c 283d 5cae a4bd
00000350: a55b a4bd a265 09bc 0506 6f3d c2d9 66bd
00000360: 42c0 78bc 0305 3abd d9cd 7c3d d042 49bd
00000370: 0ff7 6ebc 199c 3d3d 0e90 2bbd 6275 c33d
00000380: 6051 5dbd fd5f 0ebd 86ac d33b 26fc 41bd
00000390: 4a3e c9bd 75b3 9bbd 67be b8bd c590 b63d
000003a0: 502b d23b fdd9 4abd 8cf6 183d abbb a73b
000003b0: ef1e 49bd 5555 853d ec4b 85bd 0d3c 90bd
000003c0: b176 8f3d 262d 473d 87a4 3d3d 8135 053d
000003d0: fb46 2ebd e6a8 c6bd 5d7e 8e3a d489 583d
000003e0: 6d85 843d ccde 93bc 7a05 2abd 2c5d 4dbb
000003f0: ed93 9e3d 2402 c6bb 8a88 b33d 2f24 15bd
-0.008045771 -0.090878926 0.05796075 -0.073048 0.018636664 -0.050765775 0.0477477 0.027939849
0.046023767 -0.010388593 -0.04505248 -0.039007895 0.07208364 0.023201905 -0.045758408 -0.050834425
-0.022811264 -0.038257957 -0.03775401 0.09300564 -0.052832462 0.09863653 0.082167484 -0.059777632
0.043891747 -0.09109568 0.009843341 -0.06576204 -0.06508347 0.029402591 0.04247157 -0.025779767
-0.012774948 0.035220724 -0.09609743 0.0036482634 -0.096866414 -0.03370428 0.08649646 -0.036063347
-0.04460121 -0.09368382 0.09679111 0.035585824 -0.077423364 -0.023542665 0.08039639 -0.09634388
0.0087089 -0.073870264 -0.075609855 -0.021530252 0.0392547 -0.09908491 -0.055275735 -0.080081284
-0.020665472 -0.046499945 0.05404291 0.00017821297 -0.013044945 -0.087403186 0.0028577996 -0.097001
-0.08966467 0.04065199 -0.09942195 0.0046373555 0.023924066 -0.006054764 0.06693821 -0.022160945
0.06949748 -0.05679553 -0.07941702 -0.06583926 0.05418273 0.008733138 -0.01252926 -0.011000199
-0.040656175 0.019936332 -0.006587375 -0.010443946 -0.042902377 -0.06559803 0.012596465 0.00548189
-0.088567086 0.08617057 0.044395864 0.06034369 0.028619772 -0.027458213 0.033848017 0.045850098
0.038478933 -0.03284801 -0.052747034 -0.003912759 0.07896757 -0.054604944 -0.0401484 -0.04942212
-0.083641365 0.03855652 -0.014368599 0.009893694 0.09750608 0.01582171 0.07790163 0.01613272
-0.010661113 0.06097227 0.030562872 -0.011697228 0.0034089398 -0.048626725 -0.007917979 0.06641531
0.084780626 0.092077 -0.07291293 -0.0026150395 0.040100295 0.0679277 -0.055166397 -0.079646975
0.03394149 -0.057530556 0.09981883 -0.06257024 0.049245726 -0.030786945 -0.08222057 -0.0974963
0.043390743 -0.030554669 -0.06447861 0.098540746 0.05850029 0.06564467 -0.045003686 -0.0050513027
0.021962736 -0.011595103 0.047985986 -0.024435103 -0.02240079 -0.010537527 -0.039389905 -0.068659425
-0.011301767 -0.03588157 -0.031631324 -0.043814074 0.0462444 -0.016342098 0.077011116 0.029262492
-0.033385843 0.09931628 -0.03137772 -0.084369674 0.06714683 -0.056959003 0.06819113 0.076585315
-0.032129124 -0.039604988 0.03495636 0.04994887 0.07807524 0.02558624 0.007671879 0.08750953
0.023111744 -0.081171416 -0.026212204 -0.0059208963 0.033996068 -0.095957845 -0.09947708 -0.05695936
0.012788333 0.06781755 -0.08337731 0.041261163 0.005057647 0.08809172 -0.055959433 -0.031284884
0.032288797 -0.0953008 0.06339994 -0.040942144 0.019522551 -0.06241619 0.080036275 0.030416885
0.012111961 -0.048695948 -0.07291279 0.007811563 -0.06907193 -0.004387047 0.086855486 0.027898334
-0.027684892 -0.03638101 0.041073132 -0.08041069 -0.08025292 -0.008386048 0.05835535 -0.056360014
-0.015182557 -0.045414936 0.06171975 -0.049135983 -0.014585271 0.046291444 -0.041885428 0.09543873
-0.054032683 -0.03475951 0.0064597754 -0.047359608 -0.09826334 -0.07602588 -0.09020691 0.08914331
0.0064138547 -0.049524296 0.0373445 0.0051188073 -0.049101766 0.065104164 -0.065086216 -0.07042704
0.070050605 0.04862704 0.046299484 0.03252173 -0.04254816 -0.097001836 0.00108714 0.05286582
0.064707614 -0.018050574 -0.04150913 -0.0031336052 0.07743058 -0.0060427357 0.08766277 -0.03641146

embedding_net.fc1.bias f4 [70]
00000000: 1f3d 9c3d f701 98bd 4fe9 293c 8141 403d
00000010: 366c ab3d 8a4e babd 7dec 3d3d f914 8b3d
00000020: 5928 0e3d 40d9 b2bd bbc3 9dbc 57ff 85bc
00000030: 360b bfbc 4b71 c23b cb1a d43b 79f5 253d
00000040: 8c32 a4bd cd5a 94bd 09b6 16bc 369f c1bd
00000050: a1c9 8d3d befb 833d 2508 43bd 33f2 7a3d
00000060: deec 44bd 0348 013a 3ffa afbd 96de 84bb
00000070: 8278 f03c 5951 33bd 3464 5f3d ccdf 16bb
00000080: ae02 cd3c 9dec 973d 4cf4 8fbd c8d7 8ebd
00000090: 150f 863d a08c b6bc 022c 94bd 39dc 373c
000000a0: eccc 8ebd 576c b43d b69d 383d 3c7e 3c3d
000000b0: f1ca 853c f45f 86bd 261f 9cbd da22 b6bc
000000c0: 251f f13c 77a3 793d d341 acbd 34f6 823d
000000d0: a00a c8bc 5ea2 2c3c 16e5 8c3c 06d8 05bc
000000e0: 61e0 29bc dd10 4d3d b5bf 66bd 1b32 8f3d
000000f0: c85e 28bd 64d2 fbbc 3f7f d0bc b1ad 9abd
00000100: cc58 c4bd 715e afbd 6a74 e4b9 84a0 34bc
00000110: 5f9b 8f3d 109f 75bd
0.076288454 -0.0742225 0.0103705665 0.04693747 0.08370249 -0.090970114 0.04636811 0.067911096
0.034706447 -0.087328434 -0.01925837 -0.016357107 -0.023320775 0.0059339157 0.0064729205 0.040517304
-0.080174536 -0.072438814 -0.009198674 -0.09454195 0.06923223 0.064445004 -0.04761519 0.061266135
-0.048077457 0.000493169 -0.085926525 -0.0040548546 0.029354338 -0.04377875 0.05453892 -0.0023021577
0.025025692 0.07418177 -0.07029018 -0.06974751 0.065458454 -0.022283852 -0.07234956 0.011221939
-0.069726795 0.08809727 0.04507228 0.046018824 0.016332122 -0.0656127 -0.076231286 -0.022233415
0.029433796 0.060946908 -0.084109925 0.06394616 -0.024419129 0.010536758 0.01719908 -0.00816918
-0.0103684375 0.05006491 -0.05633517 0.06991979 -0.041106015 -0.03073997 -0.0254513 -0.0755266
-0.09587249 -0.08562935 -0.00043574284 -0.011024598 0.070120566 -0.059966147

embedding_net.fc2.weight f4 [50, 70]
00000000: 29cf 6dbd 0825 73bc 20a3 1b3d b751 cabd
00000010: 26fd 9bbd 3107 0f3c 361c 83bd bea7 e8bd
00000020: fa13 c43d 8649 a4bd 978f 9d3d 8ce8 09bd
00000030: 53fc a93d e6b3 ffbc ca79 69bd 0833 ec3c
00000040: c05c 88bd 1c6a 57bd 2862 2b3d fd48 063c
00000050: cf45 22bc a7b4 c6bd 8390 cb3d 1042 38bd
00000060: 4090 b03d 1160 2c3d eb77 3dbd bcff dfbd
00000070: 9364 1abd 54e3 80bd f1c1 fb3c 9cfe 27bd
00000080: 7440 cdbd 2ba1 e93d 5db8 9dbd 67b6 a13c
00000090: 62af 82bd 15a1 443d c613 4dbd 4610 cdbd
000000a0: 91a8 c93d 080a 693d 3962 e73b 3063 d0bd
000000b0: 14b1 8b3b 8e3e 54bd 156b b63c b7b5 18bd
000000c0: 2d98 74bd 2cbe e93d 0830 bd3d 675e 8fbc
000000d0: 275b e1bc 4d0c eabd 43af 92bd 355c 02bd
000000e0: 6258 ae3d 85b6 c9bc c1bc ee3d 89dc ea3d
000000f0: ea3f d8bb 3a01 9b3c 470b e53d b6bb 603d
00000100: ea18 7b3d a9ae da3b a801 fa3c 3698 c73d
00000110: 1d79 bc3d 820d 963d 7495 cebd 315e ad3d
00000120: 1e59 a1bd 25b4 b8bd 54d5 fe3c 0038 1a3d
00000130: 65c8 9b3d c8f5 8f3d 6030 9e3d a6a1 243d
00000140: de8b 9f3d 4178 89bd 5683 c1bd 2bc0 db3c
00000150: d947 1abd 510b f33c da7d 3dbb 9e24 973d
00000160: 2642 a8bd b3ab 473b a061 79bd a975 bbbd
00000170: b6c2 393d c0a7 d93d e0ec c9bc 5ecc 70bd
00000180: 180e de3d 6381 983d 717b 6ebd 16cf 7abd
00000190: a026 303d 34c4 d6bd 96b2 263d b187 e43c
000001a0: 4c08 a2bc 7e6a 8bbd c48c 45bd a773 14ba
000001b0: d594 a73d db8c 91bc 0c6d c8bd 44b7 8fbd
000001c0: ad85 033c 79d7 d83c 6f85 08bc 70bf 9b3c
000001d0: 0286 a13d 0155 07bd f457 b3bd fb23 c43d
000001e0: a86a 3d3c 3bf0 c6bd 2d94 853c 0ff0 013c
000001f0: c5c7 ccbd 5fc6 7b3c 04e4 583d b7f6 dbbd
00000200: 5097 4e3d e4a6 8abd 6204 81bc 2ebd f23d
00000210: 24de 9dbd 8bb9 053d 2f81 c2bd 4586 aabd
00000220: 928d 883d baff 083d 6324 d1bd b66e 283d
00000230: 60d7 c7bd c3b1 dc3d 558d ee3d 131b 903d
00000240: 9d93 79ba cc8f e7bd d1bf 6a3d d820 83bd
00000250: 03bb ddbc d306 9ebd f121 b13a 9e53 603d
00000260: a4d4 de3d 8e90 223c 9b61 0ebc 6828 9f3d
00000270: 4307 f33d ad86 37bd b036 e6bd a21f b6bd
00000280: d8f8 cc3c 7038 ccbd 7a19 923c b3e7 9d3d
00000290: 7ede 963c 3d71 103d da10 d3bd c079 9c3d
000002a0: fc67 663d e445 9ebd db5b 563c cecb 5d3d
000002b0: 98c1 a8bd b8ab 693b 53f6 1b3c 1730 8d3d
000002c0: 2e7f c63d e448 a2bb 7de9 dfba 1a14 d4bc
000002d0: a091 8f3b 8286 b4bb 6d39 1e3d 24bb bc3d
000002e0: 29f0 d7bd 9a06 0c3d d4bc 0c3c a93d b93d
000002f0: f65f cdbc 2fad ae3b 57af d43d 7592 43bd
00000300: 1708 c3bd a499 dcbd 40bb 98bd 2cb3 0abc
00000310: 3b9e e2bd 4471 43bd c6fd 3d3c 21d7 db3d
00000320: 3dc1 1abb 51f9 b03d d196 8e3d af6e 0fbd
00000330: 18d1 8b3d c8bd 39bd f061 923c 3bd0 bcbc
00000340: f689 cb3c 3b42 1fbd d64c 453d 14b7 5f3d
00000350: 3dde f1bb 6a52 e4bd 96ac dfbd fc10 2abd
00000360: befa 46bd 0080 e83c 0ec6 873c 7ea9 42bc
00000370: dbde 043d 5e25 793c 86c0 ce3d b5cb 213d
00000380: 98a2 80bd 123e c8bd 6487 93bd 5795 8bbd
00000390: e2c7 833d e193 65bc 92f8 92bd ee41 efbd
000003a0: f9dd c5bb 8f58 2fbd b1d6 8ebd 837b 973d
000003b0: 2029 e53c 7f6f efbc ca76 1f3d 9d72 973c
000003c0: 7a6f 1fbc 6f32 96bc bb57 933d f352 c5bd
000003d0: 734d 4e3d 1ddf c0bd 3a10 bebd d400 17bd
000003e0: 4585 16bd 5ea2 a4bd cb87 a5bd d51e 423d
000003f0: bc15 003d 7cb0 8d3d b2e1 82bd 42f3 d7bd
-0.05805889 -0.014840372 0.037997365 -0.09878867 -0.076166436 0.008729742 -0.06401865 -0.11360119
0.09574123 -0.08021836 0.07693403 -0.03366904 0.0830008 -0.031213712 -0.057000913 0.028832927
-0.06658316 -0.05259143 0.041841656 0.008196113 -0.009904339 -0.097024255 0.09939673 -0.044984877
0.086212635 0.042083804 -0.04625694 -0.10937449 -0.03769357 -0.062933594 0.030732127 -0.0410143
-0.10022059 0.114076935 -0.0770118 0.019740297 -0.06381108 0.048005182 -0.050067686 -0.100128695
0.098466046 0.056894332 0.0070612696 -0.101751685 0.0042630527 -0.05181747 0.022267858 -0.03728267
-0.05971544 0.114132255 0.09237677 -0.01750107 -0.027509285 -0.114281274 -0.07162335 -0.031826217
0.085129514 -0.024623165 0.11657096 0.11467845 -0.006599416 0.018921483 0.111837916 0.054866515
0.061303057 0.006673653 0.030518368 0.09745829 0.09202788 0.07326795 -0.100871 0.08465231
-0.07878326 -0.09018735 0.031107582 0.037651062 0.076065816 0.07029301 0.077240705 0.040193222
0.077903494 -0.0671239 -0.094488785 0.026825031 -0.037666176 0.029668482 -0.0028914125 0.07380031
-0.08215742 0.003046733 -0.060884118 -0.09153301 0.045351706 0.10627699 -0.024649084 -0.05878865
0.10842532 0.074465536 -0.05822319 -0.06123265 0.043005586 -0.104866415 0.040697657 0.027896734
-0.019779347 -0.06807421 -0.048229948 -0.00056629855 0.08182684 -0.01776736 -0.09786424 -0.07017377
0.008027476 0.026469933 -0.008332594 0.019012183 0.07886888 -0.03304005 -0.0875701 0.09577175
0.011561073 -0.09713789 0.016306007 0.00793077 -0.099990405 0.01536712 0.052951828 -0.107404165
0.05043727 -0.06770113 -0.01574916 0.118524894 -0.077083856 0.03264765 -0.09497296 -0.08326391
0.066676274 0.033447005 -0.10212018 0.041121207 -0.097578764 0.10776093 0.11648051 0.07036414
-0.0009520592 -0.11306724 0.057311837 -0.06402749 -0.027066713 -0.07716145 0.0013514144 0.054767244
0.10880402 0.00992216 -0.008690263 0.07771379 0.118666194 -0.04480617 -0.112408996 -0.08892752
0.025021002 -0.09971702 0.017834414 0.07710209 0.01841664 0.035264242 -0.103059486 0.076404095
0.05625151 -0.07728174 0.0130834235 0.05414944 -0.0824005 0.003565533 0.0095191775 0.06893938
0.09692226 -0.004952537 -0.0017083135 -0.025888491 0.0043813735 -0.0055091986 0.038628984 0.09215382
-0.10543854 0.034185983 0.008589942 0.09044964 -0.025070172 0.0053307037 0.10385006 -0.047747094
-0.095230274 -0.10771492 -0.0745759 -0.0084655695 -0.11065336 -0.04771544 0.011596149 0.10734392
-0.0023613714 0.08641303 0.0696236 -0.035017665 0.06826991 -0.045347005 0.017868966 -0.02304851
0.024846058 -0.03888152 0.04816898 0.054617956 -0.007381229 -0.11148532 -0.1092159 -0.041520104
-0.04857897 0.028381348 0.016573932 -0.01188123 0.032439094 0.015206663 0.10095315 0.03950091
-0.06281012 -0.09777464 -0.07203558 -0.06815594 0.06434609 -0.014012308 -0.07176317 -0.11682497
-0.006038424 -0.042809065 -0.06974543 0.07396605 0.027973711 -0.02922797 0.038931645 0.018487269
-0.009731168 -0.018334595 0.07194468 -0.09634962 0.05036683 -0.094175555 -0.09280439 -0.036866024
-0.03674819 -0.080387816 -0.08082541 0.047392685 0.031270728 0.06918427 -0.06390704 -0.105444446

embedding_net.fc2.bias f4 [50]
00000000: 51b1 923d 90fa 07bc 6975 9cbd 74f6 b63c
00000010: 03a6 8bb9 9c22 8f3c 65a9 d33d 9e11 6b3d
00000020: 9909 e63d 6eab 2fbd 9ac2 483d c557 ac3d
00000030: 50d3 3bbd e4cb d2bd f316 9a3d a74e bbbd
00000040: 885a edbc 8250 57bd 55fe a53d a799 cb3d
00000050: 2e94 703d 7c60 a8bc 483e 133c d479 bfbd
00000060: 9479 97bc cd55 b63d 5fd1 b23d 7803 313c
00000070: 0545 873d e0b5 d8bb 2c54 863c 68e9 efbd
00000080: 863b 433d 3ab2 dfbd f931 82bd 80d0 7cbc
00000090: f798 c7bd 481e 68bc 50a8 993b 154c 9a3d
000000a0: 7ac6 d4bd 443f c3bd ed1f e5bd 5974 a53d
000000b0: e8c4 85bc 9485 da3c ac15 bcbd 9a14 aebd
000000c0: c0dd adba dceb bf3c
0.07162727 -0.008299485 -0.07639582 0.022334315 -0.00026635834 0.017472558 0.10335044 0.057389848
0.11232299 -0.042888097 0.04901371 0.08415178 -0.04585582 -0.10292795 0.075239085 -0.09145861
-0.028973833 -0.052567013 0.081051506 0.09941416 0.058735065 -0.02055382 0.008987017 -0.09349409
-0.01849059 0.08903084 0.087313406 0.01080405 0.06604961 -0.006613478 0.016397558 -0.117144406
0.047664188 -0.10922666 -0.06357188 -0.01543057 -0.097459726 -0.014167376 0.004689254 0.07534043
-0.10389419 -0.09533551 -0.1118773 0.08078832 -0.016329244 0.026675023 -0.09183821 -0.08500023
-0.0013264939 0.023427896
