runs/TripletNet_000-004/model_best.pth.tar (torch_old, 31530 bytes, 8 tensors)

embedding_net.conv1.weight f4 [10, 1, 3, 3]
000000 fa 73 4a 3e 71 46 e2 bc e0 5c 40 be 28 0c 8a 3d
       0.19770804 -0.02762148 -0.18785429 0.067406
000010 cf f6 32 be 08 c1 1c bd 0f 97 78 3d 92 41 78 3d
       -0.17476963 -0.038270026 0.060690936 0.060609408
000020 03 03 0c 3d 36 87 61 bd 5e e2 8d 3d 5b 8b 6f 3d
       0.03418256 -0.055060588 0.06927942 0.05848251
000030 80 e6 b1 3d d3 28 06 be c4 54 a4 bc bb 32 51 bb
       0.086865425 -0.1310151 -0.02005995 -0.0031921107
000040 cf f6 a9 3d 17 c6 19 bd 28 55 29 3e cb a2 c1 3d
       0.08299028 -0.03754243 0.16536391 0.094548784
000050 e8 53 5e be 6b ef a4 bd df 9e b7 be 4b cd 29 bd
       -0.21711695 -0.08053478 -0.35863397 -0.04145555
000060 3d 9f bd be ce 67 04 3c 23 ca fe 3d 49 4a 00 be
       -0.37035552 0.00808139 0.12440898 -0.12528338
000070 59 fc 4a be 24 39 a1 3e ac 1c 44 bd 0d c5 f8 3d
       -0.19822825 0.31488907 -0.047878906 0.121469595
000080 35 d7 92 bc f7 94 83 be e1 1f 8a be e5 d2 a1 be
       -0.017924884 -0.2569959 -0.26977447 -0.31606212
000090 78 42 2c 3c 14 cf fe 3d 80 be 64 bd cc df 76 bb
       0.010513894 0.12441841 -0.055845737 -0.0037670014
0000a0 f5 5e e4 3d 61 f5 a1 be 9c d1 85 3e 08 d8 4f 3d
       0.11150924 -0.31632522 0.26136482 0.050743133
0000b0 9e c7 d5 bd 4a 15 94 3d e5 b2 66 bd 3c a3 b6 3d
       -0.104384646 0.07230623 -0.05632295 0.08917853
0000c0 0f 5f 92 bc 79 e6 d8 bc c7 d8 97 be f7 63 33 be
       -0.017867593 -0.026477085 -0.29657575 -0.17518602
0000d0 5e b1 08 3e a3 66 43 bd 59 50 3c 3e 75 a2 f1 3c
       0.1334891 -0.047705304 0.18390025 0.02949641
0000e0 d0 3c 04 be ea 29 86 bd 56 45 95 3b b1 93 1d 3e
       -0.12913823 -0.06550963 0.0045553846 0.15388371
0000f0 ff 22 90 3b 56 e9 df 3c 0b ef 72 3e 97 bb 16 3e
       0.004398703 0.027332943 0.23724 0.14719997
000100 b3 ae 09 be f2 ff 5b bd 08 07 d2 3d 65 53 61 3b
       -0.13445549 -0.053710885 0.10255247 0.0034381982
000110 be 1d 4d be e2 a7 2d be d9 d1 9a bd d5 11 33 be
       -0.20030877 -0.16958573 -0.075595565 -0.17487271
000120 f5 10 0b bd 20 dc 6a 3d 0b d3 87 3e 78 a4 cf 3d
       -0.03395172 0.057338834 0.265282 0.10138792
000130 6d e6 38 be 70 08 ab 3d 39 85 6f be a1 55 0a 3d
       -0.1805665 0.08351219 -0.23390664 0.03377307
000140 87 ae a4 bd 5b 39 aa be 7e 62 bd bd 98 44 c2 bd
       -0.08041101 -0.33246884 -0.092473015 -0.094857395
000150 95 c9 08 3e cf 9f ec bd d6 9d 22 be 10 55 1d 3e
       0.13358147 -0.115539186 -0.15880522 0.1536448
000160 37 7f 68 3d 79 77 e7 3d
       0.056761947 0.113020845

embedding_net.conv1.bias f4 [10]
000000 f4 cb 3f 3e fa 5a 5f be 4c 20 16 bb c6 72 2d be
       0.18730146 -0.21812049 -0.0022907434 -0.16938314
000010 55 f4 07 be 44 25 0e be 80 e9 4a 3e 36 16 e1 bd
       -0.13276799 -0.13881403 0.19815636 -0.109905645
000020 04 05 03 3c 4f e3 32 be
       0.007996801 -0.17469524

embedding_net.conv2.weight f4 [20, 10, 3, 3]
000000 03 d5 a9 3d de df 52 3d 9d 64 0b 3d f1 07 94 3d
       0.08292582 0.051483028 0.0340315 0.07228077
000010 0d aa 23 3d 01 47 de 3c 39 a1 c2 3c 31 a8 78 bb
       0.039957095 0.027133467 0.023758518 -0.0037942047
000020 e9 0d ad 3b 51 59 26 3d 3d 60 57 3d ca 40 89 3d
       0.0052811992 0.040612523 0.052582014 0.06701811
000030 27 e6 d4 3d 45 16 94 bd 17 7a d0 bb fd c3 76 3d
       0.103954606 -0.0723081 -0.0063622105 0.060245503
000040 00 c2 6b 3d f1 ad 81 3c 2d 24 8d bd f8 34 de bc
       0.05755806 0.015830012 -0.068916656 -0.027124867
000050 68 ed 77 bc 7f 7c 80 bd a2 29 d3 bc 1c fa 82 bc
       -0.015132286 -0.06273746 -0.025776688 -0.015988402
000060 b6 78 dd 3c bf e2 85 3b d0 89 c1 bc 76 08 37 bd
       0.027035099 0.004085868 -0.023625284 -0.044685803
000070 d7 cd 29 bd 77 89 13 bd 9c e3 44 bc 54 ef 02 bd
       -0.04145607 -0.03601977 -0.012017157 -0.031966522
000080 01 a1 c8 3c 8d 1a 97 3c c7 6c 59 bd d2 c1 97 3d
       0.024490835 0.018445278 -0.053082254 0.07410015
000090 db 16 d7 3c 82 ad 9d 3c f3 62 a1 3c e3 2a 82 bd
       0.026256016 0.019247774 0.019700503 -0.06355836
0000a0 cd 16 0b bd f2 e2 af bc cd a3 c9 bd 3c 85 83 bd
       -0.03395729 -0.02147052 -0.09845696 -0.06421897
0000b0 ec a2 11 bc 46 73 ee bb ca d2 01 3d a3 f6 9c 3b
       -0.008888941 -0.0072769253 0.031695165 0.0047901436
0000c0 e8 09 8e 3d f4 d8 a7 3d 79 f2 9c bb c0 46 7b 3d
       0.06935483 0.081956774 -0.004789647 0.06134677
0000d0 0e 5e 92 3c ca 3a 96 3d 75 d8 a8 bc 52 2c 08 3b
       0.017867114 0.07335432 -0.020611027 0.002077837
0000e0 1f 65 e1 3c f3 74 82 bd 4b 9b 85 3c 49 99 05 3d
       0.027514039 -0.063699625 0.016309401 0.032616887
0000f0 be f5 d6 3c d5 7e 2c 3d c9 b1 a1 3c 9e f8 bf 3c
       0.026240226 0.042113144 0.019738095 0.02343398
000100 0c c8 c9 bc c1 10 c8 b8 9c f4 bc bd 50 5f 22 bd
       -0.024631523 -9.539864e-05 -0.09226343 -0.03964168
000110 b0 c9 69 bd 56 5f 04 be 98 7d 6b bc 46 86 96 3a
       -0.05707711 -0.12926993 -0.014373206 0.0011484108
000120 d0 e3 cf bb 28 d9 9d bc a6 c6 95 3c fd e2 2c 3d
       -0.006344296 -0.019268587 0.0182832 0.04220866
000130 e9 d8 8e 3d 6c 6e 9e bc 07 7e a1 3d 38 3d a7 3d
       0.06974966 -0.019339763 0.07885366 0.081659734
000140 f7 75 de 3c d8 5d 82 3c f4 7c 8a bc 7c a8 b4 bc
       0.02715586 0.015913889 -0.016905285 -0.022052996
000150 5c 2d ad 3c d5 20 8f 3d ad e8 03 bd 7f 67 27 3d
       0.021139793 0.06988684 -0.03220432 0.040870186
000160 27 0a 9b 3d ff d4 8c 3b 0d 79 41 3d f9 17 65 3d
       0.07570296 0.004297852 0.047234584 0.055931065
000170 d7 c7 68 3d 6f 42 47 3d 87 24 51 3d 92 34 b7 3c
       0.056831207 0.04864734 0.051060226 0.022363935
000180 62 59 57 3b 4f 64 ce 3c 2f 1b f3 3c 87 40 cf bd
       0.0032859673 0.025194315 0.029676048 -0.101197295
000190 6b a0 ba 3c 8f b4 52 bd 71 ea 54 3d 99 cf 3a bd
       0.022781571 -0.051441725 0.051981393 -0.045608137
0001a0 ac 2e 9d 3d ed 0e e8 bc 4a 81 9c bc 59 57 37 bc
       0.076749176 -0.02832743 -0.019104619 -0.011190259
0001b0 12 1d e9 bd 2e ac 58 bd 14 4e 8f bc d5 03 6f bd
       -0.11382498 -0.05289858 -0.017493285 -0.058353264
0001c0 01 c1 af bd 65 21 72 bd 0e c5 1b bc 1e b9 4c bd
       -0.085817344 -0.05911388 -0.009507431 -0.04998123
0001d0 b5 4c 14 bd cb 77 64 bd 0b f0 58 bd 1d c3 90 bc
       -0.036205966 -0.055778306 -0.052963298 -0.017671162
0001e0 c8 08 b6 bc ca 65 d1 3c b7 f3 1a bc a0 df d5 3c
       -0.022220984 0.025561232 -0.00945752 0.02610761
0001f0 84 10 90 3d b9 9c 70 3d df 5f 55 bb 88 4c 30 3d
       0.070344 0.058743212 -0.0032558364 0.043041736
000200 81 fc 01 3e 60 5f bb 3c 6a 68 45 3c 74 80 32 bd
       0.12693979 0.022872627 0.01204882 -0.043579534
000210 1d 70 a9 3c 81 18 7b bb 6d 8a a6 bd 1f 83 a9 bc
       0.020683343 -0.0038314166 -0.08131871 -0.020692406
000220 5f 8c e4 bd 61 71 00 3d 2d 3f 98 3d 89 81 8a bd
       -0.11159586 0.031358127 0.07433925 -0.06762988
000230 42 26 98 bd 49 92 22 3d 8c 6a 12 3c 53 3e 8d bc
       -0.07429172 0.03969029 0.008936536 -0.017241633
000240 4e 86 0a b9 ff cb 35 3c 8a fa e4 bc a1 85 04 3c
       -0.00013210738 0.011096 -0.027951498 0.0080885
000250 de c4 b4 3b 4b d3 54 3c d8 0a af 3c 7d e5 09 3d
       0.0055166325 0.012989829 0.021367475 0.033666123
000260 4b d9 e4 3c 68 20 51 3c 41 34 96 bb 55 66 57 bd
       0.027935645 0.012764074 -0.004583866 -0.052587826
000270 2e 8e 8a 3d 84 57 80 3d 94 f0 86 bd da 54 1d 3d
       0.067654 0.06266692 -0.065888554 0.038411
000280 ad fc 89 bd 06 4c 86 bc c6 18 ab 3c 2e e6 36 3b
       -0.06737647 -0.016393673 0.020885836 0.0027908194
000290 0f 73 a8 bd 8c cd 2b bd b5 6f 16 bd ff 57 dc 3c
       -0.08225071 -0.04194407 -0.036727626 0.026897429
0002a0 de 01 8d bc d7 e3 b7 3b 6e 03 48 3d d3 1e 8f 3d
       -0.017212804 0.0056118774 0.048831396 0.06988301
0002b0 63 c9 84 bd 5f 25 b1 bd 41 72 68 bd ff b2 9e bd
       -0.06483724 -0.08649706 -0.056749586 -0.077489845
0002c0 66 7a 2e bd 85 66 42 bd 65 54 5d bd 1e 9b 97 3d
       -0.042597197 -0.04746105 -0.054035563 0.07402633
0002d0 29 2f 79 bd 2c f6 fe bb 64 31 d8 3d 60 6f 3e 3b
       -0.06083599 -0.007780811 0.105562955 0.0029058084
0002e0 d7 e5 82 bc 77 c5 ef 3c 42 75 9d bd 32 09 0d 3d
       -0.015978737 0.029268963 -0.07688381 0.034432597
0002f0 1a 6d 1c bd aa 3b ac 3c 88 0e 4b 3b f1 1d 48 bd
       -0.038189985 0.021024544 0.0030984003 -0.04885668
000300 15 80 6e 3d 64 b1 64 3d a1 03 64 bb 43 39 71 bd
       0.058227617 0.055833235 -0.0034792202 -0.0588925
000310 9b 24 33 bd 10 26 24 bc 72 e6 f1 bd 08 ee eb bd
       -0.04373608 -0.01001884 -0.11811532 -0.1152001
000320 3f 10 09 bd 3d 4c 3c bb b1 e6 c9 bc 5f da f6 bd
       -0.03346276 -0.0028731965 -0.024646135 -0.1205337
000330 8e 6f 25 3d 68 33 d1 bb d5 aa a7 bd 9e e5 9f 3c
       0.04038959 -0.006384302 -0.081868805 0.01951867
000340 14 bb 6a bb 95 64 0b 3d f9 3e e8 bc f2 1b 72 3b
       -0.0035817074 0.03403147 -0.02835034 0.0036942926
000350 45 b0 81 3d d5 d6 7a 3d 8a f4 7c 3c af 24 1b 3d
       0.06332449 0.061240036 0.015439162 0.03787678
000360 4e d4 67 bd 43 d7 c6 3c 86 bc cd 3d 76 47 7c 3c
       -0.056598954 0.024272567 0.100457236 0.015397897
000370 a6 86 4a 3b 5b 28 65 bd 07 51 81 bd 75 3c bb bd
       0.003090301 -0.05594669 -0.06314283 -0.09142391
000380 42 fa 92 bd 10 99 1e bd 66 51 8e bd 97 4f e9 3c
       -0.07176639 -0.03872019 -0.06949119 0.028480334
000390 97 81 97 bd 60 f2 2b bb 4f bf 8b 3d 8f 78 f6 3c
       -0.07397764 -0.0026236996 0.068235986 0.030086784
0003a0 83 fb 93 3d b2 12 0e bd 27 1e b7 3c 6a e6 2a bd
       0.072257064 -0.034685798 0.022353245 -0.041723646
0003b0 65 f9 c6 bd 89 a8 9b bd 11 25 42 3d 3a bd 25 3e
       -0.09715537 -0.07600505 0.04739863 0.16185465
0003c0 7e 69 ab 3c 75 0b 7a bc 28 f0 6f bd b8 07 9d 3d
       0.020924326 -0.015261521 -0.05857864 0.07667488
0003d0 7e d7 ad bc c7 21 ac bb d0 b4 76 bc a7 9a 7d bd
       -0.021220919 -0.00525305 -0.0150577575 -0.061915066
0003e0 55 bd 21 be 87 25 4e bd 52 f2 aa 3d 12 7c 9a 3d
       -0.1579488 -0.050328758 0.08347 0.07543196
0003f0 c5 2d d8 3c bd 0d 87 bd b0 34 2c be 33 18 3a 3a
       0.026389012 -0.06594417 -0.16816974 0.0007098943

embedding_net.conv2.bias f4 [20]
000000 86 f9 3d bc ce c9 9d 3d ef 18 ac 3c 48 61 29 3e
       -0.011595136 0.07704507 0.021007983 0.16541016
000010 d1 7b f8 bc 2c ed cc 3d 78 21 94 bd 18 76 24 3e
       -0.030332478 0.100061744 -0.07232946 0.16060674
000020 91 e5 8f bd d2 37 c8 3d 05 d9 37 bd 74 52 28 3e
       -0.07026208 0.09776272 -0.0448847 0.16437703
000030 99 5d 5b 3e 2f a6 24 3e 94 9b de bd 21 de 9c 3d
       0.21422423 0.16079019 -0.10869518 0.07659555
000040 fc cd ee bc c7 8a cf 3d 75 c1 b1 bc 06 93 21 3e
       -0.029150955 0.101338916 -0.021698693 0.15778741

embedding_net.fc1.weight f4 [50, 100]
000000 64 57 59 3c b5 e1 3f bd e6 2f 1d bd fa b5 18 bc
       0.013265464 -0.04684611 -0.038375758 -0.00932073
000010 3a d7 49 3b 65 6a ab bc 51 f0 f2 bd a9 da 28 3e
       0.003079845 -0.020924756 -0.11862243 0.16489662
000020 50 ba e6 bd 65 4d ac bd 03 e6 28 be 01 4b 89 3b
       -0.11266005 -0.08413199 -0.16493993 0.0041898494
000030 5c e9 a9 3d 70 1b c5 bd b3 bb 24 bd e4 e0 f4 3b
       0.08296463 -0.09624374 -0.040218066 0.007473098
000040 c9 e7 b4 3d dc 50 39 bc 61 7b b5 bd 85 ef 0e be
       0.08833272 -0.011310782 -0.08861423 -0.13958557
000050 1c 6e a7 bc 0f 4b fb bc ac 2d 91 bd 86 b4 74 3d
       -0.020438246 -0.03067544 -0.07088789 0.059742473
000060 9d b1 20 3d 03 0d b9 3a f7 47 45 3d 8e a5 ab 3b
       0.039231885 0.0014118258 0.048164334 0.0052382415
000070 a9 c2 40 3d ad 49 88 bb 67 78 4c bd 72 95 bd 3c
       0.047060642 -0.0041591735 -0.049919512 0.02314255
000080 5a 8f 43 bd 2a 6a fb 3c 6a 21 37 bd 37 49 7d bc
       -0.047744133 0.030690271 -0.0447096 -0.01545935
000090 33 3d dd bd ad 39 6e bd 87 dd 20 3c a7 b4 89 3c
       -0.108026884 -0.058160473 0.009818441 0.016809775
0000a0 b7 ff 61 3b 1f fa d8 bc cc 04 60 b9 31 44 85 3d
       0.0034484693 -0.026486455 -0.00021364092 0.06507147
0000b0 e7 f6 5e bd 09 68 4a 3c 5f ef 46 bc 66 02 31 bc
       -0.054434683 0.0123539055 -0.012142031 -0.0108037945
0000c0 21 18 7d bc 9a 89 dd 3c 49 95 39 bd b0 b8 04 bc
       -0.015447647 0.027043153 -0.045308385 -0.008100674
0000d0 52 3e 4e bc b7 41 17 3d 57 18 e2 bc b1 62 82 bc
       -0.0125881005 0.036927905 -0.027599497 -0.0159162
0000e0 f1 ba 23 3c 1f b2 37 3b 0b a5 b4 bc 75 5d 9d bd
       0.009993301 0.0028029752 -0.022051355 -0.07683841
0000f0 bf b5 87 ba b9 53 e3 bd 2a 04 b1 bd 48 9e fa bd
       -0.0010353847 -0.11099953 -0.08643372 -0.12237221
000100 7d 71 b3 bd 51 b1 f4 bc 1f ec c7 bd b0 6a 09 3d
       -0.087618805 -0.029869707 -0.097618334 0.03354901
000110 02 8f 47 3d c2 d2 3a 3e 59 cc a3 3b 60 10 8a bc
       0.048720367 0.1824446 0.0049987254 -0.016853511
000120 fe 80 94 3c f6 12 9d 3d b4 3f dd bc 64 4b 98 3b
       0.018127915 0.07669632 -0.027007915 0.004647659
000130 8e 4c 59 bd ce f6 d9 bc ad 56 fa bc 51 e7 b1 bc
       -0.053051524 -0.026606943 -0.030558908 -0.021716746
000140 b1 fb 5a bd 22 71 2f bd 7c cb 81 3c e5 5d 5c 3b
       -0.053462688 -0.0428325 0.0158441 0.0033625301
000150 4b 7c e5 3c 74 fe 8f 3d db ab fd 3d bf 95 1e 3c
       0.028013369 0.07030955 0.123862945 0.009679257
000160 8d 82 ce bd d3 87 35 3d 36 3f e6 bb ca 03 b3 bc
       -0.10083494 0.044318985 -0.0070265783 -0.021852393
000170 53 14 7f bd 97 2a dd bc a7 b3 93 3d 65 14 87 bd
       -0.062275242 -0.026997847 0.07212 -0.06595687
000180 7f 84 3c 3d af 68 f7 bc e2 b9 b4 3d ed ec 92 bd
       0.046024796 -0.030201284 0.08824517 -0.07174096
000190 7c 68 34 3d 2a 45 a7 bc 0a f1 c6 bb d9 c2 0b 3d
       0.044044957 -0.020418722 -0.0060712146 0.034121368
0001a0 ca 23 df 3c 1f 49 36 bd 88 8c a3 3d 27 dd 85 bc
       0.027238745 -0.044503327 0.079857886 -0.016340805
0001b0 74 29 2e 3c b6 b4 9e bc a5 7b 6c 3d 21 c9 46 3d
       0.01063 -0.019373279 0.057735104 0.048531655
0001c0 fe 3b 17 bd 69 3b 6e 3d c9 58 2d 3d 40 6b 2e 3d
       -0.036922447 0.058162127 0.042321 0.04258275
0001d0 19 88 43 bd 0e f5 85 3d eb 91 3d bd 59 8e 8f bd
       -0.047737215 0.06540881 -0.046281736 -0.070095725
0001e0 e7 4a a2 bd fe 0c d8 bd fe 06 cc bd 2c 17 0d bd
       -0.07924443 -0.10549353 -0.09962271 -0.034445927
0001f0 93 72 6c 3d c9 c3 63 3d d1 49 69 bd 9d 40 62 bd
       0.057726454 0.055606637 -0.056955162 -0.0552374
000200 f5 b5 08 bd ed db 99 3c 77 42 e2 3d 5e ec 85 3c
       -0.033376653 0.018781627 0.110478334 0.01634806
000210 76 1e 02 3d 02 ce d0 bc 5d a4 67 3d e2 63 63 3c
       0.03176733 -0.025488857 0.056553233 0.013878794
000220 4a a5 11 3d 25 0f 09 3d b1 39 cc bb c2 46 89 3d
       0.035558023 0.03346171 -0.0062324633 0.06702949
000230 b3 a6 3f bc 1d 5e 53 3d ba 0b a9 bd b4 b3 88 3c
       -0.011697459 0.051603425 -0.0825419 0.016687252
000240 c7 e6 1f bc d6 f6 62 bd 7a ff 05 be 3f 2f e9 bc
       -0.009759611 -0.055411182 -0.13085738 -0.028464912
000250 20 3f 8f bc 50 47 a2 bd 82 51 4d 3d 26 cd 54 ba
       -0.017486155 -0.07923758 0.05012656 -0.00081177277
000260 3f 44 66 bd 1b 82 47 3d 3d af cf bd 50 9b 4d 3b
       -0.05621743 0.048708063 -0.10140846 0.003137309
000270 3a 4f 21 3c a7 65 62 3d 8e 4e 89 bc 19 1a 65 bd
       0.009845549 0.055272724 -0.01676109 -0.05593309
000280 11 71 18 bd d9 dd 81 3d 5e d1 d5 bb 1e f9 14 3d
       -0.037217204 0.06341142 -0.0065252027 0.03637039
000290 4e fe 7b bd 3f 8a 85 3d 44 0f 78 3d 4b f5 a1 bd
       -0.06152182 0.06520509 0.060561433 -0.07908114
0002a0 cb 14 dc bb 22 90 e4 bd 29 b3 0d be c3 f4 09 be
       -0.006716346 -0.11160304 -0.13837875 -0.13472275
0002b0 e5 83 e7 bd ab cb 5a 3d 18 0d d6 bc aa de 43 be
       -0.11304454 0.05341689 -0.02612929 -0.19127908
0002c0 94 d8 43 3d e4 a5 b3 3c 13 92 7e 3d 92 af 18 bb
       0.047813967 0.021929689 0.062151026 -0.0023298007
0002d0 b2 49 10 bd 53 d7 df 3a bb bc 2f bd 14 99 70 3b
       -0.03522653 0.0017077721 -0.042904597 0.0036712335
0002e0 92 21 e6 bc a5 ab ce bc e7 0b 11 bd 44 2d f0 3c
       -0.02809218 -0.02522833 -0.03541174 0.02931846
0002f0 7e d3 31 bd 15 2b 94 bd 4a 36 f5 ba b0 85 73 bd
       -0.043414585 -0.0723478 -0.0018708196 -0.059453666
000300 0e 60 81 3d 3d cc 91 bd 15 77 0e 3d 90 ce 02 3d
       0.06317149 -0.071190335 0.034781534 0.031935275
000310 d6 51 0a 3e 99 5a d1 bc 0f d3 44 3d 1e c5 5a 3d
       0.1350778 -0.025555896 0.048052844 0.05341064
000320 31 cb 57 3c f2 a2 f8 3c 21 f3 81 3d c3 63 92 3d
       0.013171003 0.030351136 0.06345201 0.07147934
000330 58 dd 96 bc 66 ce fe 3a bf d5 20 3d 75 4a e0 bc
       -0.018416092 0.0019440174 0.039266344 -0.027379254
000340 6f 09 e7 bc ab 8e 6c bd 2e 42 72 bd c1 df a3 bc
       -0.02820274 -0.057753246 -0.059145145 -0.020004155
000350 69 b5 e6 3c 4a 9f 61 39 f5 d4 13 3d 4e 26 1e 3d
       0.028162675 0.00021517012 0.036091764 0.03861075
000360 c5 c1 73 3c 6a f4 46 bd 72 a2 06 3d c3 5b 76 bd
       0.014877741 -0.048572935 0.032869764 -0.060146105
000370 ad 93 03 3c 14 60 bb 3b ac 11 80 bd 12 75 d1 bc
       0.008030814 0.0057182405 -0.06253371 -0.025568519
000380 9d de 56 bd bf 0b 28 3d d8 4c 3b bd f3 41 81 3d
       -0.052458394 0.041026827 -0.04572758 0.06311407
000390 ec 92 f4 3c 6d 3e a1 3c da df 0c bd 57 52 fd bc
       0.029855214 0.019683087 -0.03439317 -0.030923052
0003a0 bb 80 94 bd 1f c3 6d bc 86 9b 82 3d 68 86 9f 3c
       -0.07251116 -0.0145118525 0.0637732 0.01947327
0003b0 2a cb 3d 3d 09 25 4b 3d d8 12 9c 3d 0f 6b 99 bd
       0.04633633 0.049595866 0.07620782 -0.07491123
0003c0 2f 03 a6 bd 50 08 d1 bc bd a5 6c bd da 34 e5 bc
       -0.08106076 -0.025516659 -0.057775248 -0.027979303
0003d0 88 a8 ac bd 6d 99 98 3d e3 9d 9c bc 50 2c ad 3d
       -0.08430582 0.07451139 -0.019118255 0.084557176
0003e0 d5 3a e0 bd b2 eb 0a be 6e 16 d6 3c 9c e2 b3 3c
       -0.10948721 -0.13566473 0.026133742 0.021958642
0003f0 e8 d5 8a bc 4e f1 50 bd 6a a3 56 3c 8f f3 ad 3a
       -0.016947702 -0.051011376 0.013100484 0.0013271439

embedding_net.fc1.bias f4 [50]
000000 fb 9d a8 3d 45 1c c7 3d d5 9f 20 be c9 8d 9d 3d
       0.082332574 0.09722189 -0.15685971 0.07693059
000010 cf 4f c2 3d 35 fc d6 3d 88 9d c6 bd f7 07 ca 3d
       0.094878785 0.104973234 -0.096980155 0.098648004
000020 f9 ea 04 be 09 1b cc 3d 6f 4a ab 3d 98 9c cf 3d
       -0.1298026 0.09966094 0.083638065 0.1013729
000030 cf 2e cc 3d 03 b4 aa 3d 88 4c 86 3d 82 36 c1 3d
       0.099698655 0.08335116 0.06557566 0.09434225
000040 ed 57 c3 3d 18 4f e5 3d 25 28 9c 3c ea e7 8e 3d
       0.09538255 0.111967266 0.019062111 0.06977828
000050 69 69 b5 3d dd 78 8a 3d 9a c9 bd 3d 7f 36 a1 3d
       0.08857996 0.06761334 0.09266968 0.078717224
000060 4e a4 84 3d fb c6 6f 3d ee 42 b8 3d de c6 b6 3d
       0.06476651 0.058539372 0.08997141 0.0892465
000070 44 09 b6 3d fe 1e b9 3d a9 f3 60 be 3b 33 02 3d
       0.08888486 0.090391144 -0.21967949 0.03178714
000080 50 40 b0 3d f6 cd b6 3d 63 86 e3 3d 54 c7 16 3c
       0.08606017 0.08926003 0.111096166 0.009202797
000090 db d6 d1 3d d7 20 af 3d 19 b9 46 3d 1d 40 b8 3d
       0.102460586 0.085511856 0.048516367 0.08996604
0000a0 c7 73 30 3a b6 8b a9 3d 2f 1b c2 3d 6d a5 d1 3d
       0.00067311194 0.08278601 0.09477841 0.102366306
0000b0 4b f0 8f 3d c3 af 84 3d 23 80 c1 3d 6b db 6f 3d
       0.07028254 0.064788364 0.09448268 0.058558863
0000c0 14 a6 b8 3d 25 9a 5d 3d
       0.09016052 0.05410208

embedding_net.fc2.weight f4 [10, 50]
000000 63 51 ab 3d 1c 5e 50 bd fa fa 6b bd 18 72 39 3d
       0.08365133 -0.050871 -0.057612397 0.045274824
000010 ae e9 91 bc 8a e7 66 bd b7 4c f2 bb 82 75 3e bd
       -0.017811622 -0.056373157 -0.007394399 -0.046498783
000020 20 e5 c9 bd f5 fd 45 bd 87 c8 0c be 1c d6 19 3d
       -0.09858155 -0.048337895 -0.1374837 0.037557706
000030 be f9 03 3d 20 2a a1 bd 91 56 16 be 34 83 41 bd
       0.032220595 -0.07869363 -0.1468146 -0.047244266
000040 70 3c b1 3c 2f b9 37 bd a1 21 16 3e c5 66 bb bd
       0.021635264 -0.04485434 0.14661266 -0.09150461
000050 95 ed b6 bd 75 ca 93 bc 91 43 83 bd 14 95 94 bd
       -0.08932034 -0.018040875 -0.06409372 -0.07254997
000060 fa a8 9d bd 9c d8 c5 3d 91 a3 89 3d 55 9b e3 bd
       -0.07698245 0.096604556 0.06720651 -0.111136116
000070 15 7e 23 bd 3a 33 d3 bb 79 58 18 bc f4 aa 86 bd
       -0.039915163 -0.0064453157 -0.009298437 -0.065755755
000080 31 db 58 bd cb 36 7d 3d 43 37 3e 3c bf b6 1d bd
       -0.052943412 0.061819833 0.011609855 -0.03850436
000090 b9 2c 37 bd df cf 20 3c 8d 54 f4 bd b2 7f 7d 3d
       -0.044720385 0.009815185 -0.11930189 0.061889358
0000a0 35 42 bf bd e2 19 22 bd fd 7c b2 3d c8 05 88 3d
       -0.093388 -0.039575465 0.08715246 0.06641728
0000b0 89 16 09 3d 7f 84 94 bd 7c 63 7a 3d d6 e0 3a bd
       0.033468757 -0.07251834 0.061130032 -0.045624577
0000c0 64 e7 8e 3c 13 5c eb bc de a4 6f bd 29 a8 82 3d
       0.01744432 -0.028730428 -0.05850684 0.0637973
0000d0 2d 05 e2 3d ce ae 9e bd b0 27 6f 3d f5 d4 cd 3d
       0.110361435 -0.07748185 0.05838746 0.10050384
0000e0 0e bf cd 3d 8f 9a 8a 3d f8 51 f6 3d b9 b3 8f 3d
       0.100462064 0.06767761 0.12027353 0.07016701
0000f0 bf 51 2c 3d 02 6c c8 bd 49 39 c7 bd 9d a4 0e 3e
       0.042070147 -0.09786226 -0.09727723 0.13929982
000100 e0 fd e7 bc 5e 8b 9b 3d 34 d5 be bd b2 95 92 3d
       -0.0283193 0.075949416 -0.09318009 0.07157458
000110 cd aa 6c bc 44 84 a7 3d 7e f6 a5 bb 7d e0 47 bc
       -0.014445019 0.081795245 -0.0050647845 -0.012199518
000120 70 12 bb 3d 9e 4a b6 3d 21 e2 0e 3e 80 a1 4d bc
       0.09134376 0.08900951 0.13953449 -0.012550712
000130 9c e0 26 bc eb 29 67 3c dc aa 9a bd 20 b0 32 3d
       -0.010185387 0.014109115 -0.0755212 0.043624997
000140 ee b2 8c 3d 53 46 5e 3d 86 1d 9c bd 34 16 c3 bb
       0.06870066 0.054266285 -0.07622819 -0.0059535746
000150 7b be 1d 3d 96 fb 3b 3e 38 29 73 3d 29 4a a1 bd
       0.038511734 0.18357691 0.05936548 -0.07875473
000160 09 7f 99 bc 96 fa 7c 39 0f 93 c4 3d a3 df a8 bd
       -0.018737333 0.00024125943 0.09598362 -0.0824578
000170 3e be 4e bd a9 02 59 bc a8 41 16 be 1b 37 87 bd
       -0.050474398 -0.013245263 -0.14673483 -0.066023074
000180 18 b9 31 bb a5 6d a5 3d c0 f7 54 3d b9 26 4a bd
       -0.002711838 0.08077554 0.051994085 -0.049353335
000190 a5 80 d4 3c 9c 7b 81 bb 2d 4e d2 ba 19 21 b6 3a
       0.025940249 -0.003951503 -0.0016045027 0.0013895362
0001a0 d5 15 5d 3c f9 31 a8 3b 68 9c a2 3d 33 76 f6 b9
       0.013493975 0.0051329103 0.079399884 -0.00047008842
0001b0 f6 c6 c6 3d b9 a1 4b ba 07 5e 62 bd 7a 8c 19 bc
       0.097059175 -0.0007767934 -0.055265453 -0.009371871
0001c0 40 0c 40 bc 30 cd 2d 3c 1b 7a 98 bd 99 eb fd 3a
       -0.011721671 0.010608003 -0.07445165 0.0019372582
0001d0 1d 6d 96 bc da eb 26 3b 37 46 a1 3d 5e 24 61 bc
       -0.018362576 0.0025470168 0.078747205 -0.013741581
0001e0 c5 ef 35 bd d5 97 f2 bb 27 b4 b5 ba 47 7a e8 bb
       -0.044418115 -0.0074033537 -0.0013862894 -0.0070946547
0001f0 a2 6a 66 3b 81 1a 36 3d 2b ac f1 3c db 7d 49 bd
       0.0035158773 0.04445887 0.029501041 -0.04919229
000200 c1 d7 27 bd 0c 1d 82 3c a4 01 64 3c 12 a3 87 bc
       -0.040977243 0.015882991 0.013916407 -0.01655725
000210 51 b2 40 bd af 4f f3 3c e0 fd ad 3c 6a 4a 93 3c
       -0.047045056 0.029701082 0.021239221 0.01797982
000220 05 8d 22 bb c2 e1 70 bc 58 6e 76 bd 0b 27 fd 3c
       -0.0024803292 -0.014702262 -0.060163826 0.030902406
000230 98 94 59 bc 8a 5e 30 bd 3d b3 e3 3c 2a c1 eb 3c
       -0.013280056 -0.04305891 0.027795428 0.028778631
000240 1f c4 e0 bc 6e fe 62 bd f4 36 f0 3c b6 0d 06 3b
       -0.027437268 -0.055418424 0.029323079 0.002045495
000250 99 60 de 3c bb 2e 7b bc 0b a7 a1 3c 1a 8b 79 3c
       0.02714567 -0.015330966 0.019732973 0.015230918
000260 f2 8a 8f 3d 6a 1c 27 bd bb 38 34 3d 5b 0b 51 3d
       0.070089236 -0.040798582 0.043999415 0.05103622
000270 07 21 35 3d 00 53 c0 3c 94 5e 8e bd 99 6a c8 3c
       0.04422095 0.023477077 -0.06951633 0.024464892
000280 8c 88 d0 bd 4a 7e 99 bd f7 f6 a3 bd 98 c3 8f 3d
       -0.10182294 -0.07494791 -0.08006089 0.070197284
000290 be 0f 49 be 34 28 02 3d af 8e b5 bd 40 bd fb 3c
       -0.19634911 0.031776622 -0.08865105 0.03072989
0002a0 68 1a 0e 3e a7 71 c4 bb 30 28 d3 bd 9c af 00 bd
       0.1387726 -0.0059949937 -0.103103995 -0.031417474
0002b0 ee 4c fa 3c da e1 9d 3c 4c 2e 8b 3d bb a8 ae 3d
       0.030554261 0.019272733 0.0679594 0.085282765
0002c0 ab 3c 71 3d 02 6e d3 bd 75 2e 08 be c2 b5 20 3d
       0.058895748 -0.10323717 -0.13298972 0.039235838
0002d0 1a 43 91 3d 56 b1 d0 bb d3 51 1a be c6 0f 63 3d
       0.07092877 -0.0063687963 -0.15070276 0.055434965
0002e0 a1 02 57 3d 88 15 10 3e db 90 8b 3c 4e 19 9c bd
       0.05249274 0.14070714 0.017036846 -0.07622014
0002f0 2d 01 1e be cb df 82 3d a3 b3 fb 3b 6f 14 11 be
       -0.15430136 0.06390341 0.0076813265 -0.14167951
000300 1a 1b 06 3d 50 ee 5d 3d 6f 51 0e be 04 bc 24 be
       0.03274069 0.05418235 -0.13898252 -0.16087347
000310 dd 67 77 3d 73 70 0d 3d 1d e9 98 3d 8d d6 93 bd
       0.060401786 0.034531068 0.07466338 -0.07218657
000320 72 65 41 bd 0a 9e 0a 3c 23 b3 cc 3c e0 1b bf bd
       -0.047215886 0.008460531 0.024987763 -0.093314886
000330 62 3c bc bc d1 64 6c 3c 2b ff 87 3d 13 15 35 3c
       -0.022978012 0.014428333 0.06640466 0.011052388
000340 9e 9d ab bd 4e 00 16 3c e1 4f f3 ba 6f cf 4d bd
       -0.083796725 0.009155346 -0.0018563234 -0.050246652
000350 d9 f1 55 bd cd 5d d0 3c 5e c4 82 bd 8f cd 40 3c
       -0.052232597 0.025435353 -0.0638511 0.011767759
000360 3f 57 09 bd bd fe 1e bb c7 10 bb bc ca 41 2d bd
       -0.03353047 -0.0024260723 -0.022835148 -0.04229907
000370 75 64 c1 bc 41 16 b2 bd e0 cd 3c 3c a6 cc 2f 3c
       -0.023607472 -0.08695651 0.011523694 0.010729944
000380 44 f9 bb 3c 76 c8 fe 3b e4 6c 2a 3c 33 f9 9f bc
       0.022946008 0.0077753616 0.010401938 -0.019528007
000390 c0 ad 3d bd 87 23 1d bd a7 8c 7f bc 3f 2f 8a 3c
       -0.04630828 -0.03836396 -0.015597499 0.016868232
0003a0 3f 5e 5c bd f3 da ee 3a ca a9 6e bc f6 a1 a3 3c
       -0.053800818 0.0018223211 -0.014566848 0.01997469
0003b0 2b 76 fc 3b 42 ce c1 bd 29 52 51 bd 00 27 5f 3c
       0.0077045164 -0.09463169 -0.051103745 0.013620138
0003c0 3c c7 b8 bb 19 59 4b bd d0 8e d0 bb 75 8a 10 3c
       -0.005638985 -0.049645517 -0.006364681 0.008822073
0003d0 82 1f 75 bd ce 27 43 bd 26 74 50 3c 2b 65 e0 3c
       -0.0598445 -0.047645383 0.012723004 0.02739199
0003e0 2e 38 8a bb be 6e 0c be d5 53 11 3d e6 6e 39 3c
       -0.004218123 -0.1371412 0.03548034 0.011317944
0003f0 e6 12 22 3c 64 7f 93 3d af 18 3f 3d 6c a1 99 3c
       0.009892201 0.07202032 0.0466544 0.01875373

embedding_net.fc2.bias f4 [10]
000000 15 f9 d8 3c 04 ba e9 bc 90 ed c2 39 82 ad 48 3b
       0.026485959 -0.028531082 0.0003717956 0.0030620997
000010 13 c9 ca 3c 77 0b 05 bd a5 fd 55 3b 67 4e 6e 3d
       0.024754083 -0.032481637 0.0032652405 0.05818024
000020 5d 45 92 bd 68 fa 58 3d
       -0.07142136 0.05297318
