runs/TripletNet_0911b/checkpoint.pth.tar (torch_old, 48978 bytes, 8 tensors)

embedding_net.conv1.weight f4 [10, 1, 3, 3]
0.14891745 -0.16371708 -0.08409566 0.13537288 -0.32957557 0.17962547 -0.09970791 0.14496513
0.015758812 -0.025267337 0.10948321 0.031660117 0.13361187 -0.11964981 -0.014172903 -0.019368054
0.05716871 0.0067705065 0.2829879 0.09997276 -0.12760055 -0.20692405 -0.058191005 -0.14359865
-0.12204018 0.0031120281 0.18928903 0.17110941 -0.33295116 0.18456875 0.07030943 0.2998028
0.19206704 -0.30767077 -0.32034343 -0.16562937 0.2679258 -0.0769727 0.1345277 -0.17140096
0.31252834 -0.14260869 0.23787414 -0.0075903 -0.17792626 0.16636688 -0.18213885 0.096316345
-0.09626057 -0.036545668 -0.32046363 -0.15892954 0.18087775 -0.08102593 0.33919495 0.2708113
-0.002713619 -0.20317635 0.21699868 0.12156398 -0.20037062 0.22760546 0.21503735 0.28899923
-0.1895792 -0.05631783 -0.013503305 0.045279376 -0.2544619 -0.24174589 0.17903458 -0.078694925
0.13334191 -0.009876633 0.07763461 0.04726585 0.09296087 0.13253117 -0.32021388 0.15468326
-0.24604313 -0.25187433 0.019448718 -0.05787733 0.19401166 -0.1956313 -0.2983648 0.23307708
-0.060350284 0.17785133
00000000: d17d 183e 73a5 27be 583a acbd 309f 0a3e
00000010: 21be a8be bdef 373e a933 ccbd bd71 143e
00000020: a018 813c 72fd cebc bc38 e03d 0aae 013d
00000030: 8dd1 083e f60a f5bd 7735 68bc c1a9 9ebc
00000040: bd29 6a3d 20db dd3b cae3 903e 85be cc3d
00000050: b8a9 02be e6e3 53be b159 6ebd 860b 13be
00000060: 34f0 f9bd 2bf3 4b3b fcd4 413e 4e37 2f3e
00000070: 9378 aabe 97ff 3c3e 64fe 8f3d c17f 993e
00000080: 39ad 443e 0687 9dbe 0e04 a4be bf9a 29be
00000090: 922d 893e dda3 9dbd a1c1 093e bc83 2fbe
000000a0: b703 a03e 0308 12be 4795 733e 0db8 f8bb
000000b0: 4d32 36be 145c 2a3e 9b82 3abe 8141 c53d
000000c0: 4324 c5bd e9b0 15bd cf13 a4be 6dbe 22be
000000d0: 0438 393e ecf0 a5bd f6aa ad3e c7a7 8a3e
000000e0: f9d6 31bb 760d 50be e734 5e3e 89f6 f83d
000000f0: f52d 4dbe 6811 693e c032 5c3e b5f7 933e
00000100: 0d21 42be 86ad 66bd f73c 5dbc de76 393d
00000110: d548 82be 3c8c 77be d754 373e ce2a a1bd
00000120: c88a 083e 9ad1 21bc e5fe 9e3d d699 413d
00000130: 4562 be3d 40b6 073e 13f3 a3be 4a65 1e3e
00000140: bbf2 7bbe acf5 80be eb52 9f3c c710 6dbd
00000150: feaa 463e 9253 48be 45c3 98be c2ab 6e3e
00000160: dc31 77bd a91e 363e

embedding_net.conv1.bias f4 [10]
0.0672684 -0.24538712 0.041652475 0.07837524 -0.22317153 -0.15930523 0.17076036 0.03406024
-0.1480725 -0.10180865
00000000: 04c4 893d c346 7bbe c99b 2a3d 3383 a03d
00000010: 1487 64be e920 23be cedb 2e3e c082 0b3d
00000020: 51a0 17be 0e81 d0bd

embedding_net.conv2.weight f4 [20, 10, 3, 3]
0.09629414 -0.018643184 0.05859341 0.044537544 -0.068452 -0.09140535 0.09978532 0.007220283
0.06978617 0.022154883 0.03380747 0.07811087 0.10089679 -0.0696323 0.012585897 0.07907724
0.07575289 0.06445347 -0.07709201 -0.077222645 -0.064478576 0.013085752 0.10679445 -0.06491915
0.055543397 -0.05832228 -0.10014827 -0.0216908 0.06176406 0.096144415 -0.066318795 0.02122983
0.08794272 0.06869627 0.06580611 0.071762055 0.069020666 0.030507319 -0.07405314 -0.086423516
-0.045865223 -0.01726343 -0.062324595 0.036644474 0.028439106 -0.024103902 0.040469512 0.033621546
0.06439944 0.071578115 -0.03558675 0.103020586 -0.012169622 -0.0035054942 -0.093095645 -0.069957204
-0.073855534 -0.040345687 0.071408905 -0.042508513 -0.07846625 0.029895954 0.016538523 0.06777873
-0.054658834 0.022552693 -0.039259344 -0.024007028 -0.08355836 -0.048133142 -0.032273892 0.045327112
0.020545244 0.02912765 0.10539202 0.103739604 0.072362065 0.0033099083 -0.07129711 0.08264409
-0.028551025 -0.010408835 -0.09072424 -0.020861257 -0.0674569 0.09809345 -0.09131802 -0.084743895
-0.004106352 -0.05732391 0.03265382 -0.045676243 -0.053429134 -0.0016259566 0.06986716 -0.07846868
0.039108727 0.060005393 0.09691167 -0.07616568 0.02547034 -0.07790752 0.08644786 -0.04073176
0.063542455 -0.0011366958 -0.008418761 -0.0036156853 0.015266208 0.046000205 0.01269802 0.030185755
-0.09761833 0.07454902 0.08861349 0.08415285 0.07335743 -0.07708936 -0.04234365 0.0897562
-0.081607535 0.09274922 -0.086166315 -0.07436817 0.04970138 -0.07922395 -0.04857709 0.07148878
0.07934491 0.07009415 -0.024954356 -0.0849406 0.07016157 -0.028546825 -0.04849922 0.025594415
-0.0738687 0.06912399 0.06606343 -0.08364026 -0.086580254 -0.009096112 0.044388715 -0.0029966424
-0.07917821 -0.006390633 -0.11324948 -0.10895995 -0.07782056 0.07473468 0.04621961 -0.05116753
-0.01715501 0.045065537 0.010890155 -0.054380193 0.05881033 0.062309872 -0.0072588124 -0.014807064
0.094755895 0.09137944 -0.063135795 0.10158836 0.023521883 -0.072555326 0.057384994 -0.08000326
0.0946736 -0.06812157 0.028930804 0.026207084 0.022857644 0.086654656 -0.049919296 -0.046540655
-0.0917186 -0.017845374 -0.059515 -0.003539287 -0.021940311 0.039061196 0.09204296 0.030910384
-0.034162063 -0.051921595 -0.09212452 0.088504694 -0.020160079 0.019984247 0.0015243007 -0.06974755
0.05870057 0.0580329 0.005125972 -0.059902914 -0.04478909 0.0014515966 -0.06362802 -0.0608609
-0.017837392 -0.028828755 0.02470189 -0.02984264 -0.014098271 -0.04035761 -0.09645412 0.08387337
0.011958606 0.08779341 -0.017204199 -0.025614496 -0.099126704 -0.04012003 0.06901887 -0.103348196
-0.042851657 0.056074604 0.0516633 0.038276993 -0.023161435 -0.0097718015 -0.020017311 -0.03885806
0.043989874 -0.036745034 -0.059634786 0.023146473 -0.076154955 -0.022681968 0.053381644 0.03939455
0.08973893 -0.071894065 -0.014482705 -0.04926596 -0.075248204 -0.059110552 0.023243448 0.0087826075
-0.05387505 -0.07436784 -0.08740363 0.101833716 -0.01873473 -0.024943106 -0.03739829 -0.05266684
-0.09758808 -0.061992016 0.064318694 0.02299266 -0.044894062 -0.048700184 0.058605723 0.07510266
00000000: dd35 c53d 97b9 98bc a5ff 6f3d 006d 363d
00000010: 9030 8cbd ba32 bbbd 3f5c cc3d 2098 ec3b
00000020: 0dec 8e3d 287e b53c b479 0a3d 98f8 9f3d
00000030: faa2 ce3d 619b 8ebd 1435 4e3c 3ff3 a13d
00000040: 5524 9b3d 2e00 843d 6ae2 9dbd e826 9ebd
00000050: 580d 84bd 9f65 563c 0cb7 da3d 55f4 84bd
00000060: 7981 633d 58e3 6ebd 891a cdbd e8b0 b1bc
00000070: 50fc 7c3d 5de7 c43d 26d2 87bd 2eea ad3c
00000080: 501b b43d a1b0 8c3d 5bc5 863d fcf7 923d
00000090: b55a 8d3d 7cea f93c 2ca9 97bd d0fe b0bd
000000a0: 2cdd 3bbd 096c 8dbc 1348 7fbd 8418 163d
000000b0: 21f9 e83c 8c75 c5bc 5cc3 253d bfb6 093d
000000c0: dbe3 833d 8c97 923d 69c3 11bd 75fc d23d
000000d0: 1863 47bc 6fbc 65bb eea8 bebd b945 8fbd
000000e0: 9241 97bd 8541 25bd d53e 923d 681d 2ebd
000000f0: eab2 a0bd 5ce8 f43c cc7b 873c 93cf 8a3d
00000100: f1e1 5fbd 6dc0 b83c 68ce 20bd 63aa c4bc
00000110: a520 abbd 4227 45bd a131 04bd eca8 393d
00000120: 804e a83c 1c9d ee3c c5d7 d73d 6e75 d43d
00000130: 9032 943d 0ceb 583b 3804 92bd 4e41 a93d
00000140: d7e3 e9bc d189 2abc a1cd b9bd 3ae5 aabc
00000150: d826 8abd 38e5 c83d f104 bbbd 358e adbd
00000160: 948e 86bb 7acc 6abd 03c0 053d 0317 3bbd
00000170: 82d8 5abd 0d1e d5ba 8316 8f3d 30b4 a0bd
00000180: 7930 203d 37c8 753d a079 c63d c1fc 9bbd
00000190: 2da7 d03c fa8d 9fbd 930b b13d 59d6 26bd
000001a0: 8c22 823d 2ffd 94ba d8ee 09bc 22f5 6cbb
000001b0: 1e1f 7a3c b66a 3c3d 5b0b 503c 1e48 f73c
000001c0: 1eec c7bd 28ad 983d fd7a b53d 5458 ac3d
000001d0: 6c3c 963d 07e1 9dbd 8970 2dbd 19d2 b73d
000001e0: da21 a7bd 4ef3 bd3d f777 b0bd 574e 98bd
000001f0: ad93 4b3d 2b40 a2bd c5f8 46bd b668 923d
00000200: 967f a23d 868d 8f3d 146d ccbc 56f5 adbd
00000210: dfb0 8f3d 08db e9bc 1ea7 46bd 61ab d13c
00000220: 7948 97bd e190 8d3d 434c 873d 964b abbd
00000230: fd50 b1bd dc07 15bc f1d0 353d 5163 44bb
00000240: 2f28 a2bd 8468 d1bb 58ef e7bd 6526 dfbd
00000250: 6360 9fbd 7f0e 993d c650 3d3d 0b95 51bd
00000260: aa88 8cbc a496 383d 9f6c 323c c4bd 5ebd
00000270: 1ae3 703d a338 7f3d 55db edbb 5499 72bc
00000280: 610f c23d 2525 bb3d 574d 81bd 8f0d d03d
00000290: f7b0 c03c e397 94bd 870c 6b3d c0d8 a3bd
000002a0: 3be4 c13d 5283 8bbd 4b00 ed3c 3db0 d63c
000002b0: f43f bb3c ff77 b13d 2d78 4cbd 6aa1 3ebd
000002c0: f6d6 bbbd 7630 92bc 00c6 73bd 62f3 67bb
000002d0: 2bbc b3bc a2fe 1f3d 0581 bc3d c637 fd3c
000002e0: 85ed 0bbd bdab 54bd c8ab bcbd f341 b53d
000002f0: c026 a5bc 01b6 a33c 0bcb c73a ced7 8ebd
00000300: 0270 703d e8b3 6d3d c5f7 a73b c25c 75bd
00000310: c474 37bd 8043 be3a 684f 82bd 4749 79bd
00000320: b91f 92bc 482a ecbc 9e5b ca3c 8d78 f4bc
00000330: 6ffc 66bc 054e 25bd bd89 c5bd cdc5 ab3d
00000340: 07ee 433c 08cd b33d d2ef 8cbc 7ed5 d1bc
00000350: f102 cbbd e754 24bd c459 8d3d 38a8 d3bd
00000360: 3885 2fbd 7cae 653d e59c 533d 56c8 1c3d
00000370: 0dbd bdbc e819 20bc 58fb a3bc a129 1fbd
00000380: ba2e 343d f681 16bd 9b43 74bd ac9d bd3c
00000390: 21f7 9bbd 89cf b9bc b6a6 5a3d 2e5c 213d
000003a0: 0bc9 b73d 323d 93bd de48 6dbc 1acb 49bd
000003b0: bb1b 9abd e81d 72bd 0b69 be3c ede4 0f3c
000003c0: 16ac 5cbd 2b4e 98bd ad00 b3bd 328e d03d
000003d0: 9479 99bc 7c55 ccbc f32e 19bd 2fb9 57bd
000003e0: 42dc c7bd 57eb 7dbd 85b9 833d 1a5b bc3c
000003f0: d6e2 37bd d879 47bd 8e0c 703d 6ccf 993d

embedding_net.conv2.bias f4 [20]
0.0071640913 0.020208236 0.060288902 0.025413789 -0.07455162 0.023425955 -0.095127925 0.024081625
-0.054090433 -0.009013414 -0.08275678 0.06252342 0.023404786 0.038751267 -0.09177096 0.04452237
-0.07455881 -0.10001359 0.02991228 0.0224447
00000000: c1c0 ea3b be8b a53c 7ff1 763d 9430 d03c
00000010: 85ae 98bd cae7 bf3c 6ed2 c2bd d446 c53c
00000020: ee8d 5dbd 00ad 13bc 637c a9bd 470c 803d
00000030: 65bb bf3c a6b9 1e3d 6af2 bbbd 175d 363d
00000040: 4ab2 98bd edd3 ccbd 990a f53c f3dd b73c

embedding_net.fc1.weight f4 [70, 100]
-0.034880545 -0.087464884 0.02560058 -0.04335498 -0.07936157 -0.012538756 -0.08518631 0.049471445
-0.06565454 -0.033849504 -0.098736316 -0.013703567 -0.030647319 0.055453002 -0.022340603 0.06730436
0.087282225 0.020340085 -0.034244157 -0.082330756 -0.069919355 -0.033622503 -0.06257419 0.05283845
-0.03232989 -0.0036497775 0.004150958 -0.08647938 0.083444335 -0.03821302 -0.08097378 -0.0016392996
-0.08790974 0.012348085 -0.06488073 -0.022045398 -0.02952768 0.07206883 0.07662956 0.098820075
0.010723595 0.06338425 -0.082295194 -0.0672821 0.053511534 0.021395493 0.026877912 0.05635316
0.062586874 0.046098974 -0.037880626 -0.032476712 0.020524958 0.081582956 -0.008436842 -0.030603865
0.05459392 0.06615716 -0.0020576282 -0.029742409 -0.09976109 0.00610248 0.03042356 -0.07359132
-0.07440681 -0.10022485 0.0778369 0.09302784 0.09784371 0.08898344 -0.0107591245 0.044101696
0.05890975 -0.026953535 -0.05789444 0.08312866 -0.010662483 0.036429983 -0.047085628 -0.051873315
-0.018732022 0.0029682186 0.05872149 0.06489899 -0.012515096 0.09770856 -0.053356837 0.006562288
-0.06280661 0.016233405 0.09053242 -0.08279369 0.023498805 -0.091914475 -0.022365926 -0.047015317
0.00021447825 -0.06943876 0.025472635 -0.09435085 0.021804454 -0.038845114 -0.060099844 0.08306072
0.009929586 -0.06635641 -0.05664549 -0.044917226 -0.05940781 0.011801884 0.00057683693 0.0864439
0.0022569194 -0.053691622 0.084871955 0.024992619 -0.021643937 0.06969917 0.08200995 -0.08426741
-0.08250748 -0.06580699 -0.085870884 -0.029908186 0.035885125 -0.09111038 -0.09753982 -0.085688606
-0.05186453 0.062732585 0.08819463 0.09838312 0.00096565473 -0.084976256 0.096305594 -0.067626886
0.037074406 0.04850953 0.030186437 0.032201238 -0.09397296 -0.034158185 -0.0650538 0.06803244
-0.05752307 -0.003112181 0.087724544 0.074736305 -0.07290401 -0.08443056 0.078714326 0.027914219
-0.07740534 0.0857525 -0.073221125 0.08491474 0.0706429 0.06950707 -0.020234339 0.007532676
-0.08490135 0.05463243 0.004500129 0.0722776 -0.043685522 0.09450429 0.06567915 -0.02876183
0.02654396 -0.07360328 -0.06705043 -0.069043756 -0.057939406 0.027617719 -0.043723978 -0.034752205
0.06981493 0.015521213 -0.049477234 -0.028200263 -0.027339961 0.044814073 0.06890806 0.07768133
-0.06879991 -0.011584683 0.022725567 -0.039368767 0.0653808 -0.011026095 0.010498103 -0.08563185
0.07194989 -0.06648125 -0.0022385796 -0.081654236 0.07618572 0.005573896 0.044655908 -0.07889942
0.0076310276 0.039756622 0.068991825 0.07146297 -0.019401107 -0.01114197 0.032266513 -0.036094014
-0.041156597 -0.092505574 -0.098329425 -0.05320294 0.011779683 0.0077385926 0.00732714 0.013602882
-0.019665932 -0.100333326 0.08701351 -0.074745275 -0.0032197102 0.037660763 0.023822647 -0.045600902
-0.08933442 0.07733903 3.9121875e-05 0.088144265 0.043848548 0.03975416 0.01848038 -0.025626289
-0.061098635 0.00960391 0.09219966 0.057768855 0.08939759 0.09232348 0.07639722 -0.057498395
-0.05592407 -0.0054814387 -0.053102907 -0.02865283 -0.03564124 0.086465165 -0.00784421 0.09615844
-0.077928185 -0.09983113 0.013751799 0.019104252 -0.041359693 -0.051340166 0.02773955 0.0045594145
00000000: e7de 0ebd ca20 b3bd 4fb8 d13c fe94 31bd
00000010: 5288 a2bd 5b6f 4dbc 2976 aebd 92a2 4a3d
00000020: e375 86bd c7a5 0abd 4436 cabd ed84 60bc
00000030: 1610 fbbc b022 633d a403 b7bc ded6 893d
00000040: 06c1 b23d 40a0 a63c 9a43 0cbd 079d a8bd
00000050: e131 8fbd c0b7 09bd e626 80bd 216d 583d
00000060: 596c 04bd 1b31 6fbb c204 883b 1a1c b1bd
00000070: dde4 aa3d 4185 1cbd 95d5 a5bd c4dd d6ba
00000080: 060a b4bd 9f4f 4a3c 30e0 84bd 8d98 b4bc
00000090: 08e4 f1bc d398 933d f5ef 9c3d 2e62 ca3d
000000a0: 04b2 2f3c 9acf 813d 628a a8bd 33cb 89bd
000000b0: e92e 5b3d 9a45 af3c 112f dc3c 92d2 663d
000000c0: 8c2d 803d 47d2 3c3d b728 1bbd 4d06 05bd
000000d0: f523 a83c f714 a73d ae3a 0abc f5b4 fabc
000000e0: e09d 5f3d 687d 873d 46d9 06bb 5aa6 f3bc
000000f0: 8b4f ccbd 50f7 c73b d43a f93c 0cb7 96bd
00000100: 9962 98bd b042 cdbd f468 9f3d 6185 be3d
00000110: 4862 c83d f33c b63d 0a47 30bc fba3 343d
00000120: 5a4b 713d a9cd dcbc b822 6dbd 5c3f aa3d
00000130: b2b1 2ebc 9b37 153d dcdc 40bd 1d79 54bd
00000140: e673 99bc 7286 423b f285 703d c3e9 843d
00000150: 1e0c 4dbc 6d1b c83d b38c 5abd 7608 d73b
00000160: c0a0 80bd ebfb 843c 1069 b93d bd8f a9bd
00000170: 9180 c03c a83d bcbd bf38 b7bc 2293 40bd
00000180: 91e5 6039 e935 8ebd fdab d03c 053b c1bd
00000190: 419f b23c 0e1c 1fbd 412b 76bd bd1b aa3d
000001a0: b4af 223c dfe5 87bd 1a05 68bd 20fb 37bd
000001b0: 9b55 73bd b05c 413c df36 173a 8009 b13d
000001c0: d3e8 133b bfeb 5bbd 59d1 ad3d 52bd cc3c
000001d0: a04e b1bc 70be 8e3d d5f4 a73d 6494 acbd
000001e0: aff9 a8bd d1c5 86bd 13dd afbd 0302 f5bc
000001f0: 48fc 123d 1498 babd f5c2 c7bd 827d afbd
00000200: e76f 54bd f179 803d 639f b43d 177d c93d
00000210: fe23 7d3a 0808 aebd de3b c53d f77f 8abd
00000220: 55db 173d eeb1 463d 8c49 f73c 72e5 033d
00000230: e574 c0bd 74e9 0bbd ed3a 85bd 9854 8b3d
00000240: 509d 6bbd bcf5 4bbb eda8 b33d 590f 993d
00000250: b34e 95bd eee9 acbd fa34 a13d 5cac e43c
00000260: b186 9ebd 029f af3d f5f4 95bd c7e7 ad3d
00000270: 3aad 903d b959 8e3d 7cc2 a5bc abd4 f63b
00000280: c2e0 adbd 41c6 5f3d d175 933b 4706 943d
00000290: 97ef 32bd 778b c13d ca82 863d ee9d ebbc
000002a0: b872 d93c 51bd 96bd bc51 89bd d066 8dbd
000002b0: df51 6dbd 8e3e e23c ea17 33bd 5458 0ebd
000002c0: 21fb 8e3d b04c 7e3c a4a8 4abd 3d04 e7bc
000002d0: 0ef8 dfbc f68e 373d ab1f 8d3d 6417 9f3d
000002e0: f8e6 8cbd afcd 3dbc f82a ba3c 2541 21bd
000002f0: 5ee6 853d cba6 34bc 3c00 2c3c c05f afbd
00000300: 775a 933d 5227 88bd 22b5 12bb 563a a7bd
00000310: 4207 9c3d 3ba5 b63b 1de9 363d 0596 a1bd
00000320: b30d fa3b d7d7 223d 964b 8d3d 2d5b 923d
00000330: 12ef 9ebc cf8c 36bc e429 043d 51d7 13bd
00000340: d293 28bd 9073 bdbd f060 c9bd 53eb 59bd
00000350: 92ff 403c 0594 fd3b 8118 f03b 9fde 5e3c
00000360: 731a a1bc 8f7b cdbd 2434 b23d 0d14 99bd
00000370: c601 53bb 2c42 1a3d b627 c33c 03c8 3abd
00000380: f7f4 b6bd ed63 9e3d cb16 2438 fb84 b43d
00000390: 899a 333d 42d5 223d 2a64 973c 39ee d1bc
000003a0: 9042 7abd b859 1d3c 2dd3 bc3d 099f 6c3d
000003b0: 1516 b73d 1814 bd3d 2576 9c3d 7083 6bbd
000003c0: a310 65bd a49d b3bb 6f82 59bd 57b9 eabc
000003d0: 8dfc 11bd a614 b13d 0085 00bc b7ee c43d
000003e0: d098 9fbd 4374 ccbd 3a4f 613c 8580 9c3c
000003f0: c868 29bd 114a 52bd 0e3e e33c 2467 953b

embedding_net.fc1.bias f4 [70]
-0.02616506 -0.00993413 -0.0061540473 -0.008093977 -0.077571526 -0.006113867 -0.0041385256 -0.007984129
-0.095999174 -0.0057379017 -0.008751763 -0.05036541 -0.053708732 -0.079148054 -0.0070930836 -0.0052336957
-0.0016522062 -0.004735937 -0.03246471 -0.004457176 -0.00540918 -0.007688895 -0.007146597 -0.007834993
-0.066214174 -0.0047012 -0.0050804666 -0.0047893315 -0.026297586 -0.092901096 -0.024171652 -0.007639638
-0.004649155 -0.097040206 -0.06953522 -0.0070176683 -0.007479405 -0.008375253 -0.00827038 -0.003084759
-0.09258062 -0.017286578 -0.0078262845 -0.009071636 -0.031329636 -0.0058639613 -0.08251088 -0.0057384884
-0.0040992517 -0.0051169666 -0.038116023 -0.098523974 -0.009282114 -0.07967545 -0.008395435 -0.083319284
-0.0062744333 -0.09025667 -0.007323605 -0.0059259264 -0.005838568 -0.00448011 -0.005281922 -0.005409816
-0.020759135 -0.005657562 -0.004594289 -0.042273574 -0.006560235 -0.029966434
00000000: 1c58 d6bc c3c2 22bc e4a7 c9bb 9a9c 04bc
00000010: d2dd 9ebd d556 c8bb 789c 87bb ddcf 02bc
00000020: 379b c4bd 0205 bcbb 8e63 0fbc f64b 4ebd
00000030: b0fd 5bbd 6018 a2bd 196d e8bb 6c7f abbb
00000040: d78e d8ba eb2f 9bbb b7f9 04bd 810d 92bb
00000050: 7e3f b1bb 20f3 fbbb 002e eabb 585e 00bc
00000060: 4c9b 87bd 860c 9abb 0b7a a6bb d3ef 9cbb
00000070: 096e d7bc ee42 bebd a103 c6bc ee55 fabb
00000080: f057 98bb 04bd c6bd 7b68 8ebd 78f4 e5bb
00000090: cc15 f5bb 5b38 09bc 7d80 07bc ab29 4abb
000000a0: e89a bdbd 959c 8dbc d139 00bc 33a1 14bc
000000b0: 8153 00bd 7926 c0bb 77fb a8bd ee09 bcbb
000000c0: 0453 86bb 3aac a7bb 8c1f 1cbd f0c6 c9bd
000000d0: 0214 18bc e22c a3bd 028d 09bc 4da3 aabd
000000e0: c399 cdbb 7dd8 b8bd dafa efbb 462e c2bb
000000f0: 7551 bfbb e3cd 92bb f913 adbb d344 b1bb
00000100: 100f aabc 1263 b9bb b18b 96bb 0e27 2dbd
00000110: 3df7 d6bb 2b7c f5bc

embedding_net.fc2.weight f4 [40, 70]
0.057860754 0.10655235 -0.11430618 -0.07900982 -0.10483696 -0.087377064 0.081106246 0.054282192
-0.07172741 0.041040104 0.0933417 -0.078012474 0.05051063 -0.054908507 0.023847697 -0.10693681
-0.05428405 0.026104487 -0.08845475 -0.057874665 0.058928635 -0.065441094 0.090946816 0.02773319
0.04713534 0.05364376 -0.040792342 -0.09608215 -0.09818485 -0.09650465 -0.057785973 0.035325963
-0.09029449 -0.08082451 0.04028329 -0.020935845 0.050882112 0.019726228 -0.002117019 -0.09643624
0.04592551 0.032865547 -0.064493045 0.0330174 0.097058184 0.0037615695 0.017675992 -0.0028686535
0.022639845 -0.06554933 0.032821167 -0.078608625 -0.091965415 0.101864345 0.08956 0.11102721
-0.07007691 0.102907375 -0.1012614 -0.0612175 0.020677593 0.06812405 -0.11647236 0.08487465
0.01171848 0.042157877 -0.0041779988 0.11437538 0.0034108711 0.015136064 -0.039256275 -0.06181191
0.080093205 -0.035694182 -0.02956498 0.034151282 -0.10198093 0.061444342 0.07892197 0.099564925
0.0055402564 -0.06923829 0.085655324 0.071073234 0.11242316 -0.095330715 -0.06856127 -0.110806875
-0.083116025 0.095285475 -0.11311669 0.048051722 -0.01953415 0.10593461 0.11470582 0.027782846
-0.044724923 0.06399642 0.058319032 -0.03494142 -0.10286971 0.015382287 -0.03831649 -0.062618375
0.01798295 0.08880977 -0.110667065 0.06614616 -0.013720775 -0.007862625 0.10957527 0.0046556205
-0.051479243 -0.02772815 -0.02781474 -0.08843103 -0.08437596 0.05029909 -0.10086275 -0.029539526
0.08342191 -0.010796914 -0.033408713 -0.037516523 -0.028726693 -0.08543214 -0.10634926 -0.014683567
0.024733048 0.082536854 -0.013162222 -0.07502297 0.053248383 -0.11015357 0.029494757 0.061504565
-0.01830654 0.062377326 -0.1002463 -0.046366256 0.056610737 0.113920905 0.08428608 0.024119942
-0.10475781 -0.03526743 -0.09517358 -0.0874121 -0.04266499 -0.034986813 0.09872189 -0.10383253
0.07389006 0.0454893 -0.08304315 -0.014908408 -0.083223134 0.017227452 0.03217471 -0.064434126
0.088318855 -0.068920225 -0.019985795 -0.010916733 -0.083108336 -0.02544003 -0.07556988 0.003015457
0.008404177 -0.106832 0.09544253 0.006096189 0.11062381 0.012774446 -0.048616905 -0.046527814
-0.02091701 -0.025834221 0.029054007 -0.025429526 -0.0610977 0.040399585 0.11181788 -0.02455583
0.03775735 -0.08356794 -0.07886948 -0.118888654 -0.06264721 0.060289916 0.10356223 0.117354274
0.0131538715 -0.060778715 -0.0075676455 0.047385894 0.059536327 -0.029201653 -0.020934932 -0.10637389
0.036718935 0.009378889 -0.083733335 0.013402089 0.019622793 -0.08814423 0.10997207 -0.06654957
0.053909842 -0.03883705 -0.074575566 -0.03765774 -0.003436368 -0.03163296 0.06285913 -0.11057051
-0.07184964 -0.026838172 -0.09222308 -0.061768167 -0.104955986 0.058695976 -0.05957952 0.0697198
0.10234673 -0.07794312 0.08639612 -0.013195018 0.115264975 0.044513866 0.05818149 -0.027285835
0.027303401 -0.0161316 0.03442245 0.016237415 -0.0872566 0.09958572 -0.090836 0.10816809
-0.08045732 0.025640665 0.0858849 -0.09600168 -0.06878485 0.09524223 -0.076361194 0.07245183
0.07259138 -0.08557624 -0.072739206 -0.111489385 -0.038357344 -0.05319441 0.07281867 -0.0941359
00000000: 66ff 6c3d 1e38 da3d 5c19 eabd e7cf a1bd
00000010: c3b4 d6bd bff2 b2bd 081b a63d 0157 5e3d
00000020: d2e5 92bd ab19 283d ef29 bf3d 01c5 9fbd
00000030: 3ce4 4e3d bee7 60bd 3f5c c33c b001 dbbd
00000040: f458 5ebd 14d9 d53c c427 b5bd fc0d 6dbd
00000050: 275f 713d fb05 86bd 5342 ba3d b730 e33c
00000060: fc10 413d 8fb9 5b3d df15 27bd b8c6 c4bd
00000070: 2315 c9bd 3ba4 c5bd fcb0 6cbd f5b1 103d
00000080: 51ec b8bd 5287 a5bd 1700 253d a681 abbc
00000090: c369 503d e698 a13c afbd 0abb 5d80 c5bd
000000a0: 631c 3c3d 069e 063d ee14 84bd 413d 073d
000000b0: 71c6 c63d aa84 763b 3ecd 903c 0500 3cbb
000000c0: 3277 b93c ba3e 86bd 7d6f 063d 8ffd a0bd
000000d0: 5d58 bcbd 419e d03d 3c6b b73d 3c62 e33d
000000e0: 7c84 8fbd 1ac1 d23d 2362 cfbd 34bf 7abd
000000f0: 0e64 a93c 9f84 8b3d 1089 eebd c3d2 ad3d
00000100: defe 3f3c bdad 2c3d 98e7 88bb a43d ea3d
00000110: ec88 5f3b 41fd 773c 30cb 20bd 7c2e 7dbd
00000120: e807 a43d 1034 12bd 4232 f2bc 37e2 0b3d
00000130: 61db d0bd 10ad 7b3d d8a1 a13d b2e8 cb3d
00000140: 0a8b b53b cecc 8dbd 0f6c af3d d88e 913d
00000150: 1d3e e63d c03c c3bd da69 8cbd b7ee e2bd
00000160: bc38 aabd 0825 c33d b9a9 e7bd e2d1 443d
00000170: 1506 a0bc 3ff4 d83d e3ea ea3d da98 e33c
00000180: 7b31 37bd 8e10 833d f0df 6e3d bc1e 0fbd
00000190: 5bad d2bd fd05 7c3c c0f1 1cbd 103e 80bd
000001a0: fb50 933c e6e1 b53d 6aa5 e2bd a377 873d
000001b0: 1acd 60bc 3dd2 00bc 0069 e03d 2d8e 983b
000001c0: e6db 52bd 2526 e3bc bddb e3bc 541b b5bd
000001d0: 4ecd acbd 6b06 4e3d 2191 cebd e0fc f1bc
000001e0: 1bd9 aa3d 8ae5 30bc 93d7 08bd edaa 19bd
000001f0: 3e54 ebbc 0cf7 aebd a4cd d9bd 5893 70bc
00000200: f69c ca3c 1509 a93d 5ca6 57bc a5a5 99bd
00000210: fa1a 5a3d 3298 e1bd fd9e f13c 36ec 7b3d
00000220: 99f7 95bc 5e7f 7f3d ef4d cdbd 8bea 3dbd
00000230: a9e0 673d 5d4f e93d 2e9e ac3d 2f97 c53c
00000240: 438b d6bd 9574 10bd 5eea c2bd 1d05 b3bd
00000250: 7cc1 2ebd 554e 0fbd b42e ca3d 26a6 d4bd
00000260: ac53 973d fd52 3a3d 8712 aabd 6542 74bc
00000270: e470 aabd 9620 8d3c a1c9 033d 0af6 83bd
00000280: 84e0 b43d 0c26 8dbd 40b9 a3bc 19dc 32bc
00000290: b434 aabd 9c67 d0bc 62c4 9abd f99e 453b
000002a0: acb1 093c bcca dabd 6077 c33d 8ac2 c73b
000002b0: bc8e e23d e94b 513c 8522 47bd f393 3ebd
000002c0: 265a abbc 4aa2 d3bc ab02 ee3c 9551 d0bc
000002d0: 9541 7abd 097a 253d c600 e53d 4f29 c9bc
000002e0: 73a7 1a3d ab25 abbd 5286 a1bd e57b f3bd
000002f0: 2e4d 80bd 8ff2 763d 6f18 d43d 7057 f03d
00000300: 5683 573c 1af3 78bd 03fa f7bb b617 423d
00000310: 5ddc 733d 4e38 efbc bc7f abbc 8eda d9bd
00000320: 9866 163d e9a9 193c 627c abbd 6f94 5b3c
00000330: fbbf a03c f684 b4bd 0939 e13d 244b 88bd
00000340: 91d0 5c3d 9913 1fbd 13bb 98bd 013f 1abd
00000350: b034 61bb 9091 01bd 4abc 803d cb72 e2bd
00000360: e725 93bd badb dbbc 74df bcbd 9e00 7dbd
00000370: 2af3 d6bd 316b 703d a809 74bd 41c9 8e3d
00000380: 2a9b d13d a4a0 9fbd 73f0 b03d eb2f 58bc
00000390: 0b10 ec3d 2c54 363d b74f 6e3d 8b86 dfbc
000003a0: 62ab df3c 6b26 84bc 8efe 0c3d 5404 853c
000003b0: 97b3 b2bd 99f3 cb3d 3a08 babd 3b87 dd3d
000003c0: cfc6 a4bd 5f0c d23c 6ce4 af3d 879c c4bd
000003d0: 12df 8cbd 5c0e c33d 4263 9cbd a061 943d
000003e0: caaa 943d 9942 afbd 4bf8 94bd 8c54 e4bd
000003f0: 971c 1dbd 62e2 59bd f421 953d 53ca c0bd

embedding_net.fc2.bias f4 [40]
2.2441538e-06 7.2697344e-06 4.6236387e-06 -2.5144294e-07 -1.5115569e-06 -2.7924972e-07 1.4212986e-07 -3.1654447e-06
6.21811e-07 4.5164707e-06 3.8370226e-06 5.1288935e-06 -4.286744e-06 1.3952468e-08 -1.2362388e-07 -6.517915e-06
-1.342201e-06 -2.0659743e-06 6.6233492e-06 -5.2468286e-06 -6.618724e-07 -2.2167444e-06 -4.24395e-06 -1.328984e-06
1.2504361e-06 2.7635697e-06 -1.7657487e-06 -2.3162795e-06 1.4728961e-06 -3.1134923e-06 6.666589e-06 8.8055583e-07
2.1653602e-06 -1.0204378e-06 -4.672687e-06 7.9553797e-07 -5.733875e-07 9.721624e-07 -1.3240245e-06 9.804844e-07
00000000: 459a 1636 8bee f336 c124 9b36 0efe 86b4
00000010: b3e0 cab5 caeb 95b4 5c9c 1834 ed6d 54b6
00000020: 87ea 2635 308c 9736 c6bf 8036 dc18 ac36
00000030: dad6 8fb6 9ab3 6f32 79bd 04b4 77b4 dab6
00000040: ad25 b4b5 2ba5 0ab6 233e de36 ea0d b0b6
00000050: 86ab 31b5 61c3 14b6 4167 8eb6 8b5f b2b5
00000060: a8d4 a735 c475 3936 aafe ecb5 6171 1bb6
00000070: 53b0 c535 64f1 50b6 90b1 df36 565f 6c35
00000080: 9b50 1136 faf5 88b5 13ca 9cb6 f48c 5535
00000090: e4ea 19b5 3f7b 8235 23b5 b1b5 3099 8335
