runs/TripletNet_0911b/model_best.pth.tar (torch_old, 48978 bytes, 8 tensors)

embedding_net.conv1.weight f4 [10, 1, 3, 3]
0	0x3e1b7421	0.15181018
1	0xbe272fe6	-0.16326866
2	0xbda982d3	-0.08276906
3	0x3e0b18a2	0.13583615
4	0xbea95b38	-0.33077407
5	0x3e386403	0.18006901
6	0xbdb7194a	-0.089403704
7	0x3e1aaf4e	0.15105936
8	0x3ccc5f2d	0.024947727
9	0xbcf66e3e	-0.030081864
10	0x3dd35a7c	0.10319993
11	0x3cf52491	0.029924663
12	0x3e052856	0.13003668
13	0xbdfabb2e	-0.12242733
14	0xbc772f84	-0.015087012
15	0xbcbc91a8	-0.023018673
16	0x3d612ba3	0.054973256
17	0x3bceb2f9	0.0063079563
18	0x3e904f71	0.2818561
19	0x3dc76482	0.09735967
20	0xbe0262fd	-0.12733074
21	0xbe5498c3	-0.20761399
22	0xbd72de45	-0.059294004
23	0xbe1409a9	-0.1445681
24	0xbde9ef03	-0.11422541
25	0x3c317f30	0.0108335465
26	0x3e488f5c	0.19585937
27	0x3e28c87b	0.16482727
28	0xbeae7281	-0.34071735
29	0x3e43ad91	0.19109179
30	0x3d924be0	0.07143378
31	0x3e970c3a	0.29501516
32	0x3e4ad908	0.19809353
33	0xbe9d4e5b	-0.30723843
34	0xbea4249b	-0.32059178
35	0xbe2968d3	-0.16543894
36	0x3e916a24	0.2840129
37	0xbd8377b4	-0.06419316
38	0x3e0db81a	0.1383976
39	0xbe20d1f6	-0.15705094
40	0x3ea69b32	0.3254028
41	0xbe0da2ec	-0.13831681
42	0x3e7c1ae9	0.2461964
43	0x3a289fb8	0.00064324914
44	0xbe335b42	-0.17515281
45	0x3e2ac4b4	0.16676599
46	0xbe3a01d3	-0.18164758
47	0x3dbe8c09	0.09304053
48	0xbdc5246a	-0.09626086
49	0xbd15b0f2	-0.0365457
50	0xbea413cf	-0.32046363
51	0xbe22be78	-0.1589297
52	0x3e393804	0.18087775
53	0xbda5f0ec	-0.08102593
54	0x3ea9bb32	0.3315063
55	0x3e875977	0.26435444
56	0xbc8117c1	-0.015758397
57	0xbe63fc0b	-0.22264116
58	0x3e4c9ebc	0.19982427
59	0x3dd1a31d	0.102361895
60	0xbe5ce092	-0.21570042
61	0x3e5aa92b	0.21353595
62	0x3e4de79e	0.20107886
63	0x3e951b3d	0.29122344
64	0xbe4196d0	-0.18905187
65	0xbd687430	-0.05675143
66	0xbc227466	-0.009915447
67	0x3d41426e	0.047182493
68	0xbe81dfe4	-0.25366127
69	0xbe751bcc	-0.23936385
70	0x3e3867fa	0.18008414
71	0xbda14774	-0.07874957
72	0x3e0d583a	0.13803187
73	0xbbfd571f	-0.007731333
74	0x3da9f33d	0.08298347
75	0x3d6a6003	0.05722047
76	0x3dd3756e	0.10325132
77	0x3e1633e7	0.14668237
78	0xbea12276	-0.31471604
79	0x3e248c39	0.16069116
80	0xbe7716be	-0.24129769
81	0xbe806608	-0.25077844
82	0x3ca563c4	0.020189174
83	0xbd677b82	-0.05651427
84	0x3e48f2e3	0.19623904
85	0xbe460be7	-0.19340478
86	0xbe97944a	-0.29605323
87	0x3e77b63f	0.24190615
88	0xbd4f519d	-0.050614942
89	0x3e3f964f	0.18709682

embedding_net.conv1.bias f4 [10]
0	0x3d935e0c	0.071956724
1	0xbe7d8e92	-0.24761418
2	0x3d36eb99	0.044658277
3	0x3da8e7aa	0.082473114
4	0xbe653892	-0.22384861
5	0xbe22ca18	-0.15897405
6	0x3e1b4fd5	0.15167172
7	0x3d093a7f	0.03350305
8	0xbe15eb47	-0.14640532
9	0xbdce9975	-0.10087863

embedding_net.conv2.weight f4 [20, 10, 3, 3]
0	0x3dc5f089	0.09665019
1	0xbc9d79a6	-0.019223046
2	0x3d74caa7	0.059763577
3	0x3d3ae5cc	0.045629308
4	0xbd8b5d64	-0.06804922
5	0xbdb6e46f	-0.08930289
6	0x3dcf40b0	0.1011976
7	0x3bbfc5b1	0.005852424
8	0x3d946dba	0.07247491
9	0x3cb2d1ac	0.021828495
10	0x3d0a5ab0	0.033777893
11	0x3da09a41	0.078419216
12	0x3dcccdd4	0.10000196
13	0xbd8f5bba	-0.06999917
14	0x3c54a01d	0.012977627
15	0x3da169fc	0.07881543
16	0x3d9c6309	0.07636077
17	0x3d85f048	0.06539971
18	0xbd9c385c	-0.07627937
19	0xbd9b3cb4	-0.075799376
20	0xbd82beee	-0.06384073
21	0x3c4e84b7	0.012604884
22	0x3dd64527	0.104624085
23	0xbd8957c1	-0.06706191
24	0x3d6630a2	0.056198724
25	0xbd6e07c8	-0.05811289
26	0xbdcaaa36	-0.098957464
27	0xbcc3c1a7	-0.023896052
28	0x3d724fb9	0.05915806
29	0x3dc60d54	0.09670511
30	0xbd861a0e	-0.06547938
31	0x3cbb1507	0.022837175
32	0x3dbade6d	0.091244556
33	0x3d9122d2	0.070867196
34	0x3d88dbe5	0.066825666
35	0x3d9ccd94	0.076563984
36	0x3d87ad10	0.06624806
37	0x3cdb76e1	0.026790084
38	0xbd96e43c	-0.07367751
39	0xbdb54f32	-0.08852996
40	0xbd475836	-0.04866811
41	0xbc5e270e	-0.013559116
42	0xbd82b155	-0.0638148
43	0x3d1da891	0.038490836
44	0x3d038300	0.032107353
45	0xbcc39eef	-0.023879496
46	0x3d25c6a4	0.04047264
47	0x3d0b4251	0.03399879
48	0x3d83775f	0.064192526
49	0x3d91121b	0.070835315
50	0xbd129450	-0.035785973
51	0x3dd2f414	0.103004605
52	0xbc478a98	-0.012179039
53	0xbb6b8203	-0.0035935647
54	0xbdcc6d70	-0.09981811
55	0xbd8d9139	-0.06912465
56	0xbd8327da	-0.064040855
57	0xbd36cc1d	-0.04462825
58	0x3d97cdbf	0.0741229
59	0xbd106fc0	-0.035262823
60	0xbd9e8bad	-0.07741485
61	0x3d25bfa6	0.040465973
62	0x3d0b7027	0.034042504
63	0x3d8bebdc	0.06832096
64	0xbd5f345e	-0.0544933
65	0x3cbafa0d	0.022824312
66	0xbd1dbe08	-0.038511306
67	0xbcc35bb4	-0.023847438
68	0xbdac20ab	-0.084046684
69	0xbd44b57c	-0.04802464
70	0xbd04084d	-0.03223448
71	0x3d38d628	0.04512611
72	0x3c939577	0.018015606
73	0x3ccaf493	0.024774825
74	0x3dd43137	0.103609495
75	0x3dd20a89	0.10255916
76	0x3d9233b5	0.071387686
77	0x3b3ba46d	0.002863194
78	0xbd93af73	-0.07211199
79	0x3da98e4a	0.082790926
80	0xbcd2c72f	-0.025729744
81	0xbc0b3633	-0.008496809
82	0xbdb9c0e9	-0.09069998
83	0xbcaa1b29	-0.020764904
84	0xbd8b6084	-0.06805518
85	0x3dc64c1a	0.09682484
86	0xbdbac1a6	-0.09118967
87	0xbda831e7	-0.08212643
88	0xbb61cdfb	-0.003445505
89	0xbd6935f5	-0.056936223
90	0x3d0d8834	0.03455372
91	0xbd3313e0	-0.043720126
92	0xbd5888ac	-0.052864715
93	0x3b0884d9	0.0020831136
94	0x3d940cee	0.07229029
95	0xbd9eb28f	-0.07748901
96	0x3d380825	0.044929642
97	0x3d81a08f	0.06329452
98	0x3dcb80a9	0.09936649
99	0xbd98f27c	-0.07468125
100	0x3cd0e918	0.025501773
101	0xbd9fcfa3	-0.078032754
102	0x3db6fb61	0.089346655
103	0xbd26637e	-0.040622227
104	0x3d823093	0.06356921
105	0x3b216ffd	0.00246334
106	0xbc060c66	-0.008181667
107	0xbb644955	-0.0034833748
108	0x3c800040	0.01562512
109	0x3d3ece2e	0.046583347
110	0x3c6028c1	0.0136815915
111	0x3cf70c34	0.030157186
112	0xbdc63d66	-0.096796796
113	0x3d99eae5	0.07515506
114	0x3db7b6cf	0.08970415
115	0x3daf3a27	0.085560136
116	0x3d9ab454	0.07553926
117	0xbd9e983b	-0.077438794
118	0xbd2e5596	-0.04256209
119	0x3db767d8	0.089553535
120	0xbda7234a	-0.08161028
121	0x3dbf57e6	0.09342937
122	0xbdaedee7	-0.08538609
123	0xbd9b377a	-0.07578941
124	0x3d4a6edc	0.04942213
125	0xbda08296	-0.07837407
126	0xbd0c1714	-0.034201697
127	0x3d95ed11	0.073206075
128	0x3da2de04	0.07952502
129	0x3dba4ead	0.090970375
130	0xbcbd569b	-0.023112586
131	0xbdad5338	-0.08463138
132	0x3dc42b55	0.095785774
133	0xbcd166a1	-0.025561633
134	0xbd412383	-0.047153007
135	0x3cd14abe	0.025548335
136	0xbd973ee4	-0.07385042
137	0x3d8d6779	0.069045015
138	0x3d874c43	0.06606343
139	0xbdab4b96	-0.08364026
140	0xbdb150fd	-0.086580254
141	0xbc167d32	-0.009185122
142	0x3d359a3a	0.044336535
143	0xbb459aaf	-0.0030152013
144	0xbd872723	-0.065992616
145	0xbb9cb06a	-0.0047817724
146	0xbde32879	-0.11091704
147	0xbdb1f2dc	-0.086889
148	0xbd996870	-0.07490623
149	0x3d9ebeff	0.07751273
150	0x3da17fe6	0.07885723
151	0xbd2ffaa6	-0.042963646
152	0xbbd3b8f9	-0.0064612594
153	0x3d3a9729	0.045554314
154	0x3c3d24c6	0.011544412
155	0xbd5df380	-0.054187298
156	0x3d7390f9	0.05946443
157	0x3d825081	0.06363011
158	0xbbe96a96	-0.0071233017
159	0xbc69f5a6	-0.014279759
160	0x3dc1fac6	0.09471659
161	0x3dbafd21	0.09130312
162	0xbd8052ab	-0.06265768
163	0x3dcef49f	0.101052515
164	0x3cbcfe70	0.023070544
165	0xbd9343dd	-0.07190678
166	0x3d6afdf9	0.057371113
167	0xbda3e819	-0.080032535
168	0x3dc2834c	0.09497699
169	0xbd8c0d68	-0.068384945
170	0x3ce8fdb4	0.028441288
171	0x3cff23df	0.031145034
172	0x3cc66752	0.024219189
173	0x3db1e671	0.08686531
174	0xbd38f5d4	-0.045156315
175	0xbd3ad643	-0.045614492
176	0xbdbb790b	-0.091539465
177	0xbbd62c4a	-0.0065360414
178	0xbd55924c	-0.052141473
179	0x3b249e79	0.002511887
180	0xbcbba8c5	-0.022907624
181	0x3d0ce3f6	0.034397088
182	0x3db9d9bf	0.09074735
183	0x3cfc3608	0.030787483
184	0xbd0c68b2	-0.034279533
185	0xbd5529f9	-0.05204198
186	0xbdbcec04	-0.09224704
187	0x3db501b7	0.08838218
188	0xbca6287e	-0.02028298
189	0x3ca7a442	0.020464066
190	0x3b40f34f	0.0029441898
191	0xbd8c12bc	-0.06839511
192	0x3d71833a	0.058963038
193	0x3d70232a	0.058627285
194	0x3b973de1	0.004615531
195	0xbd755cc2	-0.059902914
196	0xbd3774c4	-0.04478909
197	0x3abe4380	0.0014515966
198	0xbd7fc3dd	-0.06244265
199	0xbd784397	-0.060611334
200	0xbc90bc1b	-0.01766782
201	0xbd07da03	-0.033166897
202	0x3cbda230	0.023148626
203	0xbcfa023b	-0.030518642
204	0xbc6837e6	-0.0141734835
205	0xbd259ceb	-0.04043285
206	0xbdc5b136	-0.09652941
207	0x3da6ae12	0.0813867
208	0x3c1da825	0.009622608
209	0x3da7f494	0.082009465
210	0xbc91b8eb	-0.017788371
211	0xbce02f93	-0.027366435
212	0xbdcc5e01	-0.09978867
213	0xbd24ebcd	-0.04026394
214	0x3d8d0e5b	0.06887504
215	0xbdd3f3a1	-0.10349203
216	0xbd2dff47	-0.04247978
217	0x3d6f8abb	0.058481913
218	0x3d5c5573	0.05379243
219	0x3d12af5f	0.03581178
220	0xbcc489bb	-0.023991456
221	0xbc3aafe6	-0.0113944765
222	0xbca3fb58	-0.020017311
223	0xbd1f29a1	-0.03885806
224	0x3d342eba	0.043989874
225	0xbd14fc5a	-0.036373474
226	0xbd742510	-0.059605658
227	0x3cc07ba4	0.023496456
228	0xbd9d6917	-0.0768606
229	0xbcbe0a2b	-0.023198208
230	0x3d5a7968	0.05333844
231	0x3d215c2e	0.03939455
232	0x3db7c90b	0.08973893
233	0xbd933d32	-0.071894065
234	0xbc2d0f46	-0.0105627235
235	0xbd30c3f9	-0.043155644
236	0xbd981f72	-0.07427873
237	0xbd851796	-0.06498639
238	0x3cab395e	0.020901378
239	0x3b95c0f9	0.0045701233
240	0xbd5ded59	-0.05418143
241	0xbd98eee6	-0.07467441
242	0xbdb3a168	-0.0877102
243	0x3dd20512	0.10254873
244	0xbc96f5c7	-0.018427743
245	0xbcca7f29	-0.024718838
246	0xbd21b819	-0.03948221
247	0xbd5afee8	-0.053465754
248	0xbdc606a9	-0.09669239
249	0xbd7e2db4	-0.062055305
250	0x3d83984d	0.064255334
251	0x3cbbd63f	0.022929309
252	0xbd39742d	-0.04527681
253	0xbd450261	-0.04809797
254	0x3d6ab394	0.057300165
255	0x3d9768b8	0.073930204

embedding_net.conv2.bias f4 [20]
0	0x3c65db0c	0.014029276
1	0x3cdd9125	0.02704675
2	0x3d6f78ef	0.05846494
3	0x3d1dde51	0.038542096
4	0xbd968ac8	-0.07350689
5	0x3ccf6c37	0.025320156
6	0xbdbdff23	-0.09277179
7	0x3ccda845	0.025104651
8	0xbd5d8dee	-0.054090433
9	0xbb1965a5	-0.0023406532
10	0xbda2739c	-0.07932207
11	0x3d8b7216	0.068088695
12	0x3d0a0d2a	0.03370396
13	0x3d3d1ceb	0.046170156
14	0xbdba5887	-0.090989165
15	0x3d3d1554	0.04616292
16	0xbd9476eb	-0.07249244
17	0xbdca3f28	-0.09875327
18	0x3d187d91	0.037229124
19	0x3caf0650	0.021365315

embedding_net.fc1.weight f4 [70, 100]
0	0xbd0edeb7	-0.034880366
1	0xbdb32106	-0.08746533
2	0x3cd1b1c5	0.025597462
3	0xbd319ad4	-0.043360546
4	0xbda28b35	-0.07936708
5	0xbc4d88d9	-0.012544834
6	0xbdae7913	-0.08519187
7	0x3d4a844e	0.04944258
8	0xbd867533	-0.06565323
9	0xbd0aa3b2	-0.03384752
10	0xbdca35e5	-0.09873561
11	0xbc608a3f	-0.013704835
12	0xbcfb0a19	-0.030644463
13	0x3d632ba9	0.05546156
14	0xbcb7248b	-0.022356292
15	0x3d89dc36	0.06731455
16	0x3db2f853	0.0873877
17	0x3ca6a8d6	0.02034418
18	0xbd0c4457	-0.03424486
19	0xbda89d3b	-0.08233114
20	0xbd8f31a3	-0.06991889
21	0xbd09b847	-0.033623006
22	0xbd802861	-0.06257702
23	0x3d586bfb	0.052837353
24	0xbd045f8d	-0.032317687
25	0xbb6f307f	-0.0036497412
26	0x3b8808a6	0.0041514216
27	0xbdb11c1c	-0.086479396
28	0x3daacea6	0.08340196
29	0xbd1c7f7f	-0.038207527
30	0xbda5d508	-0.08097273
31	0xbad6cae2	-0.0016387368
32	0xbdb3fe27	-0.0878871
33	0x3c4a0f73	0.012332785
34	0xbd84da4d	-0.0648695
35	0xbcb49783	-0.022044903
36	0xbcf1c76d	-0.029514039
37	0x3d93b01f	0.07211327
38	0x3d9d198d	0.07670889
39	0x3dca6fb6	0.098845884
40	0x3c304861	0.010759444
41	0x3d81e15d	0.06341813
42	0xbda87b1f	-0.082266085
43	0xbd89bf1d	-0.06725905
44	0x3d5b2008	0.053497344
45	0x3cafbc3c	0.021452062
46	0x3cdcae2a	0.026938517
47	0x3d66ef2f	0.056380447
48	0x3d803afd	0.06261251
49	0x3d3cc828	0.04608932
50	0xbd1b28b2	-0.037880607
51	0xbd050437	-0.032474723
52	0x3ca84391	0.02054003
53	0x3da7116c	0.0815762
54	0xbc09f7d3	-0.008420902
55	0xbcfa68c7	-0.03056754
56	0x3d5f9b6e	0.05459159
57	0x3d877b67	0.06615334
58	0xbb07d4ef	-0.0020726284
59	0xbcf38fdd	-0.029731685
60	0xbdcc4167	-0.09973412
61	0x3bc7de60	0.006099507
62	0x3cf934b3	0.030420637
63	0xbd96bb1b	-0.07359906
64	0xbd98681f	-0.074417345
65	0xbdcd44c7	-0.10022884
66	0x3d9f60d8	0.07782143
67	0x3dbe55c5	0.09293703
68	0x3dc89af7	0.09795182
69	0x3db6218f	0.088931195
70	0xbc2f9da5	-0.010718738
71	0x3d34aa70	0.044107854
72	0x3d713082	0.05888415
73	0xbcdcb9f7	-0.026944144
74	0xbd6d08d2	-0.05786974
75	0x3daa5863	0.0831764
76	0xbc2eca4f	-0.010668351
77	0x3d1540b0	0.036438644
78	0xbd40c67e	-0.047064297
79	0xbd5479f5	-0.05187412
80	0xbc9945f3	-0.018710112
81	0x3b46ea48	0.0030352045
82	0x3d70c4ef	0.05878156
83	0x3d8516cd	0.064984895
84	0xbc4d5a67	-0.012533761
85	0x3dc8421c	0.09778234
86	0xbd5a8c3d	-0.053356398
87	0x3bd80d75	0.006593401
88	0xbd809260	-0.06277919
89	0x3c84fc10	0.016233474
90	0x3db991c8	0.09061009
91	0xbda98b61	-0.082785375
92	0x3cc07016	0.023490947
93	0xbdbc3934	-0.09190598
94	0xbcb73928	-0.022366121
95	0xbd409bc1	-0.04702354
96	0x3958500f	0.0002062919
97	0xbd8e386d	-0.06944356
98	0x3cd07830	0.025447935
99	0xbdc139b6	-0.094348356
100	0x3cb33f0f	0.021880655
101	0xbd1e83e0	-0.038699985
102	0xbd759cac	-0.059963867
103	0x3dac27ca	0.08406027
104	0x3c2a0523	0.010377201
105	0xbd87b0eb	-0.06625541
106	0xbd67b2ca	-0.05656699
107	0xbd37dab1	-0.044886295
108	0xbd73315b	-0.05937324
109	0x3c43c2e5	0.011948322
110	0x3a54ac62	0.0008112845
111	0x3db20731	0.08692778
112	0x3b23a1aa	0.0024968185
113	0xbd5b16d0	-0.053488553
114	0x3daeda9a	0.08537789
115	0x3ccef610	0.025263816
116	0xbcb058d1	-0.021526726
117	0x3d8efbd1	0.06981624
118	0x3da85d86	0.08220963
119	0xbdac7ff9	-0.08422846
120	0xbda8ddff	-0.082454674
121	0xbd86d2c2	-0.065831676
122	0xbdaff511	-0.085916646
123	0xbcf56955	-0.029957453
124	0x3d13e369	0.036105547
125	0xbdbad95e	-0.09123491
126	0xbdc7e66b	-0.097607456
127	0xbdafb978	-0.08580297
128	0xbd54b5e4	-0.051931277
129	0x3d808b59	0.062765785
130	0x3db4f7a0	0.08836293
131	0x3dca5958	0.09880322
132	0x3a8a6974	0.0010559992
133	0xbdad7b52	-0.08470787
134	0x3dc61b58	0.09673184
135	0xbd8a2666	-0.06745605
136	0x3d18b156	0.037278496
137	0x3d47e154	0.048798874
138	0x3cf984d7	0.03045885
139	0x3d04cbc5	0.032420892
140	0xbdbffb63	-0.0937412
141	0xbd0b65b8	-0.034032553
142	0xbd84ec61	-0.06490398
143	0x3d8c30c2	0.06845237
144	0xbd6adb86	-0.05733826
145	0xbb3647f2	-0.002781388
146	0x3db431ef	0.087985866
147	0x3d9a11b0	0.07522905
148	0xbd94a2c4	-0.072576076
149	0xbdac6837	-0.08418315
150	0x3da1ac2e	0.07894169
151	0x3ce6f22d	0.02819165
152	0xbd9e0fea	-0.07717879
153	0x3db03df1	0.086055644
154	0xbd95655e	-0.07294725
155	0x3daeeb95	0.085410275
156	0x3d91913c	0.071077794
157	0x3d8f2a34	0.069904715
158	0xbca2e9a2	-0.019886795
159	0x3c01b653	0.007917005
160	0xbdacef8d	-0.08444128
161	0x3d61c57d	0.05511998
162	0x3b9eb2ef	0.004843108
163	0x3d956a00	0.072956085
164	0xbd310767	-0.04321995
165	0x3dc2a632	0.095043555
166	0x3d86f887	0.065903716
167	0xbcea0188	-0.028565183
168	0x3cdaf645	0.026728759
169	0xbd966a26	-0.07344465
170	0xbd891335	-0.066931166
171	0xbd8d4b7b	-0.068991624
172	0xbd6d2b4c	-0.05790262
173	0x3ce342c6	0.027741801
174	0xbd32a241	-0.04361177
175	0xbd0d9a87	-0.034571197
176	0x3d8f0214	0.06982818
177	0x3c810acb	0.015752217
178	0xbd49ac46	-0.04923656
179	0xbce40001	-0.027832033
180	0xbcdd471a	-0.027011443
181	0x3d3abd9b	0.045590978
182	0x3d8e7e5c	0.06957695
183	0x3da0c74f	0.07850515
184	0xbd8c378a	-0.06846531
185	0xbc38fb0d	-0.011290324
186	0x3cbbcd77	0.022925122
187	0xbd20699a	-0.03916321
188	0x3d864c8d	0.0655757
189	0xbc335c44	-0.010947291
190	0x3c2e5f8f	0.0106429
191	0xbdaf2fa0	-0.085540056
192	0x3d93b48a	0.072121695
193	0xbd87fe26	-0.06640272
194	0xbb18495f	-0.0023237092
195	0xbda745b1	-0.081675895
196	0x3d9c3871	0.07627953
197	0x3bb8e703	0.005642773
198	0x3d37fcef	0.04491895
199	0xbda1602b	-0.07879671
200	0x3bfbc633	0.0076835393
201	0x3d23cc68	0.03998986
202	0x3d8e2926	0.06941442
203	0x3d9387e1	0.07203651
204	0xbc9c104d	-0.019050742
205	0xbc338a68	-0.010958292
206	0x3d051964	0.032494918
207	0xbd136a81	-0.035990242
208	0xbd282349	-0.041049276
209	0xbdbd2cfc	-0.09237096
210	0xbdc92f4d	-0.09823475
211	0xbd5947db	-0.053047042
212	0x3c434e9c	0.011920597
213	0x3bfccfd9	0.007715207
214	0x3bf026a8	0.007328827
215	0x3c614a4b	0.013750623
216	0xbca0c972	-0.019627307
217	0xbdcd2101	-0.100160606
218	0x3db2cbb9	0.08730263
219	0xbd988f44	-0.07449201
220	0xbb42cb5f	-0.002972327
221	0x3d1bfa11	0.03808028
222	0x3cc54728	0.024081782
223	0xbd399023	-0.045303475
224	0xbdb6783e	-0.08909653
225	0x3d9f6bec	0.07784256
226	0x39ecebdb	0.00045189154
227	0x3db4c293	0.088261746
228	0x3d34337c	0.04399441
229	0x3d244e49	0.04011372
230	0x3c9a82de	0.01886123
231	0xbcd02f60	-0.025413215
232	0xbd79222b	-0.0608236
233	0x3c22bbca	0.009932468
234	0x3dbda51c	0.09260008
235	0x3d6ea16d	0.058259416
236	0x3db8013f	0.08984613
237	0x3dbdfd67	0.09276848
238	0x3d9d6efd	0.07687185
239	0xbd6a6189	-0.057221923
240	0xbd63c61c	-0.055608854
241	0xbba4a910	-0.0050250366
242	0xbd584ec1	-0.05280948
243	0xbce87760	-0.028377235
244	0xbd10e956	-0.035378776
245	0x3db19912	0.08671774
246	0xbbfbf471	-0.007689052
247	0x3dc4a7f8	0.0960235
248	0xbd9f4d25	-0.07778386
249	0xbdcc2377	-0.09967702
250	0x3c65e253	0.014031011
251	0x3c9da4f3	0.019243693
252	0xbd288a3b	-0.04114745
253	0xbd5123ce	-0.051059537
254	0x3ce517d6	0.027965467
255	0x3b9875e8	0.0046527274

embedding_net.fc1.bias f4 [70]
0	0xbcd58c72	-0.026067946
1	0x3c956d7f	0.018240688
2	0x3d0c5116	0.034257017
3	0x3d9f8b8d	0.07790289
4	0xbd9ed71f	-0.07755875
5	0x3dca4b36	0.098776266
6	0x3d227924	0.03966631
7	0xbb9f0eb4	-0.0048540477
8	0xbdc49153	-0.09598031
9	0x3c957412	0.018243823
10	0x3bdcfea3	0.0067442222
11	0xbd4dd0a1	-0.050247792
12	0xbd5ad2ae	-0.053423576
13	0xbda1eff1	-0.07907093
14	0xbba275a4	-0.0049578715
15	0x3adce1de	0.0016851982
16	0x3d908f89	0.07058627
17	0x3d0fa90f	0.035073336
18	0xbd03a9c4	-0.032144323
19	0x3d1647ee	0.03668969
20	0x3d4a440d	0.049381305
21	0x3d1be715	0.038062174
22	0xbb1fd88b	-0.0024390544
23	0x3da59eb8	0.08086914
24	0xbd87de8b	-0.066342436
25	0x3d088bd7	0.033336487
26	0x3c5ad809	0.013357171
27	0x3d8825c8	0.06647831
28	0xbcce711e	-0.025200423
29	0xbdbe21ab	-0.092837654
30	0xbcb6032a	-0.022218306
31	0xbc3f2eb9	-0.011668854
32	0x3c20f641	0.0098243365
33	0xbdc6d386	-0.09708314
34	0xbd8d5f32	-0.06902923
35	0x3d054ac9	0.032542024
36	0x3d9d5210	0.07681668
37	0x3b92e991	0.0044834097
38	0xbb957907	-0.0045615467
39	0x3d910de1	0.07082725
40	0xbdbd699f	-0.09248661
41	0xbc7891bd	-0.015171465
42	0x3d692ad3	0.056925606
43	0x3dba8c9f	0.091088526
44	0xbcf583af	-0.029970018
45	0x3cb75ea3	0.022383993
46	0xbda86e95	-0.08224217
47	0x3a9c4064	0.0011921045
48	0x3d2fdf41	0.04293752
49	0x3c1d819a	0.009613419
50	0xbd1c057e	-0.038091175
51	0xbdc9894b	-0.0984064
52	0xbb8ccfe1	-0.004297242
53	0xbda3377b	-0.079695664
54	0xbbba9815	-0.005694399
55	0xbdaa67cc	-0.08320579
56	0x3d14230f	0.036166247
57	0xbdb8f9a6	-0.09031992
58	0x3b2f5485	0.0026753258
59	0x3d11bd7b	0.035581093
60	0x3d5039ca	0.050836362
61	0x3da8f519	0.08249874
62	0xbabd1561	-0.0014425927
63	0x3d34704a	0.0440524
64	0xbca6a8ec	-0.02034422
65	0x3d949468	0.07254869
66	0x3d460636	0.048345767
67	0xbd2edb8d	-0.04268985
68	0x3ce7444e	0.028230812
69	0xbcf11971	-0.029431077

embedding_net.fc2.weight f4 [40, 70]
0	0x3d6d0824	0.05786909
1	0x3ddb3737	0.10703891
2	0xbdea2536	-0.11432879
3	0xbda2df1c	-0.07952711
4	0xbdd6b42e	-0.10483585
5	0xbdb45314	-0.088049084
6	0x3da6b1e4	0.08139399
7	0x3d5e50e6	0.05427637
8	0xbd92e5ca	-0.07172735
9	0x3d29a475	0.041416604
10	0x3dbf5855	0.0934302
11	0xbd9fcb7f	-0.07802486
12	0x3d4edc65	0.050503153
13	0xbd60ed3f	-0.054913756
14	0x3cc3d3c8	0.023904696
15	0xbddad7f8	-0.10685724
16	0xbd5f6da7	-0.054547932
17	0x3cd7a725	0.026324818
18	0xbdb51879	-0.088425584
19	0xbd6abd3b	-0.05730937
20	0x3d75cedc	0.06001173
21	0xbd85f7ca	-0.06541403
22	0x3dba84b8	0.09107345
23	0x3cf6fb46	0.030149113
24	0x3d410dc5	0.047132272
25	0x3d5d55b8	0.054036826
26	0xbd26fff6	-0.040771447
27	0xbdc71748	-0.097212374
28	0xbdc91977	-0.0981931
29	0xbdc5a473	-0.09650507
30	0xbd6c7e1d	-0.05773746
31	0x3d10c47e	0.03534364
32	0xbdb87bc6	-0.09007983
33	0xbda58378	-0.08081716
34	0x3d250c0b	0.04029469
35	0xbcaa3e95	-0.020781795
36	0x3d5c2c25	0.053753037
37	0x3ca28627	0.01983936
38	0xbb0594fe	-0.0020382996
39	0xbdc597e8	-0.096481144
40	0x3d3c206b	0.045929354
41	0x3d069cf0	0.03286451
42	0xbd832d44	-0.06405118
43	0x3d11fc71	0.035641138
44	0x3dc6eec3	0.09713509
45	0x3b75ab49	0.0037486127
46	0x3c90d002	0.01767731
47	0xbb3989de	-0.0028310935
48	0x3cbf9b28	0.023389414
49	0xbd8635ff	-0.06553268
50	0x3d066dda	0.032819606
51	0xbda0f99c	-0.07860109
52	0xbdbc5d86	-0.09197526
53	0x3dd0a34b	0.10187396
54	0x3db78d51	0.08962501
55	0x3de36240	0.11102724
56	0xbd8f218f	-0.06988823
57	0x3dd2c04e	0.102905855
58	0xbdcf5176	-0.10122959
59	0xbd7aa15b	-0.061189037
60	0x3cae77ed	0.02129742
61	0x3d90fc33	0.07079353
62	0xbdee449b	-0.11634179
63	0x3db0990f	0.086229436
64	0x3c401db5	0.011725833
65	0x3d30cc03	0.04316331
66	0xbb74300b	-0.003726008
67	0x3dea3c37	0.11437266
68	0x3b6349dd	0.0034681477
69	0x3c780802	0.015138628
70	0xbd20e114	-0.03927715
71	0xbd7d09e9	-0.06177703
72	0x3da435e3	0.080180906
73	0xbd155302	-0.036456116
74	0xbcf24763	-0.029575055
75	0x3d155169	0.036454592
76	0xbdd0be49	-0.10192544
77	0x3d7bbbb0	0.06145829
78	0x3da1a1e4	0.07892206
79	0x3dcccb8c	0.09999761
80	0x3bb7a1e2	0.0056040147
81	0xbd8ddd53	-0.0692698
82	0x3daf6ec4	0.08566049
83	0x3d918fd1	0.07107509
84	0x3de5eeb3	0.11227169
85	0xbdc375ba	-0.09543939
86	0xbd8d5dcf	-0.06902658
87	0xbde3b0bc	-0.11117694
88	0xbdaa41eb	-0.08313354
89	0x3dc6a33e	0.09699105
90	0xbde80839	-0.11329693
91	0x3d479bca	0.048732556
92	0xbca08881	-0.01959634
93	0x3ddeffe3	0.1088865
94	0x3deaed5a	0.114710525
95	0x3ce6df63	0.028182691
96	0xbd37e48a	-0.044895686
97	0x3d871870	0.06596458
98	0x3d6ed134	0.05830498
99	0xbd0f216b	-0.03494398
100	0xbdd2d3ce	-0.10294305
101	0x3c7c5bc7	0.015402741
102	0xbd1d12f3	-0.03834815
103	0xbd803fba	-0.06262155
104	0x3c9358a3	0.017986601
105	0x3db6a460	0.08918071
106	0xbde611fe	-0.112339005
107	0x3d876fad	0.06613097
108	0xbc6142fd	-0.013748881
109	0xbc01ec38	-0.007929854
110	0x3de06826	0.10957365
111	0x3b969e8f	0.0045965384
112	0xbd539785	-0.051658172
113	0xbce5718e	-0.028008249
114	0xbce448be	-0.027866717
115	0xbdb483aa	-0.088141754
116	0xbdacce25	-0.084377564
117	0x3d4e36d6	0.050345264
118	0xbdd057c8	-0.10172993
119	0xbcf1ed50	-0.029532105
120	0x3daad762	0.08341862
121	0xbc30f5a6	-0.010800755
122	0xbd08c328	-0.03338924
123	0xbd19b57d	-0.037526596
124	0xbceb9d19	-0.028761433
125	0xbdaef7c3	-0.085433505
126	0xbdd9b463	-0.10630109
127	0xbc708edb	-0.014682497
128	0x3cca4d0d	0.024694944
129	0x3da9ab3c	0.082846135
130	0xbc506cc7	-0.012721247
131	0xbd9afb61	-0.07567478
132	0x3d5a2541	0.053258184
133	0xbde2dfb9	-0.11077828
134	0x3cf1a5fe	0.029498097
135	0x3d8124b6	0.0630583
136	0xbc8ef58e	-0.017451074
137	0x3d7f7a2d	0.062372375
138	0xbdcd4492	-0.100228444
139	0xbd3de5e5	-0.046361823
140	0x3d6812eb	0.056658667
141	0x3deb4ffd	0.11489866
142	0x3dae3239	0.08505673
143	0x3cd8a44a	0.026445527
144	0xbdd68501	-0.10474587
145	0xbd09906a	-0.03358499
146	0xbdc13f7b	-0.09435936
147	0xbdb2f33c	-0.087377995
148	0xbd2ec126	-0.04266467
149	0xbd0e2725	-0.0347053
150	0x3dcaa886	0.098954245
151	0xbdd4a1a3	-0.10382392
152	0x3d9752dc	0.07388851
153	0x3d3a4f28	0.045485646
154	0xbdaa001d	-0.08300803
155	0xbc7291b1	-0.014805243
156	0xbda865c6	-0.08222537
157	0x3c95c8f9	0.018284308
158	0x3d03dec0	0.032194853
159	0xbd8290a4	-0.06375244
160	0x3db7d240	0.08975649
161	0xbd8cc995	-0.06874386
162	0xbca2b4ac	-0.019861542
163	0xbbfcb68c	-0.007712191
164	0xbdaa3299	-0.08310432
165	0xbcc594d3	-0.024118816
166	0xbd99d727	-0.0751174
167	0x3ba08ae5	0.00489937
168	0x3c0abb7d	0.008467552
169	0xbddaca9c	-0.10683176
170	0x3dc399bf	0.09550809
171	0x3bcaca2e	0.0061886525
172	0x3de39ba9	0.11113674
173	0x3c515e5b	0.012778844
174	0xbd4726fe	-0.04862117
175	0xbd3b7c43	-0.045772802
176	0xbc9a07c8	-0.018802539
177	0xbcd2ffd4	-0.025756754
178	0x3cef00bb	0.029175153
179	0xbcc1b1fb	-0.023644438
180	0xbd7a452f	-0.061101135
181	0x3d25b95f	0.040459987
182	0x3de9a35b	0.11408111
183	0xbcac3e89	-0.021025913
184	0x3d1af66a	0.037832655
185	0xbdaa994c	-0.0833002
186	0xbda1835f	-0.07886385
187	0xbdf3249c	-0.11872217
188	0xbd7c6657	-0.061621036
189	0x3d789e72	0.06069798
190	0x3dd41aaa	0.10356648
191	0x3df05b2e	0.11736141
192	0x3c58f598	0.013242148
193	0xbd78f86d	-0.060783792
194	0xbbf697c4	-0.007525416
195	0x3d421c1d	0.047390092
196	0x3d7806cf	0.06055337
197	0xbcef3b57	-0.0292031
198	0xbcaa0647	-0.020754946
199	0xbdd82e80	-0.10555744
200	0x3d1d7afd	0.03844737
201	0x3c3c2dc8	0.0114855245
202	0xbdab5559	-0.08365888
203	0x3c74080c	0.014894497
204	0x3ca10402	0.019655231
205	0xbdb242db	-0.08704158
206	0x3de529f8	0.111896455
207	0xbd8847f0	-0.06654346
208	0x3d612fa3	0.05497707
209	0xbd1f1b03	-0.03884412
210	0xbd98b9fc	-0.07457349
211	0xbd17a026	-0.037017964
212	0xbb3728ed	-0.0027947978
213	0xbcebd75f	-0.02878922
214	0x3d80ba95	0.06285588
215	0xbde359bd	-0.111011006
216	0xbd912f69	-0.07089121
217	0xbcdbdf69	-0.026839929
218	0xbdbcdf78	-0.09222311
219	0xbd7a3653	-0.061086964
220	0xbdd6a0d7	-0.104798965
221	0x3d7061ca	0.05868701
222	0xbd740c10	-0.059581816
223	0x3d8ecaf8	0.06972307
224	0x3dd168ee	0.10225092
225	0xbd9fa6b7	-0.0779547
226	0x3db8ab02	0.09016992
227	0xbc473a6f	-0.012159928
228	0x3dec0ee2	0.11526276
229	0x3d3f199b	0.04665528
230	0x3d740de7	0.05958357
231	0xbcd9c06b	-0.02658101
232	0x3cdf4600	0.027255058
233	0xbc4f30d9	-0.0126459235
234	0x3d0d038c	0.03442721
235	0x3c8eef9a	0.017448235
236	0xbdb239de	-0.087024435
237	0x3dd340e3	0.103151105
238	0xbdba0faa	-0.09085019
239	0x3ddd8856	0.1081702
240	0xbda4d0ac	-0.080476135
241	0x3cd268b4	0.025684692
242	0x3db0b58d	0.08628378
243	0xbdc49c39	-0.096001096
244	0xbd8cdc42	-0.06877948
245	0x3dc5dbd2	0.09661068
246	0xbd994926	-0.07484655
247	0x3d949247	0.07254463
248	0x3d94b78a	0.0726157
249	0xbdab44a9	-0.08362705
250	0xbd94f827	-0.07273894
251	0xbde483d3	-0.11157956
252	0xbd175cc7	-0.036953714
253	0xbd549caf	-0.051907238
254	0x3d950a88	0.07277399
255	0xbdbf5aa0	-0.09343457

embedding_net.fc2.bias f4 [40]
0	0x3cac4936	0.021031003
1	0x3cb4df7c	0.022079222
2	0x3d38d10a	0.04512123
3	0x3d537c80	0.051632404
4	0xbbc4a008	-0.0060005225
5	0x3d0375b9	0.03209469
6	0x3c35ed5d	0.011103955
7	0x3c145484	0.009053353
8	0x3ca39c12	0.019971881
9	0x3d7363f2	0.059421487
10	0xbd0567d3	-0.032569718
11	0xbd111f1b	-0.035430055
12	0x3cef498e	0.029209878
13	0x3d60bfe3	0.054870497
14	0x3bd999ba	0.00664064
15	0xbd0215d6	-0.031759106
16	0xbd5f17c7	-0.054466035
17	0xbb1928f3	-0.0023370355
18	0x3cfebbbf	0.031095384
19	0xbcdeca14	-0.027195968
20	0xbce3918d	-0.027779365
21	0x3d210459	0.039310787
22	0x3b9206c0	0.004456371
23	0x3a54470c	0.0008097745
24	0x3cd24681	0.025668385
25	0x3d31cf4f	0.043410596
26	0xbd36823f	-0.044557806
27	0x3cc8347d	0.02443909
28	0x3d14041e	0.03613674
29	0xbccc4ca6	-0.024938893
30	0xbba02df8	-0.0048882924
31	0x3d1698a5	0.036766667
32	0xbc8f34f7	-0.01748131
33	0x3d06722c	0.032823727
34	0xbd4306d2	-0.047613926
35	0x3c3af28a	0.011410365
36	0x3d13ae14	0.036054686
37	0xbd1d0183	-0.03833152
38	0xbce438b2	-0.027859066
39	0x3ca88536	0.020571332
